save/exp27/it27_model.pt (torch, 48231 bytes, 7 tensors)

sigma f4 [2]
0.3152343 -2.4327176
00000000: 6466 a13e a5b1 1bc0

mean.0.weight f4 [100, 10]
-0.5208918 0.42626667 -0.36724475 0.49455655 -0.21130277 0.17744942 0.030062376 0.07241193
0.005343532 0.0803058 -0.18955044 -0.31079748 -0.11304923 0.12441878 -0.041833416 0.12840967
-0.069441065 0.23588091 0.17546353 0.14574236 -0.17127861 -0.1660605 -0.067688406 -0.20211124
0.26245332 -0.09685375 0.2618969 0.27411437 0.1522423 -0.09170139 -0.3440284 0.18568623
-0.16056181 -0.32116303 0.103177145 -0.15512432 -0.11681298 0.07717595 -0.23572317 -0.27026522
0.023559235 -0.043510105 0.044509333 -0.1981365 -0.032699108 -0.11133713 -0.12521316 -0.21224938
0.068982065 0.02637968 -0.15005726 0.22360973 0.06540143 0.07543804 -0.11536691 0.08850258
0.1396392 0.17569822 -0.094935 0.26752108 0.08609287 0.20512994 0.3215844 -0.08310538
-0.40028647 0.13674502 -0.15558961 0.05052894 -0.24912861 -0.07207161 -0.16114172 -0.053283524
-0.20741527 -0.014568397 0.02408524 0.029107448 0.2495369 0.017346725 0.05320433 -0.11675837
0.21504794 0.101924405 -0.25434372 -0.25528422 0.11075007 -0.10472072 -0.022959493 -0.15101266
0.023220347 0.08954136 -0.105545565 0.19262531 0.16689266 -0.21606205 -0.17669229 -0.21278493
-0.10344279 -0.13266557 -0.037264377 -0.06338171 -0.17269242 -0.007381059 -0.08887731 0.164653
-0.18266529 -0.18908587 0.0033851191 -0.16546652 0.07946689 0.17337482 0.0620143 -0.42637724
0.302686 0.10477644 -0.2584567 0.25695753 0.0014949269 0.13682136 0.20906219 -0.00425379
-0.49550197 0.3850189 0.27461097 -0.32071316 0.01461888 -0.2613479 -0.023392752 0.36386055
-0.29970416 -0.040055122 0.1590761 0.09657133 0.1658629 0.13052793 0.2005968 -0.06543236
0.0806098 -0.016784603 0.054761987 0.28113103 -0.24918173 -0.11675775 0.12704958 0.041138176
0.237103 -0.045574676 -0.24129729 0.023172345 -0.111979485 -0.027198471 -0.05986317 -0.21174864
-0.05808052 -0.071009375 -0.1075363 0.14607944 -0.08920544 0.10615265 0.051336017 -0.20417336
0.049261678 0.3805213 -0.19466098 -0.13935754 0.34357214 0.38125658 -0.12421146 0.16762617
0.120795555 -0.3199916 -0.0076438906 0.10293402 -0.29393232 0.12355504 -0.220433 0.12455295
0.053708773 0.05120492 0.10984841 0.18839969 -0.6353054 -1.1752064 0.19594352 -0.26023075
-0.5814876 0.14617555 0.6673654 -0.36855936 0.79703194 0.9114647 0.31112462 0.36946627
0.27228278 -0.059574433 0.16399828 0.22620887 -0.123054214 -0.2913352 0.08488878 -0.13784283
-0.17563231 -0.16334108 0.09171381 -0.0006933174 -0.15450597 0.26416725 0.23152475 -0.25036728
0.04370446 0.07180619 0.09811214 0.21699558 -0.26032066 -0.19880582 0.22570123 -0.102884494
0.02287516 0.011104915 -0.43760818 0.07122162 -0.08005321 0.021768587 0.013762976 0.17059982
-0.16393495 -0.08816017 0.22639619 0.22078891 -0.36219198 0.23547207 -0.3561115 -0.07832591
0.114039116 0.27252385 -0.12909986 0.24525145 0.15208839 0.13547587 0.17599785 -0.21422713
0.17290671 -0.06061042 -0.06583861 0.2554902 0.047685545 -0.19804044 0.05794176 0.16568102
-0.24462023 -0.10849087 0.05467343 -0.020536505 0.11839103 0.060352493 0.24206442 0.06981576
00000000: 2a59 05bf a03f da3e 8107 bcbe 8436 fd3e
00000010: c15f 58be 4db5 353e 5f45 f63c b54c 943d
00000020: cc18 af3b 5e77 a43d 8319 42be d920 9fbe
00000030: 5b86 e7bd 46cf fe3d 8459 2bbd d37d 033e
00000040: 1e37 8ebd c48a 713e b6ac 333e 7c3d 153e
00000050: a963 2fbe c40b 2abe 38a0 8abd 40f6 4ebe
00000060: 4860 863e 425b c6bd 5a17 863e b858 8c3e
00000070: 68e5 1b3e f0cd bbbd 7e24 b0be 8824 3e3e
00000080: 516a 24be 7b6f a4be 8a4e d33d e9d8 1ebe
00000090: a53b efbd 6d0e 9e3d 6a61 71be 3460 8abe
000000a0: 4cff c03c a737 32bd 6b4f 363d 4be4 4abe
000000b0: 80ef 05bd b904 e4bd e137 00be e757 59be
000000c0: 7846 8d3d 331a d83c 9ca8 19be f3f9 643e
000000d0: 2ff1 853d 427f 9a3d 7d45 ecbd d740 b53d
000000e0: 94fd 0e3e 3cea 333e 486d c2bd 86f8 883e
000000f0: 7551 b03d 950d 523e b6a6 a43e 2733 aabd
00000100: 59f2 ccbe e306 0c3e e252 1fbe 6ff7 4e3d
00000110: 921b 7fbe 489a 93bd 5602 25be d33f 5abd
00000120: ab64 54be 49b0 6ebc 694e c53c be72 ee3c
00000130: 9a86 7f3e b81a 8e3c c9ec 593d 031f efbd
00000140: 8735 5c3e bebd d03d 5739 82be 9db4 82be
00000150: efd0 e23d d177 d6bd 8c15 bcbc 10a3 1abe
00000160: 9938 be3c 7661 b73d 4628 d8bd 923f 453e
00000170: e9e5 2a3e 5f3f 5dbe d3ee 34be 4be4 59be
00000180: d0d9 d3bd 7cd9 07be 88a2 18bd 45ce 81bd
00000190: 48d6 30be d0dc f1bb 4f05 b6bd cc9a 283e
000001a0: 9c0c 3bbe ba9f 41be e0d8 5d3b 0e70 29be
000001b0: 89bf a23d 2b89 313e b502 7e3d 1e4e dabe
000001c0: a9f9 9a3e 0895 d63d 7054 84be f08f 833e
000001d0: 6cf1 c33a e61a 0c3e 6614 563e 6063 8bbb
000001e0: 6fb2 fdbe 3221 c53e cf99 8c3e 8434 a4be
000001f0: 0784 6f3c 64cf 85be 28a2 bfbc ee4b ba3e
00000200: d372 99be d710 24bd d8e4 223e 31c7 c53d
00000210: f7d7 293e 1da9 053e 3f69 4d3e 6701 86bd
00000220: c016 a53d dd7f 89bc 1b4e 603d 68f0 8f3e
00000230: 7f29 7fbe b01e efbd 4919 023e 8180 283d
00000240: 21cb 723e 83ac 3abd a316 77be eed3 bd3c
00000250: 8055 e5bd 54cf debc 1533 75bd a3d4 58be
00000260: d7e5 6dbd 5d6d 91bd fe3b dcbd d995 153e
00000270: 57b1 b6bd 9066 d93d b745 523d d212 51be
00000280: 9dc6 493d b0d3 c23e 3555 47be beb3 0ebe
00000290: b0e8 af3e 1034 c33e 9462 febd 32a6 2b3e
000002a0: a963 f73d f0d5 a3be 9a79 fabb 12cf d23d
000002b0: 4c7e 96be 6d0a fd3d 30b9 61be 9e15 ff3d
000002c0: bbfd 5b3d 40bc 513d 34f8 e03d d9eb 403e
000002d0: 60a3 22bf 2a6d 96bf 6ba5 483e f73c 85be
000002e0: 5fdc 14bf 0baf 153e 75d8 2a3f d0b3 bcbe
000002f0: 490a 4c3f c055 693f ba4b 9f3e af2a bd3e
00000300: a668 8b3e 5204 74bd 2aef 273e 4ca3 673e
00000310: d903 fcbd e329 95be 2bda ad3d ac26 0dbe
00000320: f5d8 33be e242 27be 73d4 bb3d bebf 35ba
00000330: d036 1ebe ee40 873e d314 6d3e 2430 80be
00000340: 7303 333d 200f 933d 05ef c83d 1734 5e3e
00000350: c048 85be c193 4bbe 391e 673e 1bb5 d2bd
00000360: b064 bb3c 64f1 353c 2e0e e0be a4dc 913d
00000370: f0f2 a3bd 0954 b23c 1b7e 613c b8b1 2e3e
00000380: 90de 27be 528d b4bd 67d4 673e 7d16 623e
00000390: 3a71 b9be 971f 713e 3f54 b6be 5669 a0bd
000003a0: 578d e93d 3f88 8b3e c132 04be 3223 7b3e
000003b0: 0fbd 1b3e 30ba 0a3e c838 343e 5b5e 5bbe
000003c0: 750e 313e a242 78bd 65d6 86bd 9dcf 823e
000003d0: eb51 433d 1dcb 4abe 5754 6d3d 49a8 293e
000003e0: ba7d 7abe 7630 debd 3ff1 5f3d 2c3c a8bc
000003f0: ff76 f23d 2d34 773d bcdf 773e 91fb 8e3d

mean.0.bias f4 [100]
-0.08952828 -0.016669972 0.0012841411 -0.15702555 -0.07377407 -0.012529801 0.034315582 -0.2580829
0.06307812 0.000830683 -0.38321322 -0.18051776 0.33514908 -0.07220522 0.16025501 -0.11801433
-0.23131306 -0.12946513 0.31161493 -0.20565607 -0.038065836 -0.33132914 0.16511704 0.07397287
0.004422929 -0.05692868 -0.035832204 -0.065584935 -0.29418468 0.0064351014 -0.004564152 -0.058032837
-0.10523719 -0.25054592 -0.032540724 -0.047684573 -0.19251414 0.039721243 -0.054922257 -0.06925235
0.25685656 -0.13218339 -0.124977 0.034696255 -0.03376917 -0.025833767 0.058401134 0.024882132
-0.16373347 0.14027981 -0.07088677 -0.099715844 0.0011440533 -0.003970966 -0.11375586 -0.044237748
0.05891012 -0.1129736 -0.08881784 -0.023494752 -0.118797496 -0.17851275 0.2614297 -0.018223537
-0.040035106 -0.23242234 -0.08935479 0.31576768 -0.061127275 -0.044018865 -0.11063247 -0.0026938613
-0.00032468105 0.042415712 -0.0008538204 -0.40072027 -0.02448765 -0.19508162 0.088103645 -0.059863154
-0.09233333 -0.0584657 -0.04613672 -0.10683782 -0.23834811 0.088076286 -0.08175363 -0.027383728
0.3542995 0.11595492 0.30636477 -0.0025128555 0.22012162 0.044135306 -0.023934485 -0.010583647
-0.0021243952 -0.08033128 -0.027955329 0.022392113
00000000: 9a5a b7bd 778f 88bc a050 a83a 4ecb 20be
00000010: dc16 97bd cb49 4dbc 7f8e 0c3d 7123 84be
00000020: 1a2f 813d 31c2 593a 8634 c4be a6d9 38be
00000030: a998 ab3e 55e0 93bd e419 243e 7fb1 f1bd
00000040: 55dd 6cbe 8292 04be fe8b 9f3e 8197 52be
00000050: ecea 1bbd f9a3 a9be 7114 293e 177f 973d
00000060: 38ee 903b 0c2e 69bd cac4 12bd 6551 86bd
00000070: 609f 96be 8bdd d23b e28e 95bb d7b3 6dbd
00000080: 9986 d7bd 8e47 80be 6c49 05bd e650 43bd
00000090: 6d22 45be beb2 223d 29f6 60bd 2dd4 8dbd
000000a0: b482 833e 155b 07be f1f3 ffbd a91d 0e3d
000000b0: 8b51 0abd 56a1 d3bc 0736 6f3d 9dd5 cb3c
000000c0: bfa9 27be 83a5 0f3e 152d 91bd d237 ccbd
000000d0: 0ff4 953a e11e 82bb d5f8 e8bd a432 35bd
000000e0: bd4b 713d b45e e7bd 21e6 b5bd 1178 c0bc
000000f0: 1a4c f3bd 0ccc 36be 1dda 853e 8749 95bc
00000100: dafb 23bd 1f00 6ebe a5ff b6bd 4dac a13e
00000110: 9860 7abd 204d 34bd 4793 e2bd 7e8b 30bb
00000120: f439 aab9 19bc 2d3d ebd2 5fba 352b cdbe
00000130: 539a c8bc 7ac3 47be af6f b43d 1133 75bd
00000140: 4219 bdbd bb79 6fbd dbf9 3cbd c9cd dabd
00000150: 8711 74be 5761 b43d 726e a7bd d753 e0bc
00000160: be66 b53e c679 ed3d d8db 9c3e b8ae 24bb
00000170: 9067 613e 39c7 343d 4112 c4bc 0867 2dbc
00000180: 7039 0bbb ba84 a4bd 9302 e5bc aa6f b73c

mean.2.weight f4 [100, 100]
-0.093951866 -0.11891601 -0.1793341 0.10198483 0.076801956 -0.047337696 0.13945347 -0.12394307
-0.027893636 -0.0051483414 0.066206284 0.14299604 -0.10799122 0.1691322 0.16490039 0.045043316
-0.11550731 0.051239677 0.039574336 -0.059001926 0.16723044 -0.14281413 -0.062096313 -0.0659978
-0.047501266 0.1266392 -0.009219586 0.014493129 -0.15602043 -0.11768211 0.10879812 -0.053005148
0.061972745 -0.13497603 -0.09835157 0.08343407 0.12211451 0.00592177 -0.16459508 -0.108970284
-0.066931315 0.072616085 -0.14084904 -0.11089569 -0.17515631 -0.12213651 0.12279309 -0.071850665
-0.04736058 0.008522099 -0.034336716 -0.059167486 -0.003281061 -0.08931514 0.107350595 -0.006967345
0.07393974 0.01800505 0.122323714 0.08468206 -0.08689178 -0.04417101 0.038095213 -0.060467854
-0.1282481 0.1419186 0.116267614 -0.08735398 0.039971773 0.12165886 -0.10648972 -0.03042105
-0.14495116 -0.1587644 0.12822285 0.06123516 -0.114725694 -0.012902853 -0.080338284 -0.036354303
-0.03766847 0.054959644 0.026160786 -0.11891304 0.0893016 0.012642345 -0.090004906 -0.10006051
0.0010930421 0.059343364 -0.15809025 -0.040203903 -0.128233 -0.16256472 0.08743967 -0.060351856
-0.15955117 -0.054523848 -0.09516298 0.09246588 -0.04033991 -0.08724556 -0.050158188 -0.041474137
0.13377708 0.01426193 -0.13930482 -0.038702264 0.14889956 -0.15456909 -0.058747057 0.16001429
-0.08456756 0.15058848 -0.124331556 0.13404246 0.13273296 -0.03132233 -0.0919659 -0.03850938
0.05170833 -0.06123539 -0.14280951 -0.1394162 0.08843422 0.14066882 -0.070746675 0.016336963
-0.11484816 0.09218461 -0.11382067 -0.098672055 -0.07013762 -0.015748478 0.020422792 -0.14472342
-0.071916975 -0.075956434 -0.026142381 -0.010038572 0.0017803033 0.112337336 -0.097805634 -0.0032074403
0.15971486 0.024721604 -0.121814206 0.12437388 -0.1454243 0.06897166 0.15326196 0.03121891
0.09811673 0.13886113 0.070868306 -0.06305775 0.039030675 0.13884117 0.03953279 -0.12593955
0.16217864 0.18597934 0.09976305 0.091874376 0.11291842 -0.09321825 -0.05283289 0.05699751
0.044313334 0.0534694 -0.004026803 -0.17751572 0.074192986 -0.093285255 -0.14244436 0.17785317
0.085344546 0.0919288 -0.08171915 0.06010507 0.020504298 0.11924564 0.025709167 0.15864432
-0.019316262 0.15652539 0.18259957 0.024907593 -0.13241734 -0.016036322 0.13486451 -0.12319852
-0.05792246 0.056359943 0.053125586 0.15210365 0.035091907 -0.0035840417 0.06326899 -0.030459812
-0.1593836 -0.042686976 -0.156244 0.12929454 0.010538352 0.005478865 0.0034190288 -0.085259974
-0.11893105 -0.030539943 0.047704007 -0.09812581 -0.08719561 0.12089842 -0.06373972 0.09215843
0.1871044 0.15200986 -0.08608131 0.049376797 -0.13652572 0.023843342 0.02550389 -0.09887393
0.05650603 -0.061991684 0.08951989 -0.0002664969 0.09309998 0.09592387 0.038677186 0.030527003
-0.07809056 -0.11286425 0.117542386 0.11198816 0.024375016 0.13485542 0.076856606 0.11092684
-0.010564838 0.014898813 -0.1372456 -0.16433603 0.0647234 -0.10937894 0.12151473 -0.1374474
-0.1378782 -0.1594662 0.12286827 -0.09292322 -0.15387449 0.07845643 -0.03778808 -0.16928649
00000000: d669 c0bd 3d8a f3bd 5ca3 37be 6cdd d03d
00000010: 584a 9d3d 2ce5 41bd e4cc 0e3e ddd5 fdbd
00000020: 3281 e4bc 6bb3 a8bb 2997 873d 8e6d 123e
00000030: 802a ddbd fe30 2d3e a6db 283e 577f 383d
00000040: 198f ecbd b2e0 513d b318 223d 01ac 71bd
00000050: 753e 2b3e de3d 12be b458 7ebd db29 87bd
00000060: b090 42bd b5ad 013e bf0d 17bc 9774 6d3c
00000070: d2c3 1fbe 5103 f1bd 8cd1 de3d ed1b 59bd
00000080: 22d7 7d3d 2837 0abe 8c6c c9bd 7bdf aa3d
00000090: 2c17 fa3d 680b c23b 9d8b 28be d02b dfbd
000000a0: 4913 89bd beb7 943d bb3a 10be 481d e3bd
000000b0: 2d5c 33be b522 fabd f27a fb3d 7126 93bd
000000c0: 2bfd 41bd 46a0 0b3c a8a4 0cbd 9b59 72bd
000000d0: 1207 57bb dbea b6bd a1da db3d 534e e4bb
000000e0: b86d 973d 547f 933c db84 fa3d ca6d ad3d
000000f0: 51f4 b1bd a9ec 34bd ba09 1c3d 24ad 77bd
00000100: 7853 03be 1c53 113e b71d ee3d a5e6 b2bd
00000110: 71b9 233d 4828 f93d 4817 dabd 9135 f9bc
00000120: 146e 14be 2393 22be da4c 033e b8d1 7a3d
00000130: 4ef5 eabd 7d66 53bc 6688 a4bd 40e8 14bd
00000140: 414a 1abd 5d1d 613d 254f d63c ae88 f3bd
00000150: c2e3 b63d d721 4f3c 7e54 b8bd 86ec ccbd
00000160: 6844 8f3a 0712 733d 69e2 21be d9ac 24bd
00000170: 834f 03be 5e77 26be 9213 b33d 8233 77bd
00000180: 6261 23be 6654 5fbd cfe4 c2bd c05e bd3d
00000190: 763b 25bd cdad b2bd ac72 4dbd c9e0 29bd
000001a0: dcfc 083e dfaa 693c eca5 0ebe 4486 1ebd
000001b0: 2079 183e 5c47 1ebe c1a0 70bd c9da 233e
000001c0: c231 adbd de33 1a3e 8ba1 febd 6d42 093e
000001d0: 26eb 073e d84b 00bd 9e58 bcbd 03bc 1dbd
000001e0: 1dcc 533d f6d1 7abd a83c 12be 1fc3 0ebe
000001f0: 001d b53d 7d0b 103e a2e3 90bd 18d5 853c
00000200: 8335 ebbd 49cb bc3d d01a e9bd 9314 cabd
00000210: 50a4 8fbd f402 81bc b34d a73c 6032 14be
00000220: 3549 93bd 0c8f 9bbd 8c28 d6bc d378 24bc
00000230: 1159 e93a 1e11 e63d 524e c8bd eb33 52bb
00000240: 4b8c 233e f684 ca3c ba79 f9bd bcb7 fe3d
00000250: 1cea 14be 0441 8d3d b4f0 1c3e cdbe ff3c
00000260: 6df1 c83d 9d31 0e3e 6723 913d 6c24 81bd
00000270: a1de 1f3d 612c 0e3e 23ed 213d 4cf6 00be
00000280: 2812 263e 5e71 3e3e 9250 cc3d a228 bc3d
00000290: c641 e73d 36e9 bebd 4d67 58bd 3976 693d
000002a0: e681 353d bb02 5b3d 46f3 83bb aec6 35be
000002b0: 7ef2 973d 570c bfbd efdc 11be 241f 363e
000002c0: 1fc9 ae3d 2b45 bc3d 5f5c a7bd bc30 763d
000002d0: a1f8 a73c 0f37 f43d 089c d23c a873 223e
000002e0: 233d 9ebc 3148 203e 62fb 3a3e 020b cc3c
000002f0: 6998 07be 9b5e 83bc ec19 0a3e 814f fcbd
00000300: 1a40 6dbd afd9 663d 379a 593d 0fc1 1b3e
00000310: 88bc 0f3d 3ee2 6abb 2c93 813d db86 f9bc
00000320: 7435 23be 8ad8 2ebd 6dfe 1fbe ca65 043e
00000330: 0da9 2c3c 0d88 b33b c911 603b c89c aebd
00000340: 1f92 f3bd e72e fabc 4765 433d 2ff6 c8bd
00000350: 9d93 b2bd 9799 f73d f889 82bd 8fbd bc3d
00000360: 4c98 3f3e 79a8 1b3e 664b b0bd 533f 4a3d
00000370: 66cd 0bbe 1d53 c33c 89ed d03c 6a7e cabd
00000380: de72 673d feea 7dbd 3456 b73d 9cb8 8bb9
00000390: 34ab be3d bc73 c43d f86b 1e3d c413 fa3c
000003a0: f2ed 9fbd 5f25 e7bd 10ba f03d 0c5a e53d
000003b0: 1dae c73c 8a17 0a3e ff66 9d3d 9c2d e33d
000003c0: 2418 2dbc 271a 743c 1c8a 0cbe b447 28be
000003d0: b48d 843d 1102 e0bd b7dc f83d 03bf 0cbe
000003e0: f12f 0dbe 1c4b 23be 5ca2 fb3d 874e bebd
000003f0: 4691 1dbe c4ad a03d acc7 1abd 7059 2dbe

mean.2.bias f4 [100]
-0.014218011 -0.013924244 0.010587409 0.27582145 -0.015708914 0.27525148 -0.110170394 -0.016650632
0.11048109 -0.039421055 -0.0031705743 -0.01622037 0.022117529 -0.063298665 0.109940626 0.003455431
-0.03855283 0.09598395 -0.038769696 -0.011790623 -0.073514394 -0.03853459 0.06508657 0.049266454
-0.04416996 0.3509945 0.02842352 0.023937631 -0.0074038333 -0.013925576 0.048436947 -0.068410024
0.18024933 -0.17335746 0.010904891 -0.0013038972 0.2696462 0.030048909 -0.13168615 0.023035878
-0.34931865 0.05685139 -0.06340929 0.11374099 -0.04497721 -0.06034139 0.1294251 -0.07865458
-0.0051826155 0.17633425 -0.017385008 -0.03708981 -0.11113046 -0.07716128 -0.015081663 0.097785436
-0.015832666 -0.020326778 0.2542684 -0.020196179 -0.11164916 0.01709313 0.013331944 0.082098745
0.27192265 0.07732944 0.09681334 -0.04038488 0.31080502 -0.019268544 0.014171098 -0.0064254594
0.09240135 -0.0724104 -0.04809926 -0.018911578 -0.10364617 -0.030940134 -0.0039809207 0.051741842
0.13250612 -0.050709426 0.012871652 0.2642629 0.01578357 -0.008503327 0.13364808 -0.17254744
0.10463097 0.0004455718 0.10536948 0.02345732 -0.063681304 -0.0054734317 0.11653405 0.2899308
-0.09233894 -0.07370935 0.18021739 -0.02466188
00000000: a9f2 68bc 8322 64bc d076 2d3c 7838 8d3e
00000010: fbaf 80bc c3ed 8c3e 04a1 e1bd e866 88bc
00000020: e943 e23d f977 21bd 69c9 4fbb 95e0 84bc
00000030: d22f b53c bba2 81bd 8d28 e13d 8374 623b
00000040: 93e9 1dbd 3c93 c43d f9cc 1ebd 752d 41bc
00000050: b78e 96bd 72d6 1dbd 1c4c 853d 9fcb 493d
00000060: 8feb 34bd 8db5 b33e 71d8 e83c da18 c43c
00000070: db9b f2bb 1928 64bc d265 463d 8e1a 8cbd
00000080: 4893 383e 9e84 31be 6eaa 323c 88e7 aaba
00000090: 110f 8a3e 2129 f63c bcd8 06be bdb5 bc3c
000000a0: e5d9 b2be 01dd 683d bbdc 81bd 09f1 e83d
000000b0: 063a 38bd 8928 77bd 0388 043e a715 a1bd
000000c0: eed2 a9bb f790 343e 016b 8ebc 7ceb 17bd
000000d0: 5e98 e3bd bc06 9ebd 1419 77bc bb43 c83d
000000e0: 82b3 81bc 5884 a6bc 782f 823e 7572 a5bc
000000f0: 51a8 e4bd e406 8c3c 3a6e 5a3c 6323 a83d
00000100: 7239 8b3e e65e 9e3d 1346 c63d 9e6a 25bd
00000110: d621 9f3e 11d9 9dbc e52d 683c a98c d2bb
00000120: eb3c bd3d e74b 94bd bb03 45bd 74ec 9abc
00000130: 7144 d4bd 2a76 fdbc 6272 82bb 41ef 533d
00000140: afaf 073e b0b4 4fbd 9fe3 523c 784d 873e
00000150: 8c4c 813c 8a51 0bbc 0bdb 083e 47b0 30be
00000160: c348 d63d a29b e939 f4cb d73d 9129 c03c
00000170: 586b 82bd 795a b3bb 67a9 ee3d cf71 943e
00000180: 331c bdbd edf4 96bd e88a 383e b607 cabc

mean.4.weight f4 [2, 100]
0.10721992 0.020553663 0.017653257 0.5479741 -0.052653592 0.5706221 0.16863264 -0.23627359
-0.30061176 0.1305371 0.14448717 -0.0053484393 -0.056780715 0.17415242 0.20375302 0.0009500528
-0.20765352 0.088203296 -0.15805246 -0.20599793 0.32155222 -0.07971435 -0.46520144 -0.06713294
-0.3754395 0.36764386 -0.24186297 -0.15065454 0.20981024 -0.015872836 0.14356598 -0.017525
0.37853867 -0.02364082 0.21148981 0.040764242 0.7373231 -0.32015464 0.3265049 -0.26985013
0.2576577 -0.4296863 0.11565845 0.15215522 0.032536346 -0.43793488 0.32660234 -0.024691898
-0.15301299 0.32202992 0.1802098 0.00458919 -0.114765435 -0.037177823 -0.06316745 0.48275852
-0.0362114 0.2265639 0.30062935 -0.19134806 -0.66075885 -0.066258654 -0.07955357 0.101451874
0.3899904 0.39469975 0.2035789 0.21617499 0.46006784 -0.32052153 -0.14380273 -0.010806548
0.024460392 -0.26765347 -0.087226 -0.015314971 -0.034140274 0.22208466 -0.21265765 0.09727107
0.26230884 -0.082550265 0.20508325 0.32031834 -0.11657635 -0.24487913 0.40716463 0.11506636
0.38800737 -0.22006023 0.07038031 0.014498854 0.15056054 -0.2476322 0.070260406 0.4635569
-0.53422034 0.3368029 0.35065216 0.050911333 0.14425345 0.20046552 -0.06856533 -0.39861277
0.15579669 -0.4736359 -0.20667036 0.060554855 0.39208668 0.3439645 -0.053252585 0.12296303
0.019229429 -0.19032268 -0.36107424 -0.14402883 -0.009093948 0.0057347063 0.22855179 -0.07189317
-0.16121645 0.36053935 0.46599326 0.056794193 0.118314005 -0.39040622 -0.14031465 -0.21411926
-0.3187577 -0.06782125 -0.024640067 0.18430507 -0.21627863 0.20408514 0.12698063 0.06729277
-0.4075531 0.1336666 -0.24224737 0.116368786 -0.35410342 0.1573445 -0.10241687 -0.4290166
-0.31953785 0.5595124 -0.14135943 0.17621611 0.27222618 -0.009322207 -0.19199231 -0.07077613
0.13171688 0.17006165 -0.20149155 -0.03801655 0.31872535 0.031785455 -0.31753114 0.24504
0.60304576 0.098314725 -0.13740231 -0.013685248 -0.48310685 -0.30556422 -0.19605726 0.20425265
-0.5833852 0.21992986 0.12208166 -0.018807622 -0.0541935 -0.04936837 0.14959946 0.31718066
-0.17922415 0.11454246 0.0043971394 -0.04527887 -0.16484044 0.19436498 0.06630946 -0.2103619
-0.32808456 0.0055939523 -0.041393496 -0.38352728 0.015976323 0.09232274 -0.2137051 0.0051517696
0.16132048 -0.16139717 -0.306176 -0.6061046 0.5168784 -0.5809674 -0.071248814 0.1276746
00000000: 1e96 db3d 2860 a83c 909d 903c 0848 0c3f
00000010: 4bab 57bd 4a14 123f 09ae 2c3e b4f1 71be
00000020: c9e9 99be 84ab 053e 72f4 133e f641 afbb
00000030: e592 68bd 0355 323e a2a4 503e f70c 793a
00000040: 20a3 54be eea3 b43d 81d8 21be 1ff1 52be
00000050: 7ea2 a43e 4741 a3bd e22e eebe ff7c 89bd
00000060: 9b39 c0be d13b bc3e edaa 77be 2f45 1abe
00000070: 7fd8 563e c007 82bc f602 133e 9790 8fbc
00000080: d2cf c13e 65aa c1bc c990 583e 68f8 263d
00000090: 35c1 3c3f 4feb a3be a62b a73e cc29 8abe
000000a0: b6eb 833e d8ff dbbe 56de ec3d 94ce 1b3e
000000b0: d544 053d 0039 e0be 6c38 a73e aa46 cabc
000000c0: 70af 1cbe 1be1 a43e eb88 383e ea60 963b
000000d0: 240a ebbd c647 18bd f05d 81bd 202c f73e
000000e0: 6852 14bd 5e00 683e 17ec 993e bff0 43be
000000f0: 7e27 29bf 9eb2 87bd fbec a2bd 00c6 cf3d
00000100: d2ac c73e 1616 ca3e fd76 503e fa5c 5d3e
00000110: 038e eb3e 661b a4be 0641 13be f30d 31bc
00000120: 2961 c83c e009 89be 8ca3 b2bd a5eb 7abc
00000130: acd6 0bbd 296a 633e edc2 59be 0e36 c73d
00000140: 584d 863e 1d10 a9bd 5801 523e c400 a43e
00000150: 95bf eebd 98c1 7abe e277 d03e e9a7 eb3d
00000160: e7a8 c63e 7857 61be 8d23 903d 9a8c 6d3c
00000170: 8b2c 1a3e 4c93 7dbe b0e4 8f3d 5457 ed3e
00000180: aac2 08bf 6e71 ac3e ae88 b33e 6788 503d
00000190: 2db7 133e d546 4d3e fb6b 8cbd f916 ccbe
000001a0: 2b89 1f3e 6880 f2be 65a1 53be 5e08 783d
000001b0: 96bf c83e 1d1c b03e 621f 5abd 0bd4 fb3d
000001c0: 0987 9d3c f3e3 42be b9de b8be 4b7c 13be
000001d0: c8fe 14bc 34ea bb3b 7b09 6a3e ba3c 93bd
000001e0: ed15 25be 9d98 b83e ab96 ee3e 07a1 683d
000001f0: 9d4e f23d 53e3 c7be a5ae 0fbe 1442 5bbe
00000200: 3634 a3be dee5 8abd f7d9 c9bc 78ba 3c3e
00000210: 2578 5dbe b2fb 503e 3607 023e cbd0 893d
00000220: cdaa d0be e6df 083e b20f 78be c252 ee3d
00000230: 0b4d b5be eb1e 213e f0bf d1bd 10a8 dbbe
00000240: 779a a3be 343c 0f3f 87c0 10be ff71 343e
00000250: 3b61 8b3e 2cbc 18bc a299 44be 13f3 90bd
00000260: cae0 063e a424 2e3e cd53 4ebe 3eb7 1bbd
00000270: f82f a33e 7731 023d 7193 a2be c4eb 7a3e
00000280: 3561 1a3f 3b59 c93d 31b3 0cbe 1738 60bc
00000290: c859 f7be ea72 9cbe 3cc3 48be 9b27 513e
000002a0: bc58 15bf 4b35 613e f305 fa3d 7112 9abc
000002b0: 01fa 5dbd 7d36 4abd 9a30 193e 8165 a23e
000002c0: 8986 37be 3d95 ea3d e115 903b 5676 39bd
000002d0: efcb 28be 9d07 473e 41cd 873d 1c69 57be
000002e0: b3fa a7be 794d b73b 3a8c 29bd b05d c4be
000002f0: c7e0 823c b413 bd3d 82d5 5abe 2dd0 a83b
00000300: 3231 253e 4d45 25be 1ac3 9cbe ac29 1bbf
00000310: 2552 043f 48ba 14bf e6ea 91bd 21bd 023e

mean.4.bias f4 [2]
0.24885249 -0.24885264
00000000: 30d3 7e3e 3ad3 7ebe
