save/exp26/it26_model.pt (torch, 48231 bytes, 7 tensors)

sigma f4 [2]
0	0x3ec4d9a5	0.384473
1	0xc024407a	-2.5664353

mean.0.weight f4 [100, 10]
0	0xbed99d83	-0.42502984
1	0x3eb9709f	0.36218736
2	0xbe6990b5	-0.22809108
3	0x3ef55d8f	0.47922942
4	0xbbd753a4	-0.00657125
5	0x3e6defe2	0.2323604
6	0x3dc1cddf	0.09463095
7	0x3d75c47b	0.06000183
8	0xbdded844	-0.10881093
9	0xbbe4c28f	-0.006981201
10	0xbe1348b0	-0.14383197
11	0xbe8c2d20	-0.27378178
12	0xbe0e166b	-0.1387574
13	0x3dffff20	0.12499833
14	0xbc18af11	-0.009319083
15	0xbd4efaf7	-0.050532307
16	0x3d427b33	0.047480773
17	0x3e9d6718	0.30742717
18	0x3e636b93	0.22209005
19	0x3e94634a	0.28982002
20	0xbe21645a	-0.15760937
21	0xbd2e277b	-0.04251812
22	0x3e49bbcb	0.19700544
23	0xbeef5058	-0.46740985
24	0x3eba56d1	0.3639436
25	0xbf2644b5	-0.6494859
26	0x3e4a8920	0.19778872
27	0x3d81ec56	0.06343906
28	0xbe946b9c	-0.2898835
29	0x3e95bddc	0.29246414
30	0xbe47c41e	-0.19508407
31	0x3ebdb983	0.37055597
32	0xbdcb536f	-0.09928023
33	0xbe9e67a5	-0.3093845
34	0x3e68b737	0.22726141
35	0xbc506095	-0.012718339
36	0xbe659f9c	-0.22424167
37	0x3cb47f0c	0.022033237
38	0xbe279af5	-0.16367705
39	0xbeee4835	-0.46539465
40	0x3d44ed50	0.04807788
41	0xbd5312ac	-0.05153148
42	0x3d091b18	0.033473104
43	0xbe4adf71	-0.19811799
44	0xbbf800a3	-0.0075684353
45	0xbde94e6f	-0.11391913
46	0xbe020e03	-0.12700658
47	0xbe5cfda5	-0.21581133
48	0x3d9aede3	0.075649045
49	0x3c583d0d	0.013198149
50	0xbdc81d67	-0.09771233
51	0x3e8ee126	0.2790615
52	0x3d385156	0.044999443
53	0x3d652791	0.055945937
54	0xbdc7c149	-0.09753663
55	0x3dffec85	0.124962844
56	0x3e6aba8e	0.22922727
57	0x3de2d054	0.11074892
58	0xbe371bd1	-0.17881705
59	0x3e245ff8	0.16052234
60	0x3d6cb1e5	0.05778684
61	0x3e5c9452	0.21540955
62	0x3df5be27	0.11999159
63	0x3e1b2c44	0.15153605
64	0xbdeb1ba2	-0.1147988
65	0x3e4c50da	0.19952717
66	0xbe4ce27f	-0.20008276
67	0xbe30cc9b	-0.17265551
68	0xbe54df7c	-0.20788378
69	0xbe25eda8	-0.1620394
70	0x3d2cfc6e	0.042232923
71	0x3cae1937	0.021252258
72	0x3c6e4c6d	0.0145445885
73	0x3da43147	0.080172114
74	0x3eb5fb6d	0.35543385
75	0x3e1fdf9c	0.15612644
76	0x3e4b0eb2	0.19829825
77	0x3b963334	0.0045837406
78	0x3e304012	0.17211941
79	0xbd0a0b11	-0.03370196
80	0xbc18afe8	-0.009319283
81	0x3c896ce6	0.01677556
82	0xbe6daf5c	-0.23211426
83	0xbe9ddfad	-0.30834714
84	0xbcbfab08	-0.023396984
85	0xbe5753be	-0.21028039
86	0xbd1a66e8	-0.037695795
87	0xbe1ee01c	-0.15515178
88	0xbcf123ac	-0.029435955
89	0x3ce72740	0.028216958
90	0xbdf6d37d	-0.12052057
91	0x3e1a8e35	0.1509331
92	0x3e21dd18	0.15806997
93	0xbe6ab6ec	-0.22921342
94	0xbe3a902a	-0.18219057
95	0xbe5a664d	-0.21328087
96	0xbdffcf49	-0.124907084
97	0xbe0a5678	-0.13509548
98	0xbccc2f0e	-0.024924781
99	0xbd61485e	-0.055000655
100	0xbe5d899f	-0.2163453
101	0xbc61349b	-0.013745452
102	0x3b6f75b7	0.003653867
103	0x3d92e382	0.071723
104	0xbe7e7a8c	-0.24851435
105	0xbe9b8126	-0.3037197
106	0x3deb56ac	0.11491141
107	0x3c728e5b	0.014804448
108	0x3e42c60a	0.19020858
109	0x3e6731ec	0.22577637
110	0x3e22e510	0.15907693
111	0xbda80bc3	-0.08205368
112	0x3e8b63e8	0.2722466
113	0x3e44275c	0.1915564
114	0x3a93af02	0.0011267366
115	0x3e8980c1	0.26856044
116	0x3e9e7de8	0.30955434
117	0x3d853606	0.06504445
118	0x3e8a07d7	0.26959106
119	0xba8a7480	-0.0010563284
120	0xbde79345	-0.11307386
121	0x3e1abab7	0.15110289
122	0x3ec20681	0.37895587
123	0xbeae943f	-0.34097478
124	0x3e4efb90	0.20213151
125	0xbeedc2ed	-0.4643778
126	0x3e0ba326	0.13636455
127	0x3e02bc8b	0.12767236
128	0xbe922875	-0.2854649
129	0x3d897fb9	0.06713814
130	0x3b2f4424	0.0026743496
131	0xbd05d54f	-0.03267413
132	0xbbf8aaac	-0.007588705
133	0x3ada9077	0.0016675134
134	0x3e16ef29	0.1473967
135	0xbe1fb018	-0.15594518
136	0xbd9ddf95	-0.077086605
137	0x3cc705a9	0.024294691
138	0xbd31204a	-0.043243684
139	0x3e799a0d	0.24375172
140	0xbdb70f4c	-0.089384645
141	0xbe513bfe	-0.20433041
142	0x3e32dc65	0.17466886
143	0xbe06fc44	-0.13182169
144	0x3e846ee1	0.25865844
145	0xbe3d6616	-0.18495974
146	0xbea5ad33	-0.32358703
147	0xbc282686	-0.010263091
148	0xbead4d85	-0.33848205
149	0xbc912ad2	-0.017720614
150	0xbd8f146c	-0.06986317
151	0xbe843cdb	-0.2582768
152	0xbd8d2e1a	-0.06893559
153	0xbd468754	-0.048468903
154	0xbe0f973f	-0.1402254
155	0x3e055ad8	0.13022935
156	0xbe0f4050	-0.13989377
157	0x3d827880	0.0637064
158	0xbca96e94	-0.02068261
159	0xbe5b230f	-0.21400093
160	0x3e0ad19a	0.13556519
161	0x3ecc3209	0.39881924
162	0xbdcfbae5	-0.10143069
163	0xbd452c2d	-0.048137832
164	0x3efb3083	0.4906045
165	0x3eacc52c	0.3374418
166	0xbdf675f2	-0.12034215
167	0x3ea35e18	0.31907725
168	0x3debb48e	0.115090474
169	0xbe22e820	-0.15908861
170	0x3db6d355	0.08927027
171	0x3dc88cba	0.097924665
172	0xbc7f2685	-0.015573149
173	0x3dbd4fc3	0.09243729
174	0xbe9c28d4	-0.304999
175	0x3e149069	0.14508213
176	0x3e1bf07a	0.15228453
177	0x3e0017d6	0.12509093
178	0x3da33765	0.0796955
179	0xbbf3c6e4	-0.007439481
180	0xbeab9f83	-0.33520135
181	0xbdb812f9	-0.08987994
182	0x3e951f54	0.29125464
183	0xbd9aeb5d	-0.07564423
184	0xbf69a2ac	-0.9126384
185	0x3ec4d850	0.38446283
186	0x3eb7c0ca	0.35889274
187	0xbf9308ed	-1.1487099
188	0xbea6c507	-0.32572195
189	0x3f526db6	0.82198656
190	0x3d07343c	0.0330088
191	0x3ed47787	0.41497442
192	0xbe40b044	-0.1881724
193	0xbe5bddbe	-0.21471307
194	0x3ebae576	0.3650319
195	0x3ea2e7a0	0.3181734
196	0xbeaafeb3	-0.33397445
197	0xbdc494d9	-0.09598703
198	0x3e293c92	0.16527012
199	0xbe256904	-0.16153342
200	0xbe02ce10	-0.12773919
201	0x3d530030	0.05151385
202	0x3e32abdb	0.1744837
203	0x3daea7f6	0.0852813
204	0xbdc2e21f	-0.095157854
205	0x3e9dab04	0.30794537
206	0x3e8bd955	0.2731425
207	0xbe2d7e2a	-0.16942659
208	0x3da785ac	0.08179793
209	0x3c5509be	0.013002811
210	0x3e68363c	0.22676939
211	0x3e986ca6	0.29770392
212	0x3d85b48e	0.06528579
213	0xbd36046d	-0.044437815
214	0x3e038962	0.12845376
215	0x3d745512	0.059651442
216	0x3b6486f4	0.0034870477
217	0x3e1277c3	0.14303498
218	0xbe332be2	-0.17497209
219	0x3da893ec	0.08231339
220	0xbd5eaf6f	-0.054366525
221	0x3d2bcc49	0.04194287
222	0x3e183dfa	0.14867392
223	0x3df48c4e	0.119408235
224	0xbe66ec51	-0.22551085
225	0xbe4d6798	-0.20059049
226	0x3e731c82	0.23741344
227	0x3e90c492	0.2827497
228	0xbcca43c5	-0.024690518
229	0x3e82b9ce	0.25532383
230	0xbe6a27e0	-0.22866774
231	0x3d4d8c35	0.05018254
232	0x3e0e9922	0.13925603
233	0x3eafe0d9	0.34351233
234	0xbe223ad5	-0.15842755
235	0x3e78cb4c	0.24296302
236	0x3e8d716b	0.27625594
237	0xbd6d7529	-0.05797306
238	0x3e82964b	0.2550529
239	0xbe19f1b0	-0.15033603
240	0x3e4751dd	0.19464822
241	0xbe50fbba	-0.20408526
242	0xbd3fb1db	-0.046800476
243	0x3e588678	0.21145046
244	0xbbd7809b	-0.0065766103
245	0xbe3e1dcb	-0.18566053
246	0x3c562e12	0.013072507
247	0x3e3d711f	0.18500184
248	0xbe901c07	-0.28146383
249	0xbe3088f3	-0.17239742
250	0x3d459dde	0.048246257
251	0xbd20c56a	-0.03925077
252	0xbdd8d311	-0.10587133
253	0x3c13641c	0.008996036
254	0x3e1b2faf	0.15154909
255	0xbd51ba17	-0.05120286

mean.0.bias f4 [100]
0	0xbde0d0d1	-0.109773286
1	0xbd4292ff	-0.047503468
2	0x3d9bb607	0.07603078
3	0xbe49bf57	-0.19701897
4	0xbd8ade0d	-0.06780634
5	0xbd2b8002	-0.041870125
6	0xbe482e99	-0.19549026
7	0xbdae75c0	-0.08518553
8	0xbe2962b8	-0.16541564
9	0xbd54aa68	-0.051920325
10	0xbe17d99c	-0.14829105
11	0x3e52ef2a	0.20599046
12	0xbe135dcf	-0.14391254
13	0xbde8a305	-0.113592185
14	0xbd76f3c6	-0.060291074
15	0xbe046d83	-0.129324
16	0x3e09cb31	0.13456418
17	0xbd9416ba	-0.07230897
18	0x3d2d44b3	0.042301845
19	0xbe8e6629	-0.27812317
20	0x3d77435a	0.060366966
21	0x3d9c2b4e	0.07625447
22	0x3e946154	0.28980505
23	0x3bb53c23	0.0055308505
24	0xbd8c725e	-0.06857751
25	0xbc44add9	-0.012004339
26	0xbce383cd	-0.027772808
27	0xbba9650f	-0.005169518
28	0xbcb4a6f1	-0.02205226
29	0xbd1b3a8b	-0.037897628
30	0xbb52cba9	-0.0032164848
31	0xbd999c3e	-0.07500504
32	0xbdc03c6e	-0.09386526
33	0x3ddc122e	0.10745655
34	0xbcc24103	-0.02371264
35	0x3d9d6b20	0.07686448
36	0x3d623dab	0.055234592
37	0xbe7122ba	-0.23548403
38	0xbe15bde7	-0.14623223
39	0xbdb4cf52	-0.08828606
40	0xbc312b62	-0.010813566
41	0xbc870e2e	-0.016486254
42	0x3d202f60	0.03910768
43	0xbd95f398	-0.073218524
44	0x3db61e77	0.088925295
45	0xbdc606dc	-0.09669277
46	0xbd8369dc	-0.064166754
47	0xbdc9c54a	-0.09852083
48	0x3bb2490d	0.0054408372
49	0xbd6a569b	-0.0572115
50	0xbdf21963	-0.118212484
51	0xbe3406a9	-0.17580666
52	0x3e473e68	0.194574
53	0xbe2aba74	-0.16672689
54	0x3da9fa16	0.08299653
55	0xbcd61917	-0.02613501
56	0x3e497e49	0.1967708
57	0xbed99a9d	-0.42500773
58	0x3e0733db	0.13203375
59	0xbd8007f6	-0.062515184
60	0xbc8dd6be	-0.017314311
61	0xbc96211f	-0.01832634
62	0xbac18e48	-0.0014767135
63	0xbd016f35	-0.031600196
64	0x3ccb2e9a	0.024802495
65	0x3e08cdcf	0.1335976
66	0xbe4362ca	-0.19080654
67	0x3edc83c2	0.43069273
68	0xbdfc6ecb	-0.123258196
69	0x3d8da78b	0.06916722
70	0xbe39c9b6	-0.18143353
71	0xbd743974	-0.059625104
72	0x3d69d70c	0.05708985
73	0x3e943c20	0.28952122
74	0xbe15d033	-0.14630203
75	0xbe9d65e4	-0.307418
76	0xbe34260f	-0.17592643
77	0xbe3a33d1	-0.18183829
78	0xbe66f020	-0.22552538
79	0x3e5fff37	0.218747
80	0xbd836d1a	-0.06417294
81	0xbc419d41	-0.011817277
82	0xbe98bc8b	-0.29831347
83	0x3db9d8da	0.09074564
84	0xbebfae83	-0.3743783
85	0x3d1bac05	0.038005847
86	0xbd83efb9	-0.06442208
87	0x39b0f9ed	0.00033755545
88	0x3e9e14da	0.30875283
89	0x3e13bb32	0.14426878
90	0x3cb64528	0.022249773
91	0x3a62e9a6	0.0008656032
92	0x3ea11f0f	0.31469008
93	0xbcf0d6e3	-0.029399341
94	0x3d35518b	0.04426722
95	0x3ce54346	0.02798618
96	0xbdf63b7b	-0.12023064
97	0x3da714e5	0.08158282
98	0xbe7c84ae	-0.24659988
99	0xbdc4690b	-0.09590348

mean.2.weight f4 [100, 100]
0	0xbdb2a772	-0.08723344
1	0xbdf380eb	-0.118898235
2	0xbe2ecefe	-0.17071149
3	0x3dd0dd6c	0.10198483
4	0x3d9d44ba	0.07679124
5	0xbd28ae9d	-0.04118215
6	0x3e132be8	0.14372218
7	0xbdfeb919	-0.12437648
8	0xbce55cfc	-0.02799844
9	0xbb9ce97e	-0.0047885766
10	0x3d8f8891	0.0700847
11	0x3e13d16c	0.14435357
12	0xbdc9bc6e	-0.09850393
13	0x3e314323	0.17310767
14	0x3e28ebd3	0.1649621
15	0x3d3d1d10	0.046170294
16	0xbde98a42	-0.11403324
17	0x3d6ada72	0.057337232
18	0x3d1383f5	0.036014516
19	0xbd8071f2	-0.06271733
20	0x3e2ae6e4	0.1668964
21	0xbe0ea783	-0.13931088
22	0xbd7c4ccb	-0.061596673
23	0xbd832784	-0.064040214
24	0xbd44c957	-0.048043575
25	0x3e03958b	0.12850015
26	0xbc11126a	-0.008854488
27	0x3cc59a35	0.024121383
28	0xbe1e2aea	-0.15446058
29	0xbdf028b7	-0.11726516
30	0x3dded18c	0.10879812
31	0xbd58d94e	-0.052941613
32	0x3d7dd9cd	0.06197529
33	0xbe084bef	-0.13310216
34	0xbdc96c8c	-0.09835157
35	0x3daaad8d	0.083338834
36	0x3dfa0d10	0.12209523
37	0x3c2de540	0.0106137395
38	0xbe209b8c	-0.15684336
39	0xbddf2bd0	-0.108970284
40	0xbd80f403	-0.062965415
41	0x3da62199	0.08111877
42	0xbe10272a	-0.1407744
43	0xbde3c17c	-0.111208886
44	0xbe308342	-0.17237571
45	0xbdfa2a98	-0.12215155
46	0x3e004579	0.12526502
47	0xbd84c4be	-0.06482838
48	0xbd26df41	-0.040740255
49	0x3bab09c2	0.005219669
50	0xbd0c148a	-0.034199275
51	0xbd73a56b	-0.059483927
52	0xbb50aea1	-0.0031842368
53	0xbdb3afd4	-0.08773771
54	0x3de03983	0.109484695
55	0xbbe54283	-0.006996454
56	0x3d9e574d	0.07731495
57	0x3ca9cfea	0.020729024
58	0x3e064322	0.13111547
59	0x3dadd0c7	0.08487087
60	0xbdb0d127	-0.08633643
61	0xbd2bd432	-0.041950412
62	0x3d2281be	0.039674513
63	0xbd802b34	-0.0625824
64	0xbdf5c9d9	-0.1200139
65	0x3e13fd9a	0.1445221
66	0x3dee1573	0.11625185
67	0xbdb14b46	-0.086569354
68	0x3d23c6bc	0.03998445
69	0x3dffd763	0.12492254
70	0xbdd73904	-0.10508922
71	0xbce3e9c4	-0.02782143
72	0xbe121a24	-0.14267784
73	0xbe22d97f	-0.1590328
74	0x3e0ce994	0.13760978
75	0x3d7b00fb	0.061280232
76	0xbde4da9e	-0.111745104
77	0xbc524b6f	-0.012835368
78	0xbda42b1f	-0.08016037
79	0xbd0603be	-0.032718413
80	0xbd1969b9	-0.03745434
81	0x3d60d280	0.05488825
82	0x3cf72341	0.030168178
83	0xbdf0dd5b	-0.1176097
84	0x3db0e6cc	0.08637771
85	0x3c5153e0	0.012776345
86	0xbdb943a7	-0.09046107
87	0xbdcdf9bf	-0.10057401
88	0xbb7133fd	-0.003680467
89	0x3d75d5ea	0.060018457
90	0xbe23cd2c	-0.15996236
91	0xbd24fa64	-0.040277854
92	0xbe00733f	-0.12543963
93	0xbe26617a	-0.16248122
94	0x3dbdc56a	0.09266169
95	0xbd73cd63	-0.059522044
96	0xbe28d198	-0.16486204
97	0xbd4bc43d	-0.049747694
98	0xbdc46137	-0.09588855
99	0x3dbf33d9	0.09336061
100	0xbcd33a64	-0.025784679
101	0xbdca29fc	-0.09871289
102	0xbda513af	-0.08060395
103	0xbd06bc6b	-0.032894533
104	0x3e090251	0.1337979
105	0x3c052106	0.008125549
106	0xbe01d2cd	-0.1267807
107	0xbd12ea48	-0.03586796
108	0x3e279e05	0.16368873
109	0xbe19a55e	-0.15004489
110	0xbd85fa45	-0.06541876
111	0x3e0f4a45	0.13993175
112	0xbd9fed70	-0.078089595
113	0x3e052840	0.13003635
114	0xbde75f61	-0.11297489
115	0x3e0c0248	0.13672745
116	0x3e007803	0.12545781
117	0xbd1c0a7d	-0.03809594
118	0xbe1c5394	-0.15266258
119	0xbd1a24a8	-0.037632614
120	0x3d04d06e	0.032425337
121	0xbd7ad27e	-0.061235897
122	0xbe2f7ce8	-0.17137492
123	0xbe21df11	-0.1580775
124	0x3dafd111	0.08584798
125	0x3e0596ee	0.13045856
126	0xbd8d8ac3	-0.06911232
127	0xbba76ba6	-0.0051092682
128	0xbdcc50a8	-0.099763215
129	0x3dc8e2b0	0.09808862
130	0xbde918a8	-0.11381656
131	0xbdc919bd	-0.09819362
132	0xbd8f95c2	-0.07010986
133	0xbd11840a	-0.035526313
134	0x3ca6806f	0.020324914
135	0xbe2d5b5a	-0.16929379
136	0xbdb5fa1a	-0.08885594
137	0xbd8e67c7	-0.06953388
138	0xbd13b299	-0.036058996
139	0xbc2af4bb	-0.010434325
140	0xbcb9bedd	-0.022674019
141	0x3dbc3614	0.09190002
142	0xbddcef66	-0.10787849
143	0x3abbfe15	0.001434269
144	0x3e1c59a3	0.15268569
145	0x3cd8cd7c	0.02646517
146	0xbe1147ef	-0.14187597
147	0x3e05e04a	0.1307384
148	0xbe18a1ee	-0.14905521
149	0x3d8c7faf	0.06860291
150	0x3e1ec10b	0.15503328
151	0x3cd8a0fa	0.026443947
152	0x3da1fccf	0.079095475
153	0x3e0a2ea2	0.13494352
154	0x3d82adbf	0.06380796
155	0xbd7ccbba	-0.061717726
156	0x3ceb8abf	0.028752683
157	0x3e16da29	0.14731659
158	0x3d1dcb66	0.038524054
159	0xbe0aedc9	-0.1356727
160	0x3e166c01	0.14689638
161	0x3e1efe83	0.15526776
162	0x3da2c69f	0.0794804
163	0x3dbabad8	0.09117669
164	0x3ddbbcf9	0.10729403
165	0xbe0bb670	-0.13643813
166	0xbd59c4e7	-0.053166296
167	0x3d9634ee	0.07334314
168	0x3d36593e	0.0445187
169	0x3d7e9d43	0.062161695
170	0xba5c47a5	-0.000840301
171	0xbe288efc	-0.16460794
172	0x3d7abd90	0.061215937
173	0xbde6e638	-0.112743795
174	0xbe194027	-0.14965878
175	0x3e352d74	0.1769312
176	0x3d806516	0.062692806
177	0x3db77e45	0.08959631
178	0xbd9ced34	-0.076624304
179	0x3d34f915	0.044182856
180	0x3cb40f46	0.02197994
181	0x3de3d795	0.111251034
182	0x3ca80491	0.02050999
183	0x3e03b886	0.12863359
184	0xbd056c94	-0.03257425
185	0x3e1fbe1c	0.15599865
186	0x3e2f8a6f	0.17142652
187	0x3caa7e7b	0.020812264
188	0xbe15ce4d	-0.14629479
189	0xbc4f3061	-0.012645812
190	0x3e096bc9	0.13420023
191	0xbdfd72c4	-0.123754054
192	0xbd956113	-0.07293906
193	0x3d743768	0.059623152
194	0x3ceb2a90	0.028706819
195	0x3e1e0088	0.1542989
196	0x3cc5cb45	0.024144778
197	0xbc618fbe	-0.013767181
198	0x3d2183cd	0.039432336
199	0xbd18fa4e	-0.037348084
200	0xbe30c16c	-0.17261285
201	0xbd1591b2	-0.0365159
202	0xbe212623	-0.15737204
203	0x3e31dc71	0.17369248
204	0x3c2abd06	0.010421043
205	0x3bc45a47	0.005992207
206	0x3c89daa5	0.01682789
207	0xbd76a888	-0.060219318
208	0xbdd2fff9	-0.10302729
209	0xbcfbc982	-0.030735735
210	0x3d1bfa51	0.038080517
211	0xbd76b06a	-0.060226835
212	0xbde487be	-0.11158703
213	0x3e07daf7	0.13267122
214	0xbd988d8b	-0.07448872
215	0x3ddca9d9	0.10774583
216	0x3e56c1ba	0.20972338
217	0x3e281b84	0.16416746
218	0xbdcc905c	-0.09988472
219	0x3de24314	0.110479504
220	0xbe23ef88	-0.16009343
221	0x3d111fa0	0.03543055
222	0x3a55891d	0.00081457366
223	0xbda506ec	-0.08057961
224	0x3d90df03	0.07073786
225	0xbd027dfe	-0.031858437
226	0x3daa6d8f	0.08321678
227	0x3d09ac84	0.03361179
228	0x3e18ca21	0.14920856
229	0x3df97964	0.121813565
230	0x3d1e6b43	0.03867651
231	0x3cf90e45	0.030402312
232	0xbd9f1523	-0.077677034
233	0xbdaf4eda	-0.085599616
234	0x3df14a1d	0.11781714
235	0x3df87375	0.12131397
236	0x3c1a7582	0.00942743
237	0x3e21439d	0.15748449
238	0x3db117b2	0.08647098
239	0x3dd579c5	0.10423616
240	0xbd624404	-0.055240646
241	0x3d6dfd9b	0.058103185
242	0xbe0b3f62	-0.13598397
243	0xbe24c4c7	-0.1609069
244	0x3de9d899	0.11418266
245	0xbdde8461	-0.10865093
246	0x3e0b17a3	0.13583235
247	0xbdb414ea	-0.087930515
248	0xbe132966	-0.14371261
249	0xbe193b9c	-0.14964145
250	0x3e0eed17	0.1395763
251	0xbd9d88d8	-0.076921165
252	0xbe323f17	-0.1740688
253	0x3d72349e	0.05913221
254	0xbd10505b	-0.035232883
255	0xbe3381b5	-0.17529948

mean.2.bias f4 [100]
0	0x3a170efd	0.00057624263
1	0xbcc015a5	-0.02344782
2	0x3d83573e	0.064131245
3	0x3dad420a	0.084598616
4	0xbc9a27ab	-0.018817743
5	0x3e36fb16	0.17869219
6	0x3e8e88bc	0.27838695
7	0x3cf289e3	0.029606765
8	0x3d5824e1	0.052769545
9	0xbd199536	-0.037495814
10	0x3c53425d	0.01289424
11	0x3db13f6c	0.08654675
12	0xbcf8d3dd	-0.030374462
13	0x3e4e7996	0.20163569
14	0xb951333c	-0.0001995088
15	0x3d42385b	0.047417026
16	0xbd311e47	-0.043241765
17	0x3d2b412f	0.04181021
18	0x3d0981eb	0.033571165
19	0x3c4e4eac	0.012591999
20	0x3e218f14	0.15777236
21	0x3c901cea	0.017591912
22	0x3d090926	0.03345599
23	0x3cf6d81a	0.030132342
24	0xbaf91963	-0.0019004758
25	0x3de96ae0	0.11397338
26	0x3d9c2b34	0.07625428
27	0x3df4f245	0.11960272
28	0x3e115c5e	0.14195392
29	0xbd8a7e11	-0.067623265
30	0x3d081287	0.033220794
31	0xbda4d2c1	-0.080480106
32	0xbe4f844a	-0.20265308
33	0xbdf580b7	-0.11987441
34	0x3cb81c0c	0.022474311
35	0xbd0789f8	-0.03309056
36	0x3e5c7130	0.21527553
37	0x3e1d107c	0.1533832
38	0x3c1852ec	0.009297114
39	0xbe107ae1	-0.14109375
40	0xbe8daafa	-0.27669507
41	0x3ca2fae8	0.019895032
42	0xbd336b11	-0.04380328
43	0x3dda94f7	0.10672944
44	0xbdd0381c	-0.10166952
45	0xbc3a4e4f	-0.011371209
46	0xbd4d5101	-0.05012608
47	0xbd7489bf	-0.059701677
48	0x3d820e1d	0.06350348
49	0x3e0a0c91	0.13481356
50	0x3e23a38b	0.15980355
51	0xbd0c126f	-0.034197267
52	0x3cd1eb21	0.025624814
53	0xbadadee6	-0.0016698509
54	0x3d4c92fa	0.049944855
55	0xbdf3e077	-0.11908048
56	0x3d0679c4	0.03283097
57	0x3d77927b	0.06044243
58	0xbc166980	-0.009180427
59	0xbce44d85	-0.027868995
60	0x3dff341d	0.12461112
61	0xbc228030	-0.009918258
62	0x3a28f38e	0.0006444984
63	0x3d091ce2	0.03347481
64	0x3e7a3492	0.24434116
65	0xbd2ab6fc	-0.041678414
66	0xbdf0a3a2	-0.117499605
67	0x3bf5891a	0.0074931504
68	0x3e30593a	0.17221537
69	0xbc9773a3	-0.018487757
70	0x3ce9201e	0.028457697
71	0xbc809044	-0.015693791
72	0x3dda3668	0.106549084
73	0xbbf2e6a1	-0.007412747
74	0xbdc3683f	-0.09541368
75	0x3c97089d	0.018436724
76	0x3e20bfc3	0.15698151
77	0xbc2d61e6	-0.010582423
78	0x3af6dbe3	0.0018833842
79	0xbb1f53f4	-0.0024311515
80	0x3e2dbb31	0.16965939
81	0xbdf32d75	-0.118739046
82	0xbd4d0bd5	-0.050060112
83	0x3e222d0b	0.15837495
84	0xbd20f30a	-0.03929428
85	0xbdbfbb64	-0.09361914
86	0x3e25d419	0.1619419
87	0x3e343398	0.17597806
88	0x3dd90369	0.105963536
89	0x3c012293	0.007881778
90	0xbd23952b	-0.03993718
91	0xbd543d59	-0.05181632
92	0xbd08ab68	-0.03336659
93	0xbd4a28bf	-0.049355265
94	0xbdaaf9f1	-0.08348454
95	0x3e612e2b	0.21990268
96	0x3d07175e	0.03298127
97	0xbe32bacd	-0.17454071
98	0x3cc662d0	0.02421704
99	0x3d1e729c	0.03868352

mean.4.weight f4 [2, 100]
0	0x3deded71	0.11617554
1	0x3ca62010	0.02027896
2	0xbe11fb05	-0.14255913
3	0x3f228bae	0.63494384
4	0xbd494ca2	-0.04914535
5	0x3f1f1855	0.621465
6	0x3e9efb7f	0.3105125
7	0xbef90ae0	-0.4864111
8	0xbe081ab1	-0.13291432
9	0x3e69c83c	0.2283029
10	0x3e226311	0.15858103
11	0xbdd511b3	-0.104037665
12	0xbded6520	-0.11591554
13	0x3e64ff91	0.22363116
14	0x3e1a9409	0.15095533
15	0x3e1eff85	0.1552716
16	0xbdcf56ce	-0.101239786
17	0x3b72c7f0	0.0037045442
18	0xbcc760ff	-0.024338244
19	0xbdf1b620	-0.11802316
20	0x3f0629db	0.52407616
21	0x3d3a63d0	0.045505345
22	0xbf050225	-0.519564
23	0xbd448f34	-0.04798813
24	0xbe970b97	-0.2950103
25	0x3ea99f19	0.33129194
26	0xbda50d66	-0.08059196
27	0xbcaeb64e	-0.021327164
28	0x3ea4adb1	0.32163766
29	0x3d054d6b	0.032544535
30	0x3e21b70b	0.15792482
31	0xbca3ccc5	-0.019995103
32	0x3e99da38	0.300493
33	0xbc9a7ebc	-0.01885926
34	0x3e5921ad	0.21204253
35	0x3db0094c	0.08595523
36	0x3f50b8d7	0.81532043
37	0xbee2a49c	-0.44266212
38	0x3e9e81e5	0.30958477
39	0xbd9baad0	-0.07600939
40	0x3e81a29f	0.25319383
41	0xbeb6131f	-0.35561463
42	0x3dea0ce2	0.114282385
43	0x3e3f60ef	0.18689321
44	0x3dc9617d	0.098330475
45	0xbec4175d	-0.38299075
46	0x3e3c291c	0.18375057
47	0xbc8e4377	-0.017366154
48	0xbe6971dd	-0.22797342
49	0x3eb24281	0.34816363
50	0x3effe177	0.49976704
51	0x3c87e783	0.016589886
52	0xbe7f75c5	-0.2494727
53	0x3b69a2ff	0.0035650132
54	0xbe6b0f3d	-0.22955032
55	0x3ecb7c8c	0.3974346
56	0x3e296837	0.16543661
57	0x3e79dfe0	0.24401808
58	0x3e2f0b26	0.17094097
59	0xbe68ab98	-0.22721708
60	0xbf195ef8	-0.59910536
61	0xbdddfcf8	-0.108392656
62	0xbdbc8f70	-0.09207046
63	0xbad49d71	-0.0016221238
64	0x3f06893f	0.5255317
65	0x3edd1963	0.4318343
66	0x3de9beeb	0.11413368
67	0x3d6242a5	0.05523934
68	0x3eb8b7f7	0.36077854
69	0xbf0ab884	-0.541878
70	0xbe0eacb7	-0.13933073
71	0xbc815382	-0.01578689
72	0xbd3b9b7f	-0.04580259
73	0xbdfcfedc	-0.12353298
74	0xbd555b44	-0.05208899
75	0x3e3fc329	0.18726791
76	0x3ddd53b4	0.10806981
77	0x3e71b0b9	0.2360257
78	0xbe633433	-0.22187881
79	0x3dc3b5a5	0.0955613
80	0x3ec8aadd	0.39192858
81	0xbe2e6a83	-0.17032818
82	0x3de209b3	0.11037006
83	0x3ed5dfe0	0.41772366
84	0xbe483600	-0.1955185
85	0xbeca02d5	-0.39455286
86	0x3ebdf0e6	0.37097853
87	0x3e870d35	0.26377264
88	0x3f02a659	0.51035076
89	0xbe80b95d	-0.2514142
90	0x3ce8b251	0.02840534
91	0xbd609c39	-0.054836486
92	0x3e497b01	0.19675829
93	0xbe30aeb7	-0.17254148
94	0xbd0a5197	-0.033769216
95	0x3f21efc1	0.6325646
96	0xbf08d752	-0.5345355
97	0x3ddeeec1	0.108853824
98	0x3e7ea796	0.24868616
99	0xbdbcdcc3	-0.092217945
100	0x3e0a8bdf	0.13529919
101	0x3e4d9039	0.20074548
102	0x3dbbb385	0.091651
103	0xbef89d4a	-0.48557502
104	0x3e1bf19e	0.15228888
105	0xbf0643e4	-0.5244734
106	0xbeb275cf	-0.34855506
107	0x3e9f1372	0.31069523
108	0x3e65c97a	0.22440138
109	0x3e7c1c3a	0.24620143
110	0xbd89ece0	-0.067346334
111	0x3e62f93d	0.2216539
112	0x3da08094	0.07837024
113	0xbe759097	-0.23980938
114	0xbe9dd557	-0.30826828
115	0xbe98c16b	-0.29835066
116	0xbdec8eb0	-0.11550653
117	0x3db8d260	0.09024501
118	0x3dc23ce1	0.09484268
119	0xbe23b457	-0.15986763
120	0xbeba3c43	-0.363741
121	0x3e70fa14	0.23532897
122	0x3f0536ad	0.52036554
123	0x3d1a363a	0.03764937
124	0x3d1b31cd	0.03788929
125	0xbeb54575	-0.35404554
126	0xbe9a6927	-0.3015835
127	0xbeafd761	-0.3434401
128	0xbedc7563	-0.4305831
129	0xbdee0e28	-0.11623794
130	0xbd1fbc82	-0.038998134
131	0x3e3f41da	0.18677464
132	0xbe0d8ba4	-0.138228
133	0x3e4c164e	0.19930384
134	0x3e017653	0.12642793
135	0x3cb50f54	0.022102036
136	0xbef8997b	-0.48554596
137	0x3e8329fe	0.25617975
138	0xbe66bbc4	-0.22532564
139	0xbd9ea65e	-0.07746576
140	0xbeb303f2	-0.34963948
141	0x3daa8ea1	0.083279856
142	0xbdceee78	-0.10104078
143	0xbeed710b	-0.46375307
144	0xbec54a3a	-0.38533193
145	0x3f012bf0	0.5045767
146	0x3ac3eeff	0.0014948546
147	0x3e2cf197	0.16889034
148	0x3eb1c30c	0.3471912
149	0xbd113a87	-0.035456207
150	0xbf02f4f2	-0.51155007
151	0xbda98628	-0.082775414
152	0x3e8868db	0.26642498
153	0x3e046cea	0.12932172
154	0xbd0fce3a	-0.035108782
155	0x3d41cc3e	0.04731392
156	0x3defc8d5	0.117082275
157	0x3c6acde2	0.014331313
158	0xbe4057da	-0.18783513
159	0x3e8fd3a4	0.28091156
160	0x3f0a9940	0.5414009
161	0x3e0fd1ee	0.14044926
162	0xbdffc3f7	-0.12488549
163	0x3db7134e	0.08939229
164	0xbf1e5f67	-0.6186432
165	0xbeaf753e	-0.34269136
166	0xbdda586a	-0.10661395
167	0x3ebaf9e0	0.36518764
168	0xbef7db76	-0.48409623
169	0x3ee1f0b3	0.4412895
170	0x3df0ddfd	0.11761091
171	0xbc628949	-0.013826677
172	0x3c83b40f	0.01607707
173	0xbe4620de	-0.19348475
174	0x3dea6bbd	0.11446331
175	0x3deab4e0	0.114602804
176	0xbea49322	-0.32143503
177	0x3dce0890	0.10060227
178	0x3c5f234e	0.013619257
179	0xbd327599	-0.04356918
180	0xbe96c307	-0.2944567
181	0x3e9074b0	0.28214025
182	0x3e24e3bd	0.161025
183	0xbe9d927a	-0.30775815
184	0xbe7f1f70	-0.24914336
185	0x3e1efe81	0.15526773
186	0xbbaa7f1f	-0.0052031423
187	0xbf0840ad	-0.5322369
188	0xbdd9d243	-0.10635807
189	0x3dfd4c69	0.1236809
190	0xbe2fd9eb	-0.17172973
191	0x3d988ce7	0.0744875
192	0x3debc5b8	0.11512321
193	0xbe72292e	-0.23648521
194	0xbe4eff79	-0.20214643
195	0xbf466d61	-0.7751065
196	0x3f04674c	0.5172012
197	0xbeb4bea5	-0.353017
198	0x3cfba65a	0.030718971
199	0x3e8aa69d	0.2708024

mean.4.bias f4 [2]
0	0x3dce6ec5	0.10079721
1	0xbdce6ef8	-0.10079759
