save/exp4/it4_model.pt (torch, 45415 bytes, 7 tensors)

sigma f4 [2]
00000000: 01d0 c23e f3e9 89c0
0.3804932 -4.3098083

mean.0.weight f4 [100, 3]
00000000: 864d 8abd 6cea 263e 8080 9d3c 4208 143e
00000010: 7c88 54be ca51 44be f661 68be e647 ecbd
00000020: db42 fbbd ed50 923d 1af2 a6bd 9ddd ebbd
00000030: f868 613e 828a ca3d a2cd 1c3e ea48 77bd
00000040: 9228 35be bc04 c93d 7d36 3cbe 8ea4 fabd
00000050: 8cc2 23bc cd50 f3bd 335a 0ebe 25fc f83d
00000060: 70d5 883e 8c56 83bc a0ca c93c c828 65be
00000070: 8e02 b3bd 3dbe 7a3d ca8b 353e 7a2a aebd
00000080: 1b44 55bd aa4c 6c3e 8053 96be cb9a 4b3e
00000090: b4c3 bfbd c017 723b 845c 43bd 9d57 063d
000000a0: 5b4f 6abd 9114 543e c09a cdbb 6cec 403e
000000b0: bea0 6d3e 7372 f2bd b6cb 29be 4f5a 503e
000000c0: f05b bb3e 1400 c0be 7ab1 703d 50de 4abe
000000d0: 4b2b 77be 3fc2 673d 5873 7d3d f9a5 5a3d
000000e0: 461a 88bd 7c7b 3f3e 76f6 9a3d 1b29 1bbe
000000f0: 30df 5fbc d067 6d3d 4819 ad3d e9c0 2ebe
00000100: c841 b93d d486 fcbd e9ef 66be fc75 d5bd
00000110: 53d0 6c3e 1364 8f3e 92ef 213e 4aed 303e
00000120: 0283 2f3e 06ea 07bd 8cda 1fbe 79f5 423e
00000130: c494 3dbe 5876 11be 72d8 9dbd 1077 4f3d
00000140: 3c76 fe3d bf70 f1bd 670f eebd 4d23 ba3c
00000150: 4acd abbd 5453 62be 7ee6 203e 7411 26bd
00000160: 0ed7 613e d46b 703e 38cc e03d bc9f 813d
00000170: 24f3 c93d 1e45 523b dfae eebc 160e 4b3c
00000180: 1495 b83d 7aca 653e ec19 80bd 58f2 d0bd
00000190: f466 6fbd 6ace eebd 5019 283d b07b 383e
000001a0: 9c43 413e 1607 af3d dc5d 16be 1ee8 eabd
000001b0: abe6 62bd 94d0 30bd 6980 993c efdf 62be
000001c0: d4d8 993d d18a 3cbe 0a35 5bbe c3ff 28be
000001d0: c382 283e c208 6abe b070 3a3e 00ef 04bc
000001e0: b0f1 e5bc f295 1a3e 10bf b6bc f6ff 1a3e
000001f0: 10b1 323e 8993 56be a261 a83d daac 723d
00000200: b590 803d 7053 103d 8834 873d 12ca edbd
00000210: 90f6 fcbc f6d1 6a3e d40b 263e 9924 6dbc
00000220: da10 6bbe d89c 243c 1b4d 28be 86fa 483e
00000230: 560a 16be be73 00bd 6834 e3bc 32fe 083d
00000240: 4120 3e3e ae87 6e3d 0212 123e e298 263e
00000250: aa06 5b3e 9e0d c6bd e81a 5dbd 4838 ee3d
00000260: 9ae0 86bd abc1 d03d 5459 22bd cd0d 24be
00000270: ac44 ab3d 9a39 683d 372b bf3d 92f7 783e
00000280: df01 333e bbd1 6f3e f013 173b 225c 3ebe
00000290: 0ec3 1ebe 969d 1fbe 3cc5 57be a85f dcbd
000002a0: a9ce 63be 0131 5ebe 04a8 07be 750d 93be
000002b0: 9839 ecbd 33e2 893d 52f9 963e e999 2ebe
000002c0: a674 65bc dcb4 743d 52d8 02bd 59b3 c8bd
000002d0: f5b7 7a3e 5012 9cbe ca1d a43d b722 8f3e
000002e0: 58e5 18bd 9cde 733d d0ef 0fbe 003a 5abb
000002f0: c06d 593c 7414 053d 000a f63d 4dd1 503e
00000300: dba5 3cbe 0011 ed3b d8f7 f6bd 8282 43be
00000310: 0854 9ebc 788c 59be ae48 4c3e 802a c4bc
00000320: 1de1 e2bd 911e ca3d 4e23 50be fcbf b9bd
00000330: f87c f5bb 1ddb 8abe 937a 38be 485b 21bd
00000340: f086 3b3e d0a8 6e3e 851c 953e 285d 92be
00000350: 22ee 43bd 9fce fd3d 9653 353e 9274 8cbd
00000360: 6f2b cd3c 700f 38be c9fe aabd 6bc2 513e
00000370: 00bb 27bd 73cc 883c c0ad 20be 9d78 5abe
00000380: d222 13bc 364e 1abe db3c e7bc 8592 c73d
00000390: 26c1 71be d4cf 923d 8e6a 23be da3d f1bd
000003a0: d4c3 bd3d 2683 443e ee76 debd 82cf 53bd
000003b0: 302f 66be b9bf 0ebe 38e2 49be 8026 65bd
000003c0: 5523 ed3d a575 98be 8609 793e 25c3 273e
000003d0: 0241 8bbe 4e9d 03be 2620 433d 0d71 9dbc
000003e0: fbd5 28bd ac2e dfbd 9883 463e be27 0abe
000003f0: a0bd 373e 9b9a 273d fa55 a83c b9cf 4e3e
-0.06753068 0.16300362 0.019226313 0.14456275 -0.2075519 -0.19171825 -0.22693619 -0.11537151
-0.12268611 0.071443416 -0.08151646 -0.11516879 0.22012699 0.098896995 0.15312818 -0.06037227
-0.17691258 0.09815356 -0.1838016 -0.122384176 -0.009995114 -0.11880646 -0.13901596 0.12157468
0.2672534 -0.01603248 0.024632752 -0.22378838 -0.08740722 0.06121658 0.17729107 -0.085041955
-0.052066904 0.2307612 -0.2936058 0.19883268 -0.09363499 0.0036940426 -0.04769565 0.0327984
-0.057204586 0.2071097 -0.006274551 0.18840188 0.2320585 -0.11838236 -0.16581616 0.2034695
0.3659358 -0.3750006 0.058763005 -0.19811368 -0.24137609 0.056581732 0.06187758 0.05338094
-0.06645636 0.1869945 0.0756654 -0.15152399 -0.013664052 0.05796033 0.08452088 -0.17065777
0.0904575 -0.12330404 -0.22552456 -0.10422894 0.23126344 0.28006038 0.15814045 0.17278019
0.1713982 -0.033182167 -0.15610713 0.19038953 -0.18513781 -0.14205301 -0.07707299 0.050650656
0.12424895 -0.11789083 -0.116240315 0.02272191 -0.08388765 -0.221021 0.15712926 -0.04054399
0.22054693 0.23478633 0.10976452 0.06329295 0.098608285 0.0032084654 -0.02913612 0.012393495
0.090128094 0.2244052 -0.06254944 -0.102024734 -0.058447793 -0.11660464 0.041039765 0.18015933
0.18873447 0.085462734 -0.14684242 -0.11470054 -0.055395763 -0.043167666 0.018737989 -0.22155736
0.0751206 -0.1841233 -0.21406952 -0.16503815 0.16456132 -0.22854903 0.1820705 -0.008113623
-0.028069347 0.15096262 -0.022307903 0.15136704 0.17450356 -0.20954718 0.08221747 0.059246875
0.06277601 0.035235822 0.066018164 -0.116108075 -0.030879289 0.22931656 0.1621545 -0.014474058
-0.22955647 0.01004716 -0.16435663 0.19626817 -0.1465238 -0.03136038 -0.02773495 0.033445545
0.18566991 0.058234863 0.14264682 0.16269258 0.21389261 -0.09670566 -0.053980738 0.116318285
-0.06585808 0.10193189 -0.03963597 -0.1602089 0.083627075 0.056695558 0.093344145 0.2431319
0.17481183 0.2341985 0.0023052655 -0.18589833 -0.15504095 -0.15587458 -0.21071333 -0.107604325
-0.22246803 -0.21698381 -0.13247687 -0.28721204 -0.11534423 0.06732597 0.2948709 -0.170509
-0.014004862 0.059742793 -0.03194458 -0.09799833 0.24484237 -0.3048272 0.08013494 0.27956173
-0.037328094 0.05953847 -0.14056325 -0.003329873 0.013270795 0.03249021 0.12013626 0.20392342
-0.18422644 0.0072346926 -0.12058991 -0.19092754 -0.019327179 -0.21244991 0.199496 -0.023946047
-0.11078093 0.09869111 -0.20325968 -0.09069821 -0.007491704 -0.27120295 -0.18015508 -0.039393693
0.18313193 0.23306584 0.2912332 -0.28586698 -0.047834523 0.123929255 0.17707667 -0.068581715
0.025045125 -0.17974639 -0.08349378 0.20484321 -0.04094982 0.016699051 -0.1569128 -0.21335073
-0.00898047 -0.15068898 -0.02822726 0.09744743 -0.23608837 0.07168546 -0.15958616 -0.117793754
0.09265867 0.19190654 -0.10862528 -0.051711567 -0.22478938 -0.13940324 -0.19715202 -0.05594492
0.11579005 -0.29777256 0.24320039 0.16383035 -0.27198035 -0.12852976 0.04763808 -0.019218946
-0.041219693 -0.10897574 0.19386137 -0.13491723 0.1794343 0.040918928 0.02054881 0.20196427

mean.0.bias f4 [100]
00000000: 0000 0000 d0fb 123f 0000 0000 e21a 2a3d
00000010: d2a3 8fbd 68bc aa3e 42ac aebd ae69 15be
00000020: 0630 753e a16c 30bb 2a0e b23e 348d c13e
00000030: 0000 0000 3c8e 89bd 0000 0000 a270 b9bd
00000040: 46da 523f b8d6 5c3e b69c dfbb a116 4bbe
00000050: 0000 0000 0000 0000 dab5 28be 0b3b 843e
00000060: 355f b6bd 0939 ba3e 0000 0000 7e1d 1abe
00000070: a396 d03e 0000 0000 1ac7 3d3e 5196 8bbc
00000080: 0000 0000 0000 0000 0000 0000 1746 03be
00000090: 06a8 84bc 0000 0000 7eba 82be 0000 0000
000000a0: 0000 0000 0000 0000 e2c9 09bd 0000 0000
000000b0: 0000 0000 e2f6 65bd 0000 0000 41cd 02be
000000c0: b356 54be 5dcb 45be 0000 0000 6713 81bd
000000d0: b4be f6bd 0a42 d0bd c09d 8abd a3aa 91bd
000000e0: e359 d3bc 6a1c 8dbe b5b6 ee3e e20d 95be
000000f0: c623 bc3e 4ee7 a73e 0000 0000 1cc7 d0bd
00000100: 0000 0000 0000 0000 923f 503e bc77 68be
00000110: 5690 a33e 0000 0000 1ee5 2c3f 593f eebe
00000120: a88f 00be f2f5 9fbd 3e79 813e 1e1e 15bc
00000130: 0000 0000 0000 0000 db9f 32be d183 d3bd
00000140: 2a59 933e 1593 1e3c 6a55 28be 0000 0000
00000150: ee53 febd ccde 723d 0000 0000 fe87 1f3f
00000160: ebf6 ab3e 0000 0000 0000 0000 de16 093f
00000170: 0000 0000 0000 0000 0000 0000 6eee 3d3f
00000180: 5674 583f 658e b73d d0f6 cebd 7446 9c3e
0.0 0.57415485 0.0 0.041529544 -0.07013668 0.33346868 -0.08528949 -0.14591095
0.239441 -0.0026920217 0.3477643 0.37803042 0.0 -0.06716582 0.0 -0.09054686
0.8236431 0.21566284 -0.0068241013 -0.19832851 0.0 0.0 -0.16475621 0.25826296
-0.08904878 0.3637164 0.0 -0.15050313 0.40739927 0.0 0.18532982 -0.01703945
0.0 0.0 0.0 -0.12819706 -0.016193401 0.0 -0.25532907 0.0
0.0 0.0 -0.033639796 0.0 0.0 -0.05614365 0.0 -0.1277361
-0.20736198 -0.19315858 0.0 -0.06302529 -0.120480925 -0.10168846 -0.0676837 -0.071126245
-0.025799697 -0.2756074 0.4662377 -0.29112154 0.36746043 0.3279366 0.0 -0.10194227
0.0 0.0 0.2033675 -0.22701925 0.31946057 0.0 0.67537105 -0.46532705
-0.125548 -0.07810582 0.25287813 -0.009101419 0.0 0.0 -0.17443793 -0.10327876
0.28778964 0.009678622 -0.16438833 0.0 -0.12418352 0.059294507 0.0 0.6231688
0.3358682 0.0 0.0 0.5355052 0.0 0.0 0.0 0.7419194
0.84552515 0.089627065 -0.101056695 0.305225

mean.2.weight f4 [100, 100]
00000000: b024 53bc 5bed f73d 400a b6bb 5b35 adba
00000010: 9f63 9cbd 85fb 083e 49fb 16bd 0638 cd3c
00000020: 0966 0ebe 7b56 733d ac00 a9bd e672 2dbd
00000030: c0c2 7dbc 6d01 7f3d a0ad e73b 06b8 f73c
00000040: feb6 ecbd 2529 07be 4c7f 7f3d c011 92bd
00000050: 50ea 18be 1965 92bd 1912 2ebe 90de 0a3d
00000060: 9556 523c cebf 223e 449b c3bd 6390 b7bd
00000070: 3b4c 233d 8c6a 3abd ebfe 093e c376 d73c
00000080: c0a4 76bb 1917 88bd d053 d63d 0435 a6bd
00000090: a99c 8e3d 9ce0 e33d a43b 0bbe 1c26 1dbe
000000a0: 5c0b c8bd 4c35 aa3d e543 c4bd f81f 863c
000000b0: 203c d63c 898f 0c3d 8ae2 b4bd 8c73 c53b
000000c0: 6caa f53d 70e0 b73d b087 073d cf10 0dbe
000000d0: 97d5 a63d 214b 8dbd 12b3 f63d 163d 933d
000000e0: 0955 02bd d7e8 893d beeb 95bd 2873 fc3c
000000f0: 8236 3ebc 643e ca3a e0cd 793d f3b6 2c3e
00000100: 8992 9cbd 9a32 2d3e 7d80 03bd 0d93 283e
00000110: 3474 1b3d b06a 673c 7f58 73bd a4ef babd
00000120: ab80 2ebe 4e0c c4bd aea4 88bc 2f35 153e
00000130: 30f5 bf3d 5064 f73c 40a7 2bbe 44c8 f93d
00000140: 1aad ed3d 1109 a2bd d899 8f3d c0c6 13be
00000150: 743e b5bd 82ce 56bd c2d1 20be 50b3 65bc
00000160: cdf8 0c3d e080 4e3d 14fb 253e 3417 c63d
00000170: 5447 22be aeaf 5ebd 40bb c63d 4d08 2dbe
00000180: ac6c 45bc 9483 823d 4dfe eebd 309a 143e
00000190: 45dc e9bd a21d d5bd 56a2 06be 17a5 f0bc
000001a0: 0299 753d 6642 7d3d d7d3 afbd f7e4 1b3e
000001b0: ae67 afbd e62b 0b3e 80fb 8c3d a0d8 22bd
000001c0: c02c 033e 0630 743d 98ce 16be d53f b63d
000001d0: a366 443e 1c1f f9bd 1c90 15bd f77f 0fbe
000001e0: 4cd2 ed3d 7433 bc3d 79a7 023e 4004 763d
000001f0: 87ee ecbc a829 51bb 2126 04be 306d e13d
00000200: 3ac2 61bd 80b8 9b3c e208 363c 45c1 563d
00000210: 027a 0ebe 10be e0bc 30a6 a33d e181 03be
00000220: 6668 98bd 7c53 c3bd 91f6 14be d42a 2d3e
00000230: f63c 193e 7c48 de3d 0868 12be 8032 cfba
00000240: b847 023d cf42 9d3d 64e4 0e3d 4f3c d9bd
00000250: af37 d53b 538e 0fbe a0e3 b13d 6200 de3d
00000260: 7925 7bbd 71cb 19be 5206 9f39 cbf8 b33d
00000270: 9ba3 f3bd f346 943d 1104 0b3e 78ec 13be
00000280: e444 e03d 7cd9 b93d 718c b6bd cce8 143e
00000290: 9e96 aabd 22ce 063e aaa9 00be 78b8 0b3e
000002a0: 8ba0 d6bc 34ac 1cbe 278f e33d 3b23 69bc
000002b0: 4a8b 473d 3c2d a43d d806 fa3c cc99 623d
000002c0: f37d 15be 6f8b 1cbe 40ab a6bd ad0c babd
000002d0: af01 1bbe 0e6f f53c 17cc 60bc 243e 1cbd
000002e0: 76ad ffbb 99ff af3d eba0 83bd 161a 053d
000002f0: 5fe5 f0bb 444b ab3d 90f2 96bc 3429 a13d
00000300: 6ee3 8abd 6464 093e 80d1 ee3c e87e 633d
00000310: 594d de3d 00dd 25be 2e67 9d3d d171 1a3e
00000320: 5c71 d43d aac6 d73d c177 0ebe 1920 1b3e
00000330: b766 0c3d 5f28 32be 080f 213e 8bbb 083e
00000340: e52f 04bd 9ae9 2d3e efb2 043c 4f57 033e
00000350: fec8 1cbe 7801 2abe 08aa 453d 96b1 55bb
00000360: e641 23be 2c4b ccbd 24d4 c63d 168f e33d
00000370: a485 06be dc96 9ebd b4da deba 0a61 1fbc
00000380: 1fee 01be 0ed1 ff3d 58b0 f7bd f5b2 fb3d
00000390: a09b eabd 6838 30be 98b4 1e3d 6706 aabd
000003a0: 0023 ef3d 6c36 6bbd 807b 873c bbc2 043e
000003b0: ee53 e6bd 830a 92bd c7f6 ec3d 1a9d 153e
000003c0: 204f f73c ac58 083e 2a06 d43d d092 c83d
000003d0: 20bf dfbb 0a5f 2b3e 6c88 61bd 08f9 3d3c
000003e0: 2ed6 5ebd b56c 50bc c82b d53d a4e3 073e
000003f0: 2f67 c83c 103a e33d 1019 fe3d 8121 af3d
-0.012887165 0.12105819 -0.005555421 -0.0013214754 -0.07636189 0.13377197 -0.036860738 0.025051128
-0.13906111 0.059408646 -0.08252081 -0.042345904 -0.015488327 0.06225722 0.0070702583 0.030239116
-0.115583405 -0.13199289 0.06237726 -0.07132292 -0.14933133 -0.07148189 -0.16999091 0.03390366
0.012838026 0.1589348 -0.09551099 -0.089630865 0.03986762 -0.045511767 0.1347615 0.026301747
-0.003763482 -0.066450305 0.10465205 -0.08115581 0.06963474 0.11126825 -0.1359697 -0.15346569
-0.09767792 0.08310947 -0.09583262 0.016372666 0.026151717 0.034316573 -0.088322714 0.006025737
0.11995396 0.08978355 0.033088386 -0.13775943 0.08146208 -0.06899095 0.12045874 0.071893856
-0.031819377 0.06733864 -0.07320355 0.03081663 -0.011609675 0.0015429971 0.060987353 0.16866665
-0.07645137 0.16913834 -0.032104958 0.16462345 0.037952617 0.014124557 -0.05941057 -0.09127739
-0.1704127 -0.095726594 -0.016680088 0.14571069 0.09372938 0.0301992 -0.1676302 0.12196401
0.11605282 -0.079118855 0.07011765 -0.14431286 -0.088498026 -0.052443035 -0.15705016 -0.014019802
0.034416962 0.050415874 0.1620906 0.096723944 -0.15847522 -0.05436676 0.09703684 -0.16897698
-0.012049835 0.06372753 -0.11669598 0.14511943 -0.11418966 -0.10406043 -0.13147864 -0.029375596
0.059960373 0.0618309 -0.08585327 0.15224062 -0.08564697 0.13590965 0.06883907 -0.03975737
0.1281004 0.05961611 -0.14727247 0.08898894 0.19179778 -0.12164137 -0.036514387 -0.14013658
0.116123766 0.091895014 0.12759198 0.060062647 -0.028922332 -0.0031915698 -0.1290517 0.11007154
-0.05511687 0.019008875 0.011110516 0.05243041 -0.1391373 -0.027434379 0.07990682 -0.12842514
-0.074417874 -0.09537408 -0.14547183 0.16910869 0.14964661 0.10853669 -0.14297497 -0.0015807897
0.031806678 0.07678758 0.03488578 -0.10607206 0.006506882 -0.14019136 0.08685994 0.10839917
-0.061315034 -0.15019013 0.00030331552 0.08787688 -0.1189644 0.07240095 0.1357577 -0.14445674
0.1095064 0.09074685 -0.08913506 0.1454193 -0.08329509 0.13164571 -0.12564722 0.13644588
-0.0261996 -0.15300065 0.111112885 -0.014229591 0.04871682 0.0801644 0.030520841 0.055322453
-0.14598827 -0.15287565 -0.08138132 -0.09084449 -0.15137361 0.029960182 -0.013720534 -0.0381452
-0.0078026606 0.08593673 -0.06427177 0.03249558 -0.007351562 0.08363965 -0.01842621 0.07869187
-0.0678166 0.13417202 0.029152632 0.05554095 0.10854597 -0.16197586 0.076856956 0.1508248
0.10373184 0.10535939 -0.1391287 0.15148963 0.034277644 -0.17398213 0.1572839 0.13352792
-0.03227224 0.16983643 0.008099302 0.12826274 -0.15311047 -0.16602123 0.048257858 -0.003260707
-0.15943107 -0.099752754 0.09708431 0.11111276 -0.13136917 -0.07743618 -0.0017002434 -0.009727726
-0.12688492 0.12491046 -0.12094182 0.12289993 -0.11455464 -0.17209017 0.038746446 -0.083020024
0.116765976 -0.057424948 0.016538382 0.12964909 -0.11246477 -0.07130911 0.115705065 0.1461071
0.030189097 0.13315076 0.10352738 0.09793627 -0.006828204 0.16735473 -0.055061743 0.011595018
-0.054403476 -0.01272123 0.10408741 0.13270432 0.024463264 0.11095059 0.12407124 0.08551312

mean.2.bias f4 [100]
00000000: 4aaa 7dbb 7561 723d 0c43 0abd 3f5a b3bc
00000010: e8ee fc3d 0000 0000 741f a6bb 6239 77be
00000020: 57b4 0cbb aebc a1bc eb84 96bd dbcf 3cbc
00000030: 55a3 aebc f96b d43e 0000 0000 3ef7 103f
00000040: 522b 60bd 93c6 b43e eeaf abbc 181c a63e
00000050: 221b 89bb dc77 0ebd d244 113e 4ea2 723b
00000060: 50b1 453d 5093 1fbd afc9 7cbc 0000 0000
00000070: b8e3 a43c 869d 863d 61ef ae3d b38e 533e
00000080: 7cd6 d3bd 9825 b43d 53f5 d5bb 0000 0000
00000090: 5653 3fbe 0000 0000 fed6 883e 6054 253f
000000a0: 507a ac3c bc05 053f cee4 a5be 6889 963e
000000b0: 70e2 efbc 0000 0000 1058 9cbd 2cbc 523d
000000c0: 0000 0000 1851 833e 0000 0000 1b72 963d
000000d0: 1f32 dbbe 73e9 8c3e 0000 0000 8160 a13e
000000e0: 4b87 523d 06fb 9cbc 6b9b a9bc e802 e73d
000000f0: 26b7 0dbd 095a e0bc 9c8f e03d e7ab 173f
00000100: 0f1e 553d de41 573e 4a74 b73d a4f7 843e
00000110: ab81 703c 8ee0 ec3e 4cd5 4b3e 28bc 8b3e
00000120: 989b bcbd 1bcf 113d c8a5 01be 0000 0000
00000130: 4034 c23c 009e 2b3e 0000 0000 fd8c 0f3d
00000140: 4db2 c13e 56e7 73be 2623 a03e 10b8 56b8
00000150: e5aa 123e d95d d8bb 0000 0000 39e6 bbbd
00000160: 0000 0000 0000 0000 ce60 773e 1231 b43f
00000170: 0000 0000 68b7 af3e 54f4 963e c69b d5bd
00000180: 0000 0000 df10 213e 0000 0000 03b6 f2bd
-0.0038706237 0.059174974 -0.033755347 -0.021893619 0.12350255 0.0 -0.0050696675 -0.24142984
-0.0021469796 -0.01974329 -0.07349571 -0.011524166 -0.021318117 0.41488627 0.0 0.5662726
-0.054728813 0.3530775 -0.020957913 0.3244331 -0.0041841427 -0.034782276 0.14186409 0.003702301
0.0482648 -0.038958848 -0.0154289445 0.0 0.020128116 0.06573014 0.08541752 0.20659904
-0.10343644 0.08796233 -0.006529489 0.0 -0.18684134 0.0 0.26726526 0.6458187
0.021054417 0.51961875 -0.32401127 0.29401708 -0.029282779 0.0 -0.07633984 0.051448986
0.0 0.25647807 0.0 0.07345983 -0.42811677 0.27521858 0.0 0.3151894
0.051398557 -0.019162666 -0.020703992 0.11279851 -0.034598492 -0.027386682 0.10964891 0.5924668
0.05203062 0.2102122 0.08957727 0.25970185 0.014679353 0.46265072 0.19905585 0.2729199
-0.09209365 0.0355979 -0.12660897 0.0 0.023706555 0.16759491 0.0 0.035046566
0.37831345 -0.23818716 0.31276816 -5.1192997e-05 0.14323004 -0.0066029844 0.0 -0.09174771
0.0 0.0 0.24158022 1.4077475 0.0 0.34319615 0.29483283 -0.10430102
0.0 0.15729092 0.0 -0.11851122

mean.4.weight f4 [2, 100]
00000000: 8a87 f93d c4dc 913e ec2f 12be 8ffe 2cbe
00000010: 1c88 c13d 0ac5 483e b2f7 2e3e 0103 01be
00000020: 721e 793d a2eb 20bd 8f9a 593e 331f d43d
00000030: 8708 c6bd 30d5 d23e 3044 8f3c f739 c63e
00000040: 648d 87be 48ba ba3e d75a 30be c9f7 0d3f
00000050: 93dc 8bbd 8145 033e 90a7 5e3e 1c2f 263e
00000060: f75d a7bd 2ea2 f43d 8c8f 6c3d a000 893b
00000070: 9465 263d 15df d33d e854 9e3e ca34 963e
00000080: e440 51bd 1afc b43d f070 59bd 5cd4 b2bd
00000090: 84c9 de3d cc87 653e 50d6 d13e e313 3f3f
000000a0: 93c0 183e f950 483f 75d2 603d b9b1 a33e
000000b0: 5c0d 9a3d 88de 46bd cd89 a53d 5104 ca3d
000000c0: a8e9 913d 7b48 333e cce7 35be 1cb3 f7bd
000000d0: 0485 29be 61e5 ad3e 7c14 6dbd 2868 163e
000000e0: 4642 503e c751 88be 82e1 313d 70df b33e
000000f0: 4897 f6bd 4a46 39bb 7e60 d63e 82f2 433f
00000100: dbd8 943e 57d2 813e 5e99 2a3e 4c17 b83e
00000110: c585 923c a4ab 1a3f ecb2 643e 2e29 ae3e
00000120: 9613 41be 5c5a 2a3e fe2f 2ebe d0ff 253d
00000130: ebd0 1c3e 8122 913e 8a18 043e f9e5 d7bd
00000140: d198 0c3f 0871 5dbe 6bde 0c3f 26e6 ee3d
00000150: 12a7 4d3d eec7 a13d b2dc 083e 919e b0bd
00000160: 0e30 213e d443 943d 5753 a43e 34dd 873f
00000170: 4066 c63c 122c b93e d8c6 e73e 1fc6 dabd
00000180: ee51 093e 4c3e 623e f831 a0bc e5fe 20be
00000190: 7fa7 3c3e d43b 3c3d c0e0 51bd cce4 223d
000001a0: 8849 59be 12d5 dfbd 8fff 763e f256 c63d
000001b0: e6fc 0abd 38d6 063c 71d0 343e d251 073e
000001c0: 3d6d da3d 7e1c f7be 1af3 c6bd 6fe0 a8be
000001d0: bd45 d53d 45c2 18be 7310 2cbe dc9a 02bf
000001e0: 97f1 c2bd e803 013e 4c06 5cbe 8e26 323e
000001f0: 38e8 4abe dc5b 2abd 757c 523e fe74 d0bd
00000200: c727 1cbd e2db 2ebe 048c a8bd 4afa 8abe
00000210: 8223 63be ac48 3dbe 37a8 c53d e2cc 80bd
00000220: f4af 40be bc4d 4fbd 9848 c9be 640e 1bbf
00000230: e602 21bd da3a e1be 82d6 773e 9714 8dbe
00000240: 4e19 c53d 4826 073d bcce 523e 904b 06bd
00000250: d8b0 913d 11a0 f1be 0e38 6e3e 5c47 93be
00000260: 4f88 413e 5bf2 b3be b812 553d 8071 aebe
00000270: aa35 263e 79bc 3abe 06eb 4f3e b6be be3d
00000280: 81b7 8f3d aff6 633e 14c3 933c dbd0 0bbf
00000290: 2065 a33c 3396 8fbe 8994 133d 0c61 dcbe
000002a0: 490d 90bd f32c 03bf dd2c 98be 149e afbe
000002b0: fcb0 c9bd 7ef4 50bd 5613 78bd 608e df3d
000002c0: b050 953c e4b1 54be d82d 2f3e 1c82 2fbe
000002d0: b8d9 0abf fb09 563e 4d3a 6dbe 5a20 f03d
000002e0: 3fa4 a1be 7302 2c3e a85e 4bbe 7f99 92bd
000002f0: 3a26 fabd f8c3 bb3d 664f 61be 4619 a1bf
00000300: 40bf 5fbe 94d7 fbbe 08cc b1be 9ab0 b2bd
00000310: aa61 afbd 80ec 25be 3067 2d3d 679d 493e
0.12184055 0.28488743 -0.14276093 -0.16893981 0.09449789 0.19606414 0.17086676 -0.12598802
0.06082005 -0.039287217 0.21250366 0.10357513 -0.09669595 0.41178274 0.017488569 0.387161
-0.2647506 0.36470246 -0.17222153 0.55456215 -0.068291806 0.12819482 0.21743608 0.16228908
-0.08172219 0.11944996 0.057754084 0.0041809827 0.040624216 0.10345284 0.30924153 0.2933715
-0.051087275 0.08837147 -0.05308622 -0.087319106 0.1087828 0.22415084 0.4098382 0.7463972
0.14917211 0.78248554 0.054888207 0.3197153 0.07522079 -0.048552066 0.08082924 0.098641045
0.071246445 0.17508118 -0.17764205 -0.12094709 -0.16554648 0.33964065 -0.057880864 0.1468817
0.20337781 -0.2662489 0.04342795 0.35131407 -0.12040573 -0.0028270655 0.41870493 0.7654191
0.29071698 0.2535579 0.16660067 0.35955274 0.017886052 0.6041815 0.22333878 0.34015793
-0.18855128 0.16636032 -0.17010495 0.040527165 0.15314071 0.28346637 0.12899986 -0.10541911
0.5492068 -0.21625149 0.5502688 0.11664991 0.05020816 0.07899462 0.13365439 -0.08623994
0.15740988 0.072395 0.32094833 1.0614381 0.024218678 0.36166435 0.45268893 -0.1068232
0.1341016 0.22094077 -0.019555077 -0.15722235 0.1842327 0.045955494 -0.05123973 0.03976898
-0.21219456 -0.10929312 0.24120925 0.09684552 -0.03393259 0.008229785 0.17657639 0.13214806
0.10665367 -0.48263925 -0.09714337 -0.3298373 0.10413692 -0.14917858 -0.1680315 -0.51017547
-0.09518736 0.12599146 -0.21486777 0.1739752 -0.19815147 -0.04159151 0.20555289 -0.101785645
-0.038123872 -0.17076066 -0.08229831 -0.2714408 -0.22181514 -0.18484753 0.09651225 -0.06289078
-0.18817121 -0.050611243 -0.39313197 -0.60568833 -0.039309405 -0.43990213 0.24202922 -0.2755477
0.09623967 0.032995492 0.20586675 -0.032786906 0.071138084 -0.47192433 0.2326357 -0.2876538
0.18899654 -0.3514584 0.052019805 -0.3407097 0.16231409 -0.18235959 0.20304498 0.09313719
0.070174225 0.22262071 0.018037356 -0.54615563 0.019945681 -0.2804428 0.036030326 -0.4304279
-0.07033784 -0.5124046 -0.29721728 -0.34300292 -0.0984821 -0.051014416 -0.060565315 0.10915828
0.018226951 -0.20770985 0.17107332 -0.17139477 -0.5423846 0.20902245 -0.23166771 0.117249206
-0.31570622 0.1679781 -0.19860327 -0.07158183 -0.122143224 0.091682374 -0.22002944 -1.2585838
-0.218503 -0.4918791 -0.34725976 -0.0872509 -0.0856355 -0.16203499 0.042334735 0.1968895

mean.4.bias f4 [2]
00000000: 8089 393f 5889 39bf
0.72475433 -0.72475195
