save/exp4/it4_model.pt (torch, 75431 bytes, 7 tensors)

sigma f4 [2]
000000 07 57 e7 bf a8 4a 66 3e
       -1.8073434 0.22489417

mean.0.weight f4 [128, 10]
000000 05 98 ea bd 5c f6 67 bc 05 1d 28 bd 12 ab 25 3d
       -0.11454777 -0.014157858 -0.0410433 0.04044635
000010 5c f1 1a bc b5 fc d6 bd 8b a6 94 bd 4e 92 85 bb
       -0.009456959 -0.10497419 -0.07258328 -0.004076279
000020 6b d2 03 be f8 bd 12 3c d2 92 1a 3e 31 8b 7c 3d
       -0.12873237 0.008956425 0.1509507 0.06165618
000030 32 e5 95 3d ae 56 68 3e c1 a1 be 3c 48 e7 31 be
       0.07319106 0.22689316 0.02327049 -0.17373383
000040 66 51 17 3e ef 22 52 bd 7d 56 ab bd 2a 5b bc bd
       0.14777145 -0.051302847 -0.08366106 -0.09197076
000050 65 f8 43 be 38 14 30 be 15 f8 6d 3e 88 0a 08 3e
       -0.19137724 -0.17195213 0.23239167 0.13285267
000060 eb eb b5 3d 3e 85 a8 3e b8 a7 0c be 44 49 a2 bd
       0.088828884 0.32914156 -0.13735855 -0.079241306
000070 67 6b 86 3d 33 7a 35 3e 01 a9 02 be 88 92 16 3e
       0.06563454 0.17722397 -0.12759782 0.14704335
000080 9b 4f 48 bd ff 54 94 3d 9e 5a 9b bd 3f 69 49 be
       -0.048904043 0.07242774 -0.07585643 -0.19669054
000090 eb 9f 35 be 5b 6c d6 bd 4c 5a 1f 3e 69 b7 3a 3e
       -0.17736785 -0.10469886 0.1556179 0.18234028
0000a0 70 aa 92 be 3e 9c e0 bc 20 55 90 be ac 51 da be
       -0.28645658 -0.027418252 -0.28189945 -0.42640436
0000b0 6a ee 06 bd 3d e3 b1 3e 67 5a ed bd 86 8c 82 be
       -0.032942213 0.34743682 -0.115895085 -0.25497836
0000c0 1b 08 3b 3e 7e 18 97 3e b0 47 22 3e 72 d8 f8 bd
       0.1826481 0.29510874 0.15847659 -0.12150659
0000d0 29 a8 6c be 96 f9 ac 3d ab 3f ec 3a 32 4a ed bd
       -0.23111023 0.08446042 0.0018024346 -0.11586417
0000e0 ae 08 09 bd 63 cb 5a bd b2 fb d0 3d 58 02 65 bd
       -0.033455543 -0.05341662 0.10204257 -0.05591044
0000f0 d9 d6 5b 3e b8 e9 a5 3e 67 36 56 3e 1d e3 65 bd
       0.21468677 0.32404876 0.2091919 -0.056124795
000100 8e 79 d0 3c 30 32 de 3d 9e a1 43 be 08 e6 8f 3d
       0.025448587 0.10849416 -0.19104621 0.07026297
000110 3a fc 52 bd 8d 8e 39 3e 3c cc 49 bb 09 80 c7 bd
       -0.051510073 0.18120785 -0.00307919 -0.09741218
000120 e5 cf 1d 3d f9 80 c1 3d 80 6f 52 be 11 2e ab bd
       0.03852834 0.09448428 -0.20550346 -0.08358396
000130 c1 dc c0 bd 76 f7 d3 bd 4a 0c bf 3d 31 94 40 3e
       -0.094171055 -0.10349934 0.09328516 0.1880653
000140 47 40 c6 3c 96 2a da 3e 34 6b 2c bd 79 10 6d bd
       0.024200572 0.42610615 -0.042094424 -0.057877038
000150 34 3a 48 bd d2 c0 9c be 89 84 44 be a6 19 9f be
       -0.04888363 -0.3061586 -0.19191183 -0.31074256
000160 bd ee d6 bc 5c 2c 7d 3d f2 fb 73 3d 11 b7 27 3e
       -0.026236886 0.061809883 0.059566446 0.16378428
000170 15 39 2f 3e 47 54 7d bd d8 cd c4 bc c9 0a 90 bd
       0.17111619 -0.06184795 -0.024023935 -0.07033307
000180 bb d4 b4 3d c5 69 5c be df 82 89 3d 50 8c 55 3c
       0.088296376 -0.21524723 0.06714415 0.013033941
000190 7b 71 b1 3c c0 f6 61 bd 6f 8f 39 be 02 90 c8 3d
       0.021660557 -0.05516696 -0.18121122 0.09793092
0001a0 5d 0f b0 bc 9f 73 37 3e 72 a8 de 3b 85 e5 a9 3d
       -0.0214917 0.179152 0.0067949826 0.082957305
0001b0 ac e8 e7 3d 9b 5e 23 3e 06 e1 a9 3d 27 00 8b be
       0.113236755 0.15954058 0.08294873 -0.27148554
0001c0 1c 3d 32 3e 63 51 31 3d a0 8c 80 3e 43 52 08 3e
       0.17406124 0.043290507 0.25107288 0.1331263
0001d0 eb 27 a1 3c d1 e5 ff bd ca 96 63 be e3 80 48 3d
       0.019672355 -0.12495006 -0.2222549 0.04895104
0001e0 dc 55 06 3e f5 1a da 3a 84 ee 3b 3e 22 7a 58 3e
       0.1311869 0.0016640114 0.18352705 0.2114034
0001f0 7a 58 5f bd bd 7b 9f 3b 14 f1 36 3c 35 d0 a3 bd
       -0.054527737 0.0048670457 0.011165876 -0.07998697
000200 ad 3d 3a 3d ca b9 44 bd 69 f9 03 be b6 37 33 be
       0.045468975 -0.048028745 -0.12888111 -0.17501721
000210 f4 6f 3a bd 18 e7 ac 3e 51 04 47 3e 11 92 28 3e
       -0.045516923 0.3377006 0.1943524 0.1646197
000220 35 d3 67 bd e3 b9 5b 3c ff 8f 0d bd 51 1f 8f bc
       -0.056597907 0.013411018 -0.034561154 -0.017470988
000230 38 d4 2b be 8c fd 3e be fc 1e 3a 3d 41 fd 01 be
       -0.16780174 -0.18651408 0.045439705 -0.12694265
000240 80 19 25 3e 78 99 9d 3e ea 01 43 3e a9 24 ce bc
       0.16123009 0.3078115 0.19043699 -0.025163965
000250 0e 20 42 be 87 20 5d be b0 81 04 bf bb f7 c3 be
       -0.1895754 -0.2159444 -0.5176039 -0.3827494
000260 46 70 0f 3e ca c6 e3 3e ed d5 c1 3e 91 7e 11 bd
       0.14007673 0.44487602 0.37858525 -0.035521094
000270 07 f9 59 bd 7a ea 3f bd d7 c5 77 bd f1 5a 66 3e
       -0.053216007 -0.046854474 -0.06049141 0.22495629
000280 7a b5 4b 3c 81 f5 17 3d 50 55 1a bc 7e 9c 96 3d
       0.012433404 0.037099365 -0.009419754 0.07354067
000290 4c 28 15 be 45 c0 1c be ce 29 2d 3c b7 f3 f5 3d
       -0.14566153 -0.1530772 0.010569049 0.120093755
0002a0 39 ee f7 bd 55 24 aa 3d 7f 7d 7d 3c c8 60 48 bd
       -0.12105984 0.08307711 0.015471815 -0.048920423
0002b0 a5 9d 44 be e1 a0 bb 3d d0 15 80 be e5 b7 81 bc
       -0.19200762 0.091615446 -0.25016642 -0.015834758
0002c0 25 10 3f 3d d0 82 5d 3e 89 ab 4c bd 70 ad 16 3d
       0.046646256 0.21631932 -0.049968276 0.036786497
0002d0 b6 4a 4a 3d 56 01 55 3e 5f ec 04 bc a3 ea 17 3e
       0.049387656 0.20801291 -0.008112996 0.148356
0002e0 14 7d 04 3e 1c a8 b6 bd 3a db e8 3d 43 bb 44 be
       0.12938339 -0.08918783 0.11369939 -0.1921206
0002f0 21 c6 81 bd 12 97 b8 bd 87 af c2 bd a7 e4 17 3e
       -0.06336618 -0.090131894 -0.095061354 0.14833318
000300 65 92 d9 be 41 1a 4f 3e 00 ab d3 be a5 4e 2c 3c
       -0.42494503 0.20224859 -0.413414 0.010516797
000310 c0 8a f0 3d 54 a9 b6 3d 9b 7f ae be f3 a3 3d 3e
       0.117452145 0.089190155 -0.3408173 0.18519573
000320 a8 3b bb 3d 66 d6 f7 3d ea 96 2b 3d 2d 9d 82 3d
       0.09142238 0.1210144 0.04189197 0.06377635
000330 ba 93 c0 bd ad 80 05 be 9d f0 8a 3e b7 b1 0a be
       -0.094031766 -0.13037367 0.27136698 -0.13544355
000340 d3 a5 2f bc b1 65 31 bd 6d b3 8e 3e de ec 8f bb
       -0.010720688 -0.04330987 0.27871266 -0.0043922504
000350 ab 56 99 be 58 96 d1 3d 08 a1 26 3e 04 c8 22 be
       -0.29948935 0.10233754 0.16272366 -0.15896612
000360 30 12 31 3e ad 03 3b bc 8d 8e e9 3d df 57 e7 be
       0.17292094 -0.011414451 0.114041425 -0.45184228
000370 5a d9 42 3e ed 05 22 bd e1 07 2c 3e f2 15 96 bd
       0.19028226 -0.039556433 0.1679988 -0.073284045
000380 5d f4 18 be b5 82 83 3e 78 64 5e be d7 76 81 be
       -0.14936967 0.2568566 -0.21718013 -0.2528598
000390 d6 63 b4 be 2f f9 f4 3d d1 00 04 3e cb ac ec 3d
       -0.3523242 0.119615905 0.12890936 0.11556395
0003a0 98 d4 98 bd 9b a4 8c 3d de 27 04 3c cb 63 d8 3b
       -0.07462424 0.068673335 0.008066146 0.006603693
0003b0 8d bb fc 3b 25 bc e8 bd c2 53 81 3e 6b ad 58 be
       0.0077127875 -0.11364011 0.25259215 -0.21159904
0003c0 71 fb 80 3d 81 c2 04 be 70 c0 a5 3c 40 47 c3 bd
       0.06297959 -0.12964822 0.020233363 -0.09535074
0003d0 bc b3 2f 3e 3f 05 03 be f4 8e f2 3d 95 d5 7d be
       0.17158407 -0.1279497 0.118436724 -0.24788506
0003e0 ce c8 82 3e 84 bc b3 be 2c 6f 10 3e 34 68 2d be
       0.25543827 -0.35104764 0.14104909 -0.16934282
0003f0 29 7d 57 bd 4f 19 73 bd 72 db da bb 7f 6f 09 bd
       -0.052609596 -0.059350308 -0.006678992 -0.033553597

mean.0.bias f4 [128]
000000 91 f9 c3 bc 48 9b d8 bb 64 52 91 bc 1f 65 58 3d
       -0.023922713 -0.006610308 -0.017739482 0.05283081
000010 2d b7 4b 3d 6f 10 ee ba b7 86 41 be 7c 90 55 3d
       0.049735237 -0.0018162857 -0.18899046 0.052139744
000020 e2 96 d8 3d 1c b4 15 be 3b 6f f0 bc e6 e6 7c bd
       0.105756536 -0.14619488 -0.029349914 -0.06174364
000030 12 f8 98 bc 7a 4e 9e bd 10 ff bb 3b 23 0c 91 bd
       -0.018672977 -0.07729812 0.005737193 -0.07082393
000040 5b c4 9a 3c 91 08 95 3d 29 20 a7 3c bf 83 89 3d
       0.018892458 0.072770245 0.020401077 0.06714582
000050 36 f2 93 bd 90 a1 d6 bc cd 8b 3e be 22 6d 32 3c
       -0.072239324 -0.026200086 -0.18608017 0.010890277
000060 79 55 a6 3b 0b 6b e1 bd bc df bf bc 21 25 9e bd
       0.005076107 -0.11006745 -0.023422115 -0.077219255
000070 f3 8f 90 3c a7 5f af 3c 44 8a 82 bc d2 7a cf 3d
       0.017646765 0.021407915 -0.01593507 0.10130848
000080 7a 1d a9 bd 3a 44 d1 bd 4f a8 8d bc 49 a5 12 3c
       -0.08257575 -0.10218091 -0.01729217 0.00895054
000090 80 bf e0 3d a3 17 6d 3d 01 92 64 3d 1a e5 0c be
       0.10974026 0.05788387 0.055803303 -0.1375927
0000a0 e8 d7 b6 bc 2e ed a4 ba f1 32 e4 3c b1 1e 7c bd
       -0.022319749 -0.0012582892 0.027856322 -0.061552707
0000b0 e6 f5 26 bd 32 df a9 3d 59 13 08 be 67 ef 84 3c
       -0.04076185 0.08294524 -0.1328863 0.016227437
0000c0 59 9a 5a bd bc f8 66 3c ec 2c ce 3c 41 78 67 3c
       -0.053369854 0.014097389 0.025167905 0.014127792
0000d0 b1 7e 86 3d 99 5b db 3d 7c 9d 90 3d d8 0e a3 bd
       0.06567133 0.1071083 0.07061288 -0.079618156
0000e0 47 54 36 3c 0e cc 0b be 31 2c d1 bc 4d b3 e1 3c
       0.011128492 -0.1365206 -0.025533767 0.027551318
0000f0 e5 98 d3 3d 43 63 3e bd 28 f6 89 bd 36 75 45 b9
       0.10331897 -0.046481382 -0.06736404 -0.00018831049
000100 bf cf 27 be 3b 69 b1 bb db 08 0f 3d 22 77 38 be
       -0.16387843 -0.005414156 0.034920555 -0.18014196
000110 4c 68 d0 bc 76 24 2a bd 77 17 07 bd 23 ff 2e be
       -0.025440358 -0.041538678 -0.032981362 -0.17089514
000120 62 a1 db bc a8 76 ea bc b4 0d 3a be 49 45 87 3c
       -0.026810352 -0.028621033 -0.1816929 0.01651253
000130 c4 cd 6d bc 71 e3 5e bb 57 1b fd bc 67 41 0b bd
       -0.01451439 -0.0034010077 -0.030896826 -0.03399792
000140 11 32 99 be 33 b6 ea bb 11 a9 b3 3d bf 99 2e 3d
       -0.2992101 -0.007162833 0.08772481 0.042627092
000150 da 4c 73 3d 6d 29 a0 3d a6 15 5c be f8 93 5e bd
       0.059399463 0.07820401 -0.21492633 -0.054340333
000160 4d 6e 69 bd b5 0f ce 3d 14 af f6 3d 4f 41 c3 bd
       -0.056989957 0.1006159 0.12045112 -0.09533941
000170 23 5a 9e 3c ea e8 90 3c 90 77 e3 bc a8 74 c7 b9
       0.01933009 0.017689187 -0.027766973 -0.00038043153
000180 c1 87 14 3e be ec da 3d 6f c7 f7 3c 00 95 4d 3d
       0.14504911 0.10689686 0.030246465 0.050190926
000190 1e 0b 1b bd 7e ce a3 3d 82 7a d4 bc 01 33 9c bd
       -0.0378524 0.0799837 -0.025937323 -0.07626916
0001a0 4a d0 9f bd ff a9 82 bc 3b 7b bf 3b 73 29 62 3d
       -0.078034 -0.015950201 0.0058435476 0.05521531
0001b0 60 c8 c7 3c ac e5 40 bd 43 2f 39 bd 33 4a cb bd
       0.024387538 -0.047094032 -0.045211088 -0.09926262
0001c0 df 54 08 be c8 54 05 be dc 0f 4c 3c 45 4a a3 bc
       -0.13313626 -0.13020623 0.012454953 -0.019932875
0001d0 77 da b9 be 04 d0 cd bd d8 3b 87 bd 90 90 0d bd
       -0.36299488 -0.100494415 -0.06603211 -0.034561694
0001e0 fa 20 97 bd 47 5e 42 3e 66 f0 c7 bd cd 41 ea bd
       -0.07379337 0.18981276 -0.09762649 -0.11438332
0001f0 9b c5 f2 3d 23 53 14 3e e9 0e 2d bd e1 a1 2a be
       0.118540965 0.14484839 -0.042250548 -0.16663314

mean.2.weight f4 [128, 128]
000000 09 9d 00 3e ae c3 f2 bd 24 cf a1 3d 81 2d 86 3d
       0.12559904 -0.11853729 0.07900837 0.06551648
000010 4d cd aa 3d 4d 15 54 bd 9b e4 ac bd 6f e2 93 bb
       0.08339939 -0.051778127 -0.084420405 -0.004513077
000020 6f e5 3b bd b5 de 7e 3d d9 aa fa bd f2 72 01 3e
       -0.0458731 0.06222411 -0.12239618 0.12641504
000030 12 cf 55 bd d5 4f af 3d 82 c1 3f bd 5d 9c a4 bc
       -0.05219943 0.085601486 -0.046815403 -0.020094091
000040 ba ee ab 3c e6 51 0c be 4c dc 8b 3d 1c 78 0d 3e
       0.020987857 -0.13703117 0.06829128 0.1381535
000050 8a 35 ec bd db 76 53 3d 4d c0 0f be 96 c5 56 bc
       -0.11533649 0.05162702 -0.140382 -0.013108632
000060 bd 6d 8c bd 3a d3 09 be fd ae 7b 3d 46 6e bd 3d
       -0.068568684 -0.13459483 0.06144618 0.092495486
000070 33 ea c8 3c 22 da 4a 3d e6 c7 b8 bd 3a 3e c6 3d
       0.024525737 0.049524434 -0.090225026 0.096798375
000080 78 30 01 be e4 09 39 bd eb 30 81 bd 9c 1e 83 bd
       -0.12616146 -0.045175448 -0.063081585 -0.06402323
000090 c4 78 01 3e 43 83 ec 3d ff f3 a2 3d 4e d5 68 bd
       0.12643725 0.11548474 0.07956695 -0.05684405
0000a0 9b 4b ca bd 72 97 30 bd a8 f4 72 bd b6 69 6e 3c
       -0.09877702 -0.04311318 -0.059315354 0.014551571
0000b0 d3 aa 95 3d 77 30 14 3e 53 5a cb 3d 77 05 02 be
       0.07307973 0.14471613 0.09929337 -0.12697397
0000c0 d0 f7 00 3e 3f d1 10 be f1 b2 9b 3c d5 9a 9f 3c
       0.12594533 -0.14142321 0.019006224 0.01948301
0000d0 5c 23 e4 bc 1e 12 58 bd 6b 89 84 bd 13 0c b2 3d
       -0.027848892 -0.052751653 -0.06471523 0.08693709
0000e0 8b 6f c3 bd 6a 48 de 3c b6 fd 5b 3d 2e b8 ef 3d
       -0.095427595 0.02713414 0.053708754 0.11705051
0000f0 f7 2b e9 3a bb 8d 08 3e c3 0f 1a be 00 74 a8 bd
       0.0017789592 0.13335316 -0.15045075 -0.0822525
000100 fe 72 08 be 21 d1 c6 ba eb 80 cc bd f6 20 bf 3d
       -0.13325116 -0.0015168526 -0.09985527 0.09332459
000110 c9 d6 9b bd d8 10 4a 3c 80 a8 01 3e 11 12 1d be
       -0.076093264 0.012333117 0.12661934 -0.15338923
000120 2d d1 63 3d db c0 08 be dc 82 92 3d c8 09 1d bd
       0.055619407 -0.13354819 0.07153866 -0.038339406
000130 db 2b 06 be 59 b5 cb 3c da 6a 38 3c fe 26 5e 3d
       -0.13102667 0.024866747 0.011255944 0.054236405
000140 00 1a ac 3d 55 20 85 bc 4e bf 94 bd e4 68 1a 3e
       0.084033966 -0.016250769 -0.07263051 0.15079075
000150 f4 98 44 bd 02 79 05 3e 74 72 c4 3d 94 b1 19 be
       -0.04799743 0.13034442 0.09592143 -0.15009147
000160 3a 07 31 bd 37 14 36 3c 8f 61 fd bd a5 2f db 3c
       -0.043219782 0.011113218 -0.123721235 0.026756117
000170 38 d1 7e bd 53 6c a5 bd 91 12 ee 3d 27 04 86 3d
       -0.062211245 -0.08077302 0.11624635 0.06543761
000180 ab 07 20 3e 5c 17 05 bd c7 dd 30 bd d5 21 c9 bd
       0.15627925 -0.03249298 -0.043180253 -0.09820906
000190 fe b7 a6 3c 48 89 ed 3d 88 5e 99 bc 8c c6 69 bd
       0.020351406 0.1159845 -0.018721834 -0.057074115
0001a0 78 83 c3 3d 75 0d 67 3b b6 79 9e 3c f7 1a 13 3e
       0.0954656 0.0035255824 0.019345146 0.14365755
0001b0 8a e3 10 3e 15 91 18 3e fc 46 0e be 3f 0a a0 3c
       0.141493 0.14899094 -0.13894266 0.019536136
0001c0 36 f8 fa 3d 90 0c 06 3e de 7e 09 be bb ea df 3d
       0.12254374 0.1309073 -0.13427302 0.10933443
0001d0 fc b2 93 bd d2 b9 96 bd f9 e3 bb bd d3 ae b2 bd
       -0.07211873 -0.07359661 -0.09174342 -0.08724751
0001e0 92 ff bf bc 0b 1a 77 ba 30 4d 8e bd d9 01 c6 3d
       -0.023437295 -0.0009426183 -0.06948316 0.09668321
0001f0 a0 10 b6 bd f2 fb 0e 3e 98 b3 0f be 0d ee 3f 3d
       -0.0888989 0.13963297 -0.14033353 0.046857882
000200 92 0e c0 bd 4f 08 ac bd ec 1c 81 3b 04 c8 ea bc
       -0.09377779 -0.08400022 0.0039402153 -0.028659828
000210 08 3d ea bd ac 52 26 bc 74 d0 01 be 15 44 b9 bd
       -0.11437422 -0.010151546 -0.12677175 -0.09046189
000220 0f 74 b9 3d d2 ef 0d 3c 7d 15 a5 bd e2 4e b8 3d
       0.090553395 0.008663135 -0.08060739 0.08999421
000230 2c 4f e1 3b c1 4c 9c 3d 62 4d 5d 3d 30 95 b8 ba
       0.006875893 0.07631827 0.054028876 -0.0014082547
000240 40 7e 73 bd 09 17 96 bd a0 1c 06 3e f2 c8 fa 3c
       -0.059446573 -0.07328612 0.13096857 0.030613396
000250 29 4d 05 3e 39 36 91 3d 6e b2 2d bc 59 05 13 be
       0.13017716 0.0709042 -0.010601623 -0.14357509
000260 e0 7b 76 3d 65 c7 0f bd bc d0 9a 3c bc b4 98 bd
       0.06017673 -0.035102267 0.01889836 -0.07456347
000270 33 b7 d8 3d 06 0b eb 3d 89 58 dc bd 90 9f 14 bd
       0.105818175 0.11476712 -0.10759074 -0.036284983
000280 fb 8f 01 be ff 64 42 3d 5c 91 01 be 66 d8 f7 bd
       -0.1265258 0.0474596 -0.12653106 -0.121018216
000290 e1 b7 e3 bd 2d 26 00 be fc 7a f2 3d f6 a8 90 bd
       -0.111190565 -0.12514563 0.11839864 -0.07063477
0002a0 94 fc b8 3d 8d 4f 67 bd f9 c5 4d bd 1f 33 2d bd
       0.090325505 -0.05647235 -0.05023763 -0.04228508
0002b0 ca fc 1b be 46 19 1b 3d 3c 14 94 bd 94 69 f1 3c
       -0.1523315 0.0378659 -0.07230422 0.029469289
0002c0 b3 fa 06 be 0f 27 98 3c 39 01 ff 3d 30 dd 4e bd
       -0.13181572 0.018573312 0.12451405 -0.05050391
0002d0 16 f5 df 3c 25 91 2b be 6f 79 95 bd 95 83 fc 3d
       0.027338546 -0.16754587 -0.07298552 0.12329785
0002e0 ff c3 78 3d 83 9e 17 3d f4 36 4f 3d 23 e9 01 bd
       0.06073379 0.037016403 0.050589517 -0.031716477
0002f0 64 fc 84 bd bc 32 13 3e 98 c5 63 bd 1d 48 a5 bc
       -0.06493452 0.14374822 -0.055608362 -0.020175988
000300 ae 90 f2 bd b2 e5 eb 3d 38 9e 8a bd 4f 75 6d bd
       -0.11844002 0.1151842 -0.06768459 -0.057973202
000310 88 7e e5 bd 4e 48 00 3d 3a 77 10 be 5a 3b d0 3d
       -0.112057745 0.031318955 -0.14107981 0.101675704
000320 e8 17 c1 3d bf 25 03 be 53 66 1b be ae bb 9f 3c
       0.09428388 -0.12807368 -0.15175752 0.019498672
000330 3d d3 b9 bd 50 71 1b be 55 e2 c4 3d 15 9d 1d bd
       -0.09073494 -0.15179944 0.09613482 -0.038479883
000340 f0 64 e8 3c de 0c e4 3b bf 2b c3 bd 87 8e 99 bd
       0.028368443 0.0069595417 -0.09529828 -0.07497888
000350 08 02 5a 3d 17 f4 0b be fb b6 14 bd 05 fe 5b bc
       0.053224593 -0.13667332 -0.036307316 -0.013427262
000360 46 09 ae bd 5f 68 1b 3e 95 69 0b be c3 0d 15 be
       -0.084978625 0.15176533 -0.13614495 -0.14556031
000370 bb 9e e0 bd 8f da b3 3d a4 bd 1f be be 97 91 3d
       -0.109677754 0.08781921 -0.15599686 0.07109021
000380 27 53 18 3e 62 59 13 3e c1 19 12 3e cb 2c ca 3c
       0.1487547 0.14389566 0.14267637 0.024679562
000390 68 9d 0e be 20 8e 54 3c 4c 6e 81 3d 9b 80 31 bc
       -0.13927233 0.012973338 0.063198656 -0.010833885
0003a0 a4 d4 12 be d6 12 a7 3d 15 cc f1 3c 71 b8 d3 3d
       -0.14338928 0.081578895 0.02951626 0.10337914
0003b0 d4 02 9f bc ec 21 0c be d3 03 e7 3d f8 93 1b be
       -0.019410528 -0.13684815 0.11280026 -0.15193164
0003c0 82 2a e9 bd 7b e0 0b 3e 0e 09 52 bd 10 ee 41 3d
       -0.11385061 0.13659851 -0.051278166 0.047346175
0003d0 f4 9b ae 3d 1f 6b 9d bc 43 e9 6e bd aa 64 4e 3d
       0.085258394 -0.019216118 -0.058327924 0.05038897
0003e0 21 51 2c bd 63 21 79 3d 47 91 8c bd 9e 2c b2 bd
       -0.042069558 0.060822856 -0.06863647 -0.08699916
0003f0 44 a9 c5 bd 1a d8 1b be e4 81 3f bd c0 54 8f bd
       -0.096514255 -0.15219155 -0.046754733 -0.06998587

mean.2.bias f4 [128]
000000 a7 2b a8 bb 78 b4 94 bd 43 54 92 bd 73 ce cc 3d
       -0.005132157 -0.07260984 -0.07144978 0.100003146
000010 dc b7 89 bd 88 94 f5 bb 72 fb 1b 3d 29 5d ec 3d
       -0.067245215 -0.007494513 0.038081594 0.115412064
000020 6a 42 df 3c c2 54 04 bd 98 dc 3e 3d 3a e6 d2 bd
       0.027253348 -0.032307394 0.046597093 -0.102978185
000030 4e bc 4a 3d fd 3a eb bd 5f b0 c0 bc 24 38 1a 3d
       0.049495988 -0.114858605 -0.0235216 0.037651196
000040 c8 c9 98 bb c2 34 57 3d e8 9b 92 bc e2 98 56 3e
       -0.004662726 0.05254055 -0.017896608 0.20956758
000050 af d0 c9 bc 61 90 90 3d 38 d7 ec 3c f6 2b 83 3c
       -0.02463564 0.07058788 0.028911218 0.016012173
000060 65 34 9a 3d 4a 6f 0a 3d 2c 27 ff 3c 19 ba 76 3e
       0.07529525 0.03379754 0.031146608 0.24094428
000070 1a 50 2a 3d 23 ed c6 3c 30 3f 51 3c 51 e0 29 bd
       0.041580297 0.024282997 0.012771413 -0.04147369
000080 e2 55 41 3e 0a cf e3 bd d3 97 4f bc ff 3c 98 3b
       0.18880418 -0.11123474 -0.012670475 0.004645943
000090 6c 57 03 3e 92 c1 ff bb 34 87 17 3e 17 e3 1c bd
       0.12826318 -0.007805058 0.1479767 -0.038302507
0000a0 9f 1e 9e 3d 51 52 d6 3c 1e 23 9b 3d bc be 35 3c
       0.07720684 0.026162298 0.075750574 0.011092838
0000b0 79 5a c8 bb 0c ad 6e 3c 60 d6 13 3e 7f 25 b8 3d
       -0.006114301 0.014567625 0.14437246 0.08991527
0000c0 eb 17 3f bd c1 56 8b bc f9 8d ea 3d 01 51 72 3d
       -0.04665367 -0.01700914 0.114528604 0.059159283
0000d0 e0 da 0c 3d 4d 1f 18 3e 44 e2 c5 3c 96 e4 05 3d
       0.034388423 0.1485569 0.024155743 0.0326887
0000e0 31 4c bf 3d 65 ca 7c bd 9d cf 71 3d a3 30 d4 3b
       0.09340704 -0.061716456 0.059035886 0.0064755245
0000f0 5d 3c 10 3d de db 2b 3d 88 cd 97 3c ab f5 1e 3c
       0.035213817 0.04195773 0.018530622 0.0097021265
000100 7e 4a 16 3d fa 33 a9 3d 7b 12 0a bc 51 23 34 bd
       0.036692135 0.08261867 -0.008427258 -0.043978993
000110 68 5a 6c be 1e c7 30 bd 25 b3 c5 bc 2b 8c 23 3b
       -0.23081362 -0.043158643 -0.024133274 0.0024955373
000120 5c 6e 76 bd 4c 82 af ba c1 76 fc 3d 7e 55 11 bd
       -0.06016384 -0.0013390272 0.12327338 -0.035481922
000130 9d f7 b1 3d 49 da b1 3c e5 b4 14 3d 5a ea 22 3b
       0.086898066 0.021710532 0.036305327 0.0024858923
000140 23 ff f9 3b 8e 9d 4f 3d 93 67 66 bd 51 b7 fa bb
       0.0076292916 0.050687365 -0.05625112 -0.0076512475
000150 0c a4 0c be cd d4 85 3c 55 21 43 3e 05 5c 12 bc
       -0.13734454 0.016336823 0.19055684 -0.008933072
000160 aa eb f7 3c 5b e5 e1 3b df 1a fc 3c a8 a3 c2 bd
       0.03026374 0.0068937964 0.030774532 -0.09503871
000170 a9 c6 3a 3e 09 5a 22 3c 56 ad 06 3d 3c 3e 5a bc
       0.18239845 0.009909161 0.03288015 -0.013320502
000180 64 2f e7 bc ce 1a 3d 3b 09 3c 7f 3c 23 44 e3 3b
       -0.02822084 0.0028855088 0.015578278 0.0069356128
000190 ee 40 0a bd 89 3d 2f 3d 83 89 98 3d 37 a2 4b 39
       -0.033753328 0.042783294 0.07448103 0.00019420018
0001a0 4f b7 54 bb c2 58 89 3d b3 d2 06 3e 00 66 df bd
       -0.0032457893 0.06706382 0.13166313 -0.10908127
0001b0 72 b4 10 3c a2 c0 96 3d f8 e5 5e bb 1b 14 6c 3d
       0.008832084 0.073609605 -0.0034011584 0.05763636
0001c0 df 85 d9 3b ed 8d 0b 3d aa d4 3e bd 26 e1 a8 bd
       0.006638273 0.034070898 -0.04658953 -0.08246069
0001d0 0d f2 82 38 ac bd b8 3c 2b a0 cf bb 35 1a ae 3d
       6.2439685e-05 0.02255138 -0.006336232 0.08501092
0001e0 e5 de 25 bd 25 7f 64 3d d9 51 df bc 75 d0 c9 3d
       -0.040495772 0.055785317 -0.027260708 0.09854213
0001f0 2e 0a 91 3c 40 a1 1a 3d 44 8f a6 bc cf e9 25 3c
       0.01770505 0.037751436 -0.020331986 0.010126545

mean.4.weight f4 [2, 128]
000000 e1 50 bc 3d 27 9d 28 be 6a ae 07 3c 53 11 34 3d
       0.09195114 -0.16466199 0.00828133 0.043961834
000010 39 1b 0f bd 6c e0 86 3d c7 d4 cd be 04 9f fb be
       -0.03493807 0.06585774 -0.402014 -0.49144757
000020 f1 8b c4 be bc 70 59 bc e6 de 4a bc e7 89 1a 3e
       -0.38388017 -0.013271507 -0.012382245 0.15091668
000030 90 d6 5a be e6 15 7b 3d 3a c6 fa b8 0a 46 c2 bd
       -0.21370912 0.06130018 -0.000119578515 -0.09486015
000040 57 c6 9e 3b 32 b3 d0 bd c5 f3 4d bd ab 62 ba 3e
       0.0048454213 -0.10190429 -0.050281305 0.36403403
000050 5a ac 15 bd 39 ad ad be e9 9e 27 bd ee df aa be
       -0.03654132 -0.3392122 -0.040923033 -0.3337397
000060 85 29 44 be 45 87 8c 3e c9 80 5c be be 4e db 3e
       -0.19156463 0.27446952 -0.21533503 0.42833513
000070 bb af ab bd 38 2a 1e 3e f7 d7 75 be 34 97 bd bd
       -0.08383127 0.15445793 -0.24008165 -0.09257355
000080 fb 0c 36 3e 81 62 04 3e ae 38 5c 3e e6 f6 ce 3d
       0.17778389 0.12928201 0.21505997 0.10105686
000090 c6 8e cc be a0 46 14 3e 75 71 10 3f 68 a5 86 3c
       -0.39952677 0.14480066 0.5642312 0.016436294
0000a0 80 07 a2 be 6b a1 55 be 17 07 70 be 74 ca 27 be
       -0.31646347 -0.20862357 -0.23440205 -0.16385823
0000b0 da 04 08 be 02 4e 5d 3c 0b 27 7d 3e f4 e2 b3 bd
       -0.132831 0.013507368 0.24721925 -0.08783522
0000c0 b2 74 da bd 2f ff 11 3c 8d 6b b9 be 5e 34 6c 3d
       -0.10666789 0.008910938 -0.36214867 0.05766713
0000d0 0e 3c 59 3e fb 1d 83 3e 3a a6 0c be d4 05 31 3e
       0.21214315 0.2560881 -0.13735285 0.1728738
0000e0 8f 50 3e be 64 76 a9 be fa f5 be 3e 06 90 ac 3c
       -0.18585418 -0.33098137 0.3729704 0.02106477
0000f0 38 82 b3 be a7 a6 3b be 26 66 49 bb d0 14 43 bc
       -0.35060287 -0.18325292 -0.0030731051 -0.011906818
000100 b9 3c e4 bd 24 64 9f 3e d9 b4 74 3d 19 1d b6 bd
       -0.111443944 0.3113109 0.059742782 -0.08892269
000110 0c 33 49 bd 41 63 b9 3e 17 49 01 3e ea f7 d7 3d
       -0.049120948 0.36208537 0.12625538 0.10545333
000120 c8 b8 62 3d 83 4c 68 3c 11 41 8a 3e 92 78 9f bc
       0.055352002 0.014178398 0.27002767 -0.019466672
000130 b4 42 c8 bc e5 85 88 3e 06 b5 00 3e 61 ee df bd
       -0.024445869 0.26664653 0.12569055 -0.10934139
000140 51 35 9f 3d 8a 7c 78 3e a5 01 aa be fe a9 05 bc
       0.07773841 0.24266258 -0.3320438 -0.008158205
000150 2a 9a 4f 3e 50 d7 34 3e d4 80 32 bf 7b c3 42 3e
       0.20273653 0.1766026 -0.69727826 0.19019882
000160 4d ee 47 3c 05 40 c1 3e a6 fe 44 bd 65 bf 20 be
       0.012202811 0.37744156 -0.048094414 -0.15698011
000170 ef 5e 99 3e 4c 58 53 be 5b fa d4 be af b5 83 bd
       0.2995524 -0.20639151 -0.41597256 -0.06431138
000180 7c 12 36 3e 51 78 ed be b3 d5 4d 3d 91 8f 86 be
       0.17780489 -0.46380857 0.050252628 -0.26281407
000190 a1 e9 e8 bd 1e 02 82 be 6f 28 74 3e 7c 08 4a be
       -0.11372686 -0.2539224 0.23843549 -0.19729799
0001a0 c1 57 1e 3e f6 4f ff 3d 8f b9 a2 be 51 db 03 3e
       0.15463163 0.12466423 -0.31782195 0.12876631
0001b0 5b 26 29 3e 54 96 7c be c6 27 0f be db 3e c9 3d
       0.16518538 -0.2466672 -0.13980016 0.09826442
0001c0 14 39 2f 3e e0 4a 3b be 6e 31 3a be 70 f3 3f bd
       0.17111617 -0.18290281 -0.18182918 -0.04686302
0001d0 91 b9 bf 3d b2 9f 55 bd e3 43 df bd 99 14 98 3e
       0.09361566 -0.05215425 -0.1090162 0.29703215
0001e0 87 06 7e be 64 b4 ac be f0 d2 86 3d e3 92 c0 3e
       -0.24807177 -0.33731377 0.06583202 0.37612066
0001f0 64 ed 93 3e 43 b8 ee bd c8 32 14 bf 5f 42 92 be
       0.28892052 -0.11656239 -0.57889986 -0.28566262
000200 03 6d 29 3e 86 37 79 3c 96 73 08 be 96 0a 89 be
       0.16545491 0.015210992 -0.13325343 -0.2676589
000210 0e 10 99 3e fa c4 5e be 03 52 4d 3e 73 de f9 3e
       0.2989506 -0.21754828 0.20050816 0.48802528
000220 83 02 60 3e 15 14 0b 3e 86 c4 57 3e a6 ed 52 be
       0.21875958 0.1358188 0.21071061 -0.20598468
000230 6c 61 d6 3e 7e 1a 29 be aa b6 c4 bc 44 ae 6e 3b
       0.41871202 -0.16514012 -0.024012882 0.0036419788
000240 84 ad 52 3d 1e ed 0c 3e 28 43 03 be 57 d7 91 be
       0.05143501 0.13762328 -0.12818587 -0.28484604
000250 92 41 10 be 8c 52 e4 3e 0d b1 e3 3d f6 27 80 3e
       -0.14087513 0.44594228 0.11117754 0.25030488
000260 41 38 51 3e 71 2c 8b be 26 21 5b bd 09 e9 da be
       0.20431615 -0.27182344 -0.05349841 -0.42755917
000270 ed 3c 4c bc e8 16 e2 bd 30 e3 1a bd 94 3b 25 3d
       -0.012465698 -0.11039525 -0.03781432 0.04034002
000280 2d ee e6 be 78 a1 37 be 4b 99 b8 3d 57 aa 37 be
       -0.4510359 -0.17932689 0.09013613 -0.17936073
000290 4e 2a 43 3e 79 ee d4 3d 0f 02 dd be 98 32 71 3d
       0.19059107 0.103970475 -0.43165633 0.05888614
0002a0 be 39 85 3e 01 06 9e 3e 71 97 11 3e 7a 56 ad bd
       0.26020616 0.30863956 0.14217927 -0.0846376
0002b0 0e 49 3f bd 47 fb 84 3e fa 2a 72 be 06 66 c2 3e
       -0.04670053 0.2597296 -0.23649207 0.37968463
0002c0 87 3c 7b 3e 09 62 08 3d c4 93 cf 3e f4 2f a8 be
       0.24534808 0.03329662 0.40542424 -0.32849085
0002d0 ce ac dc 3c 38 4b 8a be b4 c7 9f 3e fb 20 5e be
       0.026937868 -0.27010512 0.3120705 -0.21692269
0002e0 3d cf b3 3e 07 4a 94 3b e6 51 b0 be 1d 8e ac 3e
       0.35119048 0.0045254263 -0.34437484 0.33702174
0002f0 c2 d3 8f 3d df b9 8a 3d e4 88 e8 bc 11 cc 91 3d
       0.070228115 0.06773733 -0.028385587 0.07119001
000300 84 d6 b5 3d 49 f3 63 bd 83 6f 91 bd 59 9b 7a bd
       0.08878806 -0.055651937 -0.07101347 -0.061183307
000310 b7 91 15 3e 39 ad b9 be 80 27 07 3e a2 d1 42 bc
       0.14606367 -0.3626497 0.13198662 -0.011890801
000320 99 9a c0 be 48 59 61 bd 08 43 ca be 8f 59 06 3e
       -0.3761795 -0.055016786 -0.39504266 0.13120101
000330 ce 7e ba be 53 02 ba bd 01 d4 5a 3e e2 fc 11 3e
       -0.3642487 -0.090824746 0.21369936 0.14256623
000340 46 7e af be ac d9 a8 bd 17 63 b0 3e c1 9a 54 3e
       -0.34276026 -0.082446426 0.344506 0.20762159
000350 82 18 79 bc a3 13 2e be 7b 5a 1f 3f 19 14 3c 3e
       -0.015203597 -0.16999678 0.6224744 0.18367042
000360 9a 81 cc 3e 07 79 f3 bb 80 56 a8 3e f5 45 84 bc
       0.39942628 -0.007430199 0.32878494 -0.01614664
000370 3a 51 a7 be 69 a9 09 3e a9 e6 14 3e f5 d8 18 bc
       -0.32679158 0.13443531 0.14541115 -0.00932907
000380 c7 14 08 3e a1 3e c0 3e 88 56 98 be 37 02 8b bb
       0.13289176 0.37547782 -0.29753518 -0.0042422074
000390 16 85 04 be 4b 33 09 3e 7a ab d2 be 17 38 32 be
       -0.12941393 0.13398473 -0.4114645 -0.17404209
0003a0 5e 47 38 bc 63 68 20 be db 2a 3b 3e fc 7f 98 bd
       -0.011247484 -0.1566482 0.18278067 -0.07446286
0003b0 ce 93 a6 bb 8a 3a 45 3e 72 eb 59 be d2 09 db bd
       -0.0050835377 0.19260612 -0.21281222 -0.106952325
0003c0 da e8 84 3d 82 5d 97 3e 77 53 92 3e 53 77 1e 3e
       0.064897254 0.29563528 0.28579304 0.15475206
0003d0 8b f8 44 3d 79 1c 58 3c da df fd bd 7c a7 50 be
       0.04808859 0.013190382 -0.12396212 -0.2037639
0003e0 c5 8c a1 3d bc c7 9d 3e 07 da 42 be af bd c3 be
       0.07888178 0.30816448 -0.19028483 -0.38230655
0003f0 2e 48 2c be 2d 56 93 3e 16 c4 0d 3f 59 58 9a 3e
       -0.1682441 0.28776684 0.5537733 0.3014553

mean.4.bias f4 [2]
000000 8e 8f 20 3c 51 94 20 bc
       0.009799851 -0.009800986
