save/exp23/it23_model.pt (torch, 52263 bytes, 7 tensors)

sigma f4 [2]
000000 84 13 0b c0 f4 70 17 3e
       -2.1730661 0.14789182

mean.0.weight f4 [100, 20]
000000 5e 03 43 3e 91 e0 9d bd 11 72 fb bb aa 5a 26 be
       0.19044253 -0.07708848 -0.00767351 -0.16245523
000010 c8 6d 7a bd 46 2a 10 3e 8f f7 68 bc 26 ca 31 3e
       -0.06113985 0.14078626 -0.014219179 0.1736227
000020 8c 68 97 3d 4e 02 11 3d ec 14 3b 3e 3a 16 9c 3d
       0.073929876 0.03540259 0.182697 0.07621427
000030 4c c3 22 bd b9 4a ee 3d b7 9e 15 3e 20 a2 c1 3c
       -0.03973703 0.11635346 0.14611326 0.023636878
000040 0f e1 b8 3d 94 6c 50 3e 08 8b ae 3d bb c6 d1 3d
       0.090273015 0.2035392 0.08522612 0.10242983
000050 d4 a7 1c 3d ba 89 7f 3d de c8 57 3e d4 c3 9b 3e
       0.03824599 0.062387206 0.21072719 0.30422843
000060 cc d5 c1 3d ec f2 76 3d 6a 17 5b 3e 4b ff d4 bd
       0.09464607 0.060290262 0.2139565 -0.10400256
000070 8f 46 4c 3e 68 70 f0 3d 0a 3d 11 3e e0 9b 88 3c
       0.19948791 0.1174019 0.14183441 0.01667589
000080 14 7e 62 be 33 c7 32 3e 9f a4 f7 bd 91 16 d1 3d
       -0.22118407 0.17458801 -0.12091946 0.10209382
000090 06 ed d4 3d c3 c1 34 be e6 15 67 bd dc 50 00 be
       0.10396771 -0.17652039 -0.05641737 -0.12530845
0000a0 b6 60 88 3e 8a 60 55 be 02 88 34 3e 38 f7 36 3e
       0.26636285 -0.20837608 0.17630008 0.17867744
0000b0 bb c6 33 3e 3c 0a 96 3d 18 5e ab 3b 86 8b 9f be
       0.17556278 0.07326171 0.0052297227 -0.31161135
0000c0 b7 fb 89 3e 29 5f 09 3e 8a 55 7c bd a1 c9 fd bd
       0.26949856 0.13415207 -0.061605014 -0.12391973
0000d0 4c c9 20 be bc a6 8b be 7f 2e 93 3e ed 1f 46 3e
       -0.15701789 -0.27275646 0.2874641 0.19348116
0000e0 4f 8c 98 3e 80 82 25 3d bb e8 5f be 33 45 a8 bd
       0.29794547 0.040407658 -0.21866123 -0.08216324
0000f0 83 9c f0 bd ce d9 03 be d1 17 26 3e 50 ac 23 3d
       -0.11748602 -0.12876055 0.16220023 0.039959252
000100 2f c0 4f 3e 2d 42 93 3b 1a ef 2f be 56 e4 8f bd
       0.20288156 0.0044939728 -0.17181054 -0.070259735
000110 7a 10 3d 3e 81 28 09 3e ac d2 9d 3d 93 5c 52 bd
       0.18463317 0.13394357 0.07706198 -0.051357817
000120 01 d5 2a be a8 cc eb bd 7d 17 19 3e d8 4e 62 bd
       -0.16682817 -0.115136445 0.14950366 -0.055250973
000130 82 ac 15 3e c7 92 81 3d 5d 09 da bd 79 a1 1b 3e
       0.14616588 0.06326824 -0.10646317 0.15198316
000140 69 0d 21 be e4 ca 87 bd 1a e3 ad bd e1 cf 31 be
       -0.15727772 -0.06630495 -0.08490582 -0.17364456
000150 bf bc ee 3d 99 22 db 3d fe fe e8 bd 45 f7 5f 3e
       0.11657094 0.10699958 -0.11376761 0.2187167
000160 fd 6e 8f be 20 08 80 be 41 81 3d be d6 61 18 be
       -0.28014365 -0.250062 -0.18506338 -0.14881071
000170 b5 64 31 bc b8 c9 87 bd 8d d6 bf 3d ef ee 9b be
       -0.010827233 -0.06630272 0.09367094 -0.3045573
000180 92 6e 85 bd 4b 3a d2 bd c3 ca c5 3a 8e c8 0c 3e
       -0.0651523 -0.10265025 0.0015090335 0.1374838
000190 da 26 93 3d f1 e9 5e be 4b 97 38 be 94 55 d6 bd
       0.07185145 -0.21768929 -0.18026464 -0.104655415
0001a0 80 a9 2e be a4 f3 8a 3d c4 a2 3e bb 2c 3b 0b 3e
       -0.17056847 0.06784752 -0.0029088715 0.13596791
0001b0 b7 4d ff 3d a3 a3 57 bd 20 d7 d9 3c 2d 9a ac 3d
       0.12465995 -0.05264629 0.026591837 0.08427844
0001c0 8c 8d fb bc 98 83 4c 3e 0e 8d 55 be 74 29 0b 3e
       -0.030707143 0.19972074 -0.2085459 0.13590032
0001d0 9e 4b 8f be 8b 48 52 be 76 29 16 be 44 5b ec 3d
       -0.2798738 -0.20535485 -0.14664254 0.11540845
0001e0 f4 c3 51 3e 4f 59 22 3e f7 40 3e 3d f4 92 84 bd
       0.20484906 0.15854381 0.046448674 -0.064733416
0001f0 18 a6 9d bd d4 f0 da 3d 25 49 83 bc cd 85 48 3e
       -0.076976955 0.106904656 -0.016026089 0.19582291
000200 4f 6a 12 3e ae 40 1a be 67 d7 86 3c db e9 d9 bd
       0.14298366 -0.15063736 0.016460134 -0.106403075
000210 df ae 5c bd 60 41 5e be 9a ed 0e 3d 67 db 81 be
       -0.053877708 -0.21704626 0.034894563 -0.25362703
000220 47 1a b7 3e ba 9f 30 3e 2b 8a cf bd 15 31 87 be
       0.35762236 0.17248431 -0.10133775 -0.26404634
000230 b0 f1 0e 3c 58 ac 7f bd 1c 70 86 3d cc fe 1a be
       0.008724615 -0.06242022 0.06564352 -0.1513626
000240 dc 74 bb 3d 8e c6 45 be c8 b0 f1 bd 4f be f0 bd
       0.091531485 -0.19314024 -0.118012965 -0.117550485
000250 b0 98 dd 3d 60 d5 bf bb c9 0c 5c be 72 c5 02 be
       0.108201385 -0.0058542937 -0.21489252 -0.12770632
000260 5a ed d3 bd c2 72 54 be 00 8e ea 3c 0c 2f a3 3d
       -0.103480056 -0.20746902 0.028632164 0.07967958
000270 c4 0b 28 bd ce 3c b6 bd 00 be b1 ba 8e de 35 be
       -0.041026846 -0.08898316 -0.0013560653 -0.17760679
000280 e9 a6 15 be 7f d4 2e bd 37 c9 79 3e 00 2d 1e be
       -0.14614452 -0.04268312 0.24393164 -0.15446854
000290 03 02 07 3e 06 8b 50 bd 73 53 5c bb 0f 8d 85 be
       0.13184361 -0.050913833 -0.0033619076 -0.26084182
0002a0 a9 c2 71 3e c9 9b 49 3e 70 f3 c1 b9 74 24 bc 3d
       0.23609413 0.19688334 -0.00036993204 0.091866404
0002b0 f4 97 53 3e a0 6b 6e 3d 88 1e 14 3e 00 96 78 be
       0.20663434 0.058208108 0.14464772 -0.2427597
0002c0 0e e8 2e be 4d ee e7 bd 65 de 41 3e 7c 87 24 be
       -0.1708071 -0.11324749 0.18932493 -0.16067308
0002d0 f0 6f 3f be 61 54 3b be 4c f3 74 be 30 2d a9 3c
       -0.18695045 -0.18293907 -0.23920935 0.02065143
0002e0 76 b4 b6 3d 53 c9 3e bc cd a5 55 3e 98 57 c6 3c
       0.08921139 -0.011644679 0.20864029 0.02421169
0002f0 fe d4 4d 3d 7d dd 4a 3e e0 24 9d 3e 82 87 61 3d
       0.050251953 0.19811054 0.30692196 0.05506087
000300 40 b1 35 be 9d 14 b7 bd 8e 4a 69 bd 4b d5 b9 3d
       -0.17743397 -0.089394785 -0.056955867 0.090738855
000310 b3 11 38 bd e0 40 02 be 20 82 83 be af 27 9a be
       -0.044938754 -0.1272006 -0.25685215 -0.301084
000320 df 9b 91 bd c0 c9 69 3b 39 b4 cd bd 37 21 34 be
       -0.07109808 0.003567323 -0.1004414 -0.17590795
000330 7c 87 c3 3c 42 64 35 be c5 7a 2f be 41 c9 39 be
       0.023868315 -0.17714027 -0.17136677 -0.18143179
000340 e7 16 71 bd fe b1 4a 3e de 88 b8 3d 48 04 cd bc
       -0.058859732 0.19794461 0.0901048 -0.025026456
000350 22 c1 44 3d c2 20 bc 3d d0 6d 18 3b 7e 67 39 be
       0.04803575 0.091859356 0.0023258813 -0.18105885
000360 81 ac 0b be 1a 86 1b be 87 55 92 bb 9e 8c 51 be
       -0.13640024 -0.15187874 -0.004465762 -0.20463797
000370 d9 94 0f bc 97 14 71 3d 5d b3 bc 3e c2 e8 ab 3e
       -0.008763515 0.058857527 0.36855593 0.33576018
000380 fb 7f 12 3e 0b e7 f0 3d dd 5a a4 bc c0 97 b4 3d
       0.14306633 0.11762818 -0.020062858 0.088180065
000390 ea 20 0a be 1b e7 63 bd 5a 9e 0d be a9 4a e5 bd
       -0.13489118 -0.05564032 -0.13829938 -0.11195881
0003a0 16 e2 9b be 37 94 ce bc fa 18 6d 3e 28 6b 0a be
       -0.30445927 -0.025217159 0.23154059 -0.1351744
0003b0 fb 24 78 3d d0 58 a2 bd de 77 f9 bc b1 c9 27 be
       0.060582142 -0.07927096 -0.030452665 -0.16385533
0003c0 e9 1c e5 3d e7 ef c5 bc 7d ac 17 be 91 f3 9e bd
       0.11187155 -0.024162246 -0.14811893 -0.077613
0003d0 64 89 57 3d 4d e4 52 3c 3e 70 63 3b 44 08 9d bd
       0.05262126 0.012871814 0.0034704353 -0.07667592
0003e0 0c 8e 5f bd c7 ef 84 bd b2 b5 e5 bd 87 21 94 3d
       -0.054578826 -0.064910464 -0.11216296 0.07232957
0003f0 9b 1e f9 3d 1a c6 72 3e fe 14 1c bc 4f ad 02 3e
       0.12164041 0.23708382 -0.009526489 0.12761424

mean.0.bias f4 [100]
000000 34 4f 87 3d 01 ae e9 3c 7f d1 9d bb c3 64 19 3c
       0.06606904 0.028525354 -0.0048162336 0.009362402
000010 97 e7 45 bd be 0a 2d bc f8 90 27 3d 00 00 00 00
       -0.048316564 -0.010561643 0.040909737 0.0
000020 64 dc 9c 3b 32 85 e1 3c ff 7f 30 3b 9b cc 60 bd
       0.004787015 0.027529333 0.002693176 -0.054882627
000030 88 b4 a9 3d 67 a7 d4 bd 76 10 85 bc 03 44 41 3e
       0.08286387 -0.10383492 -0.0162432 0.188736
000040 e2 82 8a 3d fb 84 b4 bb 52 32 d9 bc 84 a9 95 bd
       0.06763245 -0.0055090166 -0.026513252 -0.07307723
000050 ac ff 5c 3d 5b 36 1c 3d 87 d8 71 3c 58 36 cf 3a
       0.053954765 0.038137775 0.014761097 0.0015809042
000060 b8 73 d4 3d d6 84 31 3d 63 a1 84 3d 0b 7f 41 bc
       0.10373634 0.043339573 0.064760946 -0.011810075
000070 00 00 00 00 7f 6c 8e 3d 5d f5 ce 3d d2 0e 86 3c
       0.0 0.06954288 0.10105393 0.016364489
000080 67 4d 95 3c 9c c6 b4 3d 4f 0f 17 3e 50 0a 74 3c
       0.018225385 0.08826944 0.14751934 0.014895037
000090 12 c2 23 3d f8 cb 37 3d 55 8f e4 3d 98 a2 20 bd
       0.03998 0.044872254 0.11160151 -0.03921756
0000a0 e0 d7 ba bc d8 b2 e5 3c b2 68 0e be 64 84 3b bd
       -0.022808015 0.02803938 -0.13907126 -0.045780554
0000b0 4f 14 d7 3c df fd 15 3d 3b 11 91 3d 1c 28 93 3d
       0.026254801 0.036619063 0.070833646 0.07185385
0000c0 8c 38 4e bd af 6c 46 3d b7 a5 f1 bc 27 16 92 bd
       -0.050346896 0.048443493 -0.029497964 -0.071331315
0000d0 ce 47 a7 3d 8e f2 88 bb c3 e2 eb bc 0c 36 17 3c
       0.081679925 -0.0041793054 -0.028794652 0.009229194
0000e0 47 bc d7 3c a8 1c 9f 3d d6 6f 75 bd 3d 64 47 3d
       0.026334895 0.077691376 -0.05992111 0.04867958
0000f0 f5 e9 4a 3c a8 41 41 3d 2b 69 79 bd 02 6d a0 3d
       0.012384881 0.047181755 -0.06089131 0.078332916
000100 6a 05 0e 3d 5c 2b 46 3c 52 35 25 3d 6e 9a 54 bd
       0.034673132 0.012095299 0.040334053 -0.051905088
000110 7d 64 76 bd d6 6e 2d 3c 83 7c 91 bd 09 8d 51 bc
       -0.060154427 0.010585507 -0.07103827 -0.012789973
000120 28 ec b1 bc 2b d9 a7 bd e8 55 3d bc 1a 11 49 3a
       -0.021719053 -0.081957184 -0.011556126 0.000767009
000130 8a de 1b bb 45 56 68 3d 54 af d2 3c 6a 78 76 bd
       -0.0023783767 0.056722898 0.025718369 -0.06017343
000140 eb 66 fe 3d ba 29 d0 bd 80 2e 12 bd 41 a5 5a bd
       0.12421974 -0.10164209 -0.035688877 -0.053380255
000150 1e ad b4 3d 23 9c 4a 3b a4 92 8e bd bf 6c 48 bd
       0.08822082 0.0030915819 -0.06961563 -0.048931833
000160 e5 89 34 bd ae 5e 97 bd 87 55 71 bc e0 6a 94 bd
       -0.04407682 -0.073911056 -0.014729864 -0.07246947
000170 85 58 34 3d 3f 81 72 3b 51 be ad 3b 47 2e af 3c
       0.04402973 0.0037003306 0.0053022285 0.021384371
000180 05 3e 8f 3c 21 f7 e7 3c 08 81 75 bc 6a f9 10 3e
       0.017485628 0.028316082 -0.014984377 0.14157644

mean.2.weight f4 [100, 100]
000000 3e 0a bd bc e6 b6 81 bd bc 31 b6 3d dc fe 5d 3d
       -0.023076173 -0.06333713 0.08896205 0.05419813
000010 ee de a0 3d 56 ad 4d be ad 3e 70 be 84 96 1f 3e
       0.078550205 -0.20085654 -0.23461409 0.15584761
000020 88 fc 49 3e ed b0 2b be b7 c9 f3 bd f8 be 83 bd
       0.1972524 -0.1676671 -0.119037084 -0.06432909
000030 26 76 c2 bd c5 f0 84 be cd cc 4f 3d 40 f1 d3 bd
       -0.09495191 -0.25964943 0.050732423 -0.10348749
000040 b9 55 89 3d 12 44 d6 bd 69 e4 04 3d d6 6b 34 bd
       0.067058034 -0.10462202 0.03244439 -0.044048153
000050 6c 83 85 bd 82 07 f6 bc 16 b0 09 be 17 af f8 3d
       -0.06519207 -0.030032877 -0.13446078 0.12142771
000060 aa aa 0e bc 0e 08 c8 bd 8d a8 b3 3d 70 42 8c 3c
       -0.008707682 -0.09767161 0.08772383 0.017121524
000070 04 29 27 bd 5a 4e d1 3d 41 97 33 bd 18 9b 48 3d
       -0.0408106 0.102200225 -0.04384542 0.048976034
000080 88 45 7b 3e b9 65 65 3d 55 95 a1 3d 08 76 5c 3d
       0.24538243 0.056005213 0.07889811 0.0538235
000090 5a 6e 9b bc d1 01 21 3c ae c9 9c bd 13 51 32 3e
       -0.018973518 0.009827093 -0.07655655 0.1741374
0000a0 bf 87 ae bd 51 38 08 3e 89 fe a4 bd b7 d7 1a 3e
       -0.08521985 0.13302733 -0.08056361 0.15121351
0000b0 f6 87 a2 3d 00 21 bb 3d b7 51 9a bd db d1 a0 bd
       0.07936089 0.091371536 -0.07535117 -0.07852527
0000c0 1b a1 57 3e e8 ef 35 be c1 3b cc 3c c9 7b 07 be
       0.2105755 -0.17767298 0.024930837 -0.13230814
0000d0 02 f0 29 be 45 74 24 3e d9 76 56 bd b2 23 77 3d
       -0.16595462 0.16059978 -0.052359436 0.060336776
0000e0 63 a8 32 be b1 03 1d be aa 0f 30 3e 83 04 1e 3d
       -0.17447047 -0.1533344 0.17193475 0.03857852
0000f0 ae 18 ce bc 84 07 15 bd ca 94 5b 3e 38 f0 03 3e
       -0.025158253 -0.03638412 0.21443477 0.12884605
000100 2b 0a f9 3d e2 94 2a 3e 96 fe 7c bc e2 32 de 3c
       0.121601425 0.16658357 -0.015441557 0.027123872
000110 64 c1 00 3c c4 3c d9 bd 2e e8 25 be 2a 2e 5a 3e
       0.007858608 -0.10607293 -0.16201851 0.21306673
000120 b2 81 1c 3e 90 b1 5b 3d 83 a0 32 bd 2e 07 23 3e
       0.1528385 0.053636134 -0.043610107 0.15920708
000130 51 14 81 bd 19 8f bd 3c 9a b7 bf 3a 99 68 f2 bd
       -0.06302703 0.023139523 0.0014626861 -0.11836357
000140 f3 32 fa bd 64 8a e5 3d 6b 1c 1f 3e 20 36 af 3d
       -0.12216749 0.112080365 0.15538184 0.085552454
000150 24 8d 04 3d 76 a5 98 bb e8 b7 ef 3d 8b e0 49 3e
       0.032361165 -0.0046583964 0.11704999 0.19714563
000160 e3 43 a3 3d 78 e1 6d 3d ce 5e 7e bd 9d 45 9e bd
       0.07971933 0.058076352 -0.06210213 -0.077281214
000170 77 03 25 3e 78 40 0b be b8 ea 14 be b2 98 86 bd
       0.16114603 -0.13598812 -0.14542663 -0.06572093
000180 1f 8a ba 3c 39 7a da 3d b0 39 33 be 18 52 3d bd
       0.02277094 0.10667843 -0.17502475 -0.04622087
000190 01 2e c3 bd ce 6c 17 3e df ce c5 3d 30 3c c8 bd
       -0.09530259 0.147876 0.09658598 -0.09777105
0001a0 87 48 d1 bc 25 6e c9 3d 2a 38 d3 3d 26 26 23 be
       -0.025547279 0.098354615 0.10313447 -0.15932521
0001b0 6d ff 77 bd 40 fa 8d 3c 54 3b 36 3d dc e3 0d be
       -0.060546327 0.017331243 0.044490173 -0.13856453
0001c0 14 d4 dc 3d 13 60 6c bd 14 20 c7 bd 10 63 f5 bd
       0.10782638 -0.05770881 -0.09722915 -0.11981785
0001d0 73 aa a1 bc a5 42 b0 3d 74 25 07 3e 16 0b 3b 3d
       -0.019734597 0.086064614 0.13197881 0.04566487
0001e0 49 61 d2 3d 7c 99 0d 3e d1 f3 ce bd f0 b7 85 bd
       0.10272462 0.13828081 -0.10105098 -0.06529224
0001f0 80 24 bf bd ac 2e e5 3d 11 82 48 be ac fc a9 bd
       -0.09333134 0.111905426 -0.19580866 -0.083001465
000200 e2 9f 20 be 88 d4 3d 3c 5b 48 a9 bc b7 44 03 3e
       -0.1568599 0.011586316 -0.020664385 0.12819181
000210 10 66 ef bd ac 7b fd 3d 28 78 e8 bd 3b 3b 67 3c
       -0.11689389 0.12377104 -0.11351043 0.014113243
000220 d2 ea 83 bd 98 31 d4 3d e6 68 1a 3e 5e 83 67 3d
       -0.06441273 0.10361022 0.15079078 0.056521766
000230 72 b6 01 3c 9d be 93 bb de ac 59 be a2 7c 4d 3d
       0.0079170335 -0.004508807 -0.2125735 0.050167687
000240 68 ee 05 3e fc 7c 01 3e 30 a6 2f 3e 84 d0 ab bd
       0.13079226 0.12645334 0.17153239 -0.083893806
000250 51 8e d9 3d 1e 2a 04 3e b2 15 2c 3e 05 15 c1 bd
       0.10622848 0.12906691 0.16805151 -0.09427837
000260 73 75 17 3e 90 0d 2d be 59 41 79 bd 50 0d 1a 3e
       0.14790897 -0.16899705 -0.060853336 0.15044141
000270 94 37 38 3e 84 f6 cb 3d 56 d9 13 bd f2 fd d4 bd
       0.17989951 0.099591285 -0.03609594 -0.10399999
000280 c4 a7 f2 3d ca f0 7c bd 25 33 12 3e ef 96 95 bc
       0.11848405 -0.06175307 0.14277323 -0.018260447
000290 9f e0 bd 3d 8f 26 08 3d ae e5 38 3c 4e d0 86 bd
       0.09271359 0.033239897 0.011285229 -0.065827
0002a0 1d 86 1c bd ad fc 74 bd 99 40 13 be b3 a3 a9 3d
       -0.038213838 -0.059811283 -0.14380111 0.08283176
0002b0 89 f1 9e 3d 1f e1 31 be 74 b4 88 bd b9 c9 89 bd
       0.07760913 -0.17371033 -0.06675044 -0.06727929
0002c0 f2 27 08 bc e5 52 fb bd 33 3e 1c 3e 9d 09 0a be
       -0.008310305 -0.1227167 0.15258102 -0.1348023
0002d0 8f a0 10 bd 3f 50 b4 3d ab c9 0f 3c 95 8d 39 3e
       -0.03530937 0.08804368 0.008776109 0.18120416
0002e0 5b 51 76 bd 0f fc 3b 3e 15 87 21 be 40 6a a8 bd
       -0.06013618 0.18357871 -0.15774186 -0.082233906
0002f0 19 a6 2f be ea dc 33 3e 99 51 8b 3d 5b 34 87 bd
       -0.17153205 0.17564741 0.06802673 -0.06601783
000300 5e a9 d3 3c 21 3b 17 bd f2 cb ea bd ff 2a 10 be
       0.025837597 -0.036921624 -0.11464681 -0.14078902
000310 58 a6 a6 3d a5 9d 01 3e 98 2a 15 bc 35 04 2d 3e
       0.08137196 0.12657793 -0.009104393 0.16896136
000320 8e e4 25 bc 29 44 da 3d f9 a5 28 3d 5f 26 25 3e
       -0.010125292 0.10657532 0.04117391 0.16127919
000330 5e 97 2b 3d 5d 7c b3 bd 07 15 12 3e 7a 52 a9 bd
       0.041892402 -0.08763955 0.14265834 -0.08267684
000340 9e 44 19 be 47 07 04 be e8 24 2f 3e 94 d6 71 3d
       -0.14967582 -0.12893401 0.17103922 0.05904253
000350 39 46 99 3d 15 35 dc bc e5 34 0d be 06 b7 66 3d
       0.07484097 -0.02688078 -0.13789709 0.05632689
000360 13 6f 12 be 1c 78 e3 3c a6 ef 3d bd 34 e3 87 3c
       -0.14300184 0.027767234 -0.046371125 0.016587831
000370 5a 55 02 3e b9 e6 2a be da 93 96 3d d2 15 85 bd
       0.12727872 -0.16689576 0.07352419 -0.064983025
000380 99 cc df bc ea 1d ad bd 3d 76 8b bc 9b 34 8b 3d
       -0.02731924 -0.08452971 -0.017024154 0.06797143
000390 10 16 b0 3d 61 0a 21 be b7 a3 6a 3d 2b 55 89 ba
       0.08597958 -0.15726615 0.057285037 -0.0010477653
0003a0 cf 25 c2 3d 44 48 26 3b dc df 34 3e 88 e9 1e 3e
       0.09479868 0.0025372664 0.1766352 0.15518773
0003b0 70 55 34 be 43 29 04 3e d2 e1 40 3d cc ba 87 bc
       -0.17610717 0.12906365 0.04709036 -0.016568564
0003c0 f7 6b b2 bd 40 68 e8 bd 98 d1 92 3d 22 4c 92 bd
       -0.08711999 -0.11348009 0.07168883 -0.071434274
0003d0 b2 91 77 3d cc 94 93 bc 42 23 6a bd e1 de 14 3e
       0.06044168 -0.018015288 -0.05716253 0.14538147
0003e0 db ff 0f be 7b eb e1 bc a0 89 b6 3d f2 f5 9f 3d
       -0.14062445 -0.027578106 0.08912969 0.07810582
0003f0 ef 7a 31 3e 6e b8 f3 3d 2a 4d 10 be 33 dc c2 3d
       0.17332052 0.119004115 -0.14091936 0.09514656

mean.2.bias f4 [100]
000000 5c a0 e6 3d 71 f6 00 3d 1d ee 17 bb 16 6e 49 3d
       0.11261055 0.031485025 -0.0023182698 0.04917725
000010 1b cc 1e 3c ff 03 c6 bc b0 f0 4e 3c 61 1f a0 bc
       0.009692217 -0.024171827 0.012630627 -0.019546213
000020 97 8d 22 3d cf 3a 6d 3c 59 b5 5f bd 07 e1 a5 bc
       0.03968581 0.014479353 -0.054616306 -0.020248903
000030 1b 22 e6 bc 4f 63 06 3d 77 49 2d 3d cd a1 21 bb
       -0.028092435 0.03280955 0.04230639 -0.0024663091
000040 8a 1f 3a 3b 1b 1b 05 be dc b3 83 3d 17 44 01 bd
       0.0028400146 -0.12998621 0.0643079 -0.031559076
000050 d5 3a a6 bc f9 2e 7e 3d 11 28 b1 3d ad f4 91 3d
       -0.020291725 0.062056515 0.0865022 0.07126746
000060 3a ad 43 3b 85 db b0 bb 9f 53 f8 bc 28 71 79 3d
       0.002985789 -0.0053972625 -0.030313311 0.06089893
000070 b8 12 b2 3c da 90 91 bb 7c 3b de 3d 57 4b bd 39
       0.021737441 -0.0044423165 0.108511895 0.00036105022
000080 6e 40 02 bb c0 96 fc b9 fe 16 59 3d e0 d3 af 3d
       -0.001987483 -0.00048177503 0.053000443 0.08585334
000090 16 e0 e9 bc 14 83 a3 3c 6a 2c 73 bc d2 bf 87 bd
       -0.028549235 0.019959964 -0.014842132 -0.06628384
0000a0 c4 fb a0 3b 27 5a 91 ba d9 c4 3d bc a9 aa 02 bd
       0.0049128253 -0.001108949 -0.011582577 -0.031901035
0000b0 46 70 df 3b 07 7f 95 3d 90 c3 2f bd 4f a7 03 3d
       0.006818804 0.07299619 -0.042911112 0.03214198
0000c0 3c 7f 40 bb a1 e8 82 3d 13 8d 92 3d 95 28 10 bd
       -0.0029372713 0.06392027 0.07155814 -0.035194952
0000d0 f9 f4 02 3e 6f 9d 96 3d 7c 92 0d 3d f7 ab 19 3d
       0.12788762 0.07354247 0.034563527 0.037517514
0000e0 c2 72 54 bd 8d 83 07 3c 91 b4 30 3d 46 bc e1 3d
       -0.051867254 0.00827111 0.04314095 0.110222384
0000f0 7c d9 c3 3c db 3e c2 bd d6 59 e5 bc 99 d8 7b 3d
       0.023907416 -0.09484645 -0.027996939 0.06148586
000100 18 10 17 be ed 09 00 bc 69 0c 55 3b 92 a1 ed bc
       -0.14752233 -0.0078148665 0.0032508618 -0.029007707
000110 61 cf d2 3a 78 c1 ac 3d 69 9f f4 3c a0 91 23 bd
       0.0016083532 0.08435339 0.029861169 -0.0399338
000120 a5 f9 18 3c 39 13 87 bd 17 f8 92 3c 5d 0e 9f bb
       0.009336864 -0.06595463 0.017940564 -0.004854007
000130 bc 15 cf 3c fd 3a d1 bb 2d e0 f2 3d 46 4e ac 3c
       0.025278918 -0.006385206 0.118591644 0.021033417
000140 23 81 df ba 4d a5 ed bc c3 64 18 3d 53 52 65 3d
       -0.0017052036 -0.029009486 0.03720547 0.055986714
000150 21 7f ec 3d f1 d8 91 bd c2 5c 53 bb 8c b4 eb bc
       0.115476854 -0.071214564 -0.0032251333 -0.028772615
000160 e1 ff fb bb 42 da 1d 3d 20 8c 0e 3d 24 0a 6d 3b
       -0.0076904153 0.038538225 0.034801602 0.0036169374
000170 64 14 14 3d 2c 26 45 3b 7f cb 9f bc b2 66 5b 3d
       0.03615226 0.0030082567 -0.019506214 0.053564735
000180 17 5d 67 3d 95 16 8b 3b 3a db 94 3c 72 79 7b 3d
       0.05648526 0.0042446353 0.018170942 0.061395116

mean.4.weight f4 [2, 100]
000000 bb a1 c1 3e 2c 7f a4 3e 2d 9c 23 be 73 17 cb bd
       0.37818703 0.32128274 -0.15977545 -0.09916582
000010 7f 55 52 be d8 78 df 3d 53 dc 36 bd 58 49 2b be
       -0.20540427 0.10911721 -0.04464371 -0.16727197
000020 37 b5 84 be 62 0a b6 bc 5c 90 73 3e 64 20 b0 be
       -0.25919506 -0.022221748 0.23785537 -0.34399712
000030 ed 21 0b 3e cd b8 68 3e 36 63 01 bf 29 9c e0 3d
       0.1358716 0.22726746 -0.5054201 0.10967285
000040 b8 79 32 3d b4 d4 15 3e 54 d5 65 3e 59 f6 17 3e
       0.04357311 0.14631921 0.2244466 0.14840068
000050 45 ea 4c be 0a 41 fd be 27 12 67 3e 44 aa 01 be
       -0.20011242 -0.49463683 0.22565518 -0.12662607
000060 59 d3 1b 3e 16 34 8b 3d 5f 27 31 be fa 95 ab 3e
       0.15217341 0.06797044 -0.17300175 0.3351286
000070 0f ca 00 be 2d 35 2a 3d 79 51 8e 3e 4c a7 1f be
       -0.12577079 0.04155462 0.27796534 -0.15591162
000080 25 27 38 3d 3f 94 cd bd 95 d5 a0 be a6 84 70 bd
       0.044959206 -0.10038041 -0.3141295 -0.058720253
000090 d2 cd be be 33 67 e1 bd 4c 65 27 be 41 05 b8 be
       -0.37266403 -0.11006012 -0.16347235 -0.35941508
0000a0 81 1f f4 bd 11 9a a5 bc 04 55 51 be b8 ea de 3d
       -0.119200714 -0.020215066 -0.20442587 0.10884613
0000b0 b5 36 fd bd 36 40 7f be 14 1f 3f 3e d6 4b 23 bf
       -0.1236395 -0.24926838 0.18664199 -0.6378759
0000c0 1e 0a d5 bd 3a ce 18 be ee 28 92 3e 93 a3 15 be
       -0.1040232 -0.14922419 0.28546852 -0.1461318
0000d0 c5 8c 3e bf 72 90 9e 3e 48 82 ad 3d f8 b7 51 bd
       -0.7443355 0.30969578 0.08472115 -0.051200837
0000e0 0e d1 02 bd 5c f8 8d be a2 a4 98 bd 9d 81 95 3e
       -0.03193765 -0.27728546 -0.07453276 0.2920045
0000f0 bc bc bf be 68 63 06 bf c8 cd 37 3c 14 2d 2f 3e
       -0.3744868 -0.5249543 0.011218496 0.1710704
000100 8b b6 1f bf dc b4 b6 bd 65 2c 71 be a5 0e 0e be
       -0.62387913 -0.08921215 -0.23552091 -0.13872774
000110 6e 1e b1 3e 76 0c fd 3e 15 e1 14 be 83 63 a5 bd
       0.34593529 0.4942357 -0.14538987 -0.08075621
000120 16 92 63 3e 18 a2 4d be da dd 9e be e2 5e 1b be
       0.22223696 -0.20081365 -0.31028634 -0.15172914
000130 f9 a7 11 3e e4 19 ba be f8 30 9c be be 1c d7 3d
       0.14224233 -0.36347878 -0.3050611 0.10503529
000140 d3 ff 5f 3e 99 5d 2d be 4b 36 c6 be 16 1d 20 bd
       0.21874933 -0.16930236 -0.38713297 -0.03909024
000150 12 b4 9f be 17 c2 2f be de d9 cb be 02 68 db bd
       -0.3119207 -0.17163883 -0.39814657 -0.10713197
000160 ca 36 81 be c6 a9 2a 3e 4d 5d fb bd 3e db 50 be
       -0.25237113 0.16666326 -0.12273655 -0.20396134
000170 ec cb 85 3e ab 2e e1 3e 19 47 76 bd cf 53 38 3d
       0.26132143 0.43980917 -0.060126398 0.0450018
000180 4d 9f d7 bc d3 5b 11 3e 38 f9 64 3e ad c8 04 be
       -0.026321078 0.14195184 0.22360694 -0.12967177
000190 66 71 92 be 97 57 06 be 2d 36 4f 3e 4b c7 b9 3e
       -0.2860214 -0.1311935 0.2023551 0.3628486
0001a0 f9 6d a1 3e 54 49 71 3e 23 16 fb bd af 31 c4 3d
       0.31529215 0.23563129 -0.122600816 0.09579789
0001b0 66 74 0d 3e f5 de 07 3e dc 84 29 bc 37 75 39 3d
       0.13813934 0.13268645 -0.010346618 0.0452778
0001c0 7e b0 b9 3d 7e c2 17 3e 15 d4 aa 3e 87 66 a4 3d
       0.09066866 0.14820287 0.3336493 0.08027368
0001d0 25 57 00 3e b1 2e 19 3d 35 59 d8 bd 77 f9 60 3e
       0.12533243 0.037398044 -0.1056389 0.21970163
0001e0 b2 87 de bc 60 50 03 3f 65 eb ba bd 79 5e 8f 3e
       -0.027164314 0.5129452 -0.09126929 0.28001764
0001f0 fe 3f 0d bd bb 27 12 3d 3b a4 c4 3e 00 5f 7f be
       -0.034484856 0.03568242 0.38406548 -0.24938583
000200 21 a3 0c be d3 66 99 3d e0 05 bc be 01 7d f1 bd
       -0.13734104 0.07490315 -0.36723232 -0.11791421
000210 91 3c 98 3e 80 4e 1c 3e 8d ef 44 bc 6e d4 da 3e
       0.29733709 0.1526432 -0.012020004 0.42740196
000220 08 0e 30 3e 66 d1 cd 3e cd 7b 9e 3d d7 c4 e1 3e
       0.17192852 0.4019882 0.07738457 0.4409549
000230 ce 0f e2 3e 5f 60 d3 bb 3a cf 33 be 89 e5 45 3e
       0.44152683 -0.0064506973 -0.1755952 0.19325842
000240 24 ea 74 be 43 b5 44 3c d7 74 17 bd 5a 0d 2a 3f
       -0.23917443 0.012006107 -0.03697666 0.6642662
000250 13 b9 67 be 06 4b 0f bb fd a4 eb bc f1 80 85 3e
       -0.22629194 -0.0021864786 -0.028765196 0.26074937
000260 6a df 45 3f 7b 5f a2 be 56 57 9f 3e 07 90 a6 3e
       0.7729403 -0.3171347 0.3112132 0.3253176
000270 c6 d7 87 3d b9 fe 18 3d 62 06 63 3e 81 f8 84 be
       0.066329524 0.037352297 0.22170404 -0.25970843
000280 21 f8 27 3e 64 79 9a 3e bc 07 ec 3d 28 d4 69 be
       0.16403247 0.3017074 0.11524913 -0.22834837
000290 ca e5 41 3f 62 c5 aa bd 13 3d 17 3e ba 46 68 3e
       0.75741255 -0.08338429 0.14769392 0.2268323
0002a0 1f 74 6f 3d b1 a2 01 bf cc 95 69 3e 4a 3b 42 3e
       0.05846035 -0.5063887 0.22811049 0.1896793
0002b0 16 1d 30 3e 28 cc be 3e 85 28 e1 3e 83 fa 2a be
       0.17198595 0.37265134 0.43976226 -0.16697125
0002c0 61 dd 93 3e 90 7f 14 3d d7 76 3d 3e 6a a7 84 bd
       0.28879836 0.036254466 0.18502365 -0.06477244
0002d0 8f 7b d1 be e2 4f 99 3e c3 e7 8a bd 17 d0 08 3e
       -0.4091458 0.29943758 -0.06782486 0.1336063
0002e0 38 21 11 3e 07 89 d9 3d 21 5d a2 3e 47 b1 a1 bd
       0.14172828 0.10621839 0.31711677 -0.07895141
0002f0 49 d6 0e be e9 f0 44 3d d1 fe 63 3e 57 f3 7a be
       -0.13948931 0.048081312 0.22265173 -0.2450689
000300 da 9c 44 be 1d 3f b0 be 3d 20 e1 3d c6 2f 5c be
       -0.19200459 -0.34423152 0.10992477 -0.21502599
000310 ac ed 8f be d5 74 89 3c ea f8 e6 3d e1 ff 96 3e
       -0.28111017 0.016779343 0.11277945 0.29492095

mean.4.bias f4 [2]
000000 c0 80 b3 3d ca 80 b3 bd
       0.087647915 -0.08764799
