save/exp9/it9_model.pt (torch, 45415 bytes, 7 tensors)

sigma f4 [2]
0.37885585 -4.7923455
00000000: 65f9 c13e e55a 99c0

mean.0.weight f4 [100, 3]
-0.06753068 0.16300362 0.019226313 -0.0020458107 -0.052937973 -0.22127186 -0.24629903 -0.09168524
-0.1286668 0.06987028 -0.045631655 -0.096971855 0.17456804 0.098373935 0.2655781 -0.22210084
-0.09746162 0.09653572 -0.016766576 -0.24660707 -0.034392197 -0.096625075 -0.13137057 0.16237594
0.22789904 0.045363158 -0.069143906 -0.24450882 -0.10461951 0.15622869 0.12305215 -0.027637104
-0.15366513 0.10257257 -0.26276326 0.15571667 -0.09236591 0.006716886 -0.048176806 0.07942361
-0.14513254 0.10179285 -0.009746278 0.19021863 0.2299368 -0.106982626 -0.12076268 0.1646404
0.34016672 -0.2495081 -0.15326273 -0.17928542 -0.23926882 0.08264804 0.052597802 0.059744623
-0.07294613 0.21081105 0.062364854 -0.14548132 -0.020883266 0.069421805 0.07835381 -0.16753592
0.0931183 -0.1242725 -0.19394116 -0.1207721 0.20131098 0.21898773 0.42077386 0.20283917
0.1578506 0.02770595 -0.13485909 0.27707592 -0.19291918 -0.24544638 -0.10350062 0.030445222
0.12199282 -0.11486631 -0.12743409 0.009718932 -0.21022272 -0.1437492 0.12192992 -0.04054399
0.22054693 0.23478633 0.06795002 0.08601688 0.05243049 -0.0033646463 -0.010639203 0.002231809
0.090128094 0.2244052 -0.06254944 -0.121169 0.04625178 -0.059933033 0.046438627 0.16868873
0.20188703 0.12295993 -0.17096047 -0.23495919 -0.0763676 -0.028522113 0.01583771 -0.20640512
0.05087772 -0.17645074 -0.17751314 -0.17767975 0.20771143 -0.23675558 0.18731463 -0.012192963
-0.028069347 0.15096262 -0.022307903 0.07110884 0.23838398 -0.2224924 0.10526165 0.11741925
0.085742176 0.035235822 0.066018164 -0.116108075 -0.030879289 0.22931656 0.1621545 0.022197228
-0.24679674 0.0041378867 -0.16435663 0.19626817 -0.1465238 -0.1161785 -0.02528141 0.08719231
0.22117266 -0.023305498 0.065251835 0.18197437 0.19832502 -0.08819329 -0.053980738 0.116318285
-0.06585808 0.35146868 -0.21797428 -0.33517992 0.10010888 0.06427544 0.24442095 0.34936053
0.10478274 0.38223845 0.19485614 -0.2687664 -0.32917204 -0.10152668 -0.22356233 -0.14826486
-0.122407645 -0.30553433 -0.20297563 -0.25267512 -0.22329001 0.15014726 0.19540654 -0.08539536
-0.12091857 0.34915268 -0.22326615 -0.27907798 0.2852612 -0.2639768 -0.0058019594 0.19475716
0.095838025 0.06748098 -0.13874851 0.0020957275 0.012401069 0.072377294 0.17575434 0.26991627
-0.18284354 -0.016947472 -0.11050161 -0.19230625 -0.009125716 -0.21261121 0.20079163 -0.024115557
-0.12918277 0.22505324 -0.3250624 -0.17838164 0.0381876 -0.25929725 -0.14487071 -0.042587385
0.18383546 0.23177071 0.439272 -0.34991723 -0.4013947 0.1876002 0.12771901 -0.001183365
0.023390917 -0.19433104 -0.117133215 0.48056695 -0.21074931 -0.11845908 -0.22644876 -0.12177648
-0.010053976 -0.295863 -0.0014841217 0.26117092 -0.24102534 0.062373854 -0.16050352 -0.057486694
0.036183406 0.19917269 0.21785153 -0.28856486 -0.4126831 0.15434381 -0.3829361 -0.18169354
-0.0341759 -0.25586146 0.23908928 0.14483728 -0.17892587 -0.12358776 0.17671135 -0.109899335
-0.07542414 -0.10897574 0.19386137 -0.13491723 0.1997275 0.06532927 0.07732881 0.19552581
00000000: 864d 8abd 6cea 263e 8080 9d3c 0213 06bb
00000010: 7dd5 58bd 1795 62be d035 7cbe 79c5 bbbd
00000020: 3bc1 03be 2618 8f3d 42e8 3abd 2e99 c6bd
00000030: f7c1 323e 4678 c93d daf9 873e 676e 63be
00000040: f599 c7bd 85b4 c53d 0f5a 89bc 9086 7cbe
00000050: d5de 0cbd 5ee3 c5bd 0286 06be e145 263e
00000060: 5e5e 693e b8ce 393d 529b 8dbd 8560 7abe
00000070: c142 d6bd 6afa 1f3e c402 fc3d 3567 e2bc
00000080: 645a 1dbe 9111 d23d e888 86be 3174 1f3e
00000090: 572a bdbd 5319 dc3b 0b55 45bd d8a8 a23d
000000a0: a09d 14be c578 d03d daae 1fbc acc8 423e
000000b0: 8d74 6b3e b519 dbbd 6d52 f7bd 7e97 283e
000000c0: 552a ae3e 0d7f 7fbe e8f0 1cbe 9996 37be
000000d0: e302 75be 6043 a93d cb70 573d c7b6 743d
000000e0: c864 95bd dade 573e 4a72 7f3d 0ef9 14be
000000f0: 6213 abbc 052d 8e3d f677 a03d 898e 2bbe
00000100: cfb4 be3d 9582 febd 8398 46be 5d57 f7bd
00000110: 7724 4e3e 523e 603e ac6f d73e 12b5 4f3e
00000120: 96a3 213e 97f7 e23c 8018 0abe e5dc 8d3e
00000130: 9b8c 45be 4c56 7bbe 22f8 d3bd 4268 f93c
00000140: 5fd7 f93d 073f ebbd 157e 02be 283c 1f3c
00000150: a044 57be fe32 13be 65b6 f93d 7411 26bd
00000160: 0ed7 613e d46b 703e 6129 8b3d 9e29 b03d
00000170: 5ac1 563d 6681 5cbb 0d50 2ebc 8b43 123b
00000180: 1495 b83d 7aca 653e ec19 80bd 7427 f8bd
00000190: 8272 3d3d 577c 75bd 6e36 3e3d bdbc 2c3e
000001a0: 79bb 4e3e 6ad2 fb3d 4310 2fbe 2499 70be
000001b0: 9e66 9cbd 35a7 e9bc 16be 813c dd5b 53be
000001c0: 2865 503d 81af 34be 01c6 35be aef1 35be
000001d0: 4eb2 543e 0e70 72be 68cf 3f3e fec4 47bc
000001e0: b0f1 e5bc f295 1a3e 10bf b6bc 83a1 913d
000001f0: ee1a 743e 0cd5 63be 6c93 d73d 8179 f03d
00000200: 9899 af3d 7053 103d 8834 873d 12ca edbd
00000210: 90f6 fcbc f6d1 6a3e d40b 263e f6d6 b53c
00000220: 49b8 7cbe 1c97 873b 1b4d 28be 86fa 483e
00000230: 560a 16be feee edbd f61a cfbc e291 b23d
00000240: 167b 623e 2ceb bebc c1a2 853d 7d57 3a3e
00000250: b715 4b3e af9e b4bd e81a 5dbd 4838 ee3d
00000260: 9ae0 86bd b4f3 b33e a634 5fbe b49c abbe
00000270: e205 cd3d d8a2 833d 7c49 7a3e 62df b23e
00000280: 5598 d63d c2b4 c33e 5e88 473e c09b 89be
00000290: 3d89 a8be 38ed cfbd 86ed 64be bed2 17be
000002a0: dcb0 fabd ff6e 9cbe d8d8 4fbe a25e 81be
000002b0: 23a6 64be 34c0 193e a718 483e c3e3 aebd
000002c0: 28a4 f7bd 24c4 b23e e29f 64be 4fe3 8ebe
000002d0: c20d 923e f827 87be 5d1e bebb 6c6e 473e
000002e0: ba46 c43d 7833 8a3d 1714 0ebe 7958 093b
000002f0: da2d 4b3c 8c3a 943d f2f8 333e 7732 8a3e
00000300: 563b 3bbe 6dd5 8abc ab4e e2bd eeeb 44be
00000310: 0784 15bc c1b6 59be 529c 4d3e fd8d c5bc
00000320: 7d48 04be 5b74 663e 946e a6be ada9 36be
00000330: 9a6a 1c3d 9cc2 84be fd58 14be 1c70 2ebd
00000340: 5d3f 3c3e 4d55 6d3e 42e8 e03e 5a28 b3be
00000350: 9b83 cdbe 441a 403e c6c8 023e 241b 9bba
00000360: 4f9e bf3c b7fe 46be 8ae3 efbd df0c f63e
00000370: abce 57be ad9a f2bd 2fe2 67be f265 f9bd
00000380: 6fb9 24bc 5b7b 97be dc86 c2ba 32b8 853e
00000390: 59cf 76be ba7b 7f3d 095b 24be 2b77 6bbd
000003a0: 0d35 143d edf3 4b3e 7914 5f3e c6be 93be
000003b0: 334b d3be 4e0c 1e3e 3310 c4be df0d 3abe
000003c0: 07fc 0bbd 4600 83be d2d3 743e 3950 143e
000003d0: 5838 37be 941b fdbd d2f3 343e e712 e1bd
000003e0: f977 9abd ac2e dfbd 9883 463e be27 0abe
000003f0: 5e85 4c3e 5acb 853d 915e 9e3d eb37 483e

mean.0.bias f4 [100]
0.0 -0.017614452 -0.13751481 -0.07171777 0.14351827 0.008026584 0.38294274 -0.06787288
-0.07635199 0.28854695 -0.31017628 0.23588079 -0.017195081 -0.11599831 -0.0139123555 -0.25931278
0.19515586 0.39077136 -0.071258225 -0.06832 -0.09610655 -0.01988993 -0.10825543 -0.74989575
-0.14331017 0.16168793 -0.02634899 -0.056483597 -0.10247358 0.0 -0.02154419 -0.027170945
0.0 -0.08201277 0.0048023434 -0.57839495 -0.058659196 0.14685236 -0.0798219 -0.047451116
0.0 -0.14718577 -0.17371644 0.0 0.0 0.083530895 0.0 0.004013375
-0.13928132 -0.026424173 0.0 0.49021614 0.21391864 0.7561436 0.17900385 -0.07487909
0.15071602 0.28502598 -0.13459352 0.40660828 0.21776535 -0.10984719 -0.024595853 -0.07927227
0.18661977 -0.036392573 0.13677053 0.16623381 0.25503987 -0.0057008066 0.46011037 -0.13053785
-0.10580647 0.46857312 -0.057017077 0.049192365 0.031879924 0.309879 0.4025606 0.7727847
0.05570917 -0.17859468 0.19956677 0.0 -0.084172994 -0.11472573 0.0 0.12036481
0.22176339 0.0 -0.017351978 0.23890282 -0.017291786 0.0 -0.01637028 0.19062315
0.0028280807 -0.28825244 0.12504187 0.29690254
00000000: 0000 0000 2f4c 90bc afd0 0cbe c4e0 92bd
00000010: 74f6 123e ef81 033c 1211 c43e f000 8bbd
00000020: 6f5e 9cbd 6dbc 933e 6dcf 9ebe bc8a 713e
00000030: b3dc 8cbc 8690 edbd a6f0 63bc a5c4 84be
00000040: f0d6 473e 2f13 c83e d5ef 91bd 5beb 8bbd
00000050: 83d3 c4bd 35f0 a2bc 06b5 ddbd 2bf9 3fbf
00000060: e7bf 12be 8591 253e d6d9 d7bc 585b 67bd
00000070: abdd d1bd 0000 0000 717d b0bc 9a95 debc
00000080: 0000 0000 50f6 a7bd fa5c 9d3b b111 14bf
00000090: a044 70bd 7760 163e aa79 a3bd 1a5c 42bd
000000a0: 0000 0000 deb7 16be b9e2 31be 0000 0000
000000b0: 0000 0000 3f12 ab3d 0000 0000 a182 833b
000000c0: c39f 0ebe 8277 d8bc 0000 0000 9cfd fa3e
000000d0: 7d0d 5b3e a192 413f c94c 373e 355a 99bd
000000e0: 4d55 1a3e edee 913e e2d2 09be f62e d03e
000000f0: e1fd 5e3e 90f7 e0bd 3e7d c9bc 8059 a2bd
00000100: 4119 3f3e 6110 15bd 930d 0c3e 3239 2a3e
00000110: 9694 823e d5cd babb 9693 eb3e b7ab 05be
00000120: 10b1 d8bd d1e8 ef3e bd8a 69bd ef7d 493d
00000130: 8694 023d 76a8 9e3e 6c1c ce3e 38d5 453f
00000140: 4c2f 643d 86e1 36be 3b5b 4c3e 0000 0000
00000150: e462 acbd 53f5 eabd 0000 0000 d381 f63d
00000160: f115 633e 0000 0000 bc25 8ebc f1a2 743e
00000170: 81a7 8dbc 0000 0000 f71a 86bc b732 433e
00000180: 5257 393b d395 93be fa0a 003e 9c03 983e

mean.2.weight f4 [100, 100]
-0.012887165 0.12181467 -0.0007872619 -0.0011347609 -0.072184674 0.14578037 -0.040143598 0.030080661
-0.13193409 0.0644192 -0.07971814 -0.03156334 -0.015547794 0.07209407 0.00710872 0.030996103
-0.112172835 -0.12574248 0.06237726 -0.07135053 -0.14936218 -0.07131562 -0.1603899 0.043769754
0.016256765 0.152152 -0.09519434 -0.086779244 0.049584992 -0.045511767 0.13498047 0.026352428
-0.003763482 -0.065681025 0.10544237 -0.07701251 0.069707036 0.11228859 -0.13563699 -0.15277596
-0.09767792 0.08312841 -0.09066082 0.016372666 0.026151717 0.04133222 -0.088322714 0.009151661
0.1364173 0.08976862 0.033088386 -0.15114005 0.08188865 -0.07484599 0.11849169 0.07823933
-0.029301913 0.07158428 -0.06371893 0.019701065 -0.006012099 0.009871353 0.06120111 0.17379394
-0.07498829 0.16932625 -0.036209594 0.16614492 0.03445331 0.014150247 -0.07118153 -0.09130833
-0.1658021 -0.10077413 -0.015318745 0.1606483 0.09815104 0.03128024 -0.17468706 0.11059365
0.1299147 -0.07497803 0.06446507 -0.14431286 -0.082438014 -0.051706027 -0.15705016 0.0010092795
0.03877712 0.050415874 0.16204977 0.104935914 -0.15846476 -0.05436676 0.09699291 -0.16508472
-0.004068782 0.0755905 -0.10946666 0.15004408 -0.11418966 -0.1268939 -0.1362443 -0.029992644
0.051575843 0.04976648 -0.08359902 0.15193914 -0.092378505 0.13539666 0.060645398 -0.05445465
0.12815674 0.05632767 -0.14727576 0.08737195 0.16772693 -0.13427936 -0.036491293 -0.13950704
0.11615466 0.09181468 0.12439834 0.038739473 -0.02708521 -0.012148371 -0.12910405 0.11130448
-0.06928152 0.019008875 0.005780176 0.052400183 -0.1391373 -0.02566275 0.07988798 -0.12241618
-0.074481346 -0.095392734 -0.14663851 0.1690385 0.14964661 0.10828858 -0.14558606 -0.0015807897
0.031806678 0.08025789 0.03488578 -0.10600766 0.0039628227 -0.14007303 0.08685994 0.112994194
-0.06595114 -0.1608529 0.007367429 0.092704624 -0.11388655 0.072296925 0.12373054 -0.13947864
0.09901481 0.074489735 -0.08918742 0.14050558 -0.08334358 0.13153076 -0.13098268 0.14201595
-0.0370421 -0.15300065 0.09787996 -0.01426441 0.05313856 0.081775 0.018009959 0.053522103
-0.14605732 -0.15271883 -0.077314004 -0.0873704 -0.16238087 0.0345179 -0.012202452 -0.0381452
-0.008697915 0.08525809 -0.06427177 0.012981109 -0.016949374 0.08363965 -0.018399678 0.06328411
-0.06798237 0.13417202 0.029192604 0.034314062 0.07921202 -0.17966557 0.07153241 0.13915925
0.10373184 0.11243964 -0.1379905 0.14912257 0.03851213 -0.16412641 0.15793455 0.13503698
-0.028546983 0.17616367 0.010099544 0.13824148 -0.15310326 -0.16100408 0.048299283 -0.0011821816
-0.1534234 -0.092645615 0.097031444 0.10982112 -0.13136953 -0.07733937 0.005487698 0.0014673577
-0.12877418 0.12060477 -0.120797746 0.12397359 -0.101847015 -0.17209017 0.043407477 -0.082946576
0.116765976 -0.05687647 0.017301137 0.12752849 -0.11230997 -0.07008604 0.11818169 0.14660685
0.030189097 0.13321649 0.106217384 0.09793627 -0.006828204 0.16655183 -0.055061743 0.013966919
-0.05063787 -0.012961754 0.10408741 0.12362412 0.026255505 0.114431515 0.11537831 0.08466083
00000000: b024 53bc f879 f93d 4060 4eba 42bc 94ba
00000010: 8fd5 93bd 7347 153e 9d6d 24bd b86b f63c
00000020: bb19 07be 37ee 833d 4443 a3bd 9048 01bd
00000030: 2dbc 7ebc 0ea6 933d 44f0 e83b 8aeb fd3c
00000040: dfba e5bd a3c2 00be 4c7f 7f3d 3a20 92bd
00000050: 66f2 18be ec0d 92bd 403d 24be ea47 333d
00000060: e82c 853c bccd 1b3e 40f5 c2bd 51b9 b1bd
00000070: a219 4b3d 8c6a 3abd 5238 0a3e 0ce1 d73c
00000080: c0a4 76bb c683 86bd 2bf2 d73d bcb8 9dbd
00000090: 90c2 8e3d 8ff7 e53d 6ce4 0abe 4d71 1cbe
000000a0: 5c0b c8bd 3a3f aa3d 61ac b9bd f81f 863c
000000b0: 203c d63c f94b 293d 8ae2 b4bd d9f0 153c
000000c0: fab0 0b3e 9cd8 b73d b087 073d 75c4 1abe
000000d0: 3db5 a73d db48 99bd c5ab f23d f13b a03d
000000e0: 910a f0bc c79a 923d 127f 82bd 2164 a13c
000000f0: 2401 c5bb 75bb 213c 04ae 7a3d 0af7 313e
00000100: 7693 99bd dc63 2d3e 8350 14bd e521 2a3e
00000110: ea1e 0d3d 70d6 673c 9fc7 91bd ddff babd
00000120: 07c8 29be ab62 cebd 79fb 7abc fd80 243e
00000130: 6a03 c93d b51f 003d 2ae1 32be ec7e e23d
00000140: 5c08 053e 158e 99bd 4306 843d c0c6 13be
00000150: 43d5 a8bd b3c9 53bd c2d1 20be cd49 843a
00000160: c2d4 1e3d e080 4e3d 60f0 253e a4e8 d63d
00000170: 9644 22be aeaf 5ebd 38a4 c63d f80b 29be
00000180: 6b53 85bb 31cf 9a3d 0e30 e0bd 28a5 193e
00000190: 45dc e9bd 79f0 01be a083 0bbe 22b3 f5bc
000001a0: 3141 533d f0d7 4b3d f735 abbd ef95 1b3e
000001b0: f130 bdbd 6ca5 0a3e 4f67 783d d70b 5fbd
000001c0: 853b 033e d8b7 663d 75cf 16be 11f0 b23d
000001d0: 9cc0 2b3e 8780 09be e577 15bd efda 0ebe
000001e0: 7fe2 ed3d 5609 bc3d 8fc4 fe3d 48ad 1e3d
000001f0: cde1 ddbc f609 47bc da33 04be 9af3 e33d
00000200: 78e3 8dbd 80b8 9b3c a167 bd3b 93a1 563d
00000210: 027a 0ebe b03a d2bc 4f9c a33d 56b5 fabd
00000220: ad89 98bd 445d c3bd 6828 16be 6e18 2d3e
00000230: f63c 193e 67c6 dd3d 8314 15be 8032 cfba
00000240: b847 023d 405e a43d 64e4 0e3d 8b1a d9bd
00000250: 91da 813b 4e6f 0fbe a0e3 b13d 8069 e73d
00000260: 6411 87bd 9fb6 24be 796a f13b ecdb bd3d
00000270: 5a3d e9bd 6910 943d 7066 fd3d 7dd3 0ebe
00000280: 47c8 ca3d 138e 983d e5a7 b6bd b2e0 0f3e
00000290: 0ab0 aabd 00b0 063e 5320 06be a16c 113e
000002a0: 75b9 17bd 34ac 1cbe 4a75 c83d 46b5 69bc
000002b0: d2a7 593d a779 a73d 9f89 933c fe39 5b3d
000002c0: 0d90 15be 5362 1cbe ce56 9ebd 41ef b2bd
000002d0: 2c47 26be a462 0d3d cbec 47bc 243e 1cbd
000002e0: b381 0ebc cb9b ae3d eba0 83bd b8ae 543c
000002f0: 6ad9 8abc 444b ab3d ecba 96bc 199b 813d
00000300: 573a 8bbd 6464 093e 5425 ef3c e78c 0c3d
00000310: e939 a23d 40fa 37be 967f 923d c37f 0e3e
00000320: 5c71 d43d c146 e63d 624d 0dbe 96b3 183e
00000330: e5be 1d3d c110 28be 98b9 213e 2247 0a3e
00000340: 5ddb e9bc 4064 343e 8f78 253c 2d8f 0d3e
00000350: 1ac7 1cbe 41de 24be 78d5 453d 6ff3 9aba
00000360: 061b 1dbe fcbc bdbd 6cb8 c63d e5e9 e03d
00000370: bc85 06be 1b64 9ebd 26d2 b33b 5b54 c03a
00000380: 61dd 03be a2ff f63d cf64 f7bd dee5 fd3d
00000390: 2b95 d0bd 6838 30be 0acc 313d e5df a9bd
000003a0: 0023 ef3d 4df7 68bd 1dbb 8d3c d496 023e
000003b0: c502 e6bd 4589 8fbd 3e09 f23d 1b20 163e
000003c0: 204f f73c e769 083e 8088 d93d d092 c83d
000003d0: 20bf dfbb 908c 2a3e 6c88 61bd 81d5 643c
000003e0: a869 4fbd 895d 54bc c82b d53d a52e fd3d
000003f0: c915 d73c 125b ea3d 774b ec3d a862 ad3d

mean.2.bias f4 [100]
0.040142074 -0.0066781174 0.0023235825 -0.10941069 -0.004787448 0.29011095 -0.006398585 0.005561663
1.9268206e-05 0.13308713 -0.1752878 0.0 -0.37031522 0.011983248 0.0 -0.0039622122
-0.119842075 -0.04149961 -0.03889355 0.073548295 -0.04991636 0.061813757 -0.075554535 0.012833023
0.0 -0.28658146 -0.021983214 0.026312128 -0.020716254 0.008232933 0.016510641 -0.24066234
-0.01037041 0.0076886253 -0.47569433 1.6482663e-05 0.039940026 0.0 -0.30177277 -0.019138979
0.020105679 0.19212493 0.024070455 0.087006204 0.0008580973 0.03453888 -0.1896222 0.10390355
-7.796878e-06 -0.03783568 -0.69650066 0.0030351528 0.011533342 0.00243154 0.0 -0.019022683
-0.0096833715 0.020454668 -0.012421259 -0.02854957 0.09451149 -0.2033598 -0.0037018606 -0.020370293
0.035216838 -0.121766105 0.021542817 0.19084483 0.049489047 -0.035473105 0.04843811 -0.3074403
-0.05182988 0.0034184703 0.012368705 0.0 -0.021250239 0.70251614 0.0025680214 -0.00030929616
0.14076577 0.11951957 0.062127847 0.013223293 -0.28255263 0.07750941 -0.13824177 -0.07429368
-0.016724499 0.0 0.25716946 0.32152075 0.07363598 0.0 0.1875437 -0.023293504
0.0 0.81177247 0.07400916 -0.01341285
00000000: 046c 243d 1cd4 dabb 3f47 183b b612 e0bd
00000010: 06e0 9cbb 6c89 943e 39ab d1bb 9c3e b63b
00000020: 28a2 a137 fe47 083e a57e 33be 0000 0000
00000030: f599 bdbe 6355 443c 0000 0000 72d5 81bb
00000040: c36f f5bd 7ffb 29bd d84e 1fbd 7da0 963d
00000050: 1975 4cbd 6c30 7d3d 56bc 9abd 9a41 523c
00000060: 0000 0000 ceba 92be 2416 b4bc 888c d73c
00000070: 22b5 a9bc 6ce3 063c 5341 873c 3070 76be
00000080: a7e8 29bc ddf0 fb3b 358e f3be 4044 8a37
00000090: 2798 233d 0000 0000 f681 9abe 59c9 9cbc
000000a0: aab4 a43c 66bc 443e 672f c53c 4f30 b23d
000000b0: eff1 603a a478 0d3d 522c 42be 62cb d43d
000000c0: 56cf 02b7 96f9 1abd de4d 32bf 6ae9 463b
000000d0: 58f6 3c3c 795a 1f3b 0000 0000 75d5 9bbc
000000e0: 01a7 1ebc 8c90 a73c 8982 4bbc cae0 e9bc
000000f0: 3d8f c13d 8d3d 50be ea9a 72bb 9adf a6bc
00000100: 883f 103d 8260 f9bd 907a b03c d46c 433e
00000110: 07b5 4a3d 3f4c 11bd 0a67 463d d168 9dbe
00000120: 914b 54bd 6a08 603b 1ca6 4a3c 0000 0000
00000130: fb14 aebc 19d8 333f 404c 283b 0729 a2b9
00000140: e724 103e adc6 f43d c579 7e3d 83a6 583c
00000150: bdaa 90be 41bd 9e3d 408f 0dbe 4927 98bd
00000160: d101 89bc 0000 0000 b7ab 833e 5e9e a43e
00000170: 76ce 963d 0000 0000 750b 403e 05d2 bebc
00000180: 0000 0000 52d0 4f3f 1d92 973d 92c1 5bbc

mean.4.weight f4 [2, 100]
0.07875965 0.22915895 -0.07531568 -0.16753791 -0.040963724 0.37723032 0.19407572 -0.12967949
0.0114385225 -0.28018856 0.2369057 0.10596076 -0.083696045 0.09227662 0.017488569 -0.13084242
-0.23908618 0.14560565 -0.25365016 0.40653557 -0.028800199 0.36785188 0.14862147 0.06847257
-0.10779482 0.105686605 0.06555398 0.046796836 -0.008271528 0.05762595 0.2345498 0.4569318
-0.09311952 0.033167865 -0.12175474 -0.08706909 0.1975494 0.22415084 0.16193095 -0.096997894
0.25809544 0.35040054 0.06931181 0.52984166 0.051874034 -0.021656048 -0.0051380172 0.06577689
0.07107312 -0.061338354 -0.15513416 -0.22718826 -0.26186103 0.090603806 -0.057880864 -0.18522844
0.17976637 -0.14160436 0.044117484 0.13569134 -0.04639079 -0.117355816 0.2583386 0.28337368
0.30694425 -0.010895012 0.09888661 0.4602032 0.06340983 0.21513636 0.096755944 0.28785884
-0.23670924 0.14282914 -0.2310891 0.040527165 0.11955607 0.4199501 0.12716147 -0.10920192
0.2889053 -0.3234351 0.3482757 0.15562458 0.011549007 0.0014152032 0.13311748 -0.225822
0.15688592 0.072395 0.5197673 0.3474164 0.06180877 0.055774987 0.44113505 -0.3098061
0.1341016 0.71609056 -0.0013185526 -0.1714369 0.22731432 0.101682365 -0.11868404 0.038366854
-0.07673392 -0.29046094 0.21799958 0.10053676 0.015448775 0.24912766 0.15217412 0.12976244
0.09365367 -0.1631353 -0.09714337 0.18816866 0.07847206 0.06991921 -0.08660326 -0.36215153
-0.13467917 -0.11366561 -0.14605413 0.2677912 -0.17207873 -0.027828168 0.1977528 -0.14440164
0.010771595 -0.12493513 -0.0076082237 -0.43500334 -0.17978403 -0.12964378 0.1651802 -0.0631408
-0.27693915 -0.050611243 -0.14522718 0.23769823 -0.14823323 -0.007816685 0.22760482 -0.4856763
0.11958609 0.00609897 0.29183382 7.787677e-05 0.07131141 -0.23550615 0.21012774 -0.18141304
0.28531063 -0.102422066 0.052019805 -0.008598468 0.18592565 -0.30700448 0.20235544 0.3087588
-0.0038416598 0.3371493 0.1784019 -0.064116366 0.0037175736 -0.01599291 0.10374381 -0.5310823
-0.11586318 -0.123362765 -0.17063658 -0.29070723 -0.050324615 -0.027482748 0.00041940156 0.10915828
0.05180936 -0.34419206 0.1729117 -0.16761196 -0.28208435 0.31620473 -0.029676799 0.07827449
-0.2770482 0.24555856 -0.19806637 0.06799924 -0.12161927 0.091682374 -0.41885278 -0.54456335
-0.2560932 -0.18599194 -0.33571008 0.115732916 -0.0856355 -0.6571912 0.024098324 0.21110436
00000000: bd4c a13d a5a8 6a3e 1b3f 9abd 0f8f 2bbe
00000010: 94c9 27bd 5524 c13e c9bb 463e b3ca 04be
00000020: a468 3b3c e074 8fbe 6897 723e f401 d93d
00000030: d568 abbd 86fb bc3d 3044 8f3c 8efb 05be
00000040: 02d3 74be a619 153e 6fde 81be 6e25 d03e
00000050: 65ee ebbc 1557 bc3e 3a30 183e 593b 8c3d
00000060: 88c3 dcbd 3872 d83d 2a41 863d 0aae 3f3d
00000070: 4e85 07bc 3009 6c3d d32d 703e f7f2 e93e
00000080: 72b5 bebd 07db 073d 8d5a f9bd 4751 b2bd
00000090: 644a 4a3e cc87 653e 3ad1 253e d5a6 c6bd
000000a0: 1625 843e b367 b33e 5af3 8d3d b4a3 073f
000000b0: de79 543d 0668 b1bc d05c a8bb 09b6 863d
000000c0: c98e 913d ed3d 7bbd 7ddb 1ebe 0aa4 68be
000000d0: a612 86be 7d8e b93d 7c14 6dbd 86ac 3dbe
000000e0: ad14 383e bc00 11be 89b4 343d acf2 0a3e
000000f0: 4504 3ebd 3f58 f0bd f544 843e 5b16 913e
00000100: cc27 9d3e fe80 32bc 1085 ca3d c19f eb3e
00000110: 03dd 813d b54c 5c3e fb27 c63d 3c62 933e
00000120: e863 72be cd41 123e 9fa2 6cbe d0ff 253d
00000130: d0d9 f43d b303 d73e 9e36 023e 42a5 dfbd
00000140: 65eb 933e 4999 a5be 3151 b23e 0d5c 1f3e
00000150: 0c38 3d3c 577e b93a f34f 083e e23d 67be
00000160: b4a6 203e d443 943d 780f 053f 90e0 b13e
00000170: 312b 7d3d 5074 643d 74dc e13e e89e 9ebe
00000180: ee51 093e b651 373f 49d3 acba 288d 2fbe
00000190: 16c5 683e d83e d03d 9e10 f3bd 9026 1d3d
000001a0: ac26 9dbd 4cb7 94be 483b 5f3e 38e6 cd3d
000001b0: dc1c 7d3c 521b 7f3e 88d3 1b3e 72e0 043e
000001c0: 7fcd bf3d f10c 27be 1af3 c6bd 49af 403e
000001d0: f6b5 a03d ce31 8f3d 0d5d b1bd ed6b b9be
000001e0: 56e9 09be 84c9 e8bd 378f 15be ee1b 893e
000001f0: 6835 30be e6f7 e3bc b67f 4a3e 06de 13be
00000200: 587b 303c fddd ffbd 684e f9bb c2b8 debe
00000210: 4e19 38be 57c1 04be 0025 293e f74f 81bd
00000220: f8ca 8dbe bc4d 4fbd 6fb6 14be 2a67 733e
00000230: 74ca 17be 8e11 00bc 3d11 693e 90aa f8be
00000240: 8de9 f43d ded9 c73b 3e6b 953e c651 a338
00000250: b70b 923d 8628 71be ba2b 573e 57c4 39be
00000260: 3c14 923e a9c2 d1bd b812 553d 97e0 0cbc
00000270: 4b63 3e3e b12f 9dbe 4436 4f3e a215 9e3e
00000280: 5bc4 7bbb d59e ac3e fdae 363e 714f 83bd
00000290: 89a2 733b 9003 83bc a277 d43d 02f5 07bf
000002a0: ad49 edbd 9ea5 fcbd 5bbb 2ebe 94d7 94be
000002b0: 2f21 4ebd 8023 e1bc 20e3 db39 608e df3d
000002c0: 0d36 543d f139 b0be c40f 313e 78a2 2bbe
000002d0: 5c6d 90be 96e5 a13e c21c f3bc 604e a03d
000002e0: 43d9 8dbe b473 7b3e e9d1 4abe 2f43 8b3d
000002f0: 8613 f9bd f8c3 bb3d df73 d6be 8168 0bbf
00000300: a61e 83be ac74 3ebe 31e2 abbe 6105 ed3d
00000310: aa61 afbd af3d 28bf d969 c53c be2b 583e

mean.4.bias f4 [2]
0.053788323 -0.053788617
00000000: 2551 5c3d 7451 5cbd
