save/exp10/it10_model.pt (torch, 138551 bytes, 9 tensors)

sigma f4 [2]
0	0xbd5b1c4e	-0.05349379
1	0x3d5874bc	0.0528457

mean.0.weight f4 [128, 3]
0	0x3d8ae2d5	0.06781546
1	0xbe28b283	-0.16474347
2	0xbe0a6340	-0.13514423
3	0xbe363263	-0.17792659
4	0x3e3ef2f3	0.18647365
5	0xbe4f8568	-0.20265734
6	0x3e24aae0	0.16080809
7	0xbbce3d0c	-0.0062938984
8	0xbccdbcab	-0.025114378
9	0x3e09bf34	0.13451844
10	0xbca84b1f	-0.020543633
11	0x3e09c137	0.13452612
12	0x3e1dcaca	0.15409389
13	0xbe3d78b2	-0.18503073
14	0x3da81de4	0.08208826
15	0x3d2374b9	0.039906237
16	0x3d3ee3a4	0.046603814
17	0x3cfe65e5	0.031054446
18	0x3d7062d5	0.058688004
19	0xbdd32921	-0.10310579
20	0xbce09bd0	-0.027418047
21	0x3e4f32a4	0.20234162
22	0x3e145789	0.14486517
23	0xbc06e7bc	-0.008233961
24	0xbe4e1dda	-0.20128575
25	0x3c19ad60	0.009379715
26	0xbe153c1d	-0.14573713
27	0x3e329cda	0.17442647
28	0xbe05a36b	-0.1305062
29	0xbc7a63cd	-0.015282583
30	0xbd3f72e2	-0.04674042
31	0x3d179068	0.03700295
32	0x3e4ea0fe	0.20178601
33	0x3ca69650	0.020335346
34	0x3dfdd8c2	0.12394859
35	0x3e2a1bbd	0.16612144
36	0x3e312c74	0.17302114
37	0xbd980277	-0.07422345
38	0xbd43ef34	-0.047835544
39	0x3dd1c4d5	0.10242621
40	0xbd6b579f	-0.05745661
41	0x3dccc97b	0.09999367
42	0xbd3e00f1	-0.046387617
43	0xbe1536f4	-0.14571744
44	0x3db2be96	0.08727758
45	0x3d042dae	0.032270126
46	0x3dc4e0c6	0.09613185
47	0x3e597540	0.21236134
48	0x3e15a24f	0.14612697
49	0x3e4fbd78	0.2028712
50	0x3c3bbd92	0.011458771
51	0xbe3c1d3a	-0.18370524
52	0xbe1a5cba	-0.15074435
53	0xbe0805fc	-0.13283533
54	0xbe411ff8	-0.18859851
55	0xbddbb22d	-0.10727344
56	0xbe49bde0	-0.19701338
57	0xbe4a30bf	-0.19745158
58	0xbe02f420	-0.12788439
59	0xbe580b73	-0.21098118
60	0xbe06843a	-0.13136378
61	0x3da72082	0.08160497
62	0x3e36c833	0.17849807
63	0xbd7f21bc	-0.06228803
64	0xbd831c90	-0.06401932
65	0x3dead898	0.11467093
66	0xbdd88fe6	-0.105743214
67	0xbdceb18a	-0.10092457
68	0x3e06f5e4	0.13179737
69	0xbe3ef1f0	-0.1864698
70	0x3cd65f10	0.026168376
71	0x3e4197ab	0.18905513
72	0x3d165314	0.036700323
73	0x3d6e6294	0.05819948
74	0xbdff42d9	-0.12463922
75	0xbb5b05ae	-0.0033420133
76	0x3c48d926	0.0122588035
77	0x3d566648	0.052343637
78	0x3daa4c92	0.08315386
79	0x3e3e6cc3	0.18596177
80	0xbe2746c7	-0.16335593
81	0x3bd1b14a	0.0063993083
82	0xbddb0031	-0.10693396
83	0xbe2d5fdf	-0.16931103
84	0xbc8a0041	-0.016845824
85	0xbe415376	-0.18879494
86	0x3e1904a2	0.14943174
87	0x3cd90b41	0.026494624
88	0xbdf0f36f	-0.11765181
89	0x3de6052e	0.11231457
90	0xbe4f68b0	-0.20254779
91	0xbda98892	-0.08278002
92	0xbd2ac708	-0.041693717
93	0xbe3a6b44	-0.18204981
94	0xbe0b08b8	-0.13577545
95	0xbd0f2d0e	-0.034955077
96	0x3e26622b	0.16248386
97	0x3e53838d	0.20655651
98	0x3e0b7a37	0.1362084
99	0xbe050cc7	-0.12993155
100	0xbe0c8a4a	-0.13724628
101	0x3e3ea1d3	0.18616419
102	0x3d96957a	0.07352729
103	0x3c0aa7bc	0.008462843
104	0x3ce7315f	0.028221784
105	0xbe302d20	-0.17204714
106	0xbd922c7b	-0.0713739
107	0x3e52f23b	0.20600216
108	0xbd583270	-0.052782476
109	0xbc2fe510	-0.010735765
110	0xbe35f766	-0.17770156
111	0xbdf52ff0	-0.11972034
112	0xbb8f32c0	-0.0043700635
113	0xbe082069	-0.13293613
114	0xbcd969b0	-0.026539654
115	0x3db25e9e	0.08709453
116	0xbe565de6	-0.20934257
117	0x3d853fe4	0.06506327
118	0xbe12dc4f	-0.14341854
119	0xbdd50d36	-0.104029104
120	0x3da8445a	0.08216162
121	0x3e2e3fff	0.170166
122	0xbd6f94dc	-0.058491573
123	0xbdb18c82	-0.08669378
124	0xbe47d142	-0.1951342
125	0xbde1223b	-0.10992857
126	0xbe3fe528	-0.1873976
127	0xbd48a090	-0.04898125
128	0x3d32dfd4	0.04367049
129	0xbe4d50ca	-0.2005035
130	0x3e3f5797	0.18685757
131	0x3e097e01	0.13426973
132	0xbe569251	-0.20954253
133	0xbdd1352e	-0.10215221
134	0x3d8eea3e	0.06978272
135	0xbd341af0	-0.043971002
136	0xbcbf0e90	-0.023322374
137	0xbdc5e60b	-0.09663018
138	0x3e3063cd	0.17225571
139	0xbdf617f5	-0.12016288
140	0x3e35d237	0.17755972
141	0x3c5f7508	0.013638742
142	0x3d30e6c0	0.04318881
143	0x3e2ae827	0.16690122
144	0xbd17c647	-0.037054326
145	0xbdf4dd6b	-0.119562946
146	0xbd1010a2	-0.035172112
147	0x3e33d6d3	0.17562418
148	0xbe254b26	-0.16141948
149	0x3d496bbf	0.04917502
150	0xbe5760c3	-0.21033005
151	0x3de5cd02	0.11220743
152	0x3da1efe6	0.07907085
153	0x3c14a4c0	0.009072483
154	0x3dbc1d5a	0.09185286
155	0x397c6800	0.00024071336
156	0x3def6b9b	0.11690446
157	0xbe2b88bc	-0.16751379
158	0xbd024321	-0.0318023
159	0x3dc26f82	0.09493925
160	0x3e5a3b83	0.21311764
161	0x3ddf43f6	0.109016344
162	0xbe1f5c15	-0.1556247
163	0x3e288c07	0.16459666
164	0xbd437ac4	-0.0477245
165	0xbd3ad0b7	-0.045609202
166	0xbe474b5a	-0.19462338
167	0xbd09f660	-0.033682227
168	0x3e1c0eb7	0.15239988
169	0x3ce8d08c	0.028419755
170	0xbdfea63b	-0.1243405
171	0x3d80da28	0.0629161
172	0xbd84dd5e	-0.06487535
173	0x3e471fcf	0.19445728
174	0xbe3e362a	-0.1857535
175	0xbd8a72a0	-0.06760144
176	0xbe539acd	-0.2066452
177	0xbdac9d7a	-0.08428474
178	0x3d8a2c2e	0.06746708
179	0x3e52f4cd	0.20601197
180	0x3d1338a4	0.03594269
181	0x3e56d845	0.20980938
182	0x3d2b820c	0.04187207
183	0x3dfce851	0.12348998
184	0x3e2fcd95	0.17168267
185	0x3e3725c3	0.17885499
186	0xbdf55377	-0.1197881
187	0x3e497bcd	0.19676133
188	0x3e04c0c7	0.12964164
189	0xbdcd1d0f	-0.10015308
190	0xbdd0e1a3	-0.10199287
191	0xbe37d5ce	-0.17952654
192	0x3d5afcb8	0.053463668
193	0xbe311fbb	-0.1729726
194	0x3db8eb52	0.09029259
195	0x3d86bb34	0.06578675
196	0xbe3c0af6	-0.18363556
197	0x3d6c9486	0.05775883
198	0xbc8e9690	-0.017405778
199	0x3dc838f6	0.097764894
200	0x3dfb7db6	0.12279837
201	0xbe59ddb9	-0.21275987
202	0x3e48fb43	0.19627099
203	0x3e37c9a9	0.17948021
204	0x3db23a10	0.08702481
205	0xbe4aa841	-0.19790746
206	0xbd9b5d5e	-0.07586168
207	0xbd7e1c47	-0.062038686
208	0xbd6196f2	-0.055075593
209	0x3df764cb	0.120797716
210	0x3d9f5a36	0.07780878
211	0x3e2d9afd	0.16953655
212	0xbda42726	-0.080152795
213	0x3d93813e	0.07202385
214	0x3d9bf1c6	0.07614474
215	0xbe36762d	-0.17818518
216	0xbe5474b5	-0.20747645
217	0xbde3dc41	-0.111259945
218	0x3e160d46	0.14653501
219	0xbe4f58c2	-0.20248702
220	0xbe3d727f	-0.18500708
221	0x3df50d12	0.119653836
222	0x3dec7986	0.11546616
223	0x3e343a0b	0.17600267
224	0xbe2571b9	-0.16156663
225	0xbe20652f	-0.15663598
226	0x3de0d75e	0.10978578
227	0x3e3e942b	0.18611209
228	0x3e0367f7	0.12832628
229	0x3d0783fd	0.03308486
230	0x3d909df1	0.07061375
231	0x3e5164d2	0.20448616
232	0xbe0f2aaa	-0.13981119
233	0xbdc64a44	-0.09682134
234	0x3e1a2cd3	0.15056162
235	0xbe171698	-0.14754713
236	0xbdf113a6	-0.11771326
237	0x3e1f889e	0.15579459
238	0x3d8b6dfa	0.06808086
239	0x3d8d58a5	0.06901673
240	0xbdb99b38	-0.09062809
241	0xbb49c940	-0.003079012
242	0x3e489faf	0.19592164
243	0xbe0389aa	-0.12845483
244	0x3adc8b00	0.0016826093
245	0x3dd0745a	0.10178442
246	0xbe174a81	-0.14774515
247	0x3e54d529	0.20784439
248	0xbddafa80	-0.1069231
249	0xbd51239c	-0.05105935
250	0xbd6f7ad3	-0.058466744
251	0xbe0eb8cb	-0.1393768
252	0xbe570b1a	-0.21000329
253	0x3df722a2	0.120671526
254	0x3d68e39c	0.05685769
255	0xbe4b90d9	-0.19879474

mean.0.bias f4 [128]
0	0x3bd219d0	0.0064117685
1	0x00000000	0.0
2	0xbb53df33	-0.0032329082
3	0x3b939920	0.004504338
4	0xbb92b872	-0.004477554
5	0xbb50c6f8	-0.0031856876
6	0x396471ae	0.00021786123
7	0xbbaafd50	-0.0052181855
8	0x00000000	0.0
9	0x3b34b8cc	0.0027575968
10	0x3ba96a6d	0.0051701576
11	0x00000000	0.0
12	0x3aa48ea4	0.0012554717
13	0xbb7ad8c3	-0.0038276173
14	0x3b09cd9c	0.0021027094
15	0xbb6371bc	-0.0034705242
16	0x386480ac	5.447927e-05
17	0x3b07afd1	0.002070416
18	0x00000000	0.0
19	0x00000000	0.0
20	0x00000000	0.0
21	0x3bf811bc	0.0075704735
22	0xba338f66	-0.0006849676
23	0x00000000	0.0
24	0x00000000	0.0
25	0xbb4b3dc3	-0.0031012155
26	0x00000000	0.0
27	0xb9080368	-0.0001297124
28	0x3aee5f64	0.0018186388
29	0x3c1f1856	0.009710392
30	0x00000000	0.0
31	0xba7221e2	-0.00092366163
32	0x3a9bf001	0.0011897088
33	0xbc46c719	-0.0121324295
34	0xbc5c9892	-0.01346411
35	0xb9a766be	-0.0003192927
36	0x00000000	0.0
37	0x00000000	0.0
38	0x00000000	0.0
39	0x3c140c57	0.009036145
40	0x00000000	0.0
41	0x3be9845e	0.007126375
42	0x00000000	0.0
43	0x00000000	0.0
44	0xb99fa88e	-0.00030452426
45	0x00000000	0.0
46	0x3af94cd9	0.0019020095
47	0xbac4053e	-0.0014955176
48	0xbc2e25c0	-0.0106291175
49	0x3c3d8622	0.011567624
50	0x00000000	0.0
51	0x00000000	0.0
52	0xbc058447	-0.008149213
53	0x00000000	0.0
54	0x00000000	0.0
55	0x39c6b786	0.0003790224
56	0x3bbc57ca	0.00574777
57	0xbc91e9b4	-0.017811634
58	0x00000000	0.0
59	0x00000000	0.0
60	0x00000000	0.0
61	0xb9f231b7	-0.00046194877
62	0x00000000	0.0
63	0xb9dc48a7	-0.000420158
64	0xbab861c9	-0.0014067228
65	0xbc2a6968	-0.010401107
66	0x00000000	0.0
67	0x00000000	0.0
68	0x3c3c0e42	0.011478009
69	0x3a4ea876	0.0007883379
70	0x00000000	0.0
71	0x00000000	0.0
72	0x3a2d1e16	0.00066039094
73	0xbba26c79	-0.0049567786
74	0x00000000	0.0
75	0x00000000	0.0
76	0x3aa9c66e	0.0012952813
77	0x3beed72f	0.0072888355
78	0x3ba799a5	0.0051147514
79	0xbb4b2047	-0.003099458
80	0x3a36232c	0.000694799
81	0x00000000	0.0
82	0x00000000	0.0
83	0x3b02e0c9	0.0019970408
84	0x00000000	0.0
85	0x3c3ecb5a	0.0116451625
86	0x00000000	0.0
87	0x00000000	0.0
88	0x00000000	0.0
89	0x00000000	0.0
90	0x00000000	0.0
91	0x00000000	0.0
92	0x00000000	0.0
93	0xb9a62bc5	-0.00031694598
94	0xbbf95f07	-0.007610205
95	0x3c203b37	0.009779743
96	0x00000000	0.0
97	0xba913c2a	-0.0011080552
98	0xb6e72e50	-6.889728e-06
99	0x3af7aa18	0.0018895296
100	0xbbbce9e0	-0.0057651848
101	0x00000000	0.0
102	0x00000000	0.0
103	0xbb48e206	-0.0030652299
104	0xb98b31d9	-0.00026549285
105	0x00000000	0.0
106	0x3b0aa19b	0.0021153453
107	0x3c2e631b	0.010643746
108	0x00000000	0.0
109	0x00000000	0.0
110	0x3c22e9ad	0.009943408
111	0x00000000	0.0
112	0x00000000	0.0
113	0xbb334206	-0.0027352585
114	0x00000000	0.0
115	0x38196e93	3.6581023e-05
116	0x3bbb8600	0.005722761
117	0xbbfb1dbf	-0.007663458
118	0xbc7195a8	-0.0147451535
119	0xb9d83eb0	-0.00041245436
120	0xbbfebac9	-0.0077737314
121	0x00000000	0.0
122	0x3c29b884	0.010358933
123	0xb9b04b9e	-0.00033625675
124	0xb76df494	-1.4183246e-05
125	0xbbabf2ea	-0.0052474635
126	0xbbaf9417	-0.00535823
127	0x00000000	0.0

mean.2.weight f4 [128, 128]
0	0xbda6326c	-0.08115086
1	0x3c4dca00	0.012560368
2	0xbde692e6	-0.112584874
3	0x3e06c82c	0.13162297
4	0xbbdd2566	-0.006748843
5	0xbe077930	-0.13229823
6	0x3dcb9b0d	0.09941683
7	0x3c94218d	0.018082405
8	0xbd34bf88	-0.04412797
9	0x3e0c958f	0.13728927
10	0xbda521a7	-0.08063059
11	0xbd9b8ed9	-0.075956054
12	0xbd563f10	-0.052306235
13	0x3c914b0c	0.01773598
14	0xbdf354bc	-0.11881396
15	0x3d079a7c	0.033106312
16	0xbe17b105	-0.14813621
17	0xbda8fba5	-0.082511224
18	0xbdb766b6	-0.089551374
19	0xbde3d031	-0.11123694
20	0x3d0faaa8	0.03507486
21	0x3d89d403	0.06729891
22	0xbd191561	-0.037373904
23	0xbd3c620e	-0.04599195
24	0x3b548800	0.0032429695
25	0xbdfe20cd	-0.124086
26	0xbe14cc09	-0.14530958
27	0xbdcadf97	-0.09905928
28	0xbde2c708	-0.110731184
29	0x3cb27a36	0.02178679
30	0x3dfd0e7e	0.1235628
31	0x3ddfbc36	0.1092457
32	0xbdc1044c	-0.09424648
33	0x3daea642	0.08527805
34	0x3e099129	0.1343428
35	0xbd04a1bc	-0.032380804
36	0xbd4c7906	-0.049920104
37	0xbe1419eb	-0.14463012
38	0xbc34bc70	-0.011031255
39	0xbd7215ea	-0.05910293
40	0x3d1e3ca8	0.038632065
41	0xbe0fcd80	-0.14043236
42	0xbc703320	-0.014660627
43	0x3cdc9390	0.026925832
44	0xbd1bfdbe	-0.038083784
45	0xbcc0c198	-0.023529813
46	0x3e152bd1	0.14567496
47	0x3d88688b	0.06660565
48	0xbde91986	-0.11381821
49	0xbd8d2ee9	-0.06893713
50	0x3d90a448	0.07062584
51	0x3d8897ca	0.066695765
52	0xbe03b73a	-0.12862864
53	0xbdd64ed0	-0.10464251
54	0xbd81a995	-0.06331173
55	0xbc972746	-0.018451344
56	0x3c173f14	0.009231348
57	0x3d1b64b4	0.037937835
58	0xbd922fed	-0.07138047
59	0xbdaf1222	-0.085483804
60	0x3daf9744	0.085737735
61	0xbdf49c59	-0.119438834
62	0xbcdd3588	-0.027003065
63	0xbe0c99ee	-0.13730595
64	0xbdedefcc	-0.11618003
65	0x3d6b96c0	0.057516813
66	0xbbf5a480	-0.0074964166
67	0x3e038bc9	0.12846293
68	0x3e1ba279	0.15198697
69	0xbe01eb8b	-0.12687509
70	0xbda774f1	-0.08176602
71	0x3d0e9380	0.034808636
72	0xbc9dc54a	-0.019259114
73	0xbe0f83c8	-0.14015114
74	0xbdbaad56	-0.091150925
75	0xbda8295a	-0.08211012
76	0x3c833e37	0.016020877
77	0x3d85e762	0.065382734
78	0x3dc0f486	0.09421639
79	0x3e04a86a	0.1295487
80	0xbda598e1	-0.080858
81	0x3ded4fbe	0.11587475
82	0xbdb3c6dd	-0.087781645
83	0xbe06ac48	-0.13151658
84	0xbd870e10	-0.06594479
85	0x3d8fd96a	0.0702389
86	0x3ccfe428	0.025377348
87	0xbe0852c8	-0.13312829
88	0x3d28c078	0.041199178
89	0xbbc247a0	-0.0059289485
90	0x3de3c552	0.1112162
91	0xbdb12c6b	-0.0865105
92	0xbe02061d	-0.12697645
93	0xbc1e39c2	-0.009657325
94	0xbd79f298	-0.06102237
95	0xbcd3a0f1	-0.025833579
96	0xbd27e7dc	-0.040992603
97	0x3e191183	0.14948086
98	0xbca45f5e	-0.020065006
99	0xbe17a753	-0.14809923
100	0xbdb872a2	-0.090062395
101	0xbb9e92a0	-0.0048392564
102	0x3db0e0be	0.08636616
103	0x3d18f0af	0.03733891
104	0xbe1aac72	-0.15104845
105	0x3cb709b8	0.022343501
106	0x3de00707	0.1093884
107	0xbd48b129	-0.048997078
108	0x3d91d622	0.07120921
109	0x3e024cf3	0.12724666
110	0x3e03d67a	0.12874785
111	0x3ccfe310	0.025376827
112	0xbe166750	-0.14687848
113	0xbe05d6b9	-0.13070191
114	0x3de825b6	0.11335318
115	0xbd49eb08	-0.04929641
116	0x3e06a29c	0.13147968
117	0x3dc9835f	0.0983951
118	0xbe0c827e	-0.13721654
119	0x3d8d9b1f	0.069143526
120	0xbe023e61	-0.12719108
121	0xbde34bd8	-0.110984504
122	0x3ddd20ef	0.10797297
123	0x3e0d3d25	0.13792856
124	0x3d97c3ac	0.07410368
125	0x3d91fff3	0.071288966
126	0x3c92ea38	0.01793395
127	0x3dcac17e	0.09900187
128	0xbe12ff4c	-0.143552
129	0x3d99d0da	0.075105384
130	0x3c942d68	0.018088058
131	0xbd3c60ac	-0.04599063
132	0xbdb6d2d3	-0.0892693
133	0x3d6b08a0	0.057381272
134	0xbd08ad02	-0.033368118
135	0x3c882f58	0.016624138
136	0xbd01c7de	-0.03168475
137	0xbb9360c0	-0.0044976175
138	0xbd603e08	-0.054746658
139	0xbe1505e4	-0.14553028
140	0x3d15fe04	0.0366192
141	0xbcb56a20	-0.02214533
142	0xbd3b2bec	-0.045696184
143	0x3dcc7fde	0.09985326
144	0xbd933e59	-0.07189626
145	0xbcaa0c30	-0.020757765
146	0xbe0f2193	-0.13977651
147	0xbd6a0736	-0.057135783
148	0x3ddf10b6	0.10891859
149	0x3c0630a0	0.008190304
150	0x3dad428c	0.084599584
151	0x3e0330a3	0.12811522
152	0x3d219418	0.039447874
153	0x3de64c6e	0.112450466
154	0x3d1608f8	0.036629647
155	0x3dba8c5a	0.09108801
156	0xbe075304	-0.13215262
157	0x3de8126e	0.1133164
158	0x3d516b98	0.051128
159	0x3cc19728	0.023631647
160	0xbe19c337	-0.15015875
161	0x3db1018e	0.08642875
162	0x3da91154	0.08255258
163	0xbdebf6a8	-0.11521655
164	0x3e06c0b9	0.13159455
165	0x3e1155cd	0.14192887
166	0xbc6c4030	-0.0144196
167	0xbd47546c	-0.048664495
168	0xbc1729f0	-0.009226307
169	0xbe043385	-0.12910278
170	0xbe0bc205	-0.13648231
171	0xbcade2d8	-0.021226332
172	0xbd57d784	-0.052695766
173	0x3e0b099b	0.13577883
174	0x3db8382e	0.089950904
175	0xbd2e5c76	-0.042568646
176	0xbe1a7e34	-0.15087205
177	0x3d41910c	0.047257468
178	0xbc53d070	-0.012928113
179	0xbda63619	-0.08115787
180	0x3e0b3dd5	0.13597806
181	0x3dc43086	0.095795676
182	0xbd703baa	-0.05865065
183	0x3e056eb5	0.13030513
184	0xbe08df07	-0.13366328
185	0xbe01fc89	-0.12693991
186	0x3d92305c	0.0713813
187	0x3dbe920a	0.093051985
188	0xbd02eed2	-0.031966038
189	0xbcef1f78	-0.02918981
190	0xbe181d8d	-0.14855023
191	0x3d515f0c	0.051116034
192	0xbb915020	-0.0044346005
193	0xbdeb6244	-0.11493352
194	0xbdf0ff8a	-0.1176749
195	0x3db11e8e	0.08648406
196	0xbe034a2a	-0.1282126
197	0x3d084c7c	0.033276066
198	0x3e0effdd	0.13964792
199	0xbd3824a4	-0.04495682
200	0x3db126e6	0.086499974
201	0x3d8aae5c	0.06771538
202	0xbd0d4c66	-0.034496687
203	0xbdc13db7	-0.09435599
204	0xbdbb804f	-0.09155332
205	0xbe19352b	-0.14961688
206	0x3cb59690	0.02216652
207	0x3d10aa9c	0.035318956
208	0xbd2299e2	-0.039697535
209	0x3da7fb90	0.082022786
210	0xbc2e4280	-0.010635972
211	0x3d3feaec	0.0468549
212	0x3e186675	0.14882834
213	0x3e12b96d	0.14328547
214	0x3dfaa2b2	0.12238063
215	0xbd81cd1c	-0.0633795
216	0x3b5683c0	0.0032732338
217	0xbd3d1a3e	-0.046167605
218	0x3d34bb70	0.044124067
219	0x3db84ad0	0.08998644
220	0x3cd03fe8	0.025421098
221	0xbd49a8d6	-0.04923328
222	0x3cd3d958	0.025860474
223	0xbde7f1e6	-0.11325435
224	0xbe091d3f	-0.13390063
225	0xbcd857a8	-0.026408985
226	0xbc670ba0	-0.014101893
227	0xbd035a7c	-0.032068714
228	0x3d8d8094	0.0690929
229	0x3d45820c	0.048219725
230	0x3d167c64	0.036739722
231	0x3d1ba694	0.03800066
232	0xbc0e14c0	-0.008671939
233	0x3ce9b338	0.028527841
234	0xbdd69238	-0.10477108
235	0xbdc8037a	-0.09766288
236	0x3c934100	0.01797533
237	0x3dc480c8	0.095948756
238	0x3bd48e00	0.0064866543
239	0x3e0e862d	0.13918371
240	0x3dfd419a	0.12366028
241	0xbe1c7c01	-0.15281679
242	0xbd906e5a	-0.07052298
243	0x3d5a1164	0.05323924
244	0xbbf08aa0	-0.007340744
245	0x3d5272ac	0.05137889
246	0xbdac26cd	-0.08405838
247	0x3da79764	0.08183172
248	0xbdb469b2	-0.08809222
249	0x3c2bd5b0	0.010487959
250	0xbdfa4044	-0.12219289
251	0xbd348ce0	-0.04407966
252	0x3dc833e6	0.09775524
253	0x3da21a82	0.07915212
254	0xbde22ec6	-0.110440776
255	0x3db39aac	0.08769736

mean.2.bias f4 [128]
0	0x3ba0a588	0.0049025454
1	0x00000000	0.0
2	0xbb8cdc68	-0.0042987354
3	0x3c59e456	0.013299068
4	0x00000000	0.0
5	0xba4202a1	-0.00074009044
6	0x3bbc4d31	0.0057465066
7	0x00000000	0.0
8	0x00000000	0.0
9	0x00000000	0.0
10	0x00000000	0.0
11	0x00000000	0.0
12	0xbbd9e7ee	-0.0066499626
13	0x00000000	0.0
14	0xba78343e	-0.0009468234
15	0x3882e871	6.242179e-05
16	0x00000000	0.0
17	0x37ab3cae	2.0413045e-05
18	0x00000000	0.0
19	0x3c984e39	0.018591987
20	0x3b4e5700	0.0031484962
21	0x00000000	0.0
22	0x00000000	0.0
23	0x00000000	0.0
24	0x00000000	0.0
25	0x00000000	0.0
26	0x3bd1deae	0.0064047193
27	0x00000000	0.0
28	0x3c57d93f	0.013174354
29	0x00000000	0.0
30	0x00000000	0.0
31	0x3c2fb2e0	0.0107237995
32	0xbcad6797	-0.02116756
33	0xbaa01206	-0.0012212403
34	0x3c6c1b3c	0.01441079
35	0x3c2e3940	0.010633767
36	0x00000000	0.0
37	0xbc0f1ea9	-0.008735337
38	0x3b572f54	0.0032834606
39	0xbc70c386	-0.014695054
40	0x00000000	0.0
41	0x00000000	0.0
42	0x00000000	0.0
43	0x3bb2aedb	0.0054529733
44	0x00000000	0.0
45	0x00000000	0.0
46	0x00000000	0.0
47	0x37baf458	2.228671e-05
48	0x00000000	0.0
49	0x00000000	0.0
50	0xbbc8e6e6	-0.006131041
51	0x36e72743	6.888907e-06
52	0x3c61afe1	0.013774843
53	0x3c538bdb	0.012911762
54	0x3c836629	0.016039925
55	0x3ac7dcb8	0.0015248274
56	0x00000000	0.0
57	0x3a2f2a69	0.000668204
58	0xbb968af2	-0.0045942003
59	0x00000000	0.0
60	0xbb8b82ec	-0.0042575505
61	0x3c2af706	0.010434872
62	0xbbbb8dcc	-0.0057236906
63	0x3b86f29c	0.0041182768
64	0xbb67f78c	-0.0035395352
65	0x00000000	0.0
66	0xbc70b22e	-0.014690919
67	0x00000000	0.0
68	0x3bc537b8	0.006018605
69	0x00000000	0.0
70	0xbcbdbd45	-0.02316154
71	0x00000000	0.0
72	0xba878879	-0.0010340355
73	0xbd087eff	-0.033324238
74	0xba2c73a2	-0.000657851
75	0x3c7d9664	0.01547775
76	0x00000000	0.0
77	0xbcaffe04	-0.021483429
78	0x3c7b9aa5	0.015356694
79	0x00000000	0.0
80	0x388b17c3	6.6324625e-05
81	0xbc07fd5a	-0.00830015
82	0x3b61042c	0.0034334762
83	0x00000000	0.0
84	0x3987729c	0.00025834597
85	0x3be8d279	0.0071051684
86	0x3c9bec9b	0.01903372
87	0x3c9a37ec	0.018825494
88	0x3c363e2f	0.011123224
89	0x00000000	0.0
90	0x00000000	0.0
91	0x3bd98d65	0.00663917
92	0x00000000	0.0
93	0xb8254798	-3.9405742e-05
94	0xba143362	-0.00056534086
95	0x3bd1a754	0.006398121
96	0x39c6a929	0.00037891537
97	0xbbd35426	-0.0064492403
98	0x00000000	0.0
99	0xb6360c75	-2.7127364e-06
100	0x38d6db2c	0.00010245139
101	0x00000000	0.0
102	0x39111c22	0.00013838758
103	0x38b01032	8.3953506e-05
104	0xbb1ea6fc	-0.0024208417
105	0xbbddd1a5	-0.0067693763
106	0x3c69ce72	0.014270412
107	0x00000000	0.0
108	0xbc218ea5	-0.009860669
109	0x00000000	0.0
110	0xbcd0eac6	-0.025502574
111	0xbb724bd3	-0.0036971464
112	0xbab7a902	-0.001401216
113	0xbba59741	-0.0050534313
114	0xbaa35241	-0.0012460427
115	0x3bf904f9	0.0075994697
116	0x3c26892b	0.010164539
117	0x3be81287	0.0070822868
118	0x00000000	0.0
119	0xbbcaaf0e	-0.006185419
120	0x00000000	0.0
121	0xbc412493	-0.011788505
122	0x00000000	0.0
123	0x00000000	0.0
124	0xbc68c40f	-0.0142069
125	0x00000000	0.0
126	0x3c1541f1	0.00910996
127	0xbc7142b9	-0.014725381

mean.4.weight f4 [128, 128]
0	0xbe05077b	-0.12991135
1	0xbd436d6a	-0.047711767
2	0x3dffe014	0.124939114
3	0xbe099740	-0.13436604
4	0x3de687fe	0.11256407
5	0xbdb3bf79	-0.08776755
6	0xbe044012	-0.12915066
7	0x3d7c9f48	0.06167534
8	0x3d3082b8	0.043093413
9	0x3dca972e	0.098921165
10	0x3d8e6e4e	0.06954633
11	0x3db8b09a	0.09018059
12	0x3d5c2e34	0.053755
13	0xbc2b4060	-0.01045236
14	0x3de50a2a	0.11183579
15	0xbdf0b37d	-0.11752985
16	0xbe1a1568	-0.15047228
17	0xbd83cb96	-0.06435315
18	0xbde081e6	-0.10962276
19	0x3dfd7862	0.12376477
20	0x3d940a35	0.07228509
21	0x3e1bfe6b	0.15233772
22	0xbda8a78d	-0.08235083
23	0x3e098bb9	0.13432206
24	0xbe0a684c	-0.13516349
25	0xbddb09af	-0.106952064
26	0x3e123130	0.14276576
27	0xba881380	-0.0010381788
28	0x3cba1b29	0.02271803
29	0xbd8842d5	-0.06653372
30	0x3d405448	0.046955377
31	0xbd0a0841	-0.033699278
32	0x3df9b4c7	0.12192684
33	0x3da25e8c	0.0792819
34	0xbc313561	-0.010815949
35	0xbd72b8d7	-0.05925831
36	0xbdd08a66	-0.101826474
37	0x3d81b4dd	0.06333325
38	0x3cd1c2f9	0.025605666
39	0xbdf172f5	-0.117895044
40	0xbd6159e4	-0.055017367
41	0xbb9586c0	-0.0045631826
42	0x3de60292	0.11230959
43	0xbdb004b0	-0.08594644
44	0x3bae9460	0.0053277463
45	0xbdb52d94	-0.08846584
46	0x3e07ed93	0.13274221
47	0xbd8ba526	-0.06818609
48	0xbd2eddc4	-0.04269196
49	0x3dd4a13e	0.10382317
50	0x3de89a23	0.11357524
51	0x3da3521e	0.07974647
52	0x3e172bfb	0.14762871
53	0xbddad803	-0.10685732
54	0xbd918821	-0.07106043
55	0x3e19a80d	0.15005513
56	0x3e12a321	0.14320041
57	0x3e103a02	0.14084628
58	0xbdef39c8	-0.11680943
59	0x3d72a670	0.05924076
60	0x3e149776	0.14510903
61	0x3d9f6e3c	0.077846974
62	0x3c9341c4	0.017975695
63	0x3e014dc8	0.12627327
64	0x3e0ad17d	0.13556476
65	0x3dbf5332	0.0934204
66	0x3d5ff187	0.054673698
67	0xbe0c798a	-0.13718238
68	0xbe16fd19	-0.14744987
69	0x3d321168	0.04347363
70	0xbe032f51	-0.12811019
71	0x39885400	0.00026002526
72	0xbd5c20f3	-0.05374236
73	0x3b3a06ba	0.0028385357
74	0xbd97c269	-0.07410128
75	0x3dbf3e3e	0.09338044
76	0x3e05dca1	0.13072444
77	0xbe079e8f	-0.13244079
78	0x3e08b7f6	0.13351426
79	0xbdf7c0f2	-0.12097348
80	0xbdcb79e7	-0.099353604
81	0x3d82730c	0.063696
82	0xbd2ab56c	-0.041676924
83	0xbdf68584	-0.12037185
84	0xbda85aa9	-0.08220417
85	0x3e1a781e	0.15084884
86	0xbdd5ca73	-0.10439005
87	0xbd634e71	-0.05549473
88	0xbdbb9e56	-0.091610596
89	0x3d82a57a	0.063792184
90	0x3dba036a	0.090826824
91	0xbd8cc511	-0.06873525
92	0x3c05b550	0.008160904
93	0xbc2b4154	-0.010452587
94	0xbde0eed8	-0.10983056
95	0x3c9f3ba3	0.019437617
96	0x3d2ec995	0.042672712
97	0x3de9afad	0.114104606
98	0x3e167b35	0.14695437
99	0xbdac28a8	-0.08406192
100	0xbd377cfd	-0.044796932
101	0xbd370fae	-0.044692688
102	0xbdd1fda2	-0.10253455
103	0x3da5bb28	0.08092338
104	0x3d5181f9	0.051149342
105	0xbce948e8	-0.028477147
106	0x3dcd2b48	0.10018021
107	0xbc2ec0e0	-0.010666102
108	0x3d9848c3	0.07435753
109	0x3d9d6b5c	0.07686493
110	0xbe13ade9	-0.1442181
111	0xbc3c8507	-0.011506326
112	0x3da72b56	0.081625625
113	0xbd295904	-0.041344658
114	0xbccd35aa	-0.025050003
115	0x3da24d54	0.079249054
116	0xbb03af90	-0.0020093657
117	0xbdaa5fc7	-0.08319049
118	0x3de2ed1a	0.1108038
119	0x3da2c29d	0.07947276
120	0x3ccdcd70	0.025122374
121	0xbdd761ae	-0.10516678
122	0xbde39832	-0.11113013
123	0xbca35848	-0.019939557
124	0x3c06caad	0.008227033
125	0x3dfa2fa2	0.122161165
126	0x3c8d2f8c	0.017234586
127	0xbac4c2b5	-0.001501164
128	0x3d30ca88	0.0431619
129	0xbe0ab7a8	-0.13546622
130	0xbbec3920	-0.0072089583
131	0x3d630c18	0.055431455
132	0xbd65da24	-0.05611624
133	0x3d1afdc8	0.03783968
134	0xbd3436be	-0.04399752
135	0xbe1b03e0	-0.15138197
136	0xbdf98165	-0.12182883
137	0xbbade440	-0.0053067505
138	0xbe0a3898	-0.13498151
139	0x3e0181cd	0.12647171
140	0x3d8a666a	0.06757815
141	0x3e1c01b3	0.15235023
142	0xbd3378b8	-0.0438163
143	0x3dd4e4ea	0.103952244
144	0xbe0d30fe	-0.1378822
145	0x3d5945f8	0.053045243
146	0x3d8c7b8e	0.06859504
147	0x3c96bb58	0.01839988
148	0xbd90ce77	-0.0707063
149	0xbd8a1382	-0.06742002
150	0xbd5b872a	-0.0535957
151	0x3dff7856	0.12474124
152	0x3d337984	0.04381706
153	0xbd69ed96	-0.057111345
154	0xbd4521e6	-0.04812803
155	0x3ba54480	0.005043566
156	0x3d636354	0.05551465
157	0x3e0f6bd1	0.14005972
158	0x3dcca10e	0.09991656
159	0x3e04e9db	0.12979834
160	0xbd7edefc	-0.062224373
161	0x3d1dddb8	0.038541526
162	0x3dd667fa	0.10469051
163	0x3e02604d	0.12732048
164	0x3cae30f8	0.021263584
165	0x3e0e5989	0.13901342
166	0xbdc200c4	-0.09472802
167	0xbe14c138	-0.14526832
168	0x3d1e726c	0.03868334
169	0x3db58132	0.08862533
170	0x3db3155a	0.08744307
171	0xbdec7282	-0.11545278
172	0x3e09888f	0.13430999
173	0xbe04bb98	-0.12962186
174	0x3e026e47	0.1273738
175	0xbd58f1f4	-0.05296512
176	0x3e155c4f	0.14585994
177	0x3d956712	0.0729505
178	0x3dce98de	0.10087751
179	0x3bcb88c0	0.00621137
180	0xbe18d5d0	-0.14925313
181	0xbe0728e6	-0.13199195
182	0xbe05d749	-0.13070406
183	0xbd6284fe	-0.055302612
184	0xbd43a142	-0.04776121
185	0x3d308634	0.043096736
186	0xbe0d99cb	-0.13828199
187	0xbdf436a2	-0.11924483
188	0xbc78db80	-0.015189052
189	0xbd0ef59a	-0.034902193
190	0xbcef1bd4	-0.029188074
191	0xbe07493a	-0.13211527
192	0xbe14e3ec	-0.1454007
193	0xbe09dd57	-0.1346334
194	0xbd98fab9	-0.074696966
195	0xbcbaef80	-0.02281928
196	0xbdeb7b02	-0.11498071
197	0xbe0ee092	-0.13952854
198	0xbc9fddf0	-0.019515008
199	0x3e1a0895	0.15042336
200	0x3dd84a16	0.10561006
201	0xbcaa6990	-0.02080229
202	0xbdea8d3a	-0.11452718
203	0x3cec2818	0.028827712
204	0xbe074258	-0.13208902
205	0xbddaea6a	-0.10689242
206	0x3c8be748	0.017078057
207	0x3d0fe888	0.03513387
208	0xbd949cfd	-0.07256506
209	0xbb109b40	-0.0022065192
210	0xbb93bc40	-0.004508525
211	0xbd025616	-0.03182038
212	0x3d28d9ac	0.041223213
213	0x3d8de3e6	0.06928234
214	0xbdb12134	-0.08648911
215	0xbca49740	-0.020091653
216	0xbe0735b4	-0.1320408
217	0xbdb94697	-0.09046667
218	0xbe1a81e3	-0.1508861
219	0xbdf25dd8	-0.118343055
220	0xbdc75c45	-0.09734396
221	0xbb78cec0	-0.003796503
222	0xbb88f400	-0.0041794777
223	0x3c9b8580	0.018984556
224	0x3de1f276	0.11032574
225	0x3cf75230	0.030190557
226	0xbb1bfb80	-0.0023801029
227	0x3d5aa100	0.053376198
228	0xbd99c0ee	-0.075075015
229	0xbb74bdc0	-0.0037344545
230	0x3d2c9e78	0.042143315
231	0x3e098adf	0.13431881
232	0x3e07b765	0.13253553
233	0xbe0ee264	-0.13953549
234	0x3bba7c80	0.005691111
235	0x3e088799	0.13332976
236	0x3ccf8ee0	0.025336683
237	0xbe15e942	-0.14639762
238	0x3de517d6	0.11186187
239	0xbde3c44e	-0.111214265
240	0xbdd5651b	-0.10419675
241	0xbde06f63	-0.10958745
242	0x3e14a55b	0.14516203
243	0x3e015d7d	0.12633319
244	0xbd3b4b28	-0.04572597
245	0x3d543f7c	0.051818356
246	0x3d365f68	0.04452458
247	0xbe1a81ba	-0.1508855
248	0xbdb5dba3	-0.08879783
249	0xbd825abb	-0.06364962
250	0x3b805780	0.003916681
251	0xbd317438	-0.043323725
252	0x3de611da	0.11233874
253	0xbdc5ebe4	-0.09664133
254	0xbda28a82	-0.079365745
255	0x3c632610	0.013864055

mean.4.bias f4 [128]
0	0xbbaea04c	-0.0053291675
1	0x00000000	0.0
2	0x3b45e7ea	0.0030198046
3	0xbd0850a1	-0.03328002
4	0x00000000	0.0
5	0x3cabe372	0.020982478
6	0x00000000	0.0
7	0x3c34b343	0.011029067
8	0xbb7437da	-0.0037264735
9	0x00000000	0.0
10	0xbd402673	-0.046911668
11	0x3c82d677	0.015971405
12	0x00000000	0.0
13	0x00000000	0.0
14	0xbcbe815b	-0.02325504
15	0x00000000	0.0
16	0x00000000	0.0
17	0x00000000	0.0
18	0x00000000	0.0
19	0x3d3f94be	0.04677271
20	0x00000000	0.0
21	0x00000000	0.0
22	0x00000000	0.0
23	0x3bf4c667	0.0074699405
24	0xba2d0c1e	-0.0006601232
25	0x00000000	0.0
26	0x00000000	0.0
27	0xbb221731	-0.0024733061
28	0x3c25325c	0.010082807
29	0xbc6ab1e9	-0.014324644
30	0xbbc8d116	-0.0061284406
31	0xbb0068e0	-0.001959376
32	0x00000000	0.0
33	0x00000000	0.0
34	0x00000000	0.0
35	0x00000000	0.0
36	0x3bd512ed	0.0065025003
37	0x00000000	0.0
38	0x3c35d627	0.011098421
39	0x00000000	0.0
40	0x00000000	0.0
41	0x00000000	0.0
42	0x00000000	0.0
43	0x3c3d3af4	0.0115497
44	0xbb6a4f64	-0.0035752887
45	0x3a24d0bb	0.0006287207
46	0x00000000	0.0
47	0xbb8766c5	-0.004132124
48	0xbca1e854	-0.019764103
49	0x00000000	0.0
50	0xbcf8a682	-0.030352835
51	0x00000000	0.0
52	0x3bd9409a	0.0066300156
53	0x00000000	0.0
54	0x3ca61549	0.020273821
55	0x00000000	0.0
56	0xbad57334	-0.0016284944
57	0x3b6f6ad2	0.0036532176
58	0x00000000	0.0
59	0x00000000	0.0
60	0x00000000	0.0
61	0xbb14d283	-0.0022708483
62	0x3c553844	0.013013903
63	0xbcfda603	-0.03096295
64	0x00000000	0.0
65	0x00000000	0.0
66	0xbc82fff4	-0.015991189
67	0x00000000	0.0
68	0x00000000	0.0
69	0x00000000	0.0
70	0x3c71b0e3	0.014751646
71	0xbbd7e0c2	-0.0065880725
72	0x3b0f6d94	0.0021885382
73	0x3d3991ff	0.04530525
74	0x3ccdc915	0.025120297
75	0x3d22aaa2	0.03971351
76	0x38f2e1a7	0.0001158149
77	0x00000000	0.0
78	0x00000000	0.0
79	0x386d1f54	5.653438e-05
80	0x3bf2bf7e	0.0074080816
81	0x00000000	0.0
82	0x3c87ad72	0.016562197
83	0x00000000	0.0
84	0x3c21bd70	0.009871826
85	0x3b22f96c	0.0024867905
86	0x3cb04cef	0.02152106
87	0x00000000	0.0
88	0x3a4f8720	0.00079165585
89	0x00000000	0.0
90	0x3b9d6966	0.0048038242
91	0x3c87ef8b	0.016593715
92	0x00000000	0.0
93	0xbb35c3b5	-0.0027735059
94	0x00000000	0.0
95	0x3befa6cf	0.0073135863
96	0xbd4139e4	-0.04717435
97	0x00000000	0.0
98	0x3bf4ca60	0.007470414
99	0x00000000	0.0
100	0x3cb2f942	0.021847371
101	0x00000000	0.0
102	0x3c0a2edb	0.008434023
103	0x00000000	0.0
104	0x3ca7aa3c	0.020466916
105	0x00000000	0.0
106	0x3cb55cf6	0.022139054
107	0x3cec5038	0.028846845
108	0x3ca0d4fb	0.019632807
109	0x00000000	0.0
110	0x00000000	0.0
111	0xbcc9ec34	-0.024648763
112	0xbac89fba	-0.0015306391
113	0x3cc35047	0.02384199
114	0x00000000	0.0
115	0x3c4cc275	0.012497534
116	0x00000000	0.0
117	0xbc64166c	-0.013921361
118	0xbc6d2286	-0.014473563
119	0x3b8a0dce	0.0042130714
120	0x3b43d9a5	0.0029884365
121	0x00000000	0.0
122	0xbaaf99b2	-0.0013397245
123	0xbd1c2668	-0.038122565
124	0x00000000	0.0
125	0x00000000	0.0
126	0xbc2ee8d6	-0.01067563
127	0x3cb67031	0.022270294

mean.6.weight f4 [2, 128]
0	0x3de0a9e0	0.10969901
1	0xbe0f2229	-0.13977875
2	0x3cf2288a	0.029560346
3	0x3e38e1ef	0.18054937
4	0xbe0b85d9	-0.13625278
5	0xbe112d12	-0.14177349
6	0x3e05fc53	0.13084535
7	0xbe3248ae	-0.17410538
8	0xbd32ca53	-0.043649983
9	0xbd571544	-0.052510515
10	0x3e3923e4	0.18080097
11	0xbca13ec2	-0.019683246
12	0x3d838166	0.06421165
13	0x3e324097	0.17407452
14	0x3d8d674d	0.06904469
15	0x3ce5b448	0.028040066
16	0xbd36fb18	-0.044673055
17	0xbe3f5202	-0.18683627
18	0x3e003821	0.12521411
19	0xbe2f6415	-0.17128022
20	0xbe34a43c	-0.17640775
21	0x3dd321da	0.10309191
22	0xbca8e3a8	-0.020616367
23	0xbd03d9e6	-0.032190226
24	0xbe4b381f	-0.19845627
25	0xbdc54d5b	-0.09633895
26	0xbbb89700	-0.005633235
27	0xbd94cac8	-0.0726524
28	0x3d10e164	0.0353712
29	0x3e47882f	0.19485544
30	0xbd4b3fda	-0.04962144
31	0x3e56b8ac	0.20968884
32	0xbda6be58	-0.08141774
33	0x3dffa806	0.1248322
34	0xbdb447b2	-0.08802737
35	0xbc463b40	-0.012099087
36	0x3c5c4e34	0.013446379
37	0x3e082e4b	0.1329891
38	0x3d084067	0.033264544
39	0xbe166fd0	-0.1469109
40	0x3d7b72cc	0.061388776
41	0xbe47ca7b	-0.19510834
42	0xbe2f44c6	-0.17116079
43	0xbe191dcf	-0.14952777
44	0x3d075746	0.033042215
45	0x3de12e19	0.109951206
46	0x3d6cc11c	0.05780135
47	0x3e4143c8	0.18873513
48	0x3df483a0	0.11939168
49	0xbe381b79	-0.1797923
50	0x3e1ffc3a	0.1562356
51	0x3de1fd12	0.110345975
52	0x3dc74652	0.097302094
53	0x3dcf7bf2	0.101310626
54	0xbd85bfe5	-0.065307416
55	0xbe0ac581	-0.13551904
56	0xbe188e58	-0.1489805
57	0xbde04de3	-0.10952356
58	0xbe25ef9c	-0.16204685
59	0xbd124140	-0.03570676
60	0x3e37f5db	0.1796488
61	0xbe3ced0a	-0.18449798
62	0xbd88caf7	-0.066793375
63	0x3db4bd7b	0.08825203
64	0x3e188b55	0.14896901
65	0x3d822116	0.06353967
66	0x3d28f2fd	0.041247357
67	0x3d08b66c	0.033377096
68	0x3e595e3d	0.21227355
69	0xbda80c4e	-0.08205472
70	0xbdd3e9fa	-0.10347362
71	0x3db9f963	0.0908077
72	0xbc540c49	-0.012942382
73	0xbe2011f7	-0.15631853
74	0xbe11e01b	-0.14245646
75	0xbe0550c0	-0.13019085
76	0x3d5c3280	0.053759098
77	0xbe403e7f	-0.1877384
78	0x3ddb28a6	0.107011124
79	0x3e1ad010	0.15118432
80	0xbe5a183e	-0.2129831
81	0x3e509c4d	0.20372124
82	0xbd89e67e	-0.06733416
83	0x3e1ef699	0.15523757
84	0xbcf67ec0	-0.030089736
85	0x3e426b90	0.18986344
86	0x3d000bc9	0.03126124
87	0x3e49de0d	0.19713612
88	0xbca13bf7	-0.019681914
89	0xbe476c22	-0.19474843
90	0x3e143b8c	0.1447584
91	0xbe2a462e	-0.16628334
92	0x3d40cd64	0.047070876
93	0x3d7fad06	0.062420867
94	0xbe1f482c	-0.15554875
95	0xbd0727e5	-0.03299703
96	0x3e5195c0	0.20467281
97	0x3ddeb1fe	0.10873793
98	0xbc556217	-0.013023875
99	0x3dab7e02	0.083736435
100	0x3cdd2486	0.026994955
101	0xbe174b91	-0.1477492
102	0xbe4b68eb	-0.19864242
103	0x3e480951	0.19534804
104	0xbd8a48c1	-0.06752158
105	0xbe1da3dd	-0.1539454
106	0xbe0cb648	-0.1374141
107	0xbe50193a	-0.20322123
108	0xbdae67f5	-0.08515922
109	0xbbd48960	-0.006486103
110	0xbe4f1920	-0.20224428
111	0x3d2bd14b	0.041947644
112	0xbd6b7938	-0.05748865
113	0xbd334d83	-0.043775093
114	0x3dbe5e82	0.0929537
115	0xbe593d76	-0.21214852
116	0x3e10f575	0.14156134
117	0x3d7bf2df	0.061510917
118	0x3b541b05	0.0032364738
119	0x3ca0619e	0.019577798
120	0xbe5a3e6a	-0.21312872
121	0x3e44a1d3	0.19202356
122	0xbe1327da	-0.14370671
123	0x3e2371a2	0.15961316
124	0xbd99dbe2	-0.075126424
125	0x3d78e034	0.06076069
126	0x3d5cf191	0.053941313
127	0xbd302010	-0.042999327
128	0x3d91d6ca	0.07121046
129	0xbc684650	-0.01417692
130	0x3d66ae67	0.056318667
131	0xbda167bb	-0.07881113
132	0x3e241bc7	0.16026221
133	0x3cd97a7c	0.026547663
134	0xbe3e504a	-0.18585315
135	0xbdaccfd6	-0.08438079
136	0xbd894ecc	-0.067044824
137	0xbe240186	-0.16016206
138	0xbe408558	-0.18800867
139	0x3ddb80e0	0.1071794
140	0x3cadb498	0.021204278
141	0xbe203016	-0.15643343
142	0xbde793aa	-0.113074616
143	0x3e4bdd37	0.19908606
144	0x3e23e133	0.16003875
145	0x3d005444	0.031330362
146	0x3e5438ab	0.20724742
147	0x3e4ea81f	0.2018132
148	0xbc95b2c0	-0.018273711
149	0x3e11f769	0.14254536
150	0x3e357e85	0.17724045
151	0x3e57c332	0.21070555
152	0x3dc5bddf	0.09655356
153	0xbdf7cfd3	-0.12100186
154	0xbc46e340	-0.012139142
155	0xbde4503b	-0.11148115
156	0x3dfeda47	0.12443977
157	0x3da96092	0.082703725
158	0xbdb8faad	-0.090321876
159	0x3e45e858	0.19326913
160	0x3d4166b4	0.047217086
161	0x3caad3c0	0.020852923
162	0xbd964bb6	-0.073386595
163	0xbdd6fbfc	-0.10497281
164	0x3de75c6a	0.112969235
165	0xbd341840	-0.04396844
166	0x3e00ca44	0.12577158
167	0x3d4ed054	0.050491646
168	0x3dd69bfe	0.10478972
169	0x3e42200d	0.18957539
170	0x3bf2cc20	0.0074095875
171	0x3ca6766a	0.020320136
172	0x3be6fcae	0.0070491647
173	0x3deec08f	0.116578214
174	0x3c2d8930	0.01059179
175	0x3d1e5190	0.038652003
176	0xbd116833	-0.035499763
177	0xbc492240	-0.012276232
178	0xbda0b901	-0.07847787
179	0xbe13aa60	-0.14420462
180	0x3e1ed0c7	0.1550933
181	0xbe03a614	-0.12856323
182	0x3dc5b5b7	0.096538
183	0x3df8af96	0.12142865
184	0xbe3261a9	-0.17420067
185	0xbd99ac26	-0.07503538
186	0x3dd3b432	0.10337104
187	0xbd508e80	-0.05091715
188	0x3e33c2ab	0.17554729
189	0x3e439f54	0.19103748
190	0x3d34dc6b	0.04415552
191	0xbe194f7e	-0.1497173
192	0xbe340962	-0.17581704
193	0x3e13018b	0.14356057
194	0xbd9d3a05	-0.07677082
195	0x3e458093	0.19287328
196	0x3d8d42b6	0.0689749
197	0xbd7e63c4	-0.062106863
198	0x3c89a478	0.016802058
199	0x3d3728f5	0.044716794
200	0x3de09c9d	0.109673716
201	0x3e5297b5	0.20565684
202	0x3d6ad71f	0.05733406
203	0x3e416dd8	0.18889558
204	0x3d67db51	0.05660564
205	0xbdaee4ea	-0.08539756
206	0xbd8001a4	-0.06250313
207	0x3e00d850	0.12582517
208	0x3e0b50e5	0.13605078
209	0xbe43013a	-0.19043437
210	0x3e112596	0.14174494
211	0xbc763040	-0.015026152
212	0x3dd47942	0.103746906
213	0x3e583a2c	0.21115941
214	0x3e50562d	0.20345373
215	0x3d32356c	0.04350798
216	0xbc3095ef	-0.010777934
217	0xbe47e89c	-0.19522327
218	0x3e3e4008	0.18579113
219	0xbd06d1f9	-0.03291509
220	0x3e04f117	0.12982593
221	0xbded318d	-0.11581717
222	0xbe4c8324	-0.19971901
223	0x3cfe4ef1	0.031043502
224	0xbe281615	-0.16414674
225	0x3d9204be	0.07129811
226	0x3d55046f	0.05200618
227	0xbe520674	-0.20510274
228	0x3e501ca2	0.20323423
229	0x3d8ff576	0.0702924
230	0xbe0310d6	-0.12799391
231	0x3ca14760	0.019687355
232	0x3dca071f	0.098646395
233	0x3e01cb29	0.12675156
234	0x3d305e30	0.043058574
235	0x3cfde340	0.03099215
236	0x3d92bc63	0.07164838
237	0x3e1a57b3	0.15072517
238	0xbe412400	-0.18861389
239	0xbe182a8c	-0.1485998
240	0xbdb6d7ff	-0.08927917
241	0x3e16a6ce	0.14712068
242	0x3e1ddf0f	0.15417121
243	0xbdd90423	-0.10596492
244	0xbe46287d	-0.19351383
245	0xbd3e89da	-0.046518184
246	0xbde29808	-0.11064154
247	0x3d683a8d	0.056696463
248	0xbdaeb537	-0.08530658
249	0xbaa2e100	-0.0012426674
250	0xbe4835ae	-0.19551727
251	0xbe0a2213	-0.13489561
252	0x3db46a52	0.088093415
253	0xbdf8bde4	-0.12145594
254	0xbc929592	-0.017893586
255	0x3e09047f	0.13380621

mean.6.bias f4 [2]
0	0xbe019135	-0.12653048
1	0x3e019144	0.1265307
