save/exp6/it6_model.pt (torch, 142135 bytes, 9 tensors)

sigma f4 [2]
00000000: 6677 70c0 816c 9e3e
-3.7572875 0.30942157

mean.0.weight f4 [128, 10]
00000000: 32d9 b2bd 77a4 9e3c f002 a53d 3094 033e
00000010: 2c44 8c3d 3ee0 98bd 1f88 ebbd eac0 30bd
00000020: b580 c0bd 3af5 503d c0f5 d6bc cf39 113e
00000030: 0579 dc3d 2c12 713e 2ce5 643c bd62 0ebe
00000040: a7e7 f83c 9641 37be 5b69 30bd 4430 98bd
00000050: 33e2 98bd 8ec2 82bd 98f7 853e b3fc 043e
00000060: 0888 a83d 1cd1 833e 5be2 2abe ad11 17bc
00000070: ec75 243e b658 193e 7075 2cbe 45d1 c03d
00000080: c530 c1bd e785 c53c 4968 a2bd 1fc2 58be
00000090: f61c 3cbe df21 e2bd dce8 083e 42b7 d43d
000000a0: 7951 60be 83d8 d1bd f907 73bd 48ac 5fbe
000000b0: a9c7 ea3d df24 383e 6577 dc3b 6748 2fbe
000000c0: cebd 97bb c86a c9bb 782e 9f3e cf3b 5fbc
000000d0: b447 5fbe 89e2 803e 74fa 6abc 0064 643d
000000e0: e9f9 0fbe a97d 8cbe 72a4 343e df0f 13bd
000000f0: 0b5a 333e b6dd 653e eed3 413d 4091 fb3d
00000100: 77a2 a43d f4b0 5d3e d249 16be 320e 073e
00000110: 8b4c d2bc f0d2 283e cbe7 cc3d fcba c13c
00000120: 3e96 59bd 2b48 d13d 5701 39be c623 fcbd
00000130: ab7e 653d 548e f5bd d987 cd3d 4b10 613e
00000140: f231 85bd cb8e 033e aa4c bcbd 9c8e f9bd
00000150: 3dd3 ecbd 4a0a 1abe 4552 11be 8985 43be
00000160: d4d7 3dbe 0842 c43c 9555 1d3e 0424 243e
00000170: bae4 bb3d eba8 183d 8d1f 593c 457f 4abe
00000180: 4b71 f83c 73db 76be 4858 953d adff d13c
00000190: 405d 943d 210d 9abc 418f 39be 4a9d 8a3d
000001a0: 39c0 c53d 602d 003d dcc6 9dbd 488e c63d
000001b0: cbe7 883d e6a8 043d ad94 093e 5cb9 32bd
000001c0: 5f4b 343e 7194 a13d e79c 413e 4465 b53e
000001d0: 2b40 e53d 72e3 ecbd 7173 ce3c 29a0 573d
000001e0: 04a4 be3c d6ed 573d 3844 ef3d cb25 583e
000001f0: 62f9 ddbd 3afd 85bd 4af1 1bbd 2ddc debd
00000200: 87cd ac3c a867 efbd 36f9 08be f14b aebd
00000210: d7af cebd b146 653e d8df 133e 35e4 b43e
00000220: 572e 0a3e 4f2a b43b ea79 b13d 2273 ebbb
00000230: 702e fcbd b49c 22be a103 18be 41f6 af3c
00000240: 5a12 4f3e 6f6e 653e e04a 1f3e 79af 093e
00000250: 42b8 eebd 92a8 35be 55fa 2fbe ac11 59be
00000260: 4d32 3c3e 058f 833e 3028 6d3e 1cb4 4a3c
00000270: 5c8f 243e af70 f13b eb87 a93c e1e0 df3d
00000280: 64db aa3c 4474 8ebc 491a 6d3d 3aec 013e
00000290: 643c 0bbe 4890 44bd 307f 803e f2cf aabd
000002a0: b981 2cbe c627 cd3d bc08 71bd d80e b1bd
000002b0: 7b7f d6bd 3af2 b4bd 4f48 4fbe cbc1 983c
000002c0: 4a4e 38bd b9d1 a53d 72e5 e6bc de62 70bd
000002d0: c627 3cbd ca68 323e 79bd 75bd 1e1f 3d3e
000002e0: 58ec de3c 3a11 3cbe 7b2c 223c 384e 0bbe
000002f0: edd7 f7bd 7632 5fbe c015 d6bd 5941 723e
00000300: 4631 24be 7f4e dc3d 8a03 82be 0697 b3bb
00000310: 7e52 713d a7dc 823e 047f e5bc f527 2b3e
00000320: fe36 a13d 1a86 723e 7b95 ce3d 24cd e13d
00000330: ad97 6cbe 875a 80be 85b5 8a3c 1069 01be
00000340: 99cc 9c3d 80e9 ca3d a152 7c3e 1234 243d
00000350: 3d32 c7bd 99c4 47be 1336 6d3e f77a 0ebe
00000360: cc4f 963e 53e0 8a3d 8850 b23d addd 0dbe
00000370: 02ff 6d3d 333a b93d dbfb 533d a6af d3bd
00000380: 168e edbd 82af a73d ec95 94be 399b 27be
00000390: a91a 57be b7c9 94bc 4fb1 023e 0b7c 133d
000003a0: 658c 78bd 32a1 353d 0075 1abe 443b c5bc
000003b0: a3b9 89bd 3ca3 9ebd a216 073e d13f 21be
000003c0: 7e01 733c 5ca7 51be d55d b23d 16ea e9bd
000003d0: 7a0e fd3d d846 8ebd 0754 5c3e 1561 40be
000003e0: 9f59 313e f074 febd 3636 0b3e 0cee 50bd
000003f0: 4641 fcbc 1e42 50bd 10be ad3d 8359 4e3e
-0.08732833 0.019365532 0.08057201 0.12849498 0.0684894 -0.07464646 -0.115005724 -0.043152727
-0.09399549 0.051015116 -0.02624023 0.14182208 0.1076527 0.23542088 0.013970654 -0.13904853
0.030383898 -0.17896113 -0.043069225 -0.07431081 -0.07465019 -0.063847646 0.26165462 0.12987022
0.08229071 0.25745475 -0.1668791 -0.009220523 0.16060609 0.14975247 -0.16841674 0.09414915
-0.0943313 0.024111701 -0.07930047 -0.21167801 -0.18370423 -0.11041617 0.13370079 0.10386516
-0.2190608 -0.102463745 -0.059333775 -0.21843064 0.114638634 0.17982815 0.0067281 -0.17117463
-0.004630781 -0.0061467625 0.3109014 -0.013625099 -0.21804696 0.25172833 -0.014341939 0.05575943
-0.14060177 -0.2743962 0.17640856 -0.035903808 0.17514817 0.22447857 0.047321253 0.122835636
0.080388 0.21649534 -0.14676598 0.13189009 -0.025671264 0.16486716 0.100051485 0.023648731
-0.053121798 0.10218843 -0.18066917 -0.12311511 0.056029003 -0.119900376 0.100356765 0.21978872
-0.06503667 0.1284744 -0.0919431 -0.12185404 -0.11563728 -0.15042987 -0.1419154 -0.19093908
-0.18539363 0.023957267 0.15364678 0.16029364 0.091744855 0.037270468 0.013252151 -0.19775112
0.03032746 -0.2410715 0.07292229 0.025634611 0.072443485 -0.018805088 -0.18121053 0.06768282
0.09655804 0.031293273 -0.07703945 0.09695107 0.06684836 0.032387637 0.13435622 -0.043633804
0.17606877 0.07889641 0.1890751 0.35428822 0.1119388 -0.11566819 0.025201531 0.052642975
0.023271568 0.052717052 0.116829336 0.21108167 -0.108385816 -0.0654244 -0.038071908 -0.10881839
0.021094097 -0.11689693 -0.13376316 -0.085105784 -0.100921325 0.22390248 0.14440858 0.35330358
0.1349424 0.0054982076 0.086658314 -0.0071853558 -0.12313545 -0.1588009 -0.14845134 0.021479728
0.20221844 0.22405408 0.15555906 0.13445844 -0.11656238 -0.17740086 -0.17185338 -0.21198148
0.18378563 0.25695053 0.23159862 0.012372043 0.16070312 0.0073681693 0.020694694 0.10931564
0.020856567 -0.017389424 0.057886396 0.1268777 -0.13597256 -0.04798916 0.25097036 -0.08340444
-0.1684636 0.10017352 -0.05884622 -0.08645409 -0.10473534 -0.088352636 -0.20242427 0.018647095
-0.044996537 0.08096642 -0.02818558 -0.058688037 -0.04593637 0.17422786 -0.05999515 0.18468902
0.027212307 -0.18365946 0.0098983 -0.13604057 -0.121017314 -0.21796593 -0.10453367 0.2365774
-0.16034421 0.107571594 -0.25393325 -0.00548065 0.05891656 0.2555897 -0.028014667 0.16714461
0.07871817 0.23683968 0.10087105 0.110254556 -0.23104735 -0.25069067 0.016932258 -0.12637734
0.076562114 0.09907818 0.24640895 0.04008872 -0.09726379 -0.1950859 0.23165159 -0.13914095
0.29357755 0.06781068 0.08706766 -0.13854094 0.058104523 0.09044304 0.05175386 -0.10336237
-0.11599366 0.08187772 -0.2902063 -0.16367806 -0.21006264 -0.018162591 0.1276295 0.03600697
-0.060680766 0.04434318 -0.15083694 -0.024076112 -0.067248605 -0.07745978 0.13192227 -0.15747
0.014831899 -0.20473999 0.08709303 -0.114216015 0.12356277 -0.06947106 0.21516429 -0.18787034
0.17319344 -0.12424648 0.13594899 -0.05100827 -0.030792844 -0.050844304 0.08483517 0.20151334

mean.0.bias f4 [128]
00000000: 4005 c03d 1b46 363d b9fd 4a3d 3bd3 cf3b
00000010: 651a 70bd abc7 333d f4f4 723d 460a 1d3d
00000020: c606 96bd 12e8 3cbe b42c 21be 858d d53d
00000030: 865f 063c 67fe b03c b5ae 1b3c 77b1 d13d
00000040: 5369 0f3d d95b b7bd 9f45 683d 99f3 e63d
00000050: 48a6 22bd dfbe c8bc 99ad 26be fb16 9abd
00000060: 07f5 bf3d 9815 33bd 4b8e 773c f1f1 103d
00000070: d203 00be 7341 2abd abe3 c23d 2ef1 e2bc
00000080: 72a1 333d 3318 31bd 62b6 2ebe 235c 59bd
00000090: a753 853d 67f0 fcbd e915 2c3d 1937 9cbe
000000a0: a865 14bd d308 57bd 92a5 0bbd 9756 d43d
000000b0: cd91 ae3d 4fd1 843d 6f02 75be 0213 dd3d
000000c0: 9c87 fb3d 336d 593d 8667 233d 4e03 c03c
000000d0: e110 863d 9c9d 9d3d 2026 c93d d8c0 aebb
000000e0: a249 f83c b6f9 0abe 9236 13bd e321 193d
000000f0: 7801 12bd 7cd4 893d d493 073c 102f eb3c
00000100: c02d 663d dea0 2dbd cb1f 04bd a2bc ffba
00000110: c265 db3d 62f4 043e 4203 873d 0adc 37bd
00000120: c523 113e 8ebb 933d ab2c 30be 8966 21bd
00000130: 9bf3 7c3e dc26 653c ccfa 0ebc 06eb 5bbd
00000140: ed0c ad3c 3d01 043e 5ab1 69bd b2c2 9ebd
00000150: 2f07 c43d 725f 0abd da95 93bd 4249 e33d
00000160: 1460 85be 701f 133d 7a65 59bd 9a2d 1cbd
00000170: e862 c83d cffc babc c3a2 013e 7c04 17be
00000180: 4feb ccbd f5a0 033e bccf 2f3b a6f6 753c
00000190: fb49 38be 3c30 e6bd f3b0 38bc 8088 0dbd
000001a0: e2fc b7bc 81ab a5bc 1da3 573e 3340 b43c
000001b0: 72f9 16be ecc7 b6bd c0f3 543e 23df 85be
000001c0: 980b a03d cf25 d53d 4fa7 1dbd e1b9 f6bb
000001d0: cfd9 dcbc 73ea 433d 0a4e a53d 6a11 8abd
000001e0: 710a a339 f521 cfbc c946 83bc c1df 94bd
000001f0: d861 6e3e 0e85 1f3c d158 893a 38dd 42bd
0.09376001 0.04450045 0.049558375 0.0063423193 -0.05861892 0.04389159 0.059315637 0.038339876
-0.07325511 -0.18447903 -0.15739709 0.10427383 0.0082014855 0.021605683 0.009502103 0.10238927
0.035012554 -0.089530654 0.05670702 0.11276931 -0.03970936 -0.024505077 -0.1627716 -0.075239144
0.09372907 -0.043721765 0.015109609 0.035386983 -0.12501457 -0.041566323 0.095160805 -0.027702894
0.043855138 -0.04323597 -0.17061761 -0.053066384 0.06510096 -0.123505406 0.042013083 -0.30510786
-0.03622976 -0.05249865 -0.034093447 0.10368078 0.08523903 0.06485235 -0.2392671 0.10794641
0.12281725 0.053082656 0.03989365 0.023439076 0.06546188 0.07696077 0.09821725 -0.0053330474
0.030308548 -0.1357182 -0.035940714 0.037385833 -0.035645932 0.06729981 0.008274991 0.028708965
0.056195974 -0.042389743 -0.032256883 -0.0019511173 0.10712768 0.1298385 0.06592418 -0.04488758
0.14173801 0.072135076 -0.1720454 -0.039404426 0.24702303 0.013986316 -0.008726787 -0.053690933
0.021124328 0.12891097 -0.0570539 -0.07751979 0.09571683 -0.03378243 -0.07206316 0.11097957
-0.26049864 0.035918653 -0.05307529 -0.038129427 0.0978449 -0.022825627 0.12659745 -0.14747804
-0.10005819 0.12854369 0.00268267 0.015012419 -0.17996971 -0.11239669 -0.011272657 -0.034554005
-0.022459451 -0.020223381 0.21058317 0.022003269 -0.14743593 -0.08924851 0.20796108 -0.26146802
0.07814711 0.10407602 -0.038489636 -0.0075294827 -0.026959328 0.04783101 0.080715254 -0.06741603
0.00031097562 -0.025284747 -0.016024964 -0.0726924 0.23279512 0.009736313 0.001047874 -0.047574252

mean.2.weight f4 [128, 128]
00000000: 897a 043e ebfb f1bd e6d9 a53d 0616 8d3d
00000010: e222 a83d c3d9 46bd fddc d5bd 4759 c33b
00000020: f86c 2dbd 4e39 343d 8a47 febd 4d56 dd3d
00000030: 67c5 61bd e062 bb3d e9c6 38bd aee8 8dbb
00000040: 0578 9b3c e1c8 07be 71cb 8b3d 3c79 093e
00000050: 61f9 f2bd 2cc2 153d 9cfd 11be b424 aabc
00000060: f0e2 89bd 2062 13be 695a 853d ec85 b13d
00000070: 8446 ab3c 62d8 6e3d 0a87 d8bd 806a b93d
00000080: d695 f8bd 6edc 54bd b62d 7abd 7e8e 81bd
00000090: 78b8 e63d 6b6b e83d 9e91 aa3d 9c2f 58bd
000000a0: 46c1 d0bd 7cfd 62bd d048 74bd 8857 383c
000000b0: be86 683d 7c28 0e3e b297 ab3d 8313 07be
000000c0: 86c2 e43d 7a06 16be b2ad c53c 3831 ae3c
000000d0: 6756 e5bc 01a0 96bd 9899 88bd cc7f a23d
000000e0: 7662 bfbd 7fd9 643c 84f1 873d 9754 ff3d
000000f0: d6a0 463b 169a 083e 85b0 1abe 9c91 a4bd
00000100: 09aa 05be 7b12 7d3b 2a23 dcbd 967b b33d
00000110: a149 aebd e4b0 0d3c 3adc fc3d 063d 30be
00000120: dae0 1f3d d23b 1cbe a810 933d a332 0ebd
00000130: 43ba 0ebe 21db d93c c977 393c 8446 673d
00000140: 9653 ac3d 406e b0bc 467c a6bd 5488 193e
00000150: a6ed 46bd 81f4 073e 491d 9f3d 415f 19be
00000160: 4862 24bd c007 223c 3873 fdbd 1919 093d
00000170: b761 84bd 4214 abbd eabb f63d 950f 863d
00000180: 52d1 213e 6413 10bd c890 25bd 505d c7bd
00000190: 72d9 0f3d 6118 e73d 4b5a 79bc b7f6 89bd
000001a0: 25fc c93d d1b3 0dbc c65a 3c3c 135a 193e
000001b0: 56a8 093e fd81 183e 28fc 07be 516c c83c
000001c0: 70ef cd3d 6d71 043e 990f 09be 9452 e63d
000001d0: a1a4 91bd b0d8 84bd 66b1 c8bd d0aa adbd
000001e0: 4d13 efbc c3c2 d8ba 732e 9ebd 7a77 a43d
000001f0: 6a59 b2bd 3e12 0d3e d3de 0fbe 0d30 2e3d
00000200: ce0c c0bd 6ddc a8bd 4edc ff3c 04c8 eabc
00000210: 1966 d7bd 44fc 05bc 7aa7 e5bd 9468 b5bd
00000220: d64f b93d 143a 163c 046f 4abd f8f7 ef3d
00000230: 4ba7 a03c 41c4 d83d 58e3 793d 0e11 2d3c
00000240: 397f 5dbd da29 8abd 05de 0a3e 20db 0b3d
00000250: f571 093e 1dc6 b63d f0a6 0dbc d3a8 10be
00000260: ac1c 803d 5d6b 0cbd b7e7 fe3c d718 73bd
00000270: 6811 f13d 15e4 143e 3d7e babd c52c 12bd
00000280: 7587 e9bd 4e0f 913d 1916 eabd ec6f f2bd
00000290: e2f6 e4bd 1cf4 fcbd ba26 f23d 5e63 87bd
000002a0: c5ec c03d 8bfe 35bd 9fc0 39bd d1c8 2cbd
000002b0: 7d42 02be f9ae 2b3d 783a 82bd 0ca6 2d3d
000002c0: d061 04be 8448 c13c 92a7 fe3d 1d74 41bd
000002d0: 4dcf 053d 0f8d 1cbe d90f 80bd 59d6 013e
000002e0: b8ba 783d fc5c 563d bbe6 873d d975 00bd
000002f0: 6016 85bd 78df 133e 70f3 5fbd 3e50 49bc
00000300: 13a0 edbd 62be f03d 0d2e 4dbd fb33 62bd
00000310: 9f16 c6bd a3e9 113d c659 f8bd ef91 fe3d
00000320: 63ed e53d 95f1 f8bd c94c 11be 7e1d 193d
00000330: ad09 b9bd 8156 1bbe 5b30 c53d 8cb1 1dbd
00000340: abab fe3c b943 873c 0cbf c3bd 5add 99bd
00000350: 0802 5a3d a945 0abe 6fdc c2bc a00d 5bbc
00000360: 0c6e adbd dc4d 1b3e b49b 0bbe 7959 0cbe
00000370: a01a e0bd 1c05 b63d 118c 09be 7df2 b83d
00000380: 552b 183e 6922 133e c119 123e 7324 cb3c
00000390: ab82 09be 1ffd 0e3d 5d38 813d 193f 25bc
000003a0: 919a 0cbe da36 e13d d0cd f13c 48e3 d23d
000003b0: 6c57 91bc 701f 0cbe c649 063e f294 19be
000003c0: 7590 e1bd 2c3b 0f3e 4b84 3dbd a430 a33d
000003d0: 7410 bc3d e760 97bc ac6c 11bd 383c 883d
000003e0: 9677 ffbc de94 813d 9d16 55bd 426e aebd
000003f0: b60a c6bd 83d4 1bbe ec2d 3fbd 6b44 8fbd
0.12937368 -0.11815628 0.080982015 0.06888966 0.08209778 -0.048547518 -0.10442541 0.0059615704
-0.04234025 0.043999963 -0.12415989 0.10807476 -0.0551199 0.09149718 -0.04511157 -0.004330716
0.018978128 -0.13260223 0.06825913 0.13425153 -0.118639715 0.03656213 -0.142569 -0.020769455
-0.06732738 -0.143929 0.06511385 0.08668122 0.020907648 0.058311827 -0.10572632 0.090535164
-0.12137954 -0.05196803 -0.06107875 -0.06326006 0.11265653 0.11348613 0.083285555 -0.05277978
-0.10193114 -0.055417523 -0.059639752 0.011251338 0.056769125 0.13882631 0.08378543 -0.13191037
0.11169915 -0.14650908 0.024130676 0.021263704 -0.027995301 -0.07354737 -0.06669921 0.079345316
-0.09344952 0.013967871 0.06637862 0.12467306 0.0030308268 0.13340029 -0.151064 -0.08035585
-0.13053145 0.0038615752 -0.107488945 0.087638065 -0.08510137 0.008648131 0.123466924 -0.17210779
0.039032795 -0.15257195 0.07180911 -0.03471626 -0.1393824 0.026593747 0.011320063 0.056463733
0.0841438 -0.021536946 -0.08129172 0.14993411 -0.048566483 0.13276865 0.077692576 -0.14977743
-0.04013279 0.009889543 -0.12375492 0.0334712 -0.0646395 -0.08353473 0.120475605 0.06545941
0.15802506 -0.035174742 -0.040421277 -0.09734595 0.03511948 0.11283947 -0.015219281 -0.0673651
0.09862546 -0.008648829 0.011496251 0.14975767 0.13443121 0.14893337 -0.13279784 0.024465712
0.10055435 0.12933894 -0.13384856 0.11246219 -0.071114786 -0.06486642 -0.09799461 -0.084798455
-0.029184008 -0.0016537536 -0.07723703 0.08030601 -0.08708461 0.1377649 -0.14049844 0.042526294
-0.09377442 -0.08245168 0.03123298 -0.028659828 -0.105175205 -0.008177821 -0.11213584 -0.08857837
0.090484306 0.00916912 -0.04942228 0.11717218 0.019611022 0.105843075 0.061007828 0.010563148
-0.054076407 -0.06746264 0.13561256 0.03414452 0.13422377 0.08924506 -0.008645758 -0.14126901
0.06255469 -0.034282077 0.03111635 -0.05934986 0.11770898 0.14540131 -0.09106109 -0.035687227
-0.114027895 0.07082997 -0.11429996 -0.11837754 -0.11179902 -0.12351248 0.11823793 -0.0661075
0.0942016 -0.044432204 -0.045349713 -0.0421837 -0.12720676 0.041914914 -0.06358808 0.042394683
-0.12927938 0.023594148 0.12434305 -0.047229875 0.0326684 -0.15288185 -0.06253023 0.12679423
0.060724944 0.05233477 0.06635805 -0.03136239 -0.06498408 0.14440715 -0.05467552 -0.012287198
-0.11602797 0.11755063 -0.050092746 -0.055225354 -0.096722834 0.035623204 -0.12126498 0.124301784
0.112269185 -0.12155453 -0.14189447 0.03738164 -0.09035049 -0.15169717 0.09628364 -0.0384994
0.031087717 0.016511785 -0.09557924 -0.075129226 0.053224593 -0.13503136 -0.023786752 -0.013369948
-0.084682554 0.1516642 -0.13633615 -0.13706006 -0.10942578 0.08887693 -0.13432337 0.09030626
0.1486028 0.14368595 0.14267637 0.024797654 -0.13428752 0.034909364 0.063095786 -0.010085844
-0.13730837 0.1099679 0.029517084 0.10297257 -0.017741881 -0.13683867 0.1311408 -0.14998224
-0.11013881 0.13987416 -0.046268743 0.07968262 0.09182826 -0.018478824 -0.03550403 0.06652111
-0.031184953 0.06327222 -0.05202352 -0.08517124 -0.09670012 -0.15217786 -0.046674654 -0.069954716

mean.2.bias f4 [128]
00000000: 05a6 c3bc 655e debb 45fe cd3d f5b3 933e
00000010: b166 3e3c e066 8dbc fe27 173d e8b7 a7bd
00000020: f8e4 e83c cd8a fe3d e54e 993c dd6e b43c
00000030: 881c 7a3d 82c3 d83d 3cb3 f33c ca81 66bd
00000040: 743b 483a c49a 94bd c9eb bb3d 0f2c 543c
00000050: a569 f23c cd93 54bd 8026 0abc 3e93 253d
00000060: fa96 1eba 8b78 793c d0b9 c7bd 6771 b53d
00000070: ff22 fb3d e8de c5bc 961a a13d c20e 15bd
00000080: dd3d d0bd c9e3 983c 0404 be3d 7013 00bd
00000090: bac1 a2bd 7e64 92bd 865f 1dbd 6eb1 d6bd
000000a0: b057 413d cf41 5f3d 4ed3 a03b b0f7 ed3c
000000b0: 7c65 ea3d 5dcf d73c a727 bfbc 69e6 41bb
000000c0: 111b 51bd 4643 02bd 0022 043c 9c45 5abd
000000d0: d6c9 afbd 736b 54bd 2409 2d3d 7914 9d3d
000000e0: f3c3 c13d b238 993d f7fb c63c 224f 91bd
000000f0: c61c 18bd 7640 5e3d c5c7 b93b 19a6 d33d
00000100: 356c aebb c1a8 90bc 2485 623d 12c0 763d
00000110: 18f5 78bd 2203 6bbc f115 093d e62a be3c
00000120: 7718 68bd ba23 0b3e b79e 2fbd 98af d0bc
00000130: b6e0 863d aaa3 643e 5496 1e3c d129 243d
00000140: 1d6f b1bd 4f7d 32bd b1d5 013e 0041 45bd
00000150: dcc7 d53d fa5d 28ba 9eaa 093e df91 263c
00000160: be35 2a3d ee7e 563d ddde 86bc f145 533d
00000170: 907b 813c 4b91 86bc 1932 1bbd 56cc f13b
00000180: bbaf 06bd 9fad 0fbd 068b 4b3d 5196 153d
00000190: 018f 703d 12cd 8b3b 77d4 693d 1155 ed3c
000001a0: 0000 0000 06ec a9bd dc57 70bc 1779 6e3d
000001b0: 7130 6e3c 8f5d 24bd 81f9 88bc 98cb 983d
000001c0: 0c06 bebc 4d4f 5cbc 79bc 03bd cd29 843c
000001d0: b160 6ebd 9a69 26be 9f99 913e 7b4b a33d
000001e0: 58e7 443d 2c6d cbbd 600d ae3d 9cd1 e9bd
000001f0: 8dea a03d 0741 c43d 9b43 093d 61c9 d1bc
-0.023882875 -0.006786155 0.10058264 0.28848234 0.011621163 -0.017260969 0.036903374 -0.08189374
0.028429493 0.12428818 0.018714378 0.02202552 0.061062366 0.10584165 0.029748552 -0.05627612
0.0007638254 -0.07256082 0.09175832 0.0129499575 0.02959139 -0.051898766 -0.008432031 0.040423624
-0.0006049719 0.015226494 -0.09752238 0.088595204 0.12262534 -0.024154142 0.07866399 -0.036391027
-0.101680495 0.018663304 0.0927811 -0.031268537 -0.07947107 -0.071480736 -0.038421176 -0.10483061
0.047202766 0.05450612 0.004908002 0.02904877 0.11445138 0.026343996 -0.023334337 -0.0029586798
-0.051051203 -0.03180244 0.008064747 -0.05328904 -0.08583419 -0.051860284 0.042245045 0.076699205
0.094612025 0.07481517 0.024290068 -0.070951715 -0.037136815 0.054260693 0.0056695663 0.10334415
-0.005322958 -0.017658593 0.055302754 0.060241766 -0.060780615 -0.014344009 0.03346819 0.023213815
-0.056663956 0.13587847 -0.04287597 -0.025474355 0.06585829 0.22328058 0.009679396 0.04007894
-0.08663771 -0.043576535 0.12679173 -0.048157692 0.10438511 -0.0006422695 0.13443992 0.010166614
0.04155516 0.052367143 -0.016463691 0.051580373 0.01580599 -0.016426703 -0.037889574 0.007379095
-0.032882433 -0.035077687 0.04969313 0.036520306 0.05873013 0.0042663896 0.057087388 0.028971227
0.0 -0.08296971 -0.014669385 0.05822095 0.0145379165 -0.040128287 -0.016720535 0.074607074
-0.023196243 -0.013446641 -0.032162163 0.016133213 -0.05819768 -0.16251221 0.28437516 0.07973381
0.04807219 -0.09932932 0.08498645 -0.11416933 0.07857237 0.095827155 0.03351174 -0.02560872

mean.4.weight f4 [128, 128]
00000000: 95d7 203d 3261 ab3c 6132 633b 85ac b03c
00000010: 4a32 11be 49e3 babd d404 ca3b 9323 76bd
00000020: 0f26 d63c ebab 3bbd 4d8c e13c d1a8 db3d
00000030: c11a 533d ba70 b73d c36d bfbd d4e3 eb3b
00000040: 2e6d 09be 43cc 7b3d 7dbc 0ebe f302 a73d
00000050: cd9f 073d d6bf 643b 7e25 ea3c 17d2 3a3d
00000060: af1a f83d af35 babd 8454 c5bd 78f2 4bbd
00000070: d40e 1abe 3cc1 ffbc 2efe ccbd 9f06 a63b
00000080: 5e9d 343c 52fb f53d 2e6d 9dbd 261d 15be
00000090: 725b 113d c03a 043d 528b 04be 1e65 ed3c
000000a0: 9642 113e 62f4 04be b20c eebd fdcf 043b
000000b0: 1bef a93d d7e0 023e 2446 afbd 3c6d 18be
000000c0: 3ea2 693d 4c9d 47bd 1cde 2abc ef4c 0bbe
000000d0: ae89 b8bd b1a3 58bd 9f6a d4bd 1f88 813b
000000e0: 2e80 5cbd 6794 b93d 1d8f b03d 9c2a 703d
000000f0: 08b0 ec3d cb61 05be 1a6b 94bd 6c5e 0ebd
00000100: b5e1 133e 6df1 023e adcc 70bc a5d3 7cbc
00000110: b88b debd 813a 073e f005 34bd 40ff 04bd
00000120: edda 113e b1c1 83ba 2dd5 6cbd 880c 6ebc
00000130: dc3d 153e a9c3 fa3d b5e7 11be 911c 9e3d
00000140: c5cc 5bbd 9b62 933d 46f0 dd3d 40a3 ef3d
00000150: 6d16 c2bd c0f1 acbd e60c 653d 0338 163e
00000160: 59e6 a53a 76b9 2bbd d235 f23d c399 6ebd
00000170: 1796 d8bd 096c 813d 4bf0 7ebd d36c f53d
00000180: 9285 a43a 70a6 a5bd 977a fbbc 495f b53d
00000190: c6ad 0bbe 129e 21bc be6a d03d 2f24 cf3d
000001a0: dc52 143d 3acf 19bd 88b9 6dbd d7e3 d13d
000001b0: f2d8 09bc bb04 0f3d 7929 673d 1f88 e33c
000001c0: 2574 55bd 4470 1d3c 9d3b f6bd 8f05 ed3d
000001d0: a67c 21bd 4a8f a73d cdee ce3d 47a2 ac3d
000001e0: 49b1 eb3d 5e00 fd3d 21c2 c1bd 4363 f8bd
000001f0: 0c28 0a3d f638 133e 81ef b4bd 21d0 0d3e
00000200: 60f2 e7ba 321e 073e 3a22 c53c 2f2d 073e
00000210: 15b3 ebbd 7b8c ac3d 5724 8d3d e9eb edbd
00000220: 8c3a 0c3e 8da3 acb9 6894 d23d 7626 a1bc
00000230: 5611 01be 40e2 c53d 639e acbc d9a6 a6bd
00000240: 326f df3d aa83 793d d70f b43d b8f9 b43d
00000250: 4778 553d 181a 0e3e 57a1 bc3c c0cd 7bbc
00000260: 9a23 95bd bdd1 f23d cd19 0d3e dae4 bbbd
00000270: 8b28 35bc 55cd e8bd d06c b23d 0212 bfbc
00000280: 044d 2abd f4da e7bd 6142 803d 2ffa c2bd
00000290: c806 143e cd4d c03c 39f8 febd bcd6 91bd
000002a0: e657 0e3e 0521 7a3d 76f9 183e 6219 75bb
000002b0: fcb1 75ba dad1 103e 3d4c 84bd 149d 073e
000002c0: 305b cabc c068 e3bd 3f17 003b bc35 c13d
000002d0: fe12 9d3d f006 e03c 79f7 0d3c 5786 4c3c
000002e0: 9f04 133d 2431 ebbd f2ae 0bbe 4002 ffbd
000002f0: d696 53bd 586e d53c 70b6 ebbc fc48 00be
00000300: 99b2 15be c768 5c3d 25a3 30bd 90b5 8e3d
00000310: a7ea e83d ac25 d7bd 4a60 1e3d 5f08 eabd
00000320: 856a 1c3c 21b7 873d cb1c ab3d 811d d1bd
00000330: ba18 8cbd 8c25 18be b6b9 a3bd 1ebb b3bb
00000340: ba5d 5abd a97a d5bd 0237 823d f3b6 36bc
00000350: 307f 85bd de51 963d 736e 6dbd b8ea ddbd
00000360: 2ebf e3bd bb57 043e 011d 0d3d 4358 1abe
00000370: 6fd2 4ebd 5d7b fcbd 6ac5 bb3d 593d 193e
00000380: 995a 4fbd 6516 a7bd fd2f 213c e7c2 103e
00000390: 50ac 803d 58b9 b03a eebd 833d ef6b fe3c
000003a0: 833b a3bd 0323 ddbc 066c eb3d 6d84 8e3d
000003b0: cdcb 133e 9dff 9cbd 5f5c 44bb 5e6d 13be
000003c0: 08fc 7a3d 22c2 ac3c d0a4 6d3d c723 bcbd
000003d0: 16c1 09be b837 8abd d038 123d 3c33 13be
000003e0: 0da6 293b fac4 afbc db14 b33c 4aa7 a83b
000003f0: 1ec9 02be 1183 4f3d de00 d8bd ee75 24bd
0.039268095 0.02092037 0.003466748 0.021566639 -0.1417934 -0.091253825 0.0061651263 -0.06009252
0.026141195 -0.04581825 0.027532721 0.107255585 0.051539186 0.08957048 -0.09347107 0.00719879
-0.13420555 0.061474096 -0.1393909 0.081548594 0.033111382 0.0034904382 0.02858233 0.045610514
0.121144645 -0.090922706 -0.09635261 -0.049791783 -0.15044719 -0.031220071 -0.100094184 0.0050667073
0.011023847 0.12010826 -0.0768684 -0.145619 0.0354876 0.03228259 -0.12943771 0.02897888
0.14185557 -0.1298385 -0.11623515 0.0020265572 0.08297559 0.12781082 -0.085583 -0.1488542
0.05703949 -0.048733994 -0.010428932 -0.13603567 -0.09010635 -0.052890483 -0.10371899 0.0039529945
-0.05383318 0.090615086 0.08621047 0.058634385 0.11557013 -0.13025586 -0.072469905 -0.034758016
0.14441569 0.12787409 -0.014697236 -0.015431319 -0.10866493 0.13205911 -0.043950975 -0.032469988
0.1424367 -0.0010052231 -0.057820488 -0.014529355 0.14574379 0.122443505 -0.14248545 0.07720292
-0.05366208 0.07196542 0.10836844 0.11701059 -0.09476934 -0.08444548 0.055920504 0.14669804
0.001265715 -0.041924916 0.11826672 -0.058252107 -0.10575502 0.06319434 -0.06224088 0.11983647
0.0012552014 -0.08088386 -0.030698104 0.08856065 -0.13640508 -0.009864347 0.101766095 0.10114323
0.036211833 -0.037551142 -0.058038265 0.10248535 -0.00841354 0.03491662 0.056436036 0.027774869
-0.052112717 0.009609286 -0.12023089 0.11573326 -0.039425515 0.08181627 0.101041414 0.084293894
0.11508424 0.12353586 -0.09460855 -0.12128308 0.033729598 0.14377198 -0.08834744 0.13848926
-0.0017696135 0.13195112 0.024064172 0.1320083 -0.115087666 0.08425232 0.06891697 -0.11617262
0.13694209 -0.0003292825 0.102822125 -0.01967166 -0.1260427 0.096622944 -0.021071618 -0.081372924
0.10909881 0.06091658 0.08792084 0.088366926 0.05211666 0.13877141 0.023026152 -0.015368879
-0.07282181 0.11856411 0.13779373 -0.09174509 -0.0110570295 -0.11367289 0.087121606 -0.023324016
-0.041577354 -0.11321059 0.06262661 -0.09520375 0.14455712 0.023474598 -0.124496885 -0.071210355
0.13900718 0.061066646 0.14938912 -0.0037399163 -0.000937253 0.14142552 -0.06459854 0.13243514
-0.024701685 -0.11103964 0.0019545106 0.09434077 0.07669638 0.027347058 0.008664959 0.012483201
0.03589308 -0.11483982 -0.13640955 -0.12451601 -0.05165752 0.026053593 -0.028773516 -0.12527841
-0.14618911 0.05381086 -0.043124337 0.06968224 0.113728814 -0.10505232 0.038666047 -0.11427378
0.009546881 0.06626726 0.08355101 -0.102107055 -0.06840654 -0.14858073 -0.07994406 -0.0054849526
-0.05331204 -0.10423786 0.06358148 -0.011152017 -0.065184 0.07339834 -0.05796666 -0.10835785
-0.11120449 0.12924092 0.03445149 -0.15072732 -0.050493654 -0.12328217 0.09168513 0.14964809
-0.05062351 -0.08158568 0.009838101 0.1413685 0.06282866 0.0013482971 0.064327106 0.031057326
-0.07970335 -0.026994234 0.11495213 0.06958852 0.14433213 -0.07665942 -0.0029962284 -0.14397189
0.061275512 0.021088663 0.058018506 -0.091865115 -0.13452563 -0.06748909 0.035698712 -0.14375013
0.0025886327 -0.02145623 0.02186053 0.0051468955 -0.12772033 0.050662104 -0.105470404 -0.04015153

mean.4.bias f4 [128]
00000000: a509 39bc afc1 dbbc 9ef9 53bc fd24 10bc
00000010: fc66 44bc 91e7 5e3c e2cb 7ebc b903 c43d
00000020: 1d92 b4bc 7ddb 9d3d f64b 603c 0883 76bc
00000030: 7dc8 603c a6a7 16bc 0996 1fba c0ca 613d
00000040: 6ca0 f43c 1449 11ba 685a bcbd 412e ba3c
00000050: 84a6 be3c 5eb9 e73a 14db abba 3d80 60bd
00000060: 58f7 2d3d 8f7a 1abd 80b3 e13c 0000 0000
00000070: 2594 e63c eb65 a23d 2776 eb3b d33b 433d
00000080: d0fb 6ebc 511e 26bd 4f9c cc3c 11b8 e33d
00000090: 9cfc 1bbd dc4e 44bd 3b99 58bd 3135 ce3c
000000a0: 7346 d13c b1b8 313b 75d9 cd3c 1ca6 69bc
000000b0: ec48 87bc 1f66 17bd fc99 823d ad18 813c
000000c0: 941b 1e3a 9a87 dc3c 88c9 ca3a d71c 453d
000000d0: c171 9eba 9048 11ba c956 5e3d 7c69 91bd
000000e0: 75db b9bb 4093 7c3c 71cd c03d 5e72 443c
000000f0: 3065 ea3d fb72 a43d 9c69 6c3c 7967 3fbc
00000100: 1b94 d13c 7d4b 5d3c bb64 24bc 2380 9a3c
00000110: 84e8 883b c2ad 0a3e fb2f 113d 4a8e 0e3d
00000120: 38ce fc3c 5d2f 913c b9e2 323c 5a53 b53d
00000130: aa51 993c fce7 9f3d ae00 2f3c 3aa3 96bd
00000140: 8b43 1b3d a61d f2bc 3c6e ee3b b45a 99ba
00000150: 5343 033d 5e35 193b 5db2 243b e385 333d
00000160: 5e8b 5139 924e 67bc 30d5 59bd e0dc a2bd
00000170: b701 a83b 8dc7 723c e5db 2cbc 8c91 613c
00000180: e0cc 5c3b a73f b83c 013d 42be cdb3 113e
00000190: 250d c7bb 23fb 33bc 4871 48bd 642e e3bc
000001a0: 3fd1 fbbb 5659 183e 63fe 91bd cb8b 643c
000001b0: 2616 cd3c 5d6c 1dba cb42 b5ba 89c6 48ba
000001c0: 24ba c23b d06c 373b 4304 433b f33d 573d
000001d0: db31 50bd 3761 603b 4023 053e f261 2cbc
000001e0: 311f b03d d6c2 89bc c1e0 eebb 63e1 623a
000001f0: de18 ebbd 0000 0000 e4ea fdbd 86af 58ba
-0.011293803 -0.026825754 -0.012937931 -0.008797881 -0.011987444 0.013605014 -0.015551539 0.095710225
-0.022042328 0.0770788 0.0136899855 -0.015045889 0.013719675 -0.009195244 -0.00060877256 0.055124998
0.029861651 -0.00055422005 -0.09196931 0.022727134 0.02327276 0.0017679145 -0.0013111555 -0.054809798
0.042472214 -0.037714537 0.027551413 0.0 0.028146813 0.079295956 0.0071857157 0.047664475
-0.014586404 -0.040556256 0.024976877 0.11119092 -0.038082704 -0.04792677 -0.052880507 0.025171848
0.025546288 0.0027118141 0.025128106 -0.014260795 -0.016514264 -0.036962625 0.063770264 0.015758837
0.0006031331 0.026920129 0.0015471438 0.048123207 -0.0012088345 -0.00055421237 0.054281984 -0.07100198
-0.0056719133 0.0154159665 0.09414185 0.011990158 0.11445081 0.08029743 0.014429476 -0.011682385
0.025583318 0.013506767 -0.010033782 0.018859928 0.0041781086 0.13542846 0.03544615 0.034803666
0.030860052 0.01772278 0.010918313 0.08853789 0.018715698 0.078079194 0.010681314 -0.07355352
0.03790621 -0.029555153 0.0072763246 -0.0011700005 0.032046627 0.0023377757 0.0025130727 0.043828856
0.00019983712 -0.014117854 -0.053181827 -0.07952285 0.0051271576 0.014818084 -0.010550474 0.013767611
0.003369145 0.02249129 -0.18968584 0.14228745 -0.006074565 -0.010985169 -0.04893616 -0.027732082
-0.007684856 0.14877829 -0.071285985 0.013949345 0.025034975 -0.0006005222 -0.001382911 -0.00076589786
0.0059426 0.0027988441 0.002975718 0.052549314 -0.050828796 0.0034237632 0.13001728 -0.010521399
0.08599699 -0.016816538 -0.0072899763 0.0008654801 -0.114793524 0.0 -0.123983175 -0.0008265901

mean.6.weight f4 [2, 128]
00000000: e1bc 803d eee4 87bc 7e24 09be 70a4 05bd
00000010: 095b 89be 738d 723e 03a6 54be f04a 6ebe
00000020: e557 1f3d b9e6 a4be f6b1 81bd 03f3 5c3e
00000030: f784 cf3d 822d 293e 61b6 d4bd a823 aebd
00000040: 6406 afbe bc2e ac3c a76c 133e 44d5 bebe
00000050: 598e 4dbd 3bdb 8f3d 598e b4bd ead4 f43b
00000060: b0a1 693e 7ea2 f73d c886 a5bd c0a7 23bb
00000070: 4c4d 863e 623e db3e 02b7 b43e c47d 5bbe
00000080: 1acb 073e 46b7 79bd eb29 293e 608c 45be
00000090: b153 533e 5a4e 3b3e d927 fd3a b65f bdbd
000000a0: 6efe 07bf fc8c 71bd d463 51be 0c1a 7dbc
000000b0: 3e32 a1be 0a3f 883d 9573 c23d c6fe ed3c
000000c0: 1259 febb 17a1 9c3e 34ce 903d 7b17 a4be
000000d0: bde3 e93d 94d2 09bd 0dec c33c 898a 09be
000000e0: e5df 943e 87a2 9abe eced f7be 4c2e 29bc
000000f0: 096a a4be 703a 363e 7c4e 2fbe 7593 7b3c
00000100: 6c50 4cbe 5864 663e 9c8e 3ebd ad9c c13c
00000110: a376 b13d 2480 b9bd 78cb 5d3e d243 3c3e
00000120: eea7 24be d3ac 8bbd 39a9 1f3e 3145 b33e
00000130: c50b 70bc 1b02 563d 4006 06be c4c8 cb3d
00000140: 10e1 04bb 752d 5ebe ad1a ffbc 488f bb3d
00000150: 54f8 96be ac34 99bd 0b16 93bd 2a31 fc3d
00000160: d778 b1be cd2f 5fbe 6223 cabd 8f87 30be
00000170: 7a87 483e e8ef 353e cd01 df3a fe62 7f3e
00000180: 8d35 2b3d f729 0cbe d7d2 ca3d f914 19bf
00000190: 3d07 d0ba e010 93be 62d7 9dbd ac21 b3be
000001a0: cd50 edbd 6ed4 ba3e 0593 3a3e 97dd f53d
000001b0: 4933 0b3e aab3 85be 754f 203e a11d 0e3e
000001c0: 62aa 8a3c a19b 2cbd 76ad 2fbd 0df0 1c3d
000001d0: 300d 113d 9abd c73d b62e 803e 0eff 50be
000001e0: 9ca4 523e 9cfb b7bd 9268 89bd 0025 96be
000001f0: 4a31 11be 8361 153e 3a3e e13c a56c 613c
00000200: 11da b23c 6787 bfbd 306a c0bd 71c7 1e3e
00000210: 3fa3 aa3e 50e1 973b dab6 793d 3fa6 8c3e
00000220: dc9c 43bd e69a c83e 1271 3c3e 1149 09be
00000230: 086f a7bd fca3 2fbe 838c 123e 1963 993d
00000240: df12 9a3e 59e2 383d 6eed 4d3c aa2c d13e
00000250: 1d7c 04be 4f1d 813e 5da9 c0bd 4b3c 943e
00000260: b1e9 14be 96e7 38bd ba8e 44be a01c 9d3c
00000270: 325e ebbd f84e c3be 65c2 b9be fca8 d63d
00000280: 7364 87bd 67a3 8f3d 546f ec3d d6e1 e93b
00000290: b601 0abe 6b48 8cbd d0e7 fa3d 7bae 263d
000002a0: da6b a23e ab1a c13c 832d 893e c8de a93d
000002b0: 3a5d ad3e 9a3d 47be 7640 9b3d 80a9 bebd
000002c0: 7cb8 3a3e 1f9c 89bd 09b6 553e 2bb3 b33e
000002d0: fb8d f53c f820 b2bc ac37 ef3d c56f 823d
000002e0: 8f31 89be 262b 7e3e 7457 db3e 8977 973e
000002f0: c705 9d3e bbfb 37be 9e42 963e 20e3 3cbe
00000300: 102d 9d3e 37fe 96be b45d 943a 17d1 ebbc
00000310: 0106 f03d ac9b 8b3e fee8 07be bd36 c93d
00000320: 9cb1 b33e 53d4 ffbc 754e 55be 29f0 1dbe
00000330: f654 0dbd c780 663e abc6 453e d6b7 3ebe
00000340: 0a6d 3cbe d68b 0e3e 4a9f d13c 0222 d13d
00000350: 6c2b dc3e f0bb a7bd 2c94 da3d 7aa2 e13c
00000360: 439a aa3e e2ed 78bd 6a4a bc3d 3cd3 393e
00000370: 7e93 2d3c 5668 60be 13c0 69bd 403a 9cbd
00000380: 6bd3 2e3e 7861 ef3d 0c9a 50be 4b83 013f
00000390: 6eb9 593d 49d8 ab3d 47d9 0b3e 4bf2 a43d
000003a0: 34dd b03e 33fd b7be 8147 16bd db7f 84bb
000003b0: 1fd1 50be 119b 7e3e 496c fb3d 992c 0f3e
000003c0: 1d7f 02be a480 213e 7ff1 ae3d 3c4d 2f3e
000003d0: f9c8 47be f6bf b53d 2ab5 b7be 572f 26be
000003e0: dab3 65be 5faf 0a3e 256a 263e 9f95 91bd
000003f0: 7c52 9b3d 536a 173e 1781 3bbe 7506 bb3c
0.06286026 -0.016588654 -0.13392827 -0.032627523 -0.26827267 0.23686771 -0.20766453 -0.23270774
0.038902182 -0.32207277 -0.063327715 0.21577077 0.10132783 0.16521266 -0.103863485 -0.08502895
-0.34184563 0.021018378 0.14396916 -0.37272084 -0.05018458 0.07024237 -0.08816213 0.0074716704
0.22815585 0.1209154 -0.08082348 -0.0024971813 0.26230848 0.42821032 0.35295874 -0.21434695
0.13261071 -0.0609658 0.16519897 -0.1929183 0.20637394 0.18291607 0.0019314244 -0.09246771
-0.53122604 -0.058972344 -0.20448238 -0.015448105 -0.31483644 0.06652649 0.09494702 0.02905215
-0.007762083 0.30591652 0.0707058 -0.32049164 0.11420391 -0.03364809 0.023916269 -0.13431753
0.29077068 -0.30202124 -0.48423707 -0.010325979 -0.32112148 0.1779573 -0.17119783 0.015354981
-0.19952554 0.22499216 -0.04652272 0.02363428 0.08665206 -0.09057644 0.21659648 0.18385246
-0.16079685 -0.06820073 0.15591897 0.35013726 -0.014651244 0.0522481 -0.13088322 0.099504024
-0.002027575 -0.21697028 -0.03114065 0.09158188 -0.29486334 -0.074807495 -0.07181939 0.12314065
-0.34662506 -0.21795578 -0.0987003 -0.17239211 0.1958293 0.17767298 0.0017014086 0.24940106
0.041799117 -0.13687883 0.09903496 -0.59797627 -0.0015871298 -0.28723812 -0.07707097 -0.34986627
-0.11587677 0.36490196 0.18220146 0.120051555 0.13593782 -0.26113635 0.1565531 0.1387849
0.016926948 -0.042140607 -0.042890035 0.038314868 0.035412967 0.097529605 0.25035638 -0.20409796
0.20570606 -0.089835376 -0.06709398 -0.29325104 -0.14178959 0.14587979 0.027495492 0.013758813
0.021832498 -0.09351998 -0.09395254 0.15505768 0.33327672 0.0046350136 0.060965396 0.27470586
-0.047757015 0.39180678 0.18402508 -0.13406779 -0.081754744 -0.17152399 0.14311413 0.074896045
0.30092523 0.045137737 0.012568815 0.40854388 -0.1293797 0.25217673 -0.094073035 0.2895225
-0.14542271 -0.045142733 -0.19195071 0.019178689 -0.11492576 -0.38146186 -0.36281124 0.1048145
-0.06610956 0.070135884 0.11544672 0.0071375174 -0.13477215 -0.0684975 0.12251246 0.04069374
0.3172291 0.023572287 0.26792535 0.08294445 0.3386019 -0.19457093 0.07580654 -0.09309673
0.18234438 -0.06719231 0.20870222 0.35097632 0.029974928 -0.021744236 0.116805404 0.063689746
-0.26795623 0.24821147 0.4284016 0.29583386 0.3066847 -0.17967121 0.293477 -0.18446016
0.30698442 -0.29490826 0.001131943 -0.028786225 0.11719895 0.27267206 -0.13272473 0.098248936
0.35096443 -0.031229174 -0.2083071 -0.15423645 -0.034504853 0.22510062 0.19314067 -0.18624815
-0.1840097 0.1392053 0.02558865 0.102115646 0.43001878 -0.08190143 0.10672793 0.027543295
0.33320817 -0.060773738 0.09193881 0.18146986 0.010594247 -0.21914801 -0.057067942 -0.07628298
0.17072837 0.116885126 -0.20371264 0.5059096 0.053155355 0.083908625 0.13657103 0.08054026
0.34543765 -0.35935363 -0.036689285 -0.004043562 -0.20392273 0.2486384 0.12276513 0.13981856
-0.12743802 0.15771729 0.085421555 0.17119306 -0.19510259 0.08874504 -0.35880405 -0.16228996
-0.22431889 0.13543461 0.16251428 -0.07108616 0.07584092 0.14786653 -0.18310963 0.022830227

mean.6.bias f4 [2]
00000000: a461 2c3c 3e62 2cbc
0.010521326 -0.01052147
