save/exp5/it5_model.pt (torch, 45415 bytes, 7 tensors)

sigma f4 [2]
000000 b6 c2 c2 3e ba 67 a1 c0
       0.38039178 -5.043912

mean.0.weight f4 [100, 3]
000000 86 4d 8a bd 6c ea 26 3e 80 80 9d 3c 63 bb 2d 3d
       -0.06753068 0.16300362 0.019226313 0.042415034
000010 00 81 d9 bd 0c 79 6e be f6 61 68 be e6 47 ec bd
       -0.10620308 -0.23288363 -0.22693619 -0.11537151
000020 db 42 fb bd af 72 ab 3d 4f 93 b0 bd fe c8 dc bd
       -0.12268611 0.083714835 -0.08621847 -0.10780524
000030 51 95 80 3e 53 29 88 3d 95 77 31 3e 26 a5 9e bd
       0.2511392 0.06648507 0.17330773 -0.07746343
000040 e7 4c 20 be ab 0f ad 3d 4a 9f 2e be d2 17 11 be
       -0.15654336 0.08450254 -0.17052951 -0.14169243
000050 48 90 15 bc 7c 56 e1 bd 17 d7 28 be 37 93 00 3e
       -0.009128638 -0.11002824 -0.164883 0.12556158
000060 b1 72 6e 3e 97 e0 9a bb 37 19 df bc bf 28 65 be
       0.23285939 -0.00472648 -0.027233703 -0.22378825
000070 b3 02 b3 bd 5e be 7a 3d a3 27 25 3e d9 3f 92 bd
       -0.08740749 0.061216705 0.16128401 -0.07141084
000080 c2 bf 74 bd 4c 1d 4c 3e 2b 10 84 be 83 f9 40 3e
       -0.059753187 0.19933051 -0.25793585 0.18845181
000090 b4 c3 bf bd c0 17 72 3b 84 5c 43 bd 1a c8 96 3c
       -0.09363499 0.0036940426 -0.04769565 0.018405963
0000a0 4c 96 45 bd e8 94 43 3e c0 9a cd bb 6c ec 40 3e
       -0.048239037 0.19099772 -0.006274551 0.18840188
0000b0 be a0 6d 3e 7a ff 44 bc f8 c2 90 be 53 41 7c 3e
       0.2320585 -0.012023801 -0.2827375 0.24634294
0000c0 10 39 92 3e ac 87 91 be 1f 0c d1 3c 45 6a 7f be
       0.2855916 -0.28423822 0.025518475 -0.24942882
0000d0 2e 1f 3a be 58 9a 22 3d 23 7b 7d 3d 24 9f 5a 3d
       -0.18175957 0.039697975 0.06188501 0.053374425
0000e0 7b 19 88 bd b4 58 53 3e 52 bc 56 3d 2a 6b 16 be
       -0.06645485 0.20639306 0.05242569 -0.14689317
0000f0 30 df 5f bc d0 67 6d 3d 48 19 ad 3d e9 c0 2e be
       -0.013664052 0.05796033 0.08452088 -0.17065777
000100 c8 41 b9 3d d4 86 fc bd ab b2 62 be f2 df a2 bd
       0.0904575 -0.12330404 -0.22138469 -0.079528704
000110 73 64 7a 3e d2 19 6b 3e 63 e5 3e 3e 4c 73 12 3e
       0.24452381 0.22959068 0.18642192 0.14301795
000120 e2 20 29 3e c8 7d 87 bc a7 74 18 be 01 6d c8 3d
       0.1651645 -0.01653947 -0.1488825 0.09786416
000130 86 16 c6 bd b5 93 34 be 72 d8 9d bd 10 77 4f 3d
       -0.09672265 -0.17634471 -0.07707299 0.050650656
000140 3c 76 fe 3d 81 11 cc bd f8 75 0b be b8 09 f3 3c
       0.12424895 -0.09964276 -0.1361922 0.02966772
000150 a9 cf 18 be 92 4c 13 be c8 ab fd 3d 74 11 26 bd
       -0.14922966 -0.14384678 0.1238628 -0.04054399
000160 0e d7 61 3e d4 6b 70 3e 51 04 b5 3d 2b eb 79 3d
       0.22054693 0.23478633 0.08838714 0.06101529
000170 9f 33 93 3d f4 a2 43 bb 80 b6 7b bc 5b 14 a8 3b
       0.0718758 -0.0029851766 -0.015363336 0.0051293797
000180 14 95 b8 3d 7a ca 65 3e ec 19 80 bd 58 f2 d0 bd
       0.090128094 0.2244052 -0.06254944 -0.102024734
000190 f4 66 6f bd 6a ce ee bd 50 19 28 3d b0 7b 38 3e
       -0.058447793 -0.11660464 0.041039765 0.18015933
0001a0 9c 43 41 3e 18 0b 9b 3d 70 89 05 be 5b 1a fc bd
       0.18873447 0.07570475 -0.1304071 -0.123097144
0001b0 f9 e0 62 bd 42 db 30 bd 41 85 99 3c ef df 62 be
       -0.055390332 -0.04317785 0.018740298 -0.22155736
0001c0 d4 d8 99 3d d1 8a 3c be fe 05 10 be 8d 13 5e be
       0.0751206 -0.1841233 -0.14064786 -0.21687146
0001d0 0c 29 48 3e c2 08 6a be b0 70 3a 3e 00 ef 04 bc
       0.19546908 -0.22854903 0.1820705 -0.008113623
0001e0 b0 f1 e5 bc f2 95 1a 3e 10 bf b6 bc f6 ff 1a 3e
       -0.028069347 0.15096262 -0.022307903 0.15136704
0001f0 10 b1 32 3e 89 93 56 be 6f 31 b5 3d fa dc 4a 3d
       0.17450356 -0.20954718 0.08847319 0.049527146
000200 9b b7 62 3d 70 53 10 3d 88 34 87 3d 12 ca ed bd
       0.05535088 0.035235822 0.066018164 -0.116108075
000210 90 f6 fc bc f6 d1 6a 3e d4 0b 26 3e a6 c0 67 3d
       -0.030879289 0.22931656 0.1621545 0.05658021
000220 87 47 9b be 65 ef 01 3d 1b 4d 28 be 86 fa 48 3e
       -0.3032801 0.031722445 -0.16435663 0.19626817
000230 56 0a 16 be d7 55 e1 3a 0f d9 ba bd 58 3c 02 3d
       -0.1465238 0.001719172 -0.09123432 0.03179583
000240 fc 05 50 3e ea 43 3b 3d 4c a7 10 3e 5b 08 31 3e
       0.20314783 0.045719065 0.14126319 0.17288344
000250 e0 05 53 3e 17 c2 b9 bd e8 1a 5d bd 48 38 ee 3d
       0.2060771 -0.09070223 -0.053980738 0.116318285
000260 9a e0 86 bd 5e 75 df 3d 32 b5 26 bd 3b 10 1b be
       -0.06585808 0.10911058 -0.040700145 -0.1514291
000270 e3 1b c4 3d a8 01 27 3d 9f c9 cf 3d e3 84 52 3e
       0.095756315 0.040773064 0.10145878 0.20558505
000280 d0 31 57 3e 3b b2 5a 3e c9 e0 2c 3c 2b 22 5a be
       0.21015096 0.21357052 0.01055164 -0.21302097
000290 28 f3 2c be c3 50 2f be 2e 3b 30 be 7c e6 d9 bd
       -0.16889632 -0.17120652 -0.17210075 -0.106396645
0002a0 b9 b4 6d be 66 fe 43 be 32 a0 04 be ce 4f 7f be
       -0.23213471 -0.19140014 -0.12951735 -0.24932787
0002b0 e4 99 11 be 9f 48 9e 3d ed 49 95 3e 08 b3 25 be
       -0.14218861 0.07728695 0.29157963 -0.16181576
0002c0 cd ac 87 bc 51 8b 86 3e 75 4d 83 be cd 77 f0 bc
       -0.01656189 0.26278165 -0.25645033 -0.029354
0002d0 df e6 69 3e 02 b4 97 be b8 c4 77 3d 54 94 94 3e
       0.22841977 -0.29629523 0.06049034 0.29019415
0002e0 91 58 67 bd d2 c6 94 3d d0 ef 0f be 00 3a 5a bb
       -0.056480948 0.072644845 -0.14056325 -0.003329873
0002f0 c0 6d 59 3c 14 0d 05 3d 48 0c f6 3d 10 d1 50 3e
       0.013270795 0.032483175 0.12014061 0.20392251
000300 db a5 3c be 00 11 ed 3b d8 f7 f6 bd 82 82 43 be
       -0.18422644 0.0072346926 -0.12058991 -0.19092754
000310 08 54 9e bc 78 8c 59 be 0f 60 64 3e d4 ad ef bc
       -0.019327179 -0.21244991 0.22302268 -0.029257692
000320 9f 0b bd bd 30 cc f8 3c e4 4d f6 bd 64 23 c6 bd
       -0.09230732 0.030370802 -0.12026575 -0.09674719
000330 82 87 9c bd 0b 85 43 be 87 93 47 be 48 5b 21 bd
       -0.076430336 -0.1909372 -0.19489871 -0.039393693
000340 f0 86 3b 3e d0 a8 6e 3e 8f 90 8d 3e 53 13 7f be
       0.18313193 0.23306584 0.27649352 -0.24909715
000350 fb 57 79 bd 3d d0 35 3e 14 a3 f1 3d 33 80 ef bc
       -0.06087492 0.17755218 0.11798683 -0.029235935
000360 e5 0b 91 3d be 15 71 be 24 51 69 bd eb 84 a2 3e
       0.07082347 -0.2354345 -0.056962147 0.31742033
000370 3a d6 0d be 07 fa 68 3d fb 6d 2a be 74 1e 3a be
       -0.13851252 0.05687907 -0.16643517 -0.1817568
000380 b4 ad b0 bb 1e 4e 1a be 7c 3e e7 bc b4 92 c7 3d
       -0.005391801 -0.15068862 -0.028228037 0.09744778
000390 26 c1 71 be d4 cf 92 3d 8e 6a 23 be da 3d f1 bd
       -0.23608837 0.07168546 -0.15958616 -0.117793754
0003a0 d4 c3 bd 3d 26 83 44 3e 33 76 de bd 3d cc 53 bd
       0.09265867 0.19190654 -0.108623885 -0.05170845
0003b0 7d 2f 66 be 17 92 06 be c9 5e 4e be bb 35 5a bd
       -0.22479053 -0.13141666 -0.20153345 -0.053273898
0003c0 74 66 03 3e f0 0c a5 be 43 58 78 3e a8 9b 0a 3e
       0.12832052 -0.32236433 0.24252419 0.1353594
0003d0 33 03 66 be 7b ee f8 bd f8 81 85 3d a8 bb 16 bd
       -0.22462158 -0.121548615 0.0651893 -0.036800057
0003e0 e3 1c 08 bd ac 2e df bd 98 83 46 3e be 27 0a be
       -0.033230674 -0.10897574 0.19386137 -0.13491723
0003f0 59 f1 38 3e 22 e4 9a 3c 7d 7a 67 3c a7 1e 3c 3e
       0.18060817 0.01890761 0.014128325 0.18371068

mean.0.bias f4 [100]
000000 00 00 00 00 e7 07 2f 3e 00 00 00 00 73 d3 51 3d
       0.0 0.17092858 0.0 0.051227044
000010 0b b0 80 3d d6 7d 84 3e 46 24 cf bc a8 12 ad bd
       0.062835775 0.25877255 -0.025285851 -0.08450824
000020 d8 93 0a 3e 64 54 30 bb 83 0c 5f 3e 30 fe 54 3e
       0.1353296 -0.002690577 0.21782117 0.2080009
000030 00 00 00 00 06 d2 97 bd 00 00 00 00 bd 20 d7 3e
       0.0 -0.07413106 0.0 0.42017165
000040 a9 53 ca 3e 98 11 9e bd 46 85 de bb 7e d7 b1 bd
       0.39516953 -0.077181995 -0.00679079 -0.0868368
000050 00 00 00 00 00 00 00 00 0a 14 1f be bf 6f bc 3d
       0.0 0.0 -0.15534988 0.092010014
000060 66 a1 09 be ba d0 49 bd 00 00 00 00 cf bc 08 bd
       -0.13440475 -0.049271323 0.0 -0.033383187
000070 59 8f a6 3c 00 00 00 00 66 f7 e9 3d 0a 5c 34 bd
       0.020332025 0.0 0.11424141 -0.044033088
000080 00 00 00 00 00 00 00 00 00 00 00 00 94 d8 25 be
       0.0 0.0 0.0 -0.16195899
000090 0c 4e 84 bc 00 00 00 00 da e4 91 3c 00 00 00 00
       -0.016150497 0.0 0.01780932 0.0
0000a0 00 00 00 00 00 00 00 00 d0 c5 a8 bc 00 00 00 00
       0.0 0.0 -0.020602137 0.0
0000b0 00 00 00 00 88 45 a1 3e 00 00 00 00 db 29 27 3e
       0.0 0.3149836 0.0 0.1632456
0000c0 1c 1b ec bd cd 96 d9 bd 00 00 00 00 f7 a4 5e bd
       -0.11528608 -0.10624466 0.0 -0.05435654
0000d0 16 84 09 bd 98 3b 54 be ad f4 f0 3c 3e 1a df bd
       -0.033573233 -0.20725858 0.029413546 -0.10893677
0000e0 a2 3b 81 bd e4 db 24 bd 6a a5 c8 3e 88 56 2e 3f
       -0.06310202 -0.040248767 0.391887 0.68100786
0000f0 46 90 af 3e 68 bd de 3e 00 00 00 00 7f ce d0 bd
       0.3428976 0.4350388 0.0 -0.10195636
000100 00 00 00 00 00 00 00 00 98 cc 82 3e c7 48 e6 be
       0.0 0.0 0.25546718 -0.449774
000110 94 40 39 bd 00 00 00 00 7b ce ee 3e 18 1d 2d be
       -0.045227602 0.0 0.46641907 -0.1690563
000120 41 0b 15 3e 6d 38 cd 3e d6 e3 65 3e 18 0e 15 bc
       0.14555074 0.40082112 0.22450194 -0.0090975985
000130 00 00 00 00 00 00 00 00 8c a3 32 be 61 7b 31 bd
       0.0 0.0 -0.174452 -0.043330554
000140 8f b0 b3 3e f6 57 1c be bc ff 88 bd 00 00 00 00
       0.3509564 -0.1526793 -0.066894025 0.0
000150 d2 48 33 bd 59 ab 49 bd 00 00 00 00 89 56 d5 3e
       -0.04377062 -0.049235675 0.0 0.41667584
000160 a9 f1 9d 3e 00 00 00 00 00 00 00 00 cf 4c df 3e
       0.30848435 0.0 0.0 0.43613288
000170 00 00 00 00 00 00 00 00 00 00 00 00 ac ae 92 3e
       0.0 0.0 0.0 0.2864889
000180 d4 96 08 3f be 18 aa bd f0 a8 a3 bd 84 04 da 3e
       0.53355145 -0.083055004 -0.07991207 0.4258157

mean.2.weight f4 [100, 100]
000000 b0 24 53 bc 49 a2 1a 3e 40 0a b6 bb 0b bb 18 3b
       -0.012887165 0.1510097 -0.005555421 0.0023304846
000010 03 d6 89 bd 42 f2 14 3e 45 fb 16 bd 09 48 cd 3c
       -0.067302726 0.14545539 -0.036860723 0.025058763
000020 39 de fe bd 7c 56 73 3d b8 47 9b bd a1 21 cc bc
       -0.12444729 0.05940865 -0.07582039 -0.02491838
000030 c0 c2 7d bc aa ea 9e 3d a0 ad e7 3b 0e fb 27 3d
       -0.015488327 0.07759602 0.0070702583 0.04101091
000040 cb 9e b3 bd 3d 19 01 be 4c 7f 7f 3d c0 11 92 bd
       -0.08770522 -0.12607284 0.06237726 -0.07132292
000050 50 ea 18 be 19 65 92 bd 1e d8 2e be 9f 85 2d 3d
       -0.14933133 -0.07148189 -0.1707463 0.04236376
000060 a1 56 52 3c 68 48 38 3e 44 9b c3 bd 60 90 b7 bd
       0.012838037 0.17996371 -0.09551099 -0.08963084
000070 b6 6f 48 3d 8c 6a 3a bd 65 3a 0e 3e 4a c5 d7 3c
       0.04893466 -0.045511767 0.13889463 0.026339192
000080 c0 a4 76 bb 19 17 88 bd d0 53 d6 3d ff 34 a6 bd
       -0.003763482 -0.066450305 0.10465205 -0.08115577
000090 aa 9c 8e 3d 9c e0 e3 3d 34 92 f9 bd 1c 26 1d be
       0.06963475 0.11126825 -0.12186089 -0.15346569
0000a0 5c 0b c8 bd 4c 35 aa 3d b4 ae c3 bd f8 1f 86 3c
       -0.09767792 0.08310947 -0.09554806 0.016372666
0000b0 20 3c d6 3c ed 09 41 3d 8a e2 b4 bd f6 b2 ed 3b
       0.026151717 0.047128607 -0.088322714 0.007254
0000c0 70 aa f5 3d 70 e0 b7 3d b0 87 07 3d ad a1 0c be
       0.11995399 0.08978355 0.033088386 -0.1373355
0000d0 99 d5 a6 3d 24 69 8d bd 76 6c 0a 3e f5 7c 94 3d
       0.08146209 -0.069048196 0.13517937 0.07250396
0000e0 24 9b df bc 38 d5 95 3d 27 2b 6e bd 74 cd 0f 3d
       -0.027295657 0.07316059 -0.058146622 0.035108045
0000f0 4f 9b 42 3c 46 dc a8 3c e0 cd 79 3d f4 b6 2c 3e
       0.011877849 0.020612847 0.060987353 0.16866666
000100 89 92 9c bd 9a 32 2d 3e 3d 13 ca bc 15 b4 28 3e
       -0.07645137 0.16913834 -0.024667377 0.16474946
000110 d7 a5 5c 3d b0 6a 67 3c 4b 95 12 bd a3 ef ba bd
       0.053869095 0.014124557 -0.035786908 -0.09127738
000120 66 b9 28 be c2 fd bc bd aa 01 5c 3b 2f 35 15 3e
       -0.16476974 -0.09228088 0.0033570328 0.14571069
000130 30 f5 bf 3d 50 64 f7 3c 40 a7 2b be 93 79 fa 3d
       0.09372938 0.0301992 -0.1676302 0.1223022
000140 cb 19 05 3e 36 d0 97 bd da 99 8f 3d c0 c6 13 be
       0.1299812 -0.0741276 0.07011767 -0.14431286
000150 7b e5 ae bd 93 86 32 bd c2 d1 20 be c6 bd c8 3b
       -0.08539864 -0.04358537 -0.15705016 0.0061261384
000160 f9 8f 16 3d e0 80 4e 3d 14 fb 25 3e 91 ec e9 3d
       0.036758397 0.050415874 0.1620906 0.114220746
000170 54 47 22 be ae af 5e bd 40 bb c6 3d 67 1a 11 be
       -0.15847522 -0.05436676 0.09703684 -0.14170228
000180 6b 5c 77 3c 1c 22 92 3d 1d 68 ed bd b2 45 25 3e
       0.015097718 0.07135412 -0.11592124 0.16139868
000190 45 dc e9 bd 75 25 f1 bd 56 a2 06 be 9d 59 e4 bc
       -0.11418966 -0.117747225 -0.13147864 -0.027874762
0001a0 1c c8 84 3d 00 a0 7c 3d 30 a6 af bd 7f 8d 1b 3e
       0.0648348 0.061676025 -0.085766196 0.15190695
0001b0 6f c7 b0 bd e6 2b 0b 3e dc e8 88 3d 04 9a 2b bd
       -0.08631789 0.13590965 0.066850394 -0.041894928
0001c0 c0 2c 03 3e 2f 58 73 3d 98 ce 16 be 33 ed d8 3d
       0.1281004 0.05941027 -0.14727247 0.10592117
0001d0 ad 1b 3b 3e 2a d3 04 be 1b 90 15 bd d5 41 0f be
       0.18272276 -0.12971178 -0.036514383 -0.13989957
0001e0 4c d2 ed 3d 74 33 bc 3d 2f 4f 02 3e ea 5a 60 3d
       0.116123766 0.091895014 0.12725519 0.054774202
0001f0 d8 13 eb bc 05 5e 83 bc 21 26 04 be f3 47 e1 3d
       -0.028695986 -0.016036043 -0.1290517 0.11000051
000200 28 0c 88 bd 80 b8 9b 3c b2 c8 3a 3c 78 a2 56 3d
       -0.066429436 0.019008875 0.011400389 0.052401036
000210 02 7a 0e be 10 be e0 bc 30 a6 a3 3d 93 47 03 be
       -0.1391373 -0.027434379 0.07990682 -0.12820272
000220 6c 68 98 bd 7c 53 c3 bd 70 c9 11 be d4 2a 2d 3e
       -0.07441792 -0.09537408 -0.14236999 0.16910869
000230 f6 3c 19 3e 7c 48 de 3d 88 c0 12 be 80 32 cf ba
       0.14964661 0.10853669 -0.14331257 -0.0015807897
000240 b8 47 02 3d 81 0d bf 3d 64 e4 0e 3d 00 7a c7 bd
       0.031806678 0.093287475 0.03488578 -0.097400665
000250 1e 27 ca 3b 2e 7e 0f be a0 e3 b1 3d bf 1f de 3d
       0.006169214 -0.14012977 0.08685994 0.10845899
000260 5f 3a 7c bd ae d9 19 be b7 d8 6f 3b 51 6a b3 3d
       -0.061579105 -0.15024444 0.0036597678 0.087605126
000270 e1 e7 f6 bd 30 a9 95 3d a7 6f 0d 3e 1e 6f e8 bd
       -0.12055946 0.073076606 0.13812123 -0.11349319
000280 ed d5 ea 3d 40 0e cd 3d 71 8c b6 bd ce e8 14 3e
       0.11466584 0.100124836 -0.08913506 0.14541933
000290 9e 96 aa bd 22 ce 06 3e 44 88 f8 bd c8 df 0a 3e
       -0.08329509 0.13164571 -0.121353656 0.13561928
0002a0 a0 8f 21 bd 34 ac 1c be 5a b3 e3 3d 57 a3 67 bc
       -0.039443612 -0.15300065 0.11118193 -0.014138064
0002b0 fb 4f 62 3d 8e 2e cb 3d f0 be f7 3c cc 99 62 3d
       0.055252057 0.09920989 0.030242413 0.055322453
0002c0 f3 7d 15 be 6f 8b 1c be 43 ab a6 bd dd 6b ba bd
       -0.14598827 -0.15287565 -0.08138134 -0.091026045
0002d0 cb 85 13 be 29 0f cf 3c 31 ea 60 bc 24 3e 1c bd
       -0.14406507 0.025275784 -0.013727711 -0.0381452
0002e0 9c 4e c9 bb 59 9e a7 3d eb a0 83 bd 9a 21 01 3d
       -0.006143404 0.08184499 -0.06427177 0.031526186
0002f0 7f 49 2a bb 44 4b ab 3d 90 f2 96 bc 30 1c aa 3d
       -0.0025983748 0.08363965 -0.01842621 0.083061576
000300 6e e3 8a bd 64 64 09 3e 80 d1 ee 3c c2 d0 36 3d
       -0.0678166 0.13417202 0.029152632 0.04463268
000310 0b 0a d2 3d 1b bd 2c be 35 65 9c 3d 09 b1 25 3e
       0.10255822 -0.16869013 0.07636491 0.16180815
000320 5c 71 d4 3d 72 dc e0 3d c1 77 0e be ef 0a 19 3e
       0.10373184 0.109795466 -0.1391287 0.14945577
000330 06 9d fe 3c c0 06 32 be 13 e1 20 3e b2 69 09 3e
       0.031080734 -0.17385387 0.15710859 0.13419226
000340 b5 93 01 bd 9a e9 2d 3e 6f 8a 03 3c 01 85 04 3e
       -0.031635005 0.16983643 0.008028611 0.12941362
000350 fe c8 1c be 93 55 29 be 08 aa 45 3d c4 5e 2a bc
       -0.15311047 -0.1653655 0.048257858 -0.01039857
000360 4c b9 1f be 8b 55 c6 bd 21 d4 c6 3d 03 95 e2 3d
       -0.15598029 -0.09684285 0.09708429 0.11063578
000370 a4 85 06 be dc 96 9e bd d6 30 b7 ba 4c a8 bb bb
       -0.13136917 -0.07743618 -0.0013976346 -0.0057268497
000380 3b 65 02 be 41 e8 02 3e 58 b0 f7 bd a2 fc fb 3d
       -0.12733929 0.1278391 -0.12094182 0.12304045
000390 a4 6a e0 bd 68 38 30 be 5d d3 23 3d 17 e4 a9 bd
       -0.1095784 -0.17209017 0.039996494 -0.08295458
0003a0 00 23 ef 3d 6c 36 6b bd 80 7b 87 3c d4 4b 04 3e
       0.116765976 -0.057424948 0.016538382 0.12919551
0003b0 e1 53 e6 bd 83 0a 92 bd bf 6c e8 3d 1a 9d 15 3e
       -0.112464674 -0.07130911 0.11348867 0.1461071
0003c0 20 4f f7 3c ac 58 08 3e 94 82 d5 3d d0 92 c8 3d
       0.030189097 0.13315076 0.104252964 0.09793627
0003d0 20 bf df bb 80 7c 24 3e 6c 88 61 bd 18 0d 01 3c
       -0.006828204 0.16063118 -0.055061743 0.007876657
0003e0 51 19 5c bd 54 72 52 bc c8 2b d5 3d 32 c4 07 3e
       -0.05373508 -0.012844641 0.10408741 0.13258436
0003f0 49 b9 cc 3c 46 6e e3 3d ad c2 f9 3d 0e d4 af 3d
       0.024990695 0.11105017 0.121953346 0.08585368

mean.2.bias f4 [100]
000000 7c 1e 0c 3e d5 cc 81 3d 96 cb 1c bd 6f 80 2e be
       0.13683504 0.06337897 -0.038280092 -0.17041181
000010 77 b9 f8 3c 21 92 2e 3e 2c 43 88 bc a6 19 c4 bd
       0.030361874 0.17047931 -0.016633593 -0.095752046
000020 5a c1 9b bb 11 c6 70 3d d0 4d 16 bd 00 00 00 00
       -0.004753274 0.05878264 -0.0366953 0.0
000030 3a 2c 50 3e 00 00 00 00 00 00 00 00 27 73 94 3e
       0.20329371 0.0 0.0 0.28994104
000040 49 80 73 bd 17 d2 42 3e 88 50 89 3a fd e0 94 3e
       -0.059448514 0.19025455 0.0010476271 0.29077902
000050 40 86 a3 3b 4a 36 35 bb 74 38 10 3e 0a ba 3d bd
       0.004990369 -0.0027650767 0.14084035 -0.04632
000060 ca 20 18 3b 04 9c 1f bd ea 22 7d bc 00 00 00 00
       0.0023212903 -0.038967147 -0.015450219 0.0
000070 b2 cf ce 3b 10 40 6a 3d 07 51 b1 3d 26 28 5a 3e
       0.0063113803 0.05719 0.08658033 0.21304378
000080 be dd 09 3e 2e a6 4b 3b e0 69 df bb c0 40 c3 bc
       0.13463494 0.0031074393 -0.006818041 -0.023834586
000090 d9 27 8e bd 00 00 00 00 0c e8 7a 3e bf 68 42 bd
       -0.06941194 0.0 0.24502581 -0.047463175
0000a0 8d 13 18 3e d7 b8 86 3e e6 18 37 be 2c 22 a7 3e
       0.14851208 0.26312897 -0.17880592 0.3264326
0000b0 1a af 41 bb 8a fe 33 bc 16 04 aa bc 75 ee 6f 3d
       -0.0029553832 -0.01098598 -0.020753901 0.05857702
0000c0 00 00 00 00 00 00 00 00 00 00 00 00 1c de 98 3c
       0.0 0.0 0.0 0.018660598
0000d0 ae 70 98 be c0 bc 8b 3e 00 00 00 00 5e ae 32 3d
       -0.29773468 0.27292442 0.0 0.04362332
0000e0 d8 65 de 3b 88 f1 0f bb 68 a6 a9 bc aa e5 54 3d
       0.006787043 -0.0021964032 -0.020709231 0.051976837
0000f0 23 e9 0d bd 8e 73 f9 bc 37 8d c8 3d c0 6f 31 3e
       -0.034646165 -0.030450609 0.097925596 0.17327785
000100 f0 a0 8b 3d 5a 95 1c bd 36 a4 7d be 95 fc 8f 3e
       0.06817806 -0.03822837 -0.24769673 0.28122392
000110 d3 08 bd 3d 82 2d 86 3e 55 0a 3c 3e 9a b2 85 3e
       0.09230199 0.26206595 0.18363316 0.26112825
000120 be 5e a1 bd 38 36 0b 3d 2b 79 b7 bd 00 00 00 00
       -0.07879399 0.033987254 -0.08958658 0.0
000130 80 42 8f bd e9 b6 24 3e 00 00 00 00 8c 8d 02 3d
       -0.06995106 0.160854 0.0 0.03187327
000140 1c 6f ba 3e 59 8d b1 bd b2 3c e0 3d 81 e5 f8 3c
       0.36412895 -0.08669538 0.10949077 0.030382873
000150 31 ba 45 3e d2 92 5f bc 00 00 00 00 b2 7a c4 bd
       0.19309308 -0.0136458445 0.0 -0.09593715
000160 00 00 00 00 00 00 00 00 fc f4 7b 3e 2a 06 08 3f
       0.0 0.0 0.24605173 0.53134406
000170 00 00 00 00 21 eb 6e 3e 1d b7 99 3e a5 38 9a 3c
       0.0 0.23331882 0.30022517 0.018825838
000180 00 00 00 00 45 74 c6 be 00 00 00 00 19 37 fd 3e
       0.0 -0.38760582 0.0 0.494561

mean.4.weight f4 [2, 100]
000000 41 75 63 3e ea d4 97 3e 11 cd cd bd 7c 53 2c be
       0.22212698 0.29654628 -0.10048879 -0.16828722
000010 77 79 26 bd 80 75 86 3e f6 5f 32 3e 06 a1 d1 bd
       -0.04064318 0.2626152 0.17419419 -0.10235791
000020 f2 a5 24 3d d2 9d 8c bd e7 58 60 3e f4 01 d9 3d
       0.04019732 -0.06866039 0.21908914 0.10596076
000030 e8 c6 2e 3e 14 66 e2 3d 30 44 8f 3c 40 90 d7 3d
       0.17068064 0.11054626 0.017488569 0.105255604
000040 55 9b 73 be 8e 04 88 3e 58 27 13 be 12 83 ed 3e
       -0.23789723 0.26565975 -0.14370477 0.4638906
000050 98 80 73 bd fb cc f8 3d 61 ef 79 3e 30 8f 21 3e
       -0.05944881 0.12148472 0.24407722 0.15777278
000060 7c c1 dc bd 25 a2 f4 3d 9e 8d 6c 3d a0 00 89 3b
       -0.10779092 0.11944989 0.057752244 0.0041809827
000070 88 0c aa bb 61 c4 aa 3d d4 33 95 3e f7 27 9b 3e
       -0.005189482 0.083382376 0.29141104 0.30303928
000080 af 99 83 3d c8 bf 58 ba 5f 5c 59 bd cb 37 b3 bd
       0.06425797 -0.0008268324 -0.053066608 -0.08750876
000090 49 f1 dc 3d cc 87 65 3e 4a 0e ba 3e 34 47 78 bd
       0.10788209 0.22415084 0.36339027 -0.06061478
0000a0 8f f8 79 3e 4f 7e f2 3e 9f 98 71 3d 31 0a eb 3e
       0.24411224 0.4736199 0.05898344 0.45906213
0000b0 1e 04 b5 3d f5 ba 5f bd f8 1c b1 3d 39 4a f4 3d
       0.08838676 -0.054621655 0.086481035 0.11928219
0000c0 a8 e9 91 3d 74 5f 73 bd cc e7 35 be 4a 06 41 be
       0.071246445 -0.059417203 -0.17764205 -0.18850055
0000d0 a9 59 22 be e3 0a b3 3e 7c 14 6d bd 30 be a7 bd
       -0.15854515 0.34969243 -0.057880864 -0.08190572
0000e0 f1 e2 2e 3e 47 03 7b be 93 e1 31 3d f9 43 b4 3e
       0.17078759 -0.24512969 0.043428015 0.3520811
0000f0 8a 95 f6 bd 66 41 06 3c 6b d4 c5 3e 4d 23 be 3e
       -0.12040241 0.008194303 0.38638625 0.37136307
000100 88 e8 a5 3e 8c 8c 0a bd d3 b0 0b 3e c6 aa d8 3e
       0.3240397 -0.033825442 0.13641672 0.4231779
000110 4a 7c ea 3d 31 de d9 3e 3d d4 4e 3e 1e fb b1 3e
       0.114494875 0.4255233 0.2019815 0.347619
000120 c0 59 3b be 52 4a 0f 3e 35 7f cc bd d0 ff 25 3d
       -0.18295956 0.13993195 -0.099852 0.040527165
000130 f2 68 a5 3c cd 84 95 3e 8a 18 04 3e 99 93 d9 bd
       0.020191643 0.2920288 0.12899986 -0.10623855
000140 df 8c 16 3f 8e ae 54 be 8e cc b2 3e 23 c4 46 3e
       0.588087 -0.20769712 0.34921688 0.19410758
000150 cd d1 1d 3e 84 de bf 3d b2 dc 08 3e d9 50 fa bd
       0.15412064 0.09368613 0.13365439 -0.12222452
000160 0e 30 21 3e d4 43 94 3d e2 28 b3 3e ef 0c e6 3e
       0.15740988 0.072395 0.3499213 0.44931743
000170 40 66 c6 3c 45 ef 3b 3e 11 1a 06 3f 2c d4 d1 bd
       0.024218678 0.18352993 0.52383524 -0.10245547
000180 ee 51 09 3e a7 44 07 3e f8 31 a0 bc 34 05 cf 3e
       0.1341016 0.13209783 -0.019555077 0.40433657
000190 5d ee ab 3d 2c 7b 0c 3d 92 81 bf bd 58 38 20 3d
       0.083950736 0.034297153 -0.093508855 0.039116234
0001a0 6f ce 9d bd 1a 10 34 be 2f 97 73 3e df f1 95 3d
       -0.0770539 -0.17584267 0.2378814 0.07321524
0001b0 9b 0c 5a bc bf 03 1a 3d 0d 12 2e 3e 72 e0 04 3e
       -0.013308669 0.03760123 0.16999073 0.12976244
0001c0 13 92 24 be 34 c2 39 be 1a f3 c6 bd a8 48 44 bd
       -0.16071348 -0.18140489 -0.09714337 -0.047920853
0001d0 8c 46 9e 3d 33 56 4d bd db 43 49 be c9 c8 d6 be
       0.077282995 -0.050131034 -0.19654791 -0.41950062
0001e0 f6 0d d5 bd c5 e2 07 3e 3b 4d 77 be 6d c6 36 3e
       -0.104030535 0.132701 -0.24150555 0.17849131
0001f0 6d 36 30 be ca 5b 2a bd e3 7c 52 3e fe 74 d0 bd
       -0.17208262 -0.041591443 0.20555453 -0.101785645
000200 06 f9 fb 3b 1b 4e 1a be df 06 84 bd 5c ed 8f be
       0.007689598 -0.15068857 -0.06446623 -0.28110778
000210 1e a0 ac be 88 e3 c3 bd d6 9d c5 3d 72 69 80 bd
       -0.3371591 -0.095648825 0.096492454 -0.06270112
000220 d6 c3 3f be bc 4d 4f bd 5c 80 b1 be 75 25 4e 3e
       -0.18727049 -0.050611243 -0.34668243 0.20131476
000230 96 78 09 be 95 2e 06 be ea a4 73 3e ac 6c d4 be
       -0.13424906 -0.13103707 0.23793378 -0.4148916
000240 b0 22 aa 3d d4 02 20 3d 26 05 4d 3e b1 d5 5a bd
       0.08307397 0.039065197 0.20021495 -0.05342645
000250 d8 b0 91 3d 25 20 73 be 0e 38 6e 3e f5 61 61 be
       0.071138084 -0.23742731 0.2326357 -0.22010024
000260 de 5c 3a 3e 6e 17 b9 be b8 12 55 3d de 35 e5 bd
       0.18199489 -0.36150688 0.052019805 -0.11191915
000270 f9 94 47 3e d3 5c 50 be 01 eb 4f 3e 6a 2c bd 3d
       0.19490422 -0.2034791 0.2030449 0.09236987
000280 b8 b5 8f 3d 83 ad 58 3e 2b 42 4e 3d c5 c0 1b be
       0.07017082 0.2115994 0.05035607 -0.15210254
000290 56 1f 5b bc 31 5b e3 3b 34 9b 87 3d 4c f4 fc be
       -0.01337417 0.006938361 0.066213995 -0.49405134
0002a0 d9 f3 2a be d5 e0 aa be 82 3d 8d be fe 6f b3 be
       -0.16694583 -0.33374658 -0.2758599 -0.3504638
0002b0 a8 24 d5 bd 55 62 c9 bc c0 f3 05 be 60 8e df 3d
       -0.10407382 -0.024583021 -0.13081264 0.10915828
0002c0 68 cd 1a 3e af 75 5d be d8 2d 2f 3e 4c ab 2e be
       0.15117419 -0.21626924 0.17107332 -0.17057532
0002d0 77 cd 14 bf 88 47 4d 3e 3d ce fa bc 06 fe 22 3d
       -0.58126014 0.20046818 -0.03061592 0.039793037
0002e0 fd d7 d6 be 5a f7 1c 3e a8 5e 4b be 60 ce 11 bd
       -0.4196166 0.15328732 -0.19860327 -0.035597205
0002f0 3a 26 fa bd f8 c3 bb 3d 1e fa 7e be c7 7d 25 bf
       -0.122143224 0.091682374 -0.249001 -0.64645046
000300 40 bf 5f be 35 a3 a0 be d2 38 d6 be 49 a0 bb bd
       -0.218503 -0.31374517 -0.41840225 -0.09161431
000310 aa 61 af bd d7 e5 95 bd 30 67 2d 3d 35 b3 ba be
       -0.0856355 -0.07319229 0.042334735 -0.3646485

mean.4.bias f4 [2]
000000 99 cf 2b 3f bf cf 2b bf
       0.67113644 -0.6711387
