save/exp5/it5_model.pt (torch, 142135 bytes, 9 tensors)

sigma f4 [2]
000000 44 3e a7 bf 9b eb 67 3e
       -1.3065877 0.2264847

mean.0.weight f4 [128, 10]
000000 c4 f1 38 be c6 a9 3b 3d 8d 51 9c 3d e5 e3 29 3e
       -0.18060976 0.045816205 0.07632742 0.16590841
000010 b7 c8 f2 3c bd 78 b4 bd 76 8d f3 bd 75 ad c5 bd
       0.029636724 -0.088120915 -0.11892216 -0.09652225
000020 56 05 fb bd 38 ef a5 bc 3f 83 e2 bc 54 e5 2d 3e
       -0.12256877 -0.02025567 -0.027650474 0.16982013
000030 e4 7f e2 3d db 3e 4f 3e 2d 86 0f ba 7a f3 44 be
       0.110595495 0.20238821 -0.0005475011 -0.19233504
000040 66 cb 9d bb dc e0 74 be fe 00 a0 bd 73 fd b4 bd
       -0.0048155067 -0.23913902 -0.07812689 -0.08837404
000050 30 70 28 be 3c 16 50 be d7 c7 4a 3e a2 ac 55 3e
       -0.16449046 -0.20320982 0.19802795 0.20866635
000060 1f 81 70 3d 1e f0 25 3e 16 01 5e be 01 67 c4 bd
       0.05871689 0.16204879 -0.21680102 -0.09589959
000070 b9 91 77 3d 2e 11 ef 3d ee e6 25 be 49 a9 a3 3d
       0.060441706 0.11673199 -0.16201374 0.07991273
000080 ce a8 c1 bd 0d 9e fd 3c 4e 77 90 bd ee ef 5e be
       -0.09456025 0.030959154 -0.070540056 -0.21771213
000090 43 16 3b be 03 8c f6 bd 3a 06 02 3e 96 29 09 3e
       -0.18270211 -0.12038424 0.12697688 0.1339477
0000a0 da ef 63 be 0a 12 d5 bd b2 cc 8d bd ee d4 5a be
       -0.22259465 -0.10403831 -0.06923808 -0.21370289
0000b0 22 a2 03 3e 94 fa 35 3e fa 33 1d 3b bf f1 2e be
       0.12854818 0.17771369 0.002398728 -0.17084406
0000c0 2f bd f7 bb a7 b5 3e bc 92 e7 a1 3e 44 18 21 bd
       -0.0075603942 -0.011639989 0.31621987 -0.039329782
0000d0 54 11 25 be 91 70 eb 3d 99 aa 90 3d 99 bd 9f bd
       -0.16119891 0.1149608 0.07063789 -0.07799835
0000e0 7f be e2 bd 75 f9 01 be 13 31 67 3e 72 bb 86 bd
       -0.110714905 -0.12692817 0.22577314 -0.06578721
0000f0 8e fe 5f 3e 4a f7 25 3e 7c a6 97 3d 0d 3e c3 3d
       0.21874449 0.16207615 0.07404801 0.095333196
000100 42 aa d0 3c 89 3a 20 3e e6 be 37 be 57 97 5c 3e
       0.02547181 0.1564733 -0.17943916 0.21542107
000110 3c aa f4 bd af ff c1 3d 3e 51 09 3d b2 44 26 bd
       -0.11946532 0.09472596 0.033524744 -0.040592857
000120 50 52 05 bc b1 be 30 3e 00 97 1f be 1d bc 01 be
       -0.008137301 0.17260243 -0.15584946 -0.12669416
000130 10 48 8d 3d f4 75 89 bd fe 0f c4 3c 41 2a 80 3e
       0.068985105 -0.06711951 0.023933407 0.25032237
000140 d0 3d 1a bc 1e 33 7e 3e c2 9a 1d bd 7b fd dc bd
       -0.009414151 0.24824187 -0.038477667 -0.10790535
000150 49 8b 87 bd b6 8c 11 be c9 4b 0a be 19 2a 46 be
       -0.066183634 -0.14213833 -0.13505472 -0.19351996
000160 fd 1e 31 be 43 dd 3a 3d 2e b0 f5 3d 88 d1 71 3e
       -0.17296977 0.045621168 0.11996494 0.23615086
000170 fe d4 1f 3e 1a 52 65 3d c3 ae dd 3c 28 68 cd bd
       0.15608594 0.0559865 0.027060872 -0.10029632
000180 72 f3 d5 3d f2 70 51 be 2e 3f 11 3d e0 20 80 3d
       0.10446824 -0.20453241 0.035460643 0.062562704
000190 7f bf c6 3d 69 48 da 3d 86 b4 fa bd d1 25 a1 3d
       0.09704494 0.106583424 -0.12241463 0.07868541
0001a0 71 97 d6 3d b5 72 c0 3d d7 08 6a bc 46 0e 84 3e
       0.10478104 0.09396879 -0.014284334 0.2579214
0001b0 94 5f 29 3d 26 64 30 3c 9f 9f 73 3c 61 81 07 be
       0.041350916 0.010766065 0.0148696 -0.13232948
0001c0 05 dd dd 3d b3 aa 18 3d 46 79 74 bc ad 57 83 3e
       0.10833172 0.037272166 -0.014921492 0.2565283
0001d0 22 4a b3 3d 63 b0 67 be 18 e8 f2 bd 4e 51 5c 3d
       0.08754374 -0.2262588 -0.118606746 0.053788476
0001e0 f7 cb 23 3c e1 ee 93 3d 6f 2f 13 3e 44 1a 2d 3e
       0.0099973595 0.07223297 0.14373563 0.16904551
0001f0 cc 41 39 be 2b 12 82 bd f2 d4 11 bd e3 96 33 be
       -0.18091506 -0.063511215 -0.03560347 -0.17538027
000200 c2 76 f9 3b 7d a9 0d be 19 f0 b2 bd 2a 01 4c be
       0.007613034 -0.13834186 -0.08737201 -0.19922319
000210 24 e9 b3 bd d0 54 43 3e 07 89 aa 3c 06 9a 7a 3e
       -0.087847024 0.19075322 0.020817293 0.24472818
000220 df 5c fe 3d 01 aa 6e bd eb dd 07 3d a5 1f a7 3d
       0.124200575 -0.058267597 0.03317062 0.081603326
000230 a6 b3 5a be 38 c0 70 be c8 82 5c be 1c 29 20 bd
       -0.21357593 -0.23510826 -0.21534264 -0.039101705
000240 9e fb 71 3e ee b8 aa 3e 49 de 22 3e 21 3b 95 3d
       0.2363114 0.33344215 0.15905108 0.072866686
000250 bb 67 21 bd ba 04 3c be 80 6e b7 be 52 94 90 be
       -0.039405566 -0.18361178 -0.35826492 -0.2823816
000260 56 70 ad 3d 64 b7 81 3e 88 7d b6 3e b0 e6 d1 3d
       0.08468692 0.25335228 0.35642648 0.10249078
000270 a5 ef a9 bd 27 00 5b be 87 15 ab bd 4a 71 5c bc
       -0.08297662 -0.21386777 -0.083537154 -0.013454745
000280 6d 67 22 3c 3d f4 f9 3c 83 f3 fa 3c 8f f9 09 3e
       0.009912354 0.03051197 0.030633694 0.13474105
000290 f0 95 0b be 23 fd 35 be 2b 04 94 3e f2 bb c4 bd
       -0.13631415 -0.17772345 0.2890943 -0.0960616
0002a0 66 7c 6c be f0 50 1c 3e a3 98 93 bd 0f 34 bf bd
       -0.23094329 0.1526525 -0.072068475 -0.09336101
0002b0 55 d5 e0 bd bb 96 c5 bd c6 b8 52 be 0c 9e 2c 3c
       -0.1097819 -0.0964789 -0.20578298 0.010535728
0002c0 7a 38 63 bd 8a fc 95 3d 25 9d 11 bd 78 8a 8f bd
       -0.055473782 0.07323559 -0.035550255 -0.07008833
0002d0 7d 19 81 bd 4e 45 63 3e 2e f2 6f bd 15 e4 1a 3e
       -0.0630369 0.22194406 -0.05858057 0.15126069
0002e0 3f 7e 73 3c 63 13 4b be 7e 11 cc 3c 89 b8 31 be
       0.014861642 -0.19831614 0.024910685 -0.17355551
0002f0 33 b7 d3 bd 52 08 28 be 4d 10 3f bd 7b bf 46 3e
       -0.10337677 -0.16409424 -0.046646405 0.19408982
000300 32 52 4e be 6d e1 1f 3e 14 a3 aa be c7 df 40 be
       -0.20148543 0.15613337 -0.33327544 -0.18835364
000310 be c1 29 3c 13 2f b2 3e 87 ce bc bb 76 61 1d 3e
       0.010361133 0.3480154 -0.0057619247 0.1536921
000320 0c 6d 0a 3e 4b cb 72 3e 63 17 5e 3c 83 c8 74 3d
       0.1351816 0.23710363 0.0135553805 0.059761535
000330 6a 15 8b be ec 1a 85 be 98 1b ce 3d ed e0 01 be
       -0.27164775 -0.25997102 0.10063857 -0.12683459
000340 54 90 6d 3b 91 58 fc 3d 0c d6 89 3e 51 cb 35 3d
       0.0036249356 0.1232158 0.26921117 0.04438335
000350 c5 d7 08 be 8b 8c 14 be 1f 6a 3d 3e f7 cd 4b bd
       -0.1336356 -0.14506738 0.18497513 -0.04975697
000360 81 97 80 3e 7e 77 0e 3e a4 cb 00 3e 87 fa 21 be
       0.25115588 0.1391277 0.12577683 -0.15818225
000370 b1 86 4a 3d f9 80 c4 3d c0 55 86 3d 41 92 72 bd
       0.049444858 0.09594912 0.06559324 -0.05922151
000380 77 98 ef bc f5 53 15 3e 90 b9 87 be 81 c4 0e be
       -0.029247506 0.14582808 -0.2650876 -0.13942148
000390 53 ba 5a be 80 8d 12 3d 50 36 4a 3e 2f 1c 88 3c
       -0.2136014 0.035779476 0.19747281 0.016615001
0003a0 2b 35 34 bd ca 10 86 3d c2 74 92 b9 85 05 88 3c
       -0.043996017 0.06546171 -0.0002793428 0.016604194
0003b0 54 e7 71 bd cd 73 ba bd 6d 07 40 3e bf 61 e3 bd
       -0.059058502 -0.091041185 0.18752833 -0.11102628
0003c0 bd 04 5b 3d 1e 7d 41 be f7 cb 1f 3b 5b 6d b4 bd
       0.053471316 -0.18895385 0.0024383047 -0.088099204
0003d0 e3 9a 6d 3d 99 37 d1 bd 88 db 1f 3e 7a 06 4b be
       0.05800904 -0.102156825 0.15611088 -0.1982669
0003e0 90 ce 99 3d d8 62 2a be 67 ea 0a 3e 6f 2c 97 3b
       0.07510102 -0.16639268 0.1356598 0.004613451
0003f0 3b 38 44 3d 9e 88 4e 3d 7f 7e 35 3e 95 ea 98 3d
       0.047905188 0.050423257 0.17724036 0.07466618

mean.0.bias f4 [128]
000000 3e 54 46 3d c3 91 17 3d 0a 99 94 bd 1b 17 fb 3c
       0.048420183 0.037004244 -0.072557524 0.030650666
000010 95 81 80 bd fb d6 ff bc c4 68 09 be ba 8c 1d 3d
       -0.06274716 -0.03123044 -0.13418871 0.038464285
000020 8f b9 2d 3d 58 63 93 bd 19 7e 01 be 4c 0e d4 3b
       0.04241329 -0.07196683 -0.12645759 0.006471431
000030 b2 1c c6 3c 83 45 0b bc 46 df 1c bd 7b 98 2d 3d
       0.024183605 -0.00850046 -0.038298868 0.042381745
000040 34 88 39 bd 41 85 d4 bd e0 9d ea 3d 3f 31 da bb
       -0.04529591 -0.10376979 0.114558935 -0.0066587026
000050 a0 07 7e 3d 0e 35 78 bd 2a 1a 04 be bc b1 a3 bd
       0.06201899 -0.060597472 -0.12900606 -0.079928845
000060 8d 65 2d bb c9 54 1b bd 18 2e 21 bd b3 75 43 bd
       -0.0026458234 -0.037922654 -0.0393506 -0.04771967
000070 26 db c6 bd 4d 9b e4 3c 64 ec 9b bd d1 a3 44 3c
       -0.09709768 0.027906084 -0.07613447 0.0120019475
000080 b0 70 40 bc 3b b8 d0 bd 14 70 9b bd da bc 42 bd
       -0.011745617 -0.10191389 -0.075897366 -0.047543384
000090 38 88 4e bd 4d 88 46 3c f5 12 f1 3c f0 24 76 3d
       -0.050422877 0.012117458 0.029427985 0.06009382
0000a0 35 01 52 bd 96 b2 11 bd 95 be 2a 3d 61 6f bb 3b
       -0.051270682 -0.035570703 0.04168566 0.0057200645
0000b0 76 52 ac bd e7 1c 62 3d fd 57 ea bd b5 2f c8 39
       -0.08414166 0.055203345 -0.11442564 0.00038182517
0000c0 ec 3c 0a bd aa 7c 39 3b a8 cc 11 3d e0 42 8f 3d
       -0.033749506 0.0028303065 0.035595566 0.06995177
0000d0 67 8c 38 3e 28 c0 da 3c 04 7f cb 3d 47 15 aa bd
       0.18022309 0.026702955 0.09936336 -0.083048396
0000e0 62 db a7 3d ac fc 48 be b6 30 c6 3c 88 33 37 3d
       0.08196141 -0.19627637 0.024193149 0.04472688
0000f0 36 3c 2c 3c 86 36 51 3d b6 ee 16 3c 5c 58 0a 3b
       0.010512402 0.05107739 0.009212187 0.0021109795
000100 68 5b 57 3b ea 51 28 bd 5c 7f 69 bd 49 fb d8 3c
       0.003286088 -0.041093744 -0.057006225 0.02648701
000110 2a f3 7a bd 9d 5f c5 bd 4c ec fb 3b b7 ff 4a be
       -0.061267056 -0.096373774 0.007688081 -0.1982411
000120 3c f1 b5 bd 78 c2 7f bd d4 48 9a bd 84 65 6e bc
       -0.088839024 -0.06244132 -0.07533422 -0.01455057
000130 a7 38 a4 3d d6 5b b8 3d 20 00 68 bc 8d 3c 19 3d
       0.08018618 0.09001891 -0.014160186 0.03741126
000140 7a ed fd bd ca 16 bc bd 43 6f 5b bb 18 b2 24 bd
       -0.12398811 -0.09184034 -0.0033483065 -0.040208906
000150 61 5d ef 3d e2 04 0f bd bc 59 8e bd b0 a5 b4 3d
       0.116877325 -0.034916766 -0.06950709 0.08820665
000160 56 61 d9 bd 7d 27 1b 3c b9 88 51 bd 8e c9 9f bd
       -0.106142685 0.009469864 -0.05115578 -0.078021154
000170 9c cd 89 3d 11 68 08 3c da 70 89 bd 18 6c cf bd
       0.0672867 0.008325593 -0.06710978 -0.10128039
000180 b1 f3 fe 3b 70 16 58 3d 65 aa ae 3d d2 48 2e 3d
       0.007780515 0.052755773 0.08528594 0.042549916
000190 af 2d 39 bd b5 da 7f bd de 19 52 bc 07 76 45 3d
       -0.045209583 -0.062464435 -0.01282355 0.048208263
0001a0 1b 12 12 bd cd 13 00 be 43 14 8d 3c d6 c1 4e 3c
       -0.035661798 -0.12507553 0.017221576 0.012619456
0001b0 6d d0 19 bd ac d3 8e bd ce 74 99 bd a8 4e c4 bc
       -0.037552286 -0.06973967 -0.07492982 -0.023963287
0001c0 53 3d be bd 84 fd 3b 3d b3 09 10 bd 1e 27 fa bd
       -0.092890404 0.04589607 -0.0351655 -0.12214492
0001d0 2f 2f 75 bd cf fc 60 3d 6c 6f a1 bd 71 0f 0d 3c
       -0.05985945 0.054928597 -0.0788258 0.008609639
0001e0 ad 0f e2 bd 04 8d 4c bd b0 cb 04 bd 15 cd 43 be
       -0.11038146 -0.04993917 -0.032420814 -0.19121201
0001f0 ca b5 52 3d 36 6c 36 3d 2b cf c5 3b d2 52 0f be
       0.0514429 0.04453679 0.0060366592 -0.13996437

mean.2.weight f4 [128, 128]
000000 d2 ae 07 3e fb 78 df bd 3a 61 b9 3d ed 29 91 3d
       0.13250282 -0.10911747 0.090517476 0.07088075
000010 06 0e a9 3d 44 12 67 bd e1 da d8 bd cf 73 33 bc
       0.08254628 -0.056413904 -0.10588623 -0.010952904
000020 23 2d 29 bd 21 a2 4e 3d fb 4e fa bd 6b 58 df 3d
       -0.04130281 0.050447587 -0.122220956 0.10905536
000030 1a 2f 75 bd 3a 49 c9 3d 71 a9 28 bd 08 96 ec 3a
       -0.059859373 0.0982842 -0.041177217 0.0018050084
000040 e3 74 15 3c 92 eb 07 be e5 02 8e 3d cd c0 f7 3d
       0.009122106 -0.13273457 0.06934146 0.12097321
000050 0c 9c 00 be b3 09 11 3d 66 15 18 be 8a 0d ea bc
       -0.12559527 0.03540964 -0.14851913 -0.028570909
000060 64 3b 8d bd 93 a8 1c be 84 85 70 3d 1a 91 ad 3d
       -0.068960935 -0.15298681 0.05872108 0.084749416
000070 71 63 cc 3c ba eb 91 3d 6e 17 a2 bd 4a a2 bb 3d
       0.024949761 0.071250394 -0.07914625 0.091618136
000080 42 2e 07 be f7 5d 2d bd 41 43 3c bd 12 e3 82 bd
       -0.1320124 -0.04232594 -0.045962576 -0.063909665
000090 2e 2d f8 3d f6 fc d9 3d 9b e5 ac 3d 2f 2e 63 bd
       0.12117992 0.106439516 0.08442231 -0.055463966
0000a0 a3 72 e4 bd 27 50 07 bd 7c 3e 64 bd 8b b8 2e 3c
       -0.11154678 -0.033035424 -0.055723652 0.010664116
0000b0 f7 df 81 3d 23 21 22 3e f4 b3 b1 3d d9 20 fc bd
       0.06341546 0.15832953 0.086769015 -0.12310953
0000c0 6d a2 e3 3d dd fb 18 be fc da e5 3c 5e a5 bf 3c
       0.11114965 -0.14939828 0.028058521 0.023394283
0000d0 68 7c 39 bd 38 34 8d bd 38 2f 86 bd 3e 71 80 3d
       -0.04528466 -0.068947256 -0.06551975 0.06271599
0000e0 a0 51 c2 bd 1d fc 02 3d 5f 48 82 3d 6c 56 fc 3d
       -0.09488225 0.031978715 0.0636146 0.12321171
0000f0 09 3d 60 3b 58 9a 07 3e 4e ac 17 be ad 4c be bd
       0.0034216067 0.13242471 -0.14811823 -0.092919685
000100 ce ab 02 be 7c 06 01 3c 16 90 f0 bd 28 b6 a3 3d
       -0.12760851 0.007875081 -0.11746232 0.07993728
000110 2e eb b8 bd 7c 3d 88 bb af cd f2 3d 32 67 18 be
       -0.09029232 -0.00415772 0.11855637 -0.14883116
000120 af 15 2e 3d 34 16 05 be 22 7e 8b 3d 79 a8 fd bc
       0.042501148 -0.12996751 0.06811167 -0.030964123
000130 b3 cd 03 be 79 8e fa 3c 7d a9 38 3c 97 83 79 3d
       -0.12871437 0.030585514 0.011270878 0.06091651
000140 93 98 92 3d 3f bb 3c bc dd 12 b9 bd b0 74 19 3e
       0.071580075 -0.011519252 -0.09036801 0.14985919
000150 f1 0a 4a bd 6e c0 07 3e 8b 27 c0 3d 68 1f 19 be
       -0.04932684 0.13257 0.09382542 -0.14953387
000160 06 cf 19 bd 65 7c 1d 3c a7 30 fc bd 18 fa 04 3d
       -0.03755095 0.0096121775 -0.12313967 0.03246507
000170 4d 07 93 bd 59 02 b3 bd b4 12 e8 3d db 97 65 3d
       -0.07179127 -0.08740682 0.11331692 0.056053024
000180 b1 12 27 3e a3 1c 28 bd 9e 37 19 bd 0f d8 bb bd
       0.16315724 -0.041042935 -0.037406556 -0.09172069
000190 a0 45 06 3d cc 20 ea 3d c2 ae 72 bc a8 1d aa bd
       0.032781243 0.11432037 -0.014812173 -0.08306438
0001a0 78 09 da 3d b0 61 bc 3b 8a 31 17 bc 58 64 15 3e
       0.10646337 0.00574895 -0.00922812 0.1458906
0001b0 30 80 0a 3e 4c 45 18 3e 43 70 2b be 06 60 c8 3c
       0.13525462 0.14870185 -0.16742043 0.02445985
0001c0 99 fa ba 3d 09 96 e5 3d ae 21 01 be e4 9b d5 3d
       0.09129829 0.112102576 -0.12610504 0.104301244
0001d0 d2 d2 86 bd b9 97 71 bd 7b 78 d3 bd 10 72 b8 bd
       -0.065831795 -0.058982585 -0.10325714 -0.09006131
0001e0 d2 1d 84 bb b7 43 64 ba 9f a4 a4 bd ed bf 9f 3d
       -0.004031875 -0.00087076 -0.080392115 0.07800279
0001f0 a4 04 b5 bd 87 e7 00 3e 5b d6 15 be 53 e0 1d 3d
       -0.08838776 0.1258832 -0.14632551 0.03854401
000200 fa 66 be bd 62 7d a8 bd 61 83 f8 3c 2d cb e5 bc
       -0.09296985 -0.0822704 0.030336084 -0.028050983
000210 f9 3f da bd c4 e2 d3 ba 97 1f e3 bd 5c c5 af bd
       -0.10656733 -0.0016165604 -0.1109001 -0.08582565
000220 34 2a b9 3d 7c fe 37 3c 4e 0c 43 bd ab f4 e9 3d
       0.09041253 0.011230107 -0.047619157 0.1142362
000230 11 ab a2 3c 57 71 d9 3d 4d c7 77 3d 8a fe 4b 3c
       0.019856961 0.10617321 0.060492802 0.012450824
000240 f4 ca 56 bd f4 32 8a bd 91 e9 0a 3e f8 58 06 3d
       -0.052439645 -0.06748 0.13565661 0.03279969
000250 98 36 0a 3e 30 f3 bf 3d d1 4f 09 bc dc 4c 0c be
       0.13497388 0.09372556 -0.008380846 -0.13701195
000260 60 8b 80 3d 4f f1 10 bd 80 45 f3 3c 8f 47 7b bd
       0.06276584 -0.03538638 0.029696226 -0.06134754
000270 b6 c0 f8 3d b3 d7 20 3e 8e e2 b6 bd 05 cc 05 bd
       0.12146132 0.15707283 -0.089299306 -0.03266527
000280 d2 9d e7 bd 9f a1 91 3d ab ca ea bd 66 6d f2 bd
       -0.11309399 0.07110905 -0.11464437 -0.11837272
000290 52 41 e5 bd 34 17 fc bd ab 58 f1 3d f9 bc 87 bd
       -0.111940995 -0.12309113 0.1178449 -0.066278405
0002a0 8c 1b b9 3d 1a 0c 0d bd 0c a8 3d bd ef ef 08 bd
       0.09038457 -0.03443537 -0.04630284 -0.033431944
0002b0 0f 3f 07 be 6a 33 44 3d 15 f4 7f bd 22 ce 3f 3d
       -0.13207649 0.047900595 -0.062488634 0.046827443
0002c0 e5 cd 03 be a7 a7 bc 3c 36 cb 05 3e d3 6f 40 bd
       -0.12871511 0.023029162 0.130658 -0.046981644
0002d0 40 d1 38 3d 9c bc 1e be 58 fa 7f bd dc fa 02 3e
       0.04512143 -0.15501636 -0.062494606 0.12791008
0002e0 c4 e9 73 3d b4 dd 52 3d 81 b9 89 3d b4 04 fd bc
       0.05954911 0.051480964 0.06724835 -0.030886032
0002f0 94 38 82 bd 3e 54 14 3e f0 26 64 bd 27 02 54 bc
       -0.06358448 0.14485261 -0.055701196 -0.012939966
000300 06 2d e7 bd 59 5f f3 3d 00 1d 48 bd 9e da 62 bd
       -0.112878844 0.118834205 -0.04885578 -0.05538427
000310 55 cc c3 bd 60 f2 11 3d 8a a6 fa bd ca 18 07 3e
       -0.095604576 0.035631537 -0.12238796 0.1319305
000320 05 60 ed 3d 15 62 f3 bd 1f 79 12 be 72 85 12 3d
       0.1159058 -0.11883942 -0.14304017 0.035771795
000330 5d 2f b5 bd 55 23 1b be 71 ef c4 3d 25 ed 1d bd
       -0.088469245 -0.15150197 0.09615982 -0.038556237
000340 5b 00 fb 3c c3 f7 8f 3c 56 c4 c0 bd 3a 20 9a bd
       0.030639818 0.017574197 -0.09412448 -0.07525678
000350 b9 d0 55 3d 82 7b 0a be dc 9f bc bc 9c 04 58 bc
       0.052201007 -0.13523677 -0.023025446 -0.013184693
000360 4e 32 ad bd 9b 68 1b 3e 6e 34 0b be 6e 21 0d be
       -0.084568605 0.15176623 -0.13594219 -0.13782284
000370 2c 2c e2 bd a5 49 b4 3d 1f a0 09 be cb 42 b2 3d
       -0.11043581 0.08803109 -0.13439988 0.08704146
000380 ad 00 17 3e 6f fe 12 3e 7e c8 13 3e 61 43 c0 3c
       0.14746352 0.14354871 0.1443195 0.023469629
000390 7b 33 08 be ba f8 08 3d 6c 31 79 3d 63 07 f5 bb
       -0.13300888 0.03344033 0.060838148 -0.007477687
0003a0 1a 9e 08 be 4c e8 e6 3d 4d 7f 01 3d 02 c2 d2 3d
       -0.13341561 0.11274776 0.031615544 0.1029091
0003b0 b6 dc 85 bc 70 1f 0c be bc 1c 09 3e 9c e2 1b be
       -0.016340595 -0.13683867 0.13389868 -0.15223163
0003c0 df 9f dc bd b5 94 0d 3e 94 ce 22 bd 86 d7 a3 3d
       -0.107726805 0.13826258 -0.03974779 0.08000092
0003d0 3f 82 b9 3d 08 97 70 bc 3d 4a 15 bd 6d 92 8e 3d
       0.090580456 -0.014684446 -0.036447752 0.06961522
0003e0 15 b5 bb bc d9 89 81 3d cf 0a 55 bd e1 40 a9 bd
       -0.022913495 0.063251205 -0.05201226 -0.08264328
0003f0 85 49 c4 bd 74 3d 1a be 6f 48 3f bd 7c 19 93 bd
       -0.09584335 -0.15062505 -0.046699937 -0.07182595

mean.2.bias f4 [128]
000000 21 c5 33 bd 57 b1 3e 3c c0 3e 89 3c d6 05 02 3e
       -0.04388917 0.011638961 0.016753554 0.12697539
000010 8c 39 2c bd 78 8c 76 bc 99 17 4b bb b6 b6 b6 3d
       -0.04204707 -0.015048139 -0.0030989407 0.08921568
000020 ac 7a 76 bd db 0d 5c bc 0c 51 87 3b 10 b7 56 bc
       -0.060175583 -0.013431038 0.0041295346 -0.013105169
000030 d7 dd 88 bd 02 9c 98 3d b3 8c 68 bd bf 09 92 3d
       -0.066829376 0.07451631 -0.056774806 0.07130765
000040 8c 1a 0c 3d 3f b0 23 bd dc 1f a3 3c 43 dc 9b 3c
       0.034205005 -0.039963003 0.019912653 0.019025927
000050 da 5f b3 3b 7a 7d 15 bc d6 39 a7 3c 04 a0 7e bd
       0.005474073 -0.009124154 0.02041332 -0.06216432
000060 d0 71 f3 3c ca 98 8b bc 51 87 15 3c 0e 60 52 bd
       0.029717356 -0.017040629 0.0091265 -0.051361136
000070 c9 56 12 3d 5b 96 62 bd 6a 40 20 bd 8c 1f 65 3a
       0.035727296 -0.05531917 -0.03912393 0.00087403576
000080 2f 2c cc bd 52 a5 31 b8 39 64 30 3b 84 a8 1f be
       -0.09969365 -4.2354055e-05 0.0026915206 -0.15591627
000090 df 44 b8 bd 16 e4 0a bd 03 1b 2f bd 66 78 db bd
       -0.08997511 -0.033908926 -0.04275037 -0.107163236
0000a0 2d e9 bd bb 97 db 74 bc a6 19 97 bc 7d 44 88 bc
       -0.005795619 -0.014944932 -0.018444847 -0.01663422
0000b0 8b 0c fe bb f0 95 97 bc d3 a7 11 bc 52 e1 1e 3d
       -0.00775296 -0.018504113 -0.00889011 0.0387891
0000c0 4d 79 20 be 1b ea 5a bd f5 14 bb bb 86 0a 5f bd
       -0.15671273 -0.053445917 -0.0057092854 -0.054453395
0000d0 56 3a b4 bd 1e 45 3a bd b9 20 3b bd 5a fa 23 3d
       -0.08800189 -0.04547607 -0.045685504 0.040033676
0000e0 b3 6b b3 3d 10 42 57 bc 15 65 c0 3c 53 f9 d4 3b
       0.08760776 -0.013138309 0.0234857 0.0064994483
0000f0 40 89 93 bd 6b 2e 41 bc 61 66 31 bd c8 d4 a0 3c
       -0.07203913 -0.011790852 -0.043310527 0.019632712
000100 77 46 41 3c 67 b8 05 bc 8c f4 b5 bc 2e 1a 9a bd
       0.011796585 -0.008161641 -0.022211336 -0.07524525
000110 26 a3 68 bd 7e 62 34 3c bf 54 51 3d 92 af 8e 3a
       -0.056796215 0.0110098105 0.05110621 0.0010886064
000120 9d 17 de b9 bf 9e 9f 3d 77 a6 06 bd d1 eb 00 bc
       -0.00042360733 0.0779395 -0.032873597 -0.007868723
000130 46 f1 4c 3d 12 97 fd 3d 55 56 df 3b ee cb 3f bd
       0.050034784 0.1238233 0.0068157115 -0.046825342
000140 2f c7 aa bd 20 32 87 bd b8 d9 2f 3c 6a 6e 17 bd
       -0.083387725 -0.066013575 0.010733061 -0.036970533
000150 d7 c2 1d 3d 98 11 e1 3d 16 61 99 3c 36 22 cd 3c
       0.038515892 0.10989684 0.018723052 0.025040727
000160 60 07 43 3d 89 f3 e4 3b f5 66 2a bc bc 1b 33 3d
       0.047614455 0.0069870395 -0.010400523 0.04372762
000170 b5 19 52 bc 18 65 ef bb d7 aa b2 bc cf cd ba bc
       -0.012823512 -0.0073057525 -0.021809978 -0.022803215
000180 78 3f 89 bd fd c4 68 bd 72 5c 27 bd b8 fe f8 bc
       -0.06701559 -0.056828488 -0.040859647 -0.030394897
000190 55 a0 1a bd 73 78 ca bc d2 0a 6a bd 7e dd f3 3b
       -0.03775056 -0.024715638 -0.057139225 0.0074421754
0001a0 d5 e4 9e ba 6e d0 99 bc 40 1c 9c bc 57 3d 80 bb
       -0.0012122641 -0.018776145 -0.01905644 -0.0039135623
0001b0 19 f1 64 bd bf 7b a6 bd fa 1c 62 bd 59 84 2a 3d
       -0.05589399 -0.081290714 -0.055203415 0.041630123
0001c0 33 7a 02 bc 18 db a7 bd 4e 0a 1f 3d f4 2d e5 3b
       -0.007963705 -0.08196086 0.038828187 0.0069940034
0001d0 44 11 19 bd 01 54 24 be 10 d8 a9 3d 11 66 bb 3c
       -0.03736998 -0.1604767 0.08293164 0.022875817
0001e0 0e c0 90 3b 69 6a c4 bd 08 01 1c 3c 39 32 ae 3c
       0.004417426 -0.095906086 0.00952173 0.021264182
0001f0 32 3a 5c ba 63 87 64 bc 06 1e b2 3a 2d d2 6d 3d
       -0.0008401006 -0.013948294 0.001358927 0.058061767

mean.4.weight f4 [128, 128]
000000 c4 e9 1e 3d c4 fc aa 3c db c9 81 3b d3 39 aa 3c
       0.038797155 0.020872481 0.0039608306 0.020779526
000010 4b 71 10 be 8a 50 bc bd 0c ca cd 3b 11 c4 7b bd
       -0.14105718 -0.09195049 0.0062801894 -0.06146628
000020 f9 ff d9 3c df 8a 39 bd 18 11 df 3c e1 e8 da 3d
       0.026611315 -0.045298453 0.02722983 0.106889494
000030 0a 1e 5c 3d 6f f1 ba 3d 35 08 be bd 6b 6e e2 3b
       0.053739585 0.09128081 -0.09278909 0.0069101355
000040 de 6f 09 be 2d 1e 7c 3d d9 8f 0d be ca e2 a6 3d
       -0.1342158 0.061552215 -0.13824405 0.08148725
000050 40 07 0c 3d 12 82 59 3b 71 6d e9 3c fd 2a 3a 3d
       0.0341866 0.00331891 0.028494569 0.045451153
000060 d3 74 f7 3d 54 0e bb bd 43 44 c4 bd 7d 26 4a bd
       0.12082829 -0.09133592 -0.095833324 -0.04935311
000070 e0 5d 19 be ae 8a ff bc e2 42 cd bd df 70 a5 3b
       -0.14977217 -0.031194057 -0.100225225 0.0050488557
000080 a2 49 34 3c a0 54 f5 3d 66 8f 9c bd 45 50 14 be
       0.011003884 0.119790316 -0.076445386 -0.14483745
000090 65 4e 11 3d 9e 63 fe 3c 47 60 04 be 9f 82 ed 3c
       0.035475153 0.03105336 -0.12927352 0.028992949
0000a0 e1 2d 10 3e f1 41 04 be 1d 8f ed bd 95 43 ab 3a
       0.14080001 -0.1291578 -0.11599562 0.0013066406
0000b0 fc 8c ab 3d 01 0d 03 3e fb c0 af bd e3 9f 17 be
       0.083765 0.1279793 -0.0858173 -0.14807086
0000c0 99 6c 6e 3d cd 70 48 bd 50 0f 32 bc 83 db 0a be
       0.058209036 -0.0489357 -0.010867909 -0.135603
0000d0 2e 21 b8 bd 11 a1 58 bd d1 fa d1 bd 9a 71 b5 3b
       -0.089907035 -0.05288798 -0.102529176 0.005537224
0000e0 23 72 5a bd 6f b6 bb 3d 9b d1 ad 3d eb e1 6e 3d
       -0.053331506 0.09165656 0.08487245 0.05832092
0000f0 2b e7 eb 3d c8 ac 05 be c8 53 94 bd dd 81 13 bd
       0.11518701 -0.13054192 -0.072425425 -0.03601252
000100 56 23 14 3e a9 f8 02 3e 86 19 6e bc 77 fd 81 bc
       0.14466605 0.12790169 -0.014532452 -0.015867932
000110 68 30 de bd 57 22 07 3e 7a 69 31 bd be 2d 04 bd
       -0.108490765 0.13196693 -0.04331348 -0.032270186
000120 dd 04 12 3e 0f 1d 00 bb a2 84 6c bd a6 8a 6f bc
       0.14259668 -0.001954857 -0.057743676 -0.014620459
000130 8d f6 13 3e 2e 3e 00 3e 41 f5 11 be 65 49 a0 3d
       0.1444952 0.1252372 -0.14253713 0.07826499
000140 3e 7d 5b bd 0d 7e 93 3d 44 39 dd 3d f5 30 ef 3d
       -0.053586237 0.07201777 0.10801938 0.1167926
000150 75 0e c1 bd 77 ba ac bd 64 7a 66 3d 8e 38 16 3e
       -0.094265856 -0.08434003 0.056269065 0.14670011
000160 e5 fb 40 3a 4e 49 27 bd 86 e9 f0 3d da a4 6e bd
       0.0007361754 -0.040841393 0.11763291 -0.058262683
000170 f8 d0 db bd ef 96 81 3d a8 cd 80 bd 84 6d f5 3d
       -0.10733217 0.063276164 -0.06289226 0.11983779
000180 cd ae 9d 3a 39 72 a6 bd 18 e5 fd bc e5 0d b4 3d
       0.0012030244 -0.08127255 -0.03099303 0.08791713
000190 69 12 0b be 4c 85 22 bc 17 99 cf 3d f6 42 cf 3d
       -0.13581242 -0.009919476 0.101366214 0.10120194
0001a0 a1 52 14 3d 81 38 1d bd ed ba 6d bd 7e bc d0 3d
       0.036211614 -0.038383964 -0.058039594 0.10192202
0001b0 e3 00 08 bc 5c 63 0f 3d 85 3a 64 3d 4a ea e1 3c
       -0.008300993 0.035006866 0.05571987 0.027577538
0001c0 be 52 57 bd fa 8e 1f 3c af 4b f7 bd ef 99 ec 3d
       -0.052569143 0.009738678 -0.120749824 0.11552798
0001d0 ad b5 21 bd 90 4e a7 3d d6 5e cd 3d 66 bd ac 3d
       -0.0394799 0.081692815 0.10027854 0.084345624
0001e0 b4 6a ee 3d cd 2b fd 3d 69 12 c1 bd 5c 40 fc bd
       0.11641446 0.1236187 -0.094273396 -0.12316963
0001f0 3f fa 07 3d b7 a6 13 3e e8 be b3 bd 7e b0 0d 3e
       0.033197638 0.14419065 -0.08776647 0.13836858
000200 07 40 9e ba df 50 07 3e e3 44 b5 3c 5d 89 fa 3d
       -0.0012073525 0.13214444 0.022127574 0.12233231
000210 ee 94 ee bd 93 6b a9 3d ac 86 8f 3d 70 3a eb bd
       -0.116495 0.08272471 0.070081085 -0.114857554
000220 03 7e 0b 3e ca 06 95 ba d9 3d cc 3d b1 42 a8 bc
       0.13622288 -0.0011369821 0.09972734 -0.020539613
000230 fa 58 03 be 09 82 cf 3d b3 45 9b bc 71 b0 a4 bd
       -0.1282691 0.10132224 -0.018954134 -0.08041466
000240 e4 06 e1 3d 72 98 77 3d 7a e6 ae 3d e2 57 b0 3d
       0.109876424 0.060448118 0.08540054 0.08610512
000250 51 93 5d 3d be d3 0d 3e 1c fe b3 3c 7c 15 83 bc
       0.05409557 0.13850304 0.021971755 -0.016001455
000260 17 75 95 bd 8e 97 f0 3d 5d 42 0d 3e 4d 10 c0 bd
       -0.07297724 0.11747657 0.13794847 -0.09378109
000270 80 1b 1f bc b3 37 e6 bd 9b c3 aa 3d 5a c4 be bc
       -0.009711146 -0.112410925 0.0833809 -0.023286987
000280 3a 53 2a bd 02 f3 e9 bd ea 9e 80 3d 92 a4 c3 bd
       -0.041583277 -0.11423303 0.062803105 -0.09552874
000290 ac 04 14 3e 46 25 b9 3c 01 3e fc bd 47 d8 91 bd
       0.14454907 0.022600781 -0.12316514 -0.0712133
0002a0 28 0a 0e 3e a2 a7 80 3d 8c 78 19 3e 86 ca 56 bb
       0.13871062 0.062819734 0.14987391 -0.0032774522
0002b0 26 d3 a2 ba 99 0a 10 3e 66 ae 86 bd 95 57 0a 3e
       -0.0012422546 0.14066543 -0.065762326 0.13509972
0002c0 4a 1b c2 bc 53 34 e7 bd 10 ef 59 3b 92 b1 bf 3d
       -0.023694653 -0.11289277 0.0033254065 0.09360041
0002d0 af 34 9d 3d 14 78 de 3c 9b 56 22 3c d2 ba 65 3c
       0.07676064 0.027156867 0.009908344 0.014021592
0002e0 9a 9a 0b 3d 70 f3 e5 bd 20 69 0b be 33 fc 00 be
       0.034082986 -0.11228073 -0.13614321 -0.12596206
0002f0 d2 5b 51 bd 0b f9 c8 3c b6 4a e8 bc 09 73 02 be
       -0.051112957 0.024532815 -0.028355937 -0.12739195
000300 e0 d0 15 be a6 26 5c 3d 05 2c 2c bd 71 8d 89 3d
       -0.1463046 0.053747796 -0.042034168 0.06716431
000310 ff 94 e9 3d f1 24 d7 bd 05 ae 1f 3d f4 bf ee bd
       0.11405372 -0.10505093 0.038984317 -0.11657706
000320 81 fd 16 3c 6b a1 71 3d 01 31 ab 3d cf 40 d1 bd
       0.0092157135 0.05899183 0.08358956 -0.102174394
000330 ba c7 93 bd 21 d6 17 be de bd a3 bd 73 a8 10 bc
       -0.07215829 -0.14827777 -0.07995199 -0.008829224
000340 29 cc 5a bd 96 1b d6 bd 77 c4 71 3d 4a db 35 bc
       -0.05341736 -0.1045448 0.059025254 -0.011099646
000350 64 00 85 bd 7f e5 a2 3d c9 34 7b bd bf 1a df bd
       -0.06494215 0.07953929 -0.061329637 -0.10893773
000360 dd 0d e1 bd ee 10 05 3e cb e4 0a 3d 7b 9c 15 be
       -0.10988972 0.1299474 0.0339096 -0.14610474
000370 a2 60 5d bd 38 d8 fb bd 84 4b b9 3d 41 c8 18 3e
       -0.054047234 -0.122971 0.090476066 0.14920141
000380 fc 68 50 bd fd a6 a7 bd e5 b7 17 3c d2 9d 0f 3e
       -0.05088137 -0.08186147 0.0092601525 0.14025047
000390 d7 4e 7b 3d 30 f3 e5 3a 20 70 6f 3d ea 53 fc 3c
       0.061354484 0.0017543789 0.05845654 0.030801732
0003a0 a5 3b a3 bd f2 9b c4 bc 06 71 eb 3d 03 12 89 3d
       -0.07970361 -0.024000142 0.11496167 0.066928886
0003b0 29 47 12 3e e4 0a 9d bd f4 a6 7b bb 18 de 14 be
       0.14284958 -0.07668093 -0.0038399072 -0.14537847
0003c0 4a f1 81 3d 05 18 b4 3c b6 57 66 3d ac 67 be bd
       0.0634485 0.02198411 0.05623599 -0.092971176
0003d0 28 e9 09 be 5f 3a 8a bd b5 1a e4 3c 82 b5 16 be
       -0.13467848 -0.06749415 0.027844766 -0.14717677
0003e0 54 b3 61 3b 5e 76 ae bc 83 06 9c 3c 9e 4c ad 3a
       0.0034439163 -0.021296676 0.019046074 0.0013221686
0003f0 9c 6d 03 be 39 4c 56 3d ce d9 cf bd b8 db 24 bd
       -0.12834781 0.052318785 -0.10148965 -0.040248603

mean.4.bias f4 [128]
000000 98 9a 48 bc c2 0f c1 bc 2a ec a1 bc 08 e1 69 3d
       -0.012243889 -0.023567084 -0.019765932 0.057099372
000010 1b d9 3d bc 6f 71 7c bb 45 24 b8 bb d4 f4 9d 3d
       -0.0115874065 -0.003851976 -0.005619558 0.07712713
000020 20 2a e9 bc 92 0e ad 3d 8b f6 83 bc c1 e6 24 3e
       -0.02846247 0.08450045 -0.016108772 0.1610365
000030 8b e0 3e 3c 55 7e 1e ba 5c 6d 8b bc 49 3d 81 3d
       0.011650215 -0.00060460466 -0.01701992 0.06310517
000040 4c 5e bd 3c 26 92 88 bc 5d 39 40 bd 48 64 23 3d
       0.023116253 -0.016671252 -0.046929706 0.039890558
000050 fe 0b 26 3d de 52 55 3b 00 59 58 bb 04 07 b4 3c
       0.04053878 0.0032550613 -0.0033012033 0.021976002
000060 b8 76 9a 3d 5a 5e 3a bd c6 0e 26 3d ed a0 47 35
       0.07542175 -0.045500137 0.040541433 7.4367455e-07
000070 b0 c8 73 3d 8f eb 2c 3e 0c 31 f7 3c ec 11 c1 39
       0.059517562 0.16886733 0.030174755 0.0003682518
000080 7d 7d 4b bc 05 74 31 bd de 88 96 bc d0 b2 ea 3c
       -0.012420055 -0.043323535 -0.01837581 0.028649718
000090 b3 77 01 3d 00 43 4d bd 73 d3 1a bd 3f 36 67 3c
       0.031608295 -0.050112724 -0.03779931 0.014112054
0000a0 b3 76 5e 3d 42 8c b2 bc 93 08 b8 3c 35 b2 5b bc
       0.05431242 -0.021795396 0.022465026 -0.013409187
0000b0 52 8c f2 3d 33 a8 aa bc 8f 2a 27 bb 50 49 66 3d
       0.1184317 -0.020832157 -0.0025507545 0.05622226
0000c0 37 0e 92 bc b9 c3 df 3b 89 0b 66 bb 35 69 a4 3d
       -0.017829044 0.006828752 -0.003510209 0.08027879
0000d0 be f9 9c bb c5 2e 4b 3b c3 84 08 bd 81 de 41 3d
       -0.004790514 0.0031003219 -0.033329736 0.047331337
0000e0 5d 07 31 3d ee 3a f7 bb c1 df 91 3d 92 d1 f7 bb
       0.043219913 -0.0075448668 0.07122756 -0.0075628245
0000f0 79 ff 15 bd 96 91 cd 3d f3 00 f8 bc 6d 5e bb bd
       -0.03662059 0.10037534 -0.03027389 -0.0914887
000100 8c 74 b8 3c 18 cb 83 3d 21 d0 f4 bc d1 ef 7b 3c
       0.022516511 0.064352214 -0.0298844 0.015377001
000110 e6 f0 ad 3b 57 45 e6 3d 13 95 ad 3d 8f 9a b0 bb
       0.0053082583 0.11243694 0.08475699 -0.0053895186
000120 6e 07 89 3c ae 77 73 3c ee 2b 62 3d d1 de 20 3d
       0.016727176 0.014860077 0.055217676 0.039274994
000130 b3 f8 c0 3c fb 28 ad 3c 4c fe b1 bc e9 88 a6 bd
       0.023556089 0.021137705 -0.021727704 -0.08131582
000140 f4 cc 86 3a 45 83 ef 3d 0d 26 47 bc e2 f9 58 ba
       0.001028447 0.116949596 -0.012155068 -0.00082769815
000150 44 a9 d4 bc c3 ed 4c 3b b0 74 fa ba 25 da aa 3c
       -0.025959618 0.0031269647 -0.0019108262 0.020855973
000160 87 df d0 3b 4a ad 48 3d e0 56 4f 3b 8d b4 ef bd
       0.006374303 0.048993386 0.0031637475 -0.11704359
000170 c3 06 15 bd 44 b4 97 3c 5b 84 1f 3d 3f 88 a1 3c
       -0.0363834 0.018518575 0.038944583 0.019718288
000180 06 e8 86 bb e6 19 65 3c 8d 49 38 be da 68 1a 3d
       -0.004117015 0.013983225 -0.17996807 0.03769765
000190 33 d9 97 bc 02 8b e8 bc cd 63 1b bc 16 a6 0c bd
       -0.018536186 -0.028386597 -0.009484244 -0.03433808
0001a0 62 83 da 3c 15 78 23 3e b1 5b 2a 3c bb 8f 2f 3b
       0.026673976 0.15963776 0.0103978375 0.002678855
0001b0 df 92 95 3c 3d 63 d6 bc 3c 82 4d b7 26 2a f8 3b
       0.01825851 -0.026170367 -1.2249275e-05 0.007573384
0001c0 1f 5b bf 39 9a e4 48 3d 8a 44 ae bb f1 65 f2 3c
       0.0003649825 0.049046136 -0.005318229 0.029589625
0001d0 48 0f 6c bd 30 cd 9a bc 62 92 da 3d ef f7 1c bc
       -0.05763176 -0.01889667 0.106724516 -0.009580596
0001e0 e1 a6 b7 3d 0c cc ef bc 0f 73 6c bd be 85 0f 3c
       0.089673765 -0.029272102 -0.057726916 0.008759914
0001f0 54 0d c4 bb 92 ee 00 3a eb 3a a7 bd b2 a7 27 3c
       -0.005983034 0.0004918362 -0.081655346 0.010232853

mean.6.weight f4 [2, 128]
000000 b4 1e 37 3d 02 ba 52 bd ec ed 05 be 79 cb 8a bd
       0.044707015 -0.051446922 -0.13079041 -0.067770906
000010 3e f8 68 be e9 61 23 3e b7 ac 0e be 5c ba 47 be
       -0.22750947 0.15955319 -0.13933073 -0.19504684
000020 0c 6e 27 3d d7 44 5a be 9c 8f 50 3d 72 1d 89 3e
       0.040876433 -0.21315323 0.050918207 0.26780277
000030 16 21 b8 3d c2 ec 22 3e c4 fa cf bd 33 b0 1d be
       0.08990686 0.15910628 -0.101552516 -0.15399246
000040 f8 5c 82 be 63 df 1a 3d 50 b8 1c 3e 25 d1 a5 be
       -0.25461555 0.037810694 0.15304685 -0.32386127
000050 69 5a 80 bd 9b a7 07 3e c5 4a b5 bd b1 37 c6 3b
       -0.06267244 0.1324753 -0.08852152 0.0060491194
000060 ed 3e 76 3e bb 2e fb 3d c0 20 9c bd 7c c6 23 bb
       0.24047442 0.122647725 -0.07623434 -0.0024990132
000070 aa d4 3f 3e c7 38 ba 3e 88 a4 2c 3e 8b 10 f2 bd
       0.18733469 0.36371443 0.16859639 -0.118195616
000080 97 11 04 3e 84 17 7a bd 66 c1 2f 3e a2 50 08 be
       0.12897335 -0.061057582 0.1716362 -0.13312009
000090 62 21 5b 3e ab 6f 3b 3e bf a5 a6 3b 99 49 a7 bd
       0.21399453 0.18304317 0.0050856764 -0.081683345
0000a0 64 12 e6 be e4 43 51 bd 6d b0 52 be 1a a4 85 bc
       -0.44935906 -0.051090136 -0.20575114 -0.016313601
0000b0 60 bc 7b be 58 cb 81 3d 9c c2 10 3e 38 04 c9 3c
       -0.24583578 0.06337613 0.14136738 0.024538144
0000c0 07 89 76 bc eb ea 4e 3e 06 ed 86 3d e9 90 9d be
       -0.015047318 0.20206802 0.065881774 -0.3077462
0000d0 1e 24 5c 3d 02 51 7e bb 2c 20 08 ba 6d 61 3e be
       0.05374538 -0.0038805609 -0.0005192782 -0.18591852
0000e0 9f ea 2f 3e 5b 64 98 be de 9c ab be b7 21 95 3d
       0.17179345 -0.29764065 -0.33518118 0.07281821
0000f0 54 34 c8 be 44 2b 28 3e b6 22 a0 bd 4c 5c b7 3c
       -0.39102423 0.16422755 -0.078191206 0.022382878
000100 a1 ab a2 be 3b 90 0c 3e 65 a2 90 bd 07 eb 39 bd
       -0.31771567 0.13726895 -0.07062224 -0.045390155
000110 72 93 97 3d 21 d1 af bc 39 ef 62 3e 36 e5 c4 3d
       0.0740117 -0.021462025 0.22161569 0.09614031
000120 80 86 09 be 76 53 ae bd 1b 38 1b 3e 65 e4 7f 3e
       -0.13430214 -0.08512013 0.15158121 0.2498947
000130 67 2d 4c bd 0e ef 80 3d d5 6c 03 be 7f 32 d1 3d
       -0.049847987 0.06295596 -0.12834485 0.102147095
000140 38 b2 6f bd 97 97 80 be 55 1c cc bc 18 7b ad 3d
       -0.058519572 -0.25115654 -0.024915854 0.08470744
000150 c9 af 5a be d5 bb b2 bd 34 05 a2 bd 8b 73 b5 3d
       -0.21356119 -0.08727232 -0.07911149 0.08859929
000160 a6 b0 83 be c2 c0 86 be c3 a6 18 be 96 bd 2e be
       -0.2572071 -0.26318938 -0.14907365 -0.17064509
000170 1c 2b 8a 3e 6d d7 b8 3d 93 c8 ad bd 0c a8 e6 3d
       0.26986015 0.09025464 -0.08485522 0.11262521
000180 4d bd 39 3d 26 87 f9 bd 3d 3f d3 3d 38 27 e6 be
       0.045346547 -0.12183981 0.10314796 -0.44951797
000190 46 b8 8e bc ba 15 98 be a9 61 2c be 7a a1 87 be
       -0.017421853 -0.29704076 -0.1683413 -0.26490384
0001a0 2d 41 bd bd fa 8a 89 3e 06 f9 78 3e 26 50 ca 3d
       -0.09240947 0.26863843 0.24313745 0.09878568
0001b0 71 e8 0a 3e d4 13 8b be a8 86 33 3e 61 20 19 3e
       0.13565232 -0.27163565 0.17531836 0.14953758
0001c0 5b 5c e3 bc 16 3e a5 bd 97 05 5d bd 25 69 8e 3c
       -0.027754 -0.080684826 -0.05396041 0.017384121
0001d0 0c 6b 0f 3d fd c8 b5 3d 4a 1b 4e 3e b8 25 46 be
       0.035014197 0.08876226 0.20127597 -0.19350326
0001e0 85 6f 0e 3e 7f 96 b0 bd 95 f6 ca bd 0b f4 82 be
       0.13909729 -0.08622455 -0.09910313 -0.25576815
0001f0 16 79 5a be 46 a9 11 3e 50 b7 dc 3c c2 1c 42 bd
       -0.21335253 0.14224729 0.026942879 -0.047390707
000200 18 c8 23 3d 2e 47 70 bd 5b d7 c6 bd 13 c4 42 3e
       0.039985746 -0.058661632 -0.097090445 0.19020109
000210 56 c4 95 3e 32 d5 a7 3d 59 72 f1 bb ee bb 72 3e
       0.29251355 0.08194961 -0.0073683676 0.23704502
000220 04 b3 4b bd 99 d6 90 3e 7a e8 8e 3d f2 90 3e be
       -0.04973127 0.28288725 0.06977935 -0.1860998
000230 41 0b 90 bd 38 63 29 be ab 2e 10 3e f1 4f 13 3e
       -0.070333965 -0.16541755 0.14080302 0.14385964
000240 e5 d2 5a 3e d9 34 e8 3c 54 cb 64 3b 8b 28 b8 3e
       0.21369512 0.028345512 0.0034911232 0.35968432
000250 ee 64 ef bd 9c 80 42 3e ef ec bf bd c4 f6 94 3e
       -0.11689173 0.18994373 -0.09371363 0.29094517
000260 ef 86 21 be 1a 00 40 bd ba 41 49 be 79 20 9d 3c
       -0.1577413 -0.046875097 -0.19653979 0.019180523
000270 ae a4 23 bd 72 49 a2 be 42 bb 36 be dd ef 0d 3c
       -0.039951973 -0.3169666 -0.1784487 0.008663145
000280 e5 e2 7f bd 86 d3 8f 3d 4b 40 df 3d bd b2 57 bd
       -0.062472243 0.07022767 0.10900935 -0.052660692
000290 69 cf 11 be 0a 8b 8c bd 0c 72 f4 3d e8 03 f5 3c
       -0.14239277 -0.06862457 0.11935815 0.02990909
0002a0 b3 02 71 3e 79 88 80 3c d0 d3 89 3e 8e a4 ab 3d
       0.23536186 0.015690075 0.26919413 0.08380996
0002b0 25 09 8a 3e c4 03 44 be 2a bb f0 3c d3 6a b5 bd
       0.26960102 -0.19142061 0.029386122 -0.08858266
0002c0 48 2e 42 3e ee 24 16 3d a2 a6 5a 3e 97 2c ad 3e
       0.18962967 0.036656313 0.21352628 0.33823082
0002d0 33 35 b9 3d 02 fe 52 bd 77 a1 10 3e 7a 1d ec 3d
       0.0904335 -0.051511772 0.14124094 0.1152906
0002e0 f8 8d 18 be ba ae 79 3e 6b 06 8f 3e 40 cb 59 3e
       -0.14897907 0.24383059 0.27934584 0.2126894
0002f0 11 d0 c0 3e 92 ec 29 be 12 48 4d 3e 73 15 44 be
       0.37658742 -0.1659415 0.20047024 -0.19148807
000300 7d b0 d9 3e 5c 28 54 be 34 b2 ce 3c b2 d0 24 3d
       0.42517462 -0.20718521 0.025231458 0.04023809
000310 9b f4 04 3e 69 71 50 3e c5 0c 0d be 8d 6c 3e 3e
       0.12983935 0.20355763 -0.13774402 0.18596096
000320 ed 20 a6 3e 66 72 6a bc 4c dd 50 be 8f 28 5d bd
       0.32446995 -0.014309501 -0.20396918 -0.053993758
000330 87 61 35 3a c5 89 5b 3e 40 2d 43 3e b6 6c 41 be
       0.0006919135 0.21439274 0.1906023 -0.18889126
000340 fb 93 02 be 8f 8d 31 3e eb a0 9e 3c 32 36 df 3d
       -0.12751763 0.17339157 0.019363841 0.10899009
000350 f9 8a b2 3e c2 34 8e bd 78 83 e9 3d 6b 4c 7e 3d
       0.34871653 -0.069436565 0.11402029 0.062084597
000360 1c a4 79 3e 7d 9c 7e bc 43 ba 11 3e 45 09 38 3e
       0.24379009 -0.015540239 0.1423121 0.17972286
000370 02 eb 81 bd 37 e4 06 be 2c 92 f1 3c 74 c7 77 3d
       -0.06343652 -0.13172995 0.029488645 0.060492948
000380 7b 31 2b 3e a6 94 d0 3d 3e d0 54 be e4 03 b7 3e
       0.16718094 0.101846024 -0.20782563 0.35745156
000390 b0 4a 8d 3d b3 eb bf 3d 41 4f 69 3e 87 e7 90 bb
       0.06899011 0.09371128 0.22784139 -0.0044221315
0003a0 4c d9 a4 3e b5 b3 86 be bb ef c7 bd d1 15 8d 3c
       0.32197034 -0.2630898 -0.09762522 0.017222317
0003b0 47 86 50 be af ad 84 3e e8 fd d4 3d d8 29 04 3e
       -0.20363723 0.2591376 0.10399991 0.12906587
0003c0 8e 7c a9 bd c3 f8 48 3e 90 9d c5 3d 18 bc 44 3e
       -0.0827571 0.19626145 0.09649193 0.19212377
0003d0 74 60 47 be b1 b4 c7 3d 20 94 9e be ab 08 31 be
       -0.19470388 0.09751261 -0.30972385 -0.17288463
0003e0 c2 7e 21 be d6 fc 06 3e 2a 31 47 3e 8b 59 de bd
       -0.1577101 0.13182387 0.19452348 -0.10856923
0003f0 0e f1 16 3e 90 22 1b 3e 35 f0 3a be 92 fd ab 3d
       0.14740393 0.15149903 -0.18255694 0.08397974

mean.6.bias f4 [2]
000000 73 65 80 bc ea 64 80 3c
       -0.015673375 0.01567312
