save/exp2/it2_model.pt (torch, 45415 bytes, 7 tensors)

sigma f4 [2]
00000000: f973 a03e 409a 30bf
0.3133848 -0.68985367

mean.0.weight f4 [100, 3]
00000000: 864d 8abd 6cea 263e 8080 9d3c c1aa 723e
00000010: aa15 8bbe 1b48 5cbe f661 68be e647 ecbd
00000020: db42 fbbd b64e 913d 1293 77bd 1c65 9cbd
00000030: b07e 643e 82ec bd3d 8956 2e3e 457d f6bd
00000040: 29de c1bd afe3 b13d 8875 38be 5dfa 12be
00000050: d730 29bd 6ff8 cabd 5ef7 2dbe 7b6d 103e
00000060: 1a33 263e 4558 863d 5578 71bd e894 65be
00000070: aa6c b1bd 0b9e 7a3d 9c2c f73d b107 03bd
00000080: 45d1 2bbe 4907 e73d 2495 23be a485 1c3e
00000090: b4c3 bfbd c017 723b 845c 43bd 7004 c73c
000000a0: 00d2 96bd 15c6 153e c09a cdbb 6cec 403e
000000b0: bea0 6d3e 70e0 c5bd 3287 4cbe 45d0 1b3e
000000c0: e148 023e 302f f2bd b39b 87bd 0dee 6cbe
000000d0: cbe9 56be e0f0 473d 0faf 9b3d af58 4c3d
000000e0: 7f10 35be 3dcf 793e 7a3c 253b 9337 b5bd
000000f0: 30df 5fbc d067 6d3d 4819 ad3d e9c0 2ebe
00000100: c841 b93d d486 fcbd 6484 61be 8f98 e3bd
00000110: 8e95 673e ba27 0f3e 52d9 893e 9793 103e
00000120: 389e 333e a67e 9dbc 04c6 f9bd f1c0 083e
00000130: 9835 0dbe 07aa 57be 72d8 9dbd 1077 4f3d
00000140: 3c76 fe3d 5ccc fdbd 36b4 e7bd 8a76 ca3c
00000150: 8061 20be f08b 12be 55ae f73d 7411 26bd
00000160: 0ed7 613e d46b 703e 7463 8d3d 1d7f b13d
00000170: 9fd6 5f3d 06a5 6dbb 7c3f 24bc 2093 61bb
00000180: 1495 b83d 7aca 653e ec19 80bd 58f2 d0bd
00000190: f466 6fbd 6ace eebd 5019 283d b07b 383e
000001a0: 9c43 413e f15b 0a3e 2b04 4cbe 75b7 5fbe
000001b0: ffea 63bd ab50 22bd 1ebd 9c3c efdf 62be
000001c0: d4d8 993d d18a 3cbe c648 2dbe df0d 30be
000001d0: 44c1 703e c208 6abe b070 3a3e 00ef 04bc
000001e0: b0f1 e5bc f295 1a3e 10bf b6bc f6ff 1a3e
000001f0: 10b1 323e 8993 56be 31c8 f43d 95d2 573c
00000200: 9851 753d 7053 103d 8834 873d 12ca edbd
00000210: 90f6 fcbc f6d1 6a3e d40b 263e 1a18 81bc
00000220: c664 58be 25c7 70bb 1b4d 28be 86fa 483e
00000230: 560a 16be 3e42 ecbc 735c 0abd 5c24 723d
00000240: 5b32 673e f86c f53a c3a8 433e 0041 373e
00000250: 352e 573e a199 b4bd e81a 5dbd 4838 ee3d
00000260: 9ae0 86bd ac35 083e 7eb3 9dbd bf09 7dbe
00000270: 6485 c03d d141 313d 9e06 df3d 2451 783e
00000280: 5bb3 233e eb72 8e3e 70b3 383d d2d8 6ebe
00000290: 6874 80be 3007 f4bd d84d 7dbe 735b 45be
000002a0: 5eb4 90be 3453 43be c058 58be 61f2 77be
000002b0: 29ac 11be c081 b73d 50e7 0a3e c059 debc
000002c0: 9820 f2bd 92a3 1b3e e38b 11be a9e1 2fbe
000002d0: 9ab9 3a3d 67b3 e7bd 0b87 1abd 3e38 1d3e
000002e0: d544 c43d 2e46 723d d0ef 0fbe 003a 5abb
000002f0: c06d 593c 2244 ac3d f4f6 6f3d 9512 a03e
00000300: dba5 3cbe 0011 ed3b d8f7 f6bd 8282 43be
00000310: 0854 9ebc 788c 59be deda 783e 25d8 08bd
00000320: 532a 18be c48d 083e 8b41 6fbe 4d2d 0abe
00000330: e047 1cbd c689 55be ca39 50be 485b 21bd
00000340: f086 3b3e d0a8 6e3e 493b 213e 5bcf 1ebe
00000350: d2f1 95be e57e 5d3e 54d0 c03d 0efd 8e3d
00000360: b622 013e cb38 8cbe 7b80 20be cac4 803e
00000370: f040 9ebd 55a6 c8bd 66bc c8be 923f 143e
00000380: 4ac4 9dbd 3cf0 25be 037d 82bc bd08 bf3d
00000390: 26c1 71be d4cf 923d 8e6a 23be da3d f1bd
000003a0: d4c3 bd3d 2683 443e c02c 24ba eb5e 21be
000003b0: fa79 bebe 46c6 0abe b643 4dbe 692b 74bd
000003c0: c073 083d c362 4ebe 12ab 583e aee2 253e
000003d0: b4cb 7fbe ee9a bdbd 2629 ed3d 546a bebd
000003e0: 3e30 1fbd ac2e dfbd 9883 463e be27 0abe
000003f0: dce8 3d3d b8ad 183e c8c7 0f3c bc0c 343e
-0.06753068 0.16300362 0.019226313 0.2369795 -0.27164966 -0.21511881 -0.22693619 -0.11537151
-0.12268611 0.07095091 -0.06044299 -0.076364726 0.22313952 0.09273626 0.17025198 -0.12035612
-0.09466202 0.08686005 -0.18013585 -0.14353319 -0.041306343 -0.09910666 -0.16988894 0.14104263
0.16230431 0.06559805 -0.05895265 -0.22420084 -0.08663304 0.061185878 0.120690554 -0.031989757
-0.16779049 0.112806864 -0.15974861 0.15285355 -0.09363499 0.0036940426 -0.04769565 0.024294108
-0.07364273 0.14626344 -0.006274551 0.18840188 0.2320585 -0.09661949 -0.19973448 0.15216167
0.12723114 -0.118254066 -0.06621494 -0.23137684 -0.20987622 0.0488137 0.07601749 0.049889263
-0.17682074 0.24395461 0.0025213049 -0.088484906 -0.013664052 0.05796033 0.08452088 -0.17065777
0.0904575 -0.12330404 -0.2202316 -0.111130826 0.22615644 0.13979998 0.26923615 0.14118801
0.17540824 -0.01922543 -0.121959716 0.13354851 -0.13789976 -0.21060954 -0.07707299 0.050650656
0.12424895 -0.12392494 -0.113136694 0.024714727 -0.15662193 -0.14311194 0.12093798 -0.04054399
0.22054693 0.23478633 0.06903735 0.08666823 0.054648038 -0.0036261692 -0.0100249015 -0.0034419969
0.090128094 0.2244052 -0.06254944 -0.102024734 -0.058447793 -0.11660464 0.041039765 0.18015933
0.18873447 0.13511635 -0.19923465 -0.21847327 -0.05564403 -0.039627712 0.019133147 -0.22155736
0.0751206 -0.1841233 -0.16922292 -0.17192791 0.23511225 -0.22854903 0.1820705 -0.008113623
-0.028069347 0.15096262 -0.022307903 0.15136704 0.17450356 -0.20954718 0.11952246 0.013172765
0.059892267 0.035235822 0.066018164 -0.116108075 -0.030879289 0.22931656 0.1621545 -0.015758563
-0.21132192 -0.0036739793 -0.16435663 0.19626817 -0.1465238 -0.02884018 -0.033779573 0.059116706
0.22577803 0.0018724492 0.19107346 0.1789589 0.2101372 -0.08818365 -0.053980738 0.116318285
-0.06585808 0.13301724 -0.07700251 -0.24710749 0.09400442 0.043275658 0.10889934 0.24249703
0.15986387 0.2782205 0.045093 -0.23324898 -0.2508881 -0.119154334 -0.24736726 -0.19273166
-0.2826261 -0.19074708 -0.21127605 -0.24213554 -0.1422583 0.08960295 0.13564801 -0.027142406
-0.11822623 0.15199116 -0.14213519 -0.17175926 0.04558716 -0.11313515 -0.037726443 0.15353486
0.09583441 0.05914896 -0.14056325 -0.003329873 0.013270795 0.08411433 0.058585122 0.31264177
-0.18422644 0.0072346926 -0.12058991 -0.19092754 -0.019327179 -0.21244991 0.24302241 -0.033409256
-0.14859895 0.1333533 -0.23364846 -0.13493843 -0.038154483 -0.20853338 -0.20334545 -0.039393693
0.18313193 0.23306584 0.15745272 -0.15508787 -0.29286057 0.21630438 0.094147354 0.0698186
0.12610897 -0.2738708 -0.15674011 0.25150138 -0.077272296 -0.0979735 -0.39206237 0.14477375
-0.07703455 -0.16204923 -0.01592875 0.093278386 -0.23608837 0.07168546 -0.15958616 -0.117793754
0.09265867 0.19190654 -0.0006262772 -0.15758865 -0.37202436 -0.13552198 -0.20045361 -0.05961171
0.033313513 -0.20154862 0.21159008 0.16199753 -0.2498005 -0.09258066 0.11580114 -0.09297624
-0.038864367 -0.10897574 0.19386137 -0.13491723 0.04636465 0.14910018 0.008775659 0.17582983

mean.0.bias f4 [100]
00000000: 0000 0000 7074 ca3f 0000 0000 3209 22bd
00000010: 3dfc 63bd 6e7c a6bc 9d0b 18be 9203 65bd
00000020: c85e 29be bddc 97bb 9a9f 543e eefc f9bd
00000030: 0000 0000 6408 45bd 0000 0000 28b7 1d3e
00000040: 4ca1 b7be 088d 733d 9803 9e3e 5c49 80bc
00000050: 0000 0000 0000 0000 c847 d5bd cd3f 97be
00000060: 2d51 99bc 859e 263e 0000 0000 413a bebd
00000070: 78d5 8bbd 0000 0000 5020 6fbc b50c b8bc
00000080: 0000 0000 0000 0000 0000 0000 4839 a73e
00000090: 30d1 eebc 0000 0000 1e9e 9bbd 0000 0000
000000a0: 0000 0000 0000 0000 96dd 153e 0000 0000
000000b0: 0000 0000 b24b 093d 0000 0000 6f6c 87bd
000000c0: b595 05be eab3 64bd 0000 0000 cd8f 963e
000000d0: 89e7 02bd 603c c7bd 9453 b43e 5216 a93e
000000e0: 535e fbbe 264e dabc 3c53 d8be 9db9 8f3e
000000f0: c75c 1abf 2c34 86be 0000 0000 ce24 e8bd
00000100: 0000 0000 0000 0000 cc05 b73e 3ce5 e73d
00000110: 8ca1 143e 0000 0000 36e3 5f3e 52b6 0cbd
00000120: acf5 cf3e 9b10 863e ef9f 85bf 2c4c 9ebd
00000130: 0000 0000 0000 0000 e48e 203f b208 3bbd
00000140: 6a15 a6bd 7de4 e63b 17be 8e3e 0000 0000
00000150: 934c 21bf 9377 94bd 0000 0000 1fc1 643d
00000160: f8f9 17bd 0000 0000 0000 0000 f007 88bd
00000170: 0000 0000 0000 0000 0000 0000 12ab 123e
00000180: c6c9 b5bb 1b62 94bd aaef 3bbd 4680 d2bd
0.0 1.5816784 0.0 -0.03955955 -0.055660475 -0.020323005 -0.1484818 -0.055911608
-0.16540062 -0.0046344684 0.20764008 -0.12206446 0.0 -0.048103705 0.0 0.154019
-0.35865247 0.05946067 0.30862117 -0.01565998 0.0 0.0 -0.10414082 -0.29540864
-0.018715465 0.16271408 0.0 -0.09288455 -0.06827825 0.0 -0.014595106 -0.022466997
0.0 0.0 0.0 0.3266089 -0.029152483 0.0 -0.07598518 0.0
0.0 0.0 0.1463531 0.0 0.0 0.033519454 0.0 -0.06612479
-0.1304539 -0.055835642 0.0 0.29406586 -0.03195909 -0.097283125 0.35220015 0.33024842
-0.490954 -0.026648592 -0.42251003 0.280713 -0.60297817 -0.2621168 0.0 -0.11335145
0.0 0.0 0.3574661 0.1132302 0.1451475 0.0 0.21864018 -0.03435356
0.4061712 0.26184544 -1.0439433 -0.077293724 0.0 0.0 0.62718034 -0.04566259
-0.08109553 0.007046281 0.27879402 0.0 -0.6300747 -0.072493695 0.0 0.055848237
-0.037103623 0.0 0.0 -0.06642139 0.0 0.0 0.0 0.1432307
-0.005547735 -0.07245275 -0.04588286 -0.102783725

mean.2.weight f4 [100, 100]
00000000: b024 53bc a595 d93d 400a b6bb 72a2 37ba
00000010: 8888 99bd 2260 0a3e d176 16bd c856 d03c
00000020: fd46 0dbe fa7a 733d d256 acbd c283 1ebd
00000030: c0c2 7dbc 90d1 853d a0ad e73b d839 043d
00000040: 57fb e2bd f11c 06be e629 723d e4e0 93bd
00000050: 50ea 18be 1965 92bd 55e7 2dbe 6587 0d3d
00000060: f90d 463c 6330 223e 449b c3bd b1ef b5bd
00000070: 4ef9 293d 8c6a 3abd 3038 0a3e bd96 d93c
00000080: c0a4 76bb 1917 88bd d053 d63d 8464 a9bd
00000090: 29c8 8e3d 9ce0 e33d d7e2 0abe 1c26 1dbe
000000a0: 5c0b c8bd 4c35 aa3d d795 c4bd f81f 863c
000000b0: 203c d63c db5f 1e3d 8ae2 b4bd 71a1 c93b
000000c0: 3a92 fd3d 70e0 b73d b087 073d bd66 10be
000000d0: 030a a73d 4cd5 86bd 392e f23d d447 8e3d
000000e0: fa12 02bd 794e 893d d443 93bd 074f e53c
000000f0: 349b 14bc a818 1a3b e0cd 793d 9cd7 2f3e
00000100: 8992 9cbd 9a32 2d3e 5f4c 11bd 0d5b 293e
00000110: 608f 193d b06a 673c 9c86 75bd 1462 b9bd
00000120: dd14 30be d62f c3bd 985c 7dbc 8541 153e
00000130: 30f5 bf3d 5064 f73c c531 32be 801b fa3d
00000140: 35e9 f43d 0720 9cbd 6baa 8c3d c0c6 13be
00000150: 922a b3bd 6eac 55bd c2d1 20be 471b eabb
00000160: a0e3 123d e080 4e3d 14fb 253e 804c d73d
00000170: 5447 22be aeaf 5ebd 40bb c63d 2351 29be
00000180: 1232 2fbc 1ccb 863d 8fda edbd b7c4 1b3e
00000190: 45dc e9bd 2b79 00be 56a2 06be c353 f1bc
000001a0: 4966 6c3d 2c56 4c3d 5fb3 adbd 3b43 1b3e
000001b0: 3659 bdbd 0827 0b3e cd6a 723d f421 66bd
000001c0: c02c 033e bdf2 663d 98ce 16be 7053 b23d
000001d0: cbc1 283e b49b 04be ac54 13bd 45fe 0dbe
000001e0: 4cd2 ed3d 7433 bc3d 2960 013e c54f 423d
000001f0: 0145 e0bc a223 7abc 2126 04be a852 e13d
00000200: c536 8ebd 80b8 9b3c bf54 c13b df7c 563d
00000210: 027a 0ebe 10be e0bc 30a6 a33d ef69 01be
00000220: e53b 98bd 7c53 c3bd 1b3a 17be d42a 2d3e
00000230: f63c 193e 7c48 de3d 9d51 13be 8032 cfba
00000240: b847 023d ca62 9e3d 64e4 0e3d aac6 d9bd
00000250: 08c4 9a3b a412 0fbe a0e3 b13d 0385 e23d
00000260: a4ff 7dbd b719 1dbe 0a11 683b ea28 b83d
00000270: daa1 edbd 5dd8 953d 750b fc3d 01af 11be
00000280: 7c74 c53d 9960 a03d 718c b6bd f4da 133e
00000290: 9e96 aabd 22ce 063e c9b3 06be 966f 0d3e
000002a0: f4ca 18bd 34ac 1cbe 202f c03d 8342 69bc
000002b0: c42d 573d eef6 a43d 5f49 9b3c 2cce 623d
000002c0: f37d 15be 6f8b 1cbe c04a a0bd 582d b9bd
000002d0: 362b 28be 12c7 eb3c ef1e 59bc 243e 1cbd
000002e0: 2126 02bc d8d1 aa3d eba0 83bd e15f 323c
000002f0: 3a01 82bc 444b ab3d 90f2 96bc af32 7c3d
00000300: 6ee3 8abd 6464 093e 80d1 ee3c 27e8 f93c
00000310: 70b8 ab3d dc76 32be 8cff 9c3d 6576 0d3e
00000320: 5c71 d43d ad47 083e c177 0ebe ade7 173e
00000330: 74c1 1f3d 42dd 2cbe a7f3 1e3e 4903 0a3e
00000340: f7cc e5bc 53f4 2d3e 77df 363c 36ab 0e3e
00000350: fec8 1cbe 52d0 22be 08aa 453d eec5 963b
00000360: 3bf1 17be 1396 c5bd 4cc0 c83d 92f7 df3d
00000370: a485 06be dc96 9ebd e422 803a f294 083b
00000380: 7310 05be 8386 023e 58b0 f7bd 9b83 fc3d
00000390: df9c dbbd 6838 30be 66ac 303d 758d a9bd
000003a0: 0023 ef3d 6c36 6bbd 807b 873c 5236 053e
000003b0: aab4 e6bd 830a 92bd 8efd f53d 1a9d 153e
000003c0: 204f f73c ac58 083e fca2 dd3d d092 c83d
000003d0: 20bf dfbb 7394 2b3e 6c88 61bd 735f 463c
000003e0: 72cc 4cbd df5f 5fbc c82b d53d 6f4f 063e
000003f0: a133 d43c bea5 f23d a2cf fa3d 30db ad3d
-0.012887165 0.106242456 -0.005555421 -0.0007005102 -0.074967444 0.13513234 -0.036734406 0.025432006
-0.13796611 0.05944345 -0.08414997 -0.038699873 -0.015488327 0.065341115 0.0070702583 0.032281727
-0.110830955 -0.13096978 0.05912199 -0.07220629 -0.14933133 -0.07148189 -0.16982777 0.03455295
0.012088292 0.1583877 -0.09551099 -0.08883608 0.04149752 -0.045511767 0.13497996 0.026561135
-0.003763482 -0.066450305 0.10465205 -0.08271125 0.06971771 0.11126825 -0.13563095 -0.15346569
-0.09767792 0.08310947 -0.09598892 0.016372666 0.026151717 0.038665634 -0.088322714 0.0061532785
0.12381406 0.08978355 0.033088386 -0.14101692 0.081562065 -0.06583652 0.118252225 0.06947294
-0.03175638 0.067044206 -0.071906716 0.027991785 -0.009070206 0.0023513231 0.060987353 0.17172092
-0.07645137 0.16913834 -0.035473224 0.1653864 0.03749025 0.014124557 -0.059942827 -0.0905191
-0.17195459 -0.09530608 -0.015463971 0.14575775 0.09372938 0.0301992 -0.17401798 0.122122765
0.11958543 -0.07623296 0.06868442 -0.14431286 -0.08748354 -0.052166395 -0.15705016 -0.007144365
0.03586161 0.050415874 0.1620906 0.10512638 -0.15847522 -0.05436676 0.09703684 -0.16534857
-0.01069309 0.06581709 -0.11613952 0.1521176 -0.11418966 -0.12546222 -0.13147864 -0.029458886
0.057714734 0.049886867 -0.08481478 0.15162365 -0.09245531 0.13589108 0.059183884 -0.056184724
0.1281004 0.056383837 -0.14727247 0.08707321 0.16480176 -0.12950021 -0.03596942 -0.13866527
0.116123766 0.091895014 0.12634338 0.047439355 -0.027376654 -0.015267285 -0.1290517 0.110020936
-0.0694404 0.019008875 0.005899995 0.05236518 -0.1391373 -0.027434379 0.07990682 -0.12638067
-0.07433299 -0.09537408 -0.14768259 0.16910869 0.14964661 0.10853669 -0.14386602 -0.0015807897
0.031806678 0.07733686 0.03488578 -0.10633595 0.004723076 -0.13971955 0.08685994 0.11060526
-0.062011376 -0.1534184 0.0035410547 0.08992179 -0.11603136 0.07316659 0.12306873 -0.14226915
0.09641358 0.078309245 -0.08913506 0.14438993 -0.08329509 0.13164571 -0.1315452 0.13812098
-0.037302926 -0.15300065 0.093839884 -0.014237049 0.05253388 0.080549106 0.018955885 0.055372402
-0.14598827 -0.15287565 -0.078267574 -0.09041852 -0.16422734 0.028781448 -0.013252004 -0.0381452
-0.007943661 0.08340806 -0.06427177 0.010887117 -0.015869725 0.08363965 -0.01842621 0.061571773
-0.0678166 0.13417202 0.029152632 0.030506207 0.08384788 -0.17428154 0.07665929 0.13814695
0.10373184 0.13308592 -0.1391287 0.14834471 0.03900285 -0.16881278 0.15522633 0.13477816
-0.028051836 0.16987734 0.011161677 0.139325 -0.15311047 -0.1589978 0.048257858 0.004601232
-0.14838116 -0.09647765 0.09802303 0.10935892 -0.13136917 -0.07743618 0.0009776023 0.0020840731
-0.12994556 0.12746625 -0.12094182 0.12329789 -0.1072328 -0.17209017 0.043133162 -0.08278934
0.116765976 -0.057424948 0.016538382 0.13009003 -0.11264928 -0.07130911 0.12011252 0.1461071
0.030189097 0.13315076 0.108221024 0.09793627 -0.006828204 0.16755848 -0.055061743 0.012107718
-0.04999966 -0.013633697 0.10408741 0.13116239 0.025903525 0.11848019 0.12246634 0.08489072

mean.2.bias f4 [100]
00000000: 05c9 18bc e67b ea3b e68c 9b3b 8646 993c
00000010: aee4 0a3c 4aea 913e b02b 1cbb 19e0 e8bc
00000020: 27c7 883c ba15 54bc bdd9 993d ff48 a23c
00000030: 22af a7be 0000 0000 0000 0000 82ad 29bd
00000040: 7b4c a8bc 0000 0000 e518 8fbb 44e0 7d3e
00000050: 38b6 863c 7921 da3d 491a 7c3e 7919 14bc
00000060: b523 53bd bc61 253e 5dcd 91bc f448 8d3d
00000070: 4fe1 a8bc d628 323f f53e d93c 9254 733e
00000080: c57f 993c a22c 133c f210 cebd 0080 ee3b
00000090: 729f 1d3e f985 3b3f d36f 463e 0000 0000
000000a0: efeb 96bd 15d1 293d dad4 f9bc 6882 a93e
000000b0: 0000 0000 0000 0000 620d 93bb 26e2 c93b
000000c0: b651 fc3c 0000 0000 0000 0000 5b5a 45bc
000000d0: d30a 53bd 6c30 1b3e 12b8 6fbd 90ce 92be
000000e0: 7aa9 c83b 1160 8a3c b0ab 20bd 8b29 e4bb
000000f0: e400 3d3c 1e68 773c 4cf5 803d 2e50 773d
00000100: 296b 39be ba29 76bb 0000 0000 3fd0 5d3e
00000110: 0784 93be 095d 853e 5369 973d e6fc a43e
00000120: 9d79 9d3b 9bda 413d f273 72bd 0000 0000
00000130: 3ab7 42bb 6cec 503e 0000 0000 3b63 c53c
00000140: 99cd 5f3d 362b aa3c a340 43bd 0000 0000
00000150: 5c02 6abd 35df 6dbd 0000 0000 d6cb dfbd
00000160: 33a8 283e 0000 0000 43aa 203f 8839 3d3e
00000170: 0000 0000 0000 0000 db32 4a3e 76a5 20bd
00000180: 0000 0000 f6e4 3f3e 7c03 d73c d3e1 35bd
-0.009325271 0.007155883 0.004747021 0.018710386 0.008477373 0.2849906 -0.002382975 -0.02842717
0.016696526 -0.012944633 0.075122334 0.019810198 -0.32750803 0.0 0.0 -0.041425236
-0.020544281 0.0 -0.0043669813 0.24792582 0.01644431 0.10650916 0.24619402 -0.009039276
-0.051547725 0.16150564 -0.01779812 0.0689868 -0.020615248 0.6959356 0.026519278 0.2376273
0.018737683 0.008982809 -0.10061826 0.0072784424 0.15392855 0.732513 0.19378595 0.0
-0.073692195 0.04145916 -0.030497003 0.33107305 0.0 0.0 -0.0044876793 0.006160992
0.030800682 0.0 0.0 -0.012045468 -0.051523995 0.1515519 -0.058525153 -0.2867322
0.006123719 0.016891511 -0.039226234 -0.00696296 0.011535857 0.015100507 0.06296787 0.0603792
-0.18107285 -0.0037561492 0.0 0.21661471 -0.28811666 0.26047543 0.07393136 0.32224196
0.004805757 0.04732762 -0.059192605 0.0 -0.0029711262 0.20402688 0.0 0.024095168
0.054639433 0.020772558 -0.047669064 0.0 -0.057131156 -0.058074195 0.0 -0.109275505
0.16470413 0.0 0.627598 0.18478978 0.0 0.0 0.19745962 -0.039220296
0.0 0.18739685 0.026246779 -0.044404816

mean.4.weight f4 [2, 100]
00000000: 6afd d63d 3301 443e 3cd0 20bc 5b99 48be
00000010: c76b 16bd 0ec0 c53e dbe2 9a3e d9c5 febd
00000020: 3f3d 613d d38c 3abe 5ec9 593e b8db 443e
00000030: 569b afbd 1466 e23d 3044 8f3c 27a4 11be
00000040: 7224 70be c276 183e ea32 5fbe 784a d73e
00000050: 3382 0dbd 497e b23e d685 8d3e 4cdb 1a3e
00000060: 46d3 b0bd b09e 543e ea01 6c3d d350 01bc
00000070: 5265 863c ff26 1f3f 7a3b 063e 8e65 a43e
00000080: 51be b7bd 6ae0 38bb dcb6 8cbd 70a9 07bd
00000090: 5a8e 593e 83b3 573f f257 8d3e 2895 79bd
000000a0: e813 1a3e aa7d 5c3e 1f9b 743d fd53 003f
000000b0: 7c63 a03d 88de 46bd 515c a53d 4e51 7d3d
000000c0: 2aac 1c3e 745f 73bd cce7 35be b8b5 1dbe
000000d0: 099e 2ebe f206 6e3e a03a 6abd 9438 70be
000000e0: 2763 573e c4f9 29be d02c c93d 4b1c 303e
000000f0: 423c 01be 2a6c 37bb b108 b93e 0ae9 8c3e
00000100: 5e64 683e b192 f4bc 00b5 123e 9b10 883e
00000110: 1a62 6a3c 5b57 bf3e 66b5 d93d 5baa 8a3e
00000120: 6cf3 50be cef2 123e 8399 5fbe d0ff 253d
00000130: 4715 ca3d d178 b03e 8a18 043e 609a c2bd
00000140: a5dd bb3d 68b1 72be 6bc5 4b3e a0a1 ee3d
00000150: 7160 19bd 465b cf3d b2dc 083e 1cd0 54be
00000160: d8a6 923e d443 943d 706f 3c3f 0ace 293e
00000170: 4066 c63c 5074 643d 62ed a03e 6bdf 59be
00000180: ee51 093e feda 9b3e 3754 28bd dd2b 27be
00000190: aaec 4d3e 31c7 0e3e 399b 3cbe 47a8 883d
000001a0: 24d5 a5bd 2653 99be f361 e03d bd16 c33d
000001b0: be38 e6bc e1be 1a3e 96a1 343e 8715 323d
000001c0: 1100 c43d 34c2 39be 1af3 c6bd d957 4c3e
000001d0: dc58 973d 9477 883d d370 fabd 1e91 c0be
000001e0: bf06 04be ea66 c1bd 5535 8cbe 5a7a 3d3e
000001f0: 852d 46be c0e4 04be d69f 523e b3ba b7bd
00000200: 7cd4 63bc 4362 30bf f14f c43d 682b 99be
00000210: 8d94 3bbe 05ce bfbd 9ba6 e53d c8cc efbd
00000220: e86c 95be 1447 2bbf 9dca 84be f278 4e3e
00000230: 3150 26bd 9f50 023e 62e4 723e 640b eabe
00000240: 24c3 be3d 4826 073d 79e5 523e 1861 833b
00000250: 70f2 2dbc 2520 73be 0e38 6e3e 6159 82be
00000260: 02a1 463e 3d21 7abe dc38 523d 59f8 263d
00000270: ae14 1f3e 3fb3 90be efcc 173e db80 8b3e
00000280: 2d99 9b3d 4bef 633e ac4e 9a3d af34 65bd
00000290: ab73 ab3d 2c7a 423b b025 733d de5a acbe
000002a0: 40b8 88bd 895a 90be fb81 38be 971f 8cbe
000002b0: 46f1 a9bd f2ac e6bc 4fb4 49bc 608e df3d
000002c0: e2df 943d 9aaf 89be d82d 2f3e ee27 3abe
000002d0: 92e5 adbd 664a 6b3e 02f3 f43d e064 f03d
000002e0: ce86 69be b838 153e a85e 4bbe 96cf 4c3d
000002f0: 9898 80be f8c3 bb3d 1b9a 22bf 4cd7 b9be
00000300: 40bf 5fbe ac74 3ebe cce5 55be bd22 993c
00000310: aa61 afbd 8064 7bbe 7fd1 823d 80ca 4f3e
0.10497554 0.19141082 -0.009815272 -0.1958975 -0.03672388 0.3862309 0.30251202 -0.1244008
0.05499005 -0.18217783 0.21268222 0.19224441 -0.0857455 0.11054626 0.017488569 -0.14222775
-0.23451403 0.14889053 -0.21796766 0.42049003 -0.034547996 0.34861973 0.2764117 0.15122718
-0.08634047 0.2076366 0.057619013 -0.007892805 0.016405735 0.6216888 0.13108626 0.3210873
-0.08971847 -0.0028209933 -0.06870815 -0.033120573 0.21245709 0.8425829 0.2760616 -0.060933262
0.15046656 0.21532312 0.059718248 0.50128156 0.07831475 -0.048552066 0.080742486 0.061845116
0.1530005 -0.059417203 -0.17764205 -0.15401351 -0.17052473 0.23244837 -0.057184815 -0.23459083
0.21033917 -0.16599184 0.098230004 0.17198293 -0.12620643 -0.0027988055 0.36139444 0.27521545
0.22694537 -0.029855104 0.14326859 0.2657517 0.014305616 0.37371334 0.10630302 0.27083096
-0.20405358 0.14350435 -0.21835904 0.040527165 0.098673396 0.34467176 0.12899986 -0.09502101
0.09173135 -0.23700488 0.19899528 0.11651921 -0.03744549 0.10124831 0.13365439 -0.20782512
0.28642917 0.072395 0.7360754 0.16582504 0.024218678 0.055774987 0.3143111 -0.21276633
0.1341016 0.30440515 -0.04109594 -0.16325326 0.20109811 0.13943173 -0.18418588 0.06672721
-0.08097294 -0.2994625 0.10956182 0.09525821 -0.028103229 0.15111877 0.17639765 0.04347756
0.09570325 -0.18140489 -0.09714337 0.19955386 0.073899955 0.06663433 -0.12228551 -0.37610716
-0.12893198 -0.094434574 -0.2738444 0.18503705 -0.19353302 -0.12977886 0.20568785 -0.08971157
-0.013905641 -0.68899935 0.0958556 -0.2991593 -0.18318386 -0.09365467 0.11213418 -0.11708981
-0.2918465 -0.6690533 -0.25935832 0.20163324 -0.04060382 0.12726067 0.23719934 -0.45711815
0.09314564 0.032995492 0.2059535 0.004009377 -0.010616884 -0.23742731 0.2326357 -0.25458816
0.19397357 -0.24426742 0.051323757 0.040764187 0.15535232 -0.28261754 0.1482427 0.27246746
0.07597575 0.22259252 0.07534537 -0.055958446 0.08371671 0.002967487 0.059362113 -0.33663076
-0.06675768 -0.28194073 -0.18018334 -0.2736785 -0.082979724 -0.028158639 -0.012311055 0.10915828
0.07269265 -0.26891786 0.17107332 -0.18179294 -0.08491053 0.229776 0.119604126 0.117379904
-0.2280533 0.14572418 -0.19860327 0.050002657 -0.2511642 0.091682374 -0.63516396 -0.3629707
-0.218503 -0.18599194 -0.20888442 0.018693322 -0.0856355 -0.24550056 0.063876145 0.20292091

mean.4.bias f4 [2]
00000000: 7aa1 223f bea1 22bf
0.63527644 -0.6352805
