save/exp2/it2_model.pt (torch, 45415 bytes, 7 tensors)

sigma f4 [2]
000000 e8 82 84 3e c2 e4 df be
       0.25881124 -0.43729216

mean.0.weight f4 [100, 3]
000000 86 4d 8a bd 6c ea 26 3e 80 80 9d 3c 5c 39 13 3e
       -0.06753068 0.16300362 0.019226313 0.1437735
000010 de 84 25 be ed 96 71 be f6 61 68 be e6 47 ec bd
       -0.16163966 -0.2359273 -0.22693619 -0.11537151
000020 db 42 fb bd b6 4e 91 3d 12 93 77 bd 1c 65 9c bd
       -0.12268611 0.07095091 -0.06044299 -0.076364726
000030 b0 7e 64 3e 82 ec bd 3d 89 56 2e 3e 45 7d f6 bd
       0.22313952 0.09273626 0.17025198 -0.12035612
000040 29 de c1 bd af e3 b1 3d 88 75 38 be 5d fa 12 be
       -0.09466202 0.08686005 -0.18013585 -0.14353319
000050 d7 30 29 bd 6f f8 ca bd 5e f7 2d be 7b 6d 10 3e
       -0.041306343 -0.09910666 -0.16988894 0.14104263
000060 1a 33 26 3e 45 58 86 3d 55 78 71 bd e8 94 65 be
       0.16230431 0.06559805 -0.05895265 -0.22420084
000070 aa 6c b1 bd 0b 9e 7a 3d e7 6c c7 3d 18 bf 96 bb
       -0.08663304 0.061185878 0.09737568 -0.004600417
000080 50 40 31 be 49 07 e7 3d 24 95 23 be a4 85 1c 3e
       -0.1730969 0.112806864 -0.15974861 0.15285355
000090 b4 c3 bf bd c0 17 72 3b 84 5c 43 bd 70 04 c7 3c
       -0.09363499 0.0036940426 -0.04769565 0.024294108
0000a0 00 d2 96 bd 15 c6 15 3e c0 9a cd bb 6c ec 40 3e
       -0.07364273 0.14626344 -0.006274551 0.18840188
0000b0 be a0 6d 3e cc bb d0 bd 01 74 46 be df 68 1a 3e
       0.2320585 -0.101920694 -0.1938019 0.15079068
0000c0 e1 48 02 3e 30 2f f2 bd b3 9b 87 bd 34 3e 72 be
       0.12723114 -0.118254066 -0.06621494 -0.23656541
0000d0 31 bd 50 be d4 ee 42 3d 68 bc 1d 3d a6 63 c1 3d
       -0.20384671 0.047591045 0.038509756 0.094428346
0000e0 7f 7f 3d be 77 4c 80 3e 44 26 ae bb 80 32 b2 bd
       -0.18505667 0.25058338 -0.00531462 -0.08701038
0000f0 30 df 5f bc d0 67 6d 3d 48 19 ad 3d e9 c0 2e be
       -0.013664052 0.05796033 0.08452088 -0.17065777
000100 c8 41 b9 3d d4 86 fc bd 64 84 61 be 8f 98 e3 bd
       0.0904575 -0.12330404 -0.2202316 -0.111130826
000110 8e 95 67 3e ba 27 0f 3e 52 d9 89 3e 97 93 10 3e
       0.22615644 0.13979998 0.26923615 0.14118801
000120 66 1b 2f 3e 83 f6 69 bc cf 6e fb bd 3c 01 ee 3d
       0.17100295 -0.014279964 -0.122769944 0.11621329
000130 42 03 f0 bd 32 81 5b be 72 d8 9d bd 10 77 4f 3d
       -0.117193714 -0.21436003 -0.07707299 0.050650656
000140 3c 76 fe 3d 5c cc fd bd 36 b4 e7 bd 8a 76 ca 3c
       0.12424895 -0.12392494 -0.113136694 0.024714727
000150 80 61 20 be f0 8b 12 be 55 ae f7 3d 74 11 26 bd
       -0.15662193 -0.14311194 0.12093798 -0.04054399
000160 0e d7 61 3e d4 6b 70 3e 74 63 8d 3d 1d 7f b1 3d
       0.22054693 0.23478633 0.06903735 0.08666823
000170 9f d6 5f 3d 06 a5 6d bb 7c 3f 24 bc 20 93 61 bb
       0.054648038 -0.0036261692 -0.0100249015 -0.0034419969
000180 14 95 b8 3d 7a ca 65 3e ec 19 80 bd 58 f2 d0 bd
       0.090128094 0.2244052 -0.06254944 -0.102024734
000190 f4 66 6f bd 6a ce ee bd 50 19 28 3d b0 7b 38 3e
       -0.058447793 -0.11660464 0.041039765 0.18015933
0001a0 9c 43 41 3e e2 50 c9 3d e3 53 1f be 16 07 68 be
       0.18873447 0.0982988 -0.15559344 -0.22658953
0001b0 ff ea 63 bd ab 50 22 bd 1e bd 9c 3c ef df 62 be
       -0.05564403 -0.039627712 0.019133147 -0.22155736
0001c0 d4 d8 99 3d d1 8a 3c be c6 48 2d be df 0d 30 be
       0.0751206 -0.1841233 -0.16922292 -0.17192791
0001d0 44 c1 70 3e c2 08 6a be b0 70 3a 3e 00 ef 04 bc
       0.23511225 -0.22854903 0.1820705 -0.008113623
0001e0 b0 f1 e5 bc f2 95 1a 3e 10 bf b6 bc f6 ff 1a 3e
       -0.028069347 0.15096262 -0.022307903 0.15136704
0001f0 10 b1 32 3e 89 93 56 be c8 38 e7 3d eb f5 aa 3c
       0.17450356 -0.20954718 0.11290127 0.020869216
000200 87 17 6f 3d 70 53 10 3d 88 34 87 3d 12 ca ed bd
       0.058372047 0.035235822 0.066018164 -0.116108075
000210 90 f6 fc bc f6 d1 6a 3e d4 0b 26 3e 14 40 cd bc
       -0.030879289 0.22931656 0.1621545 -0.025054969
000220 e9 0f 4d be 16 fe ba bb 1b 4d 28 be 86 fa 48 3e
       -0.200256 -0.005706559 -0.16435663 0.19626817
000230 56 0a 16 be 3e 42 ec bc 73 5c 0a bd 5c 24 72 3d
       -0.1465238 -0.02884018 -0.033779573 0.059116706
000240 5b 32 67 3e f8 6c f5 3a c3 a8 43 3e 00 41 37 3e
       0.22577803 0.0018724492 0.19107346 0.1789589
000250 35 2e 57 3e a1 99 b4 bd e8 1a 5d bd 48 38 ee 3d
       0.2101372 -0.08818365 -0.053980738 0.116318285
000260 9a e0 86 bd 3f 78 c9 3d d6 3e 13 bd ff 77 82 be
       -0.06585808 0.09837388 -0.035948597 -0.25482175
000270 64 85 c0 3d d1 41 31 3d 9e 06 df 3d ea 65 86 3e
       0.09400442 0.043275658 0.10889934 0.2624963
000280 90 a4 0b 3e 63 a5 90 3e 9d f8 4f 3c 3a bd 47 be
       0.13636994 0.2825118 0.012693551 -0.19505778
000290 29 2e 84 be 2e f8 1f be 13 81 50 be ce db 4d be
       -0.25816467 -0.15622017 -0.20361738 -0.2010338
0002a0 5e b4 90 be 34 53 43 be c0 58 58 be 61 f2 77 be
       -0.2826261 -0.19074708 -0.21127605 -0.24213554
0002b0 29 ac 11 be c0 81 b7 3d 50 e7 0a 3e c0 59 de bc
       -0.1422583 0.08960295 0.13564801 -0.027142406
0002c0 98 20 f2 bd 04 ad ff 3d 57 0a e1 bd a0 f9 35 be
       -0.11822623 0.12484172 -0.109883 -0.17771006
0002d0 9a b9 3a 3d 67 b3 e7 bd 0b 87 1a bd 3e 38 1d 3e
       0.04558716 -0.11313515 -0.037726443 0.15353486
0002e0 d5 44 c4 3d 2e 46 72 3d d0 ef 0f be 00 3a 5a bb
       0.09583441 0.05914896 -0.14056325 -0.003329873
0002f0 c0 6d 59 3c 3c 6c e1 3d f8 65 e2 3c 2e f8 a2 3e
       0.013270795 0.11006972 0.027636513 0.3182997
000300 db a5 3c be 00 11 ed 3b d8 f7 f6 bd 82 82 43 be
       -0.18422644 0.0072346926 -0.12058991 -0.19092754
000310 08 54 9e bc 78 8c 59 be d6 3c 63 3e 02 01 07 bc
       -0.019327179 -0.21244991 0.22191176 -0.008239986
000320 01 ce 1c be ea d8 f6 3d 36 a9 5f be d1 0c 0d be
       -0.15312959 0.12053092 -0.21841893 -0.1377442
000330 32 96 78 bd cd 5c 3a be e0 71 55 be 48 5b 21 bd
       -0.060690112 -0.18199463 -0.20844221 -0.039393693
000340 f0 86 3b 3e d0 a8 6e 3e 99 f8 01 3e 1b a6 f3 bd
       0.18313193 0.23306584 0.12692489 -0.118969165
000350 05 6b 99 be 35 c5 64 3e 26 de b2 3d 34 ac 8f 3d
       -0.29964462 0.22340854 0.08733778 0.07015267
000360 d9 cf b9 3d 00 b8 6d be 31 a6 28 be 13 76 67 3e
       0.09072847 -0.23214722 -0.16469647 0.22603635
000370 88 0d 41 bd 4c 45 d4 bd 66 bc c8 be 92 3f 14 3e
       -0.047132045 -0.1036478 -0.39206237 0.14477375
000380 4a c4 9d bd 3c f0 25 be 03 7d 82 bc bd 08 bf 3d
       -0.07703455 -0.16204923 -0.01592875 0.093278386
000390 26 c1 71 be d4 cf 92 3d 8e 6a 23 be da 3d f1 bd
       -0.23608837 0.07168546 -0.15958616 -0.117793754
0003a0 d4 c3 bd 3d 26 83 44 3e bd 29 83 bd 8a 6c a8 bd
       0.09265867 0.19190654 -0.06404445 -0.08223827
0003b0 5a 94 c5 be 46 c6 0a be b6 43 4d be 69 2b 74 bd
       -0.38589746 -0.13552198 -0.20045361 -0.05961171
0003c0 c0 73 08 3d c3 62 4e be 12 ab 58 3e ab e4 27 3e
       0.033313513 -0.20154862 0.21159008 0.16395824
0003d0 0a 17 81 be 31 a8 bc bd d9 cc c2 3d 36 48 8c bd
       -0.2521289 -0.092117675 0.09511728 -0.06849711
0003e0 46 15 32 bd ac 2e df bd 98 83 46 3e be 27 0a be
       -0.04347732 -0.10897574 0.19386137 -0.13491723
0003f0 dc e8 3d 3d b8 ad 18 3e c8 c7 0f 3c bc 0c 34 3e
       0.04636465 0.14910018 0.008775659 0.17582983

mean.0.bias f4 [100]
000000 00 00 00 00 7d f4 86 3f 00 00 00 00 32 09 22 bd
       0.0 1.0543362 0.0 -0.03955955
000010 3d fc 63 bd 6e 7c a6 bc 9d 0b 18 be 92 03 65 bd
       -0.055660475 -0.020323005 -0.1484818 -0.055911608
000020 c8 5e 29 be bd dc 97 bb 5b 88 97 3d ee fc f9 bd
       -0.16540062 -0.0046344684 0.073990546 -0.12206446
000030 00 00 00 00 64 08 45 bd 00 00 00 00 ab 56 fe 3d
       0.0 -0.048103705 0.0 0.12418874
000040 4c a1 b7 be 54 cb ee 3c 08 b0 c2 3d a3 af b8 3c
       -0.35865247 0.029149689 0.095062315 0.022544688
000050 00 00 00 00 00 00 00 00 c8 47 d5 bd cd 3f 97 be
       0.0 0.0 -0.10414082 -0.29540864
000060 a4 70 19 bd b6 00 84 3d 00 00 00 00 41 3a be bd
       -0.037460938 0.06445448 0.0 -0.09288455
000070 78 d5 8b bd 00 00 00 00 50 20 6f bc b5 0c b8 bc
       -0.06827825 0.0 -0.014595106 -0.022466997
000080 00 00 00 00 00 00 00 00 00 00 00 00 22 13 f0 3d
       0.0 0.0 0.0 0.11722399
000090 30 d1 ee bc 00 00 00 00 1e 9e 9b bd 00 00 00 00
       -0.029152483 0.0 -0.07598518 0.0
0000a0 00 00 00 00 00 00 00 00 26 b8 de 3d 00 00 00 00
       0.0 0.0 0.10874967 0.0
0000b0 00 00 00 00 bc 9b 9e bc 00 00 00 00 6f 6c 87 bd
       0.0 -0.01936137 0.0 -0.06612479
0000c0 b5 95 05 be ea b3 64 bd 00 00 00 00 ba 35 c5 3d
       -0.1304539 -0.055835642 0.0 0.09629388
0000d0 89 e7 02 bd 20 9e 82 3c 9c ef 2b 3e f2 c3 f2 3d
       -0.03195909 0.01594454 0.16790622 0.1185378
0000e0 53 5e fb be 26 4e da bc 3c 53 d8 be 54 e4 01 3e
       -0.490954 -0.026648592 -0.42251003 0.12684757
0000f0 c7 5c 1a bf 2c 34 86 be 00 00 00 00 ae 22 12 3d
       -0.60297817 -0.2621168 0.0 0.035677604
000100 00 00 00 00 00 00 00 00 e6 2a 74 3e db 0e 27 3d
       0.0 0.0 0.2384449 0.04078565
000110 19 63 83 3c 00 00 00 00 f6 de 34 3d a8 b8 36 3a
       0.016038464 0.0 0.044157945 0.0006970265
000120 0e 96 51 3e 3e 3a ef 3d ef 9f 85 bf 2c 4c 9e bd
       0.20467398 0.11681031 -1.0439433 -0.077293724
000130 00 00 00 00 00 00 00 00 37 8b 88 3e b2 08 3b bd
       0.0 0.0 0.26668712 -0.04566259
000140 6a 15 a6 bd e0 c3 9c 3c 6b bb 25 3e 00 00 00 00
       -0.08109553 0.01913637 0.16184776 0.0
000150 93 4c 21 bf 93 77 94 bd 00 00 00 00 5e 1f 0e 3d
       -0.6300747 -0.072493695 0.0 0.034697883
000160 f8 f9 17 bd 00 00 00 00 00 00 00 00 5c bf b6 bc
       -0.037103623 0.0 0.0 -0.022308044
000170 00 00 00 00 00 00 00 00 00 00 00 00 d0 72 99 3d
       0.0 0.0 0.0 0.07492602
000180 c6 c9 b5 bb 1b 62 94 bd aa ef 3b bd 46 80 d2 bd
       -0.005547735 -0.07245275 -0.04588286 -0.102783725

mean.2.weight f4 [100, 100]
000000 b0 24 53 bc 95 cc ec 3d 40 0a b6 bb 72 a2 37 ba
       -0.012887165 0.115624584 -0.005555421 -0.0007005102
000010 88 88 99 bd 22 60 0a 3e d1 76 16 bd c8 56 d0 3c
       -0.074967444 0.13513234 -0.036734406 0.025432006
000020 fd 46 0d be fa 7a 73 3d b2 db aa bd c2 83 1e bd
       -0.13796611 0.05944345 -0.08342685 -0.038699873
000030 c0 c2 7d bc 90 d1 85 3d a0 ad e7 3b 8a 7f 09 3d
       -0.015488327 0.065341115 0.0070702583 0.033568896
000040 57 fb e2 bd 11 d1 05 be 7f d9 74 3d 37 d5 92 bd
       -0.110830955 -0.13068034 0.059777733 -0.07169574
000050 50 ea 18 be 19 65 92 bd 55 e7 2d be 65 87 0d 3d
       -0.14933133 -0.07148189 -0.16982777 0.03455295
000060 1e 61 46 3c fa 0d 23 3e 44 9b c3 bd b1 ef b5 bd
       0.0121081155 0.159233 -0.09551099 -0.08883608
000070 4e f9 29 3d 8c 6a 3a bd 30 38 0a 3e bd 96 d9 3c
       0.04149752 -0.045511767 0.13497996 0.026561135
000080 c0 a4 76 bb 19 17 88 bd d0 53 d6 3d c3 a9 a6 bd
       -0.003763482 -0.066450305 0.10465205 -0.08137848
000090 29 c8 8e 3d 9c e0 e3 3d d7 e2 0a be 1c 26 1d be
       0.06971771 0.11126825 -0.13563095 -0.15346569
0000a0 5c 0b c8 bd 4c 35 aa 3d b8 6b c2 bd f8 1f 86 3c
       -0.09767792 0.08310947 -0.09493202 0.016372666
0000b0 20 3c d6 3c db ee 1e 3d 8a e2 b4 bd 71 a1 c9 3b
       0.026151717 0.03880201 -0.088322714 0.0061532785
0000c0 3a 92 fd 3d 70 e0 b7 3d b0 87 07 3d 99 6e 0f be
       0.12381406 0.08978355 0.033088386 -0.14007033
0000d0 03 0a a7 3d 7c 2a 86 bd 67 ae f5 3d 6c 85 90 3d
       0.081562065 -0.06551072 0.11996155 0.07056698
0000e0 fa 12 02 bd 79 4e 89 3d d4 43 93 bd 46 aa f0 3c
       -0.03175638 0.067044206 -0.071906716 0.029378068
0000f0 34 9b 14 bc a8 18 1a 3b e0 cd 79 3d 4f 56 30 3e
       -0.009070206 0.0023513231 0.060987353 0.17220424
000100 89 92 9c bd 9a 32 2d 3e 82 e2 07 bd f2 36 2a 3e
       -0.07645137 0.16913834 -0.033175 0.16622522
000110 3d d3 1a 3d b0 6a 67 3c f8 c9 72 bd 72 07 b9 bd
       0.03779911 0.014124557 -0.059274644 -0.09034623
000120 20 d1 2d be af 6d c0 bd 98 5c 7d bc 85 41 15 3e
       -0.16974306 -0.093959205 -0.015463971 0.14575775
000130 30 f5 bf 3d 50 64 f7 3c a0 e9 2f be 80 1b fa 3d
       0.09372938 0.0301992 -0.17178965 0.122122765
000140 35 e9 f4 3d 6b 87 9a bd 6b f5 8f 3d c0 c6 13 be
       0.11958543 -0.0754536 0.07029232 -0.14431286
000150 92 2a b3 bd 6e ac 55 bd c2 d1 20 be fe ca d1 bb
       -0.08748354 -0.052166395 -0.15705016 -0.0064023724
000160 a0 e3 12 3d e0 80 4e 3d 14 fb 25 3e d5 d9 d7 3d
       0.03586161 0.050415874 0.1620906 0.10539595
000170 54 47 22 be ae af 5e bd 40 bb c6 3d 28 09 28 be
       -0.15847522 -0.05436676 0.09703684 -0.16409743
000180 12 32 2f bc 1c cb 86 3d 8f da ed bd b7 c4 1b 3e
       -0.01069309 0.06581709 -0.11613952 0.1521176
000190 45 dc e9 bd 2b 79 00 be 56 a2 06 be c3 53 f1 bc
       -0.11418966 -0.12546222 -0.13147864 -0.029458886
0001a0 49 66 6c 3d 2c 56 4c 3d 5f b3 ad bd 3b 43 1b 3e
       0.057714734 0.049886867 -0.08481478 0.15162365
0001b0 36 59 bd bd 08 27 0b 3e cd 6a 72 3d f4 21 66 bd
       -0.09245531 0.13589108 0.059183884 -0.056184724
0001c0 c0 2c 03 3e bd f2 66 3d 98 ce 16 be 70 53 b2 3d
       0.1281004 0.056383837 -0.14727247 0.08707321
0001d0 cb c1 28 3e b4 9b 04 be ac 54 13 bd 45 fe 0d be
       0.16480176 -0.12950021 -0.03596942 -0.13866527
0001e0 4c d2 ed 3d 74 33 bc 3d 29 60 01 3e c5 4f 42 3d
       0.116123766 0.091895014 0.12634338 0.047439355
0001f0 01 45 e0 bc a2 23 7a bc 21 26 04 be a8 52 e1 3d
       -0.027376654 -0.015267285 -0.1290517 0.110020936
000200 c5 36 8e bd 80 b8 9b 3c bf 54 c1 3b df 7c 56 3d
       -0.0694404 0.019008875 0.005899995 0.05236518
000210 02 7a 0e be 10 be e0 bc 30 a6 a3 3d ef 69 01 be
       -0.1391373 -0.027434379 0.07990682 -0.12638067
000220 e5 3b 98 bd 7c 53 c3 bd 1b 3a 17 be d4 2a 2d 3e
       -0.07433299 -0.09537408 -0.14768259 0.16910869
000230 f6 3c 19 3e 7c 48 de 3d 9d 51 13 be 80 32 cf ba
       0.14964661 0.10853669 -0.14386602 -0.0015807897
000240 b8 47 02 3d ca 62 9e 3d 64 e4 0e 3d aa c6 d9 bd
       0.031806678 0.07733686 0.03488578 -0.10633595
000250 08 c4 9a 3b a4 12 0f be a0 e3 b1 3d 03 85 e2 3d
       0.004723076 -0.13971955 0.08685994 0.11060526
000260 a4 ff 7d bd b7 19 1d be 0a 11 68 3b ea 28 b8 3d
       -0.062011376 -0.1534184 0.0035410547 0.08992179
000270 da a1 ed bd 5d d8 95 3d 75 0b fc 3d 01 af 11 be
       -0.11603136 0.07316659 0.12306873 -0.14226915
000280 7c 74 c5 3d 99 60 a0 3d 71 8c b6 bd f4 da 13 3e
       0.09641358 0.078309245 -0.08913506 0.14438993
000290 9e 96 aa bd 22 ce 06 3e c9 b3 06 be 96 6f 0d 3e
       -0.08329509 0.13164571 -0.1315452 0.13812098
0002a0 f4 ca 18 bd 34 ac 1c be 20 2f c0 3d 83 42 69 bc
       -0.037302926 -0.15300065 0.093839884 -0.014237049
0002b0 c4 2d 57 3d ee f6 a4 3d 5f 49 9b 3c 2c ce 62 3d
       0.05253388 0.080549106 0.018955885 0.055372402
0002c0 f3 7d 15 be 6f 8b 1c be c0 4a a0 bd 58 2d b9 bd
       -0.14598827 -0.15287565 -0.078267574 -0.09041852
0002d0 36 2b 28 be 12 c7 eb 3c ef 1e 59 bc 24 3e 1c bd
       -0.16422734 0.028781448 -0.013252004 -0.0381452
0002e0 21 26 02 bc d8 d1 aa 3d eb a0 83 bd e1 5f 32 3c
       -0.007943661 0.08340806 -0.06427177 0.010887117
0002f0 3a 01 82 bc 44 4b ab 3d 90 f2 96 bc af 32 7c 3d
       -0.015869725 0.08363965 -0.01842621 0.061571773
000300 6e e3 8a bd 64 64 09 3e 80 d1 ee 3c 27 e8 f9 3c
       -0.0678166 0.13417202 0.029152632 0.030506207
000310 70 b8 ab 3d dc 76 32 be 8c ff 9c 3d 65 76 0d 3e
       0.08384788 -0.17428154 0.07665929 0.13814695
000320 5c 71 d4 3d 06 d9 dd 3d c1 77 0e be ad e7 17 3e
       0.10373184 0.108324096 -0.1391287 0.14834471
000330 74 c1 1f 3d 42 dd 2c be a7 f3 1e 3e 49 03 0a 3e
       0.03900285 -0.16881278 0.15522633 0.13477816
000340 f7 cc e5 bc 53 f4 2d 3e 5a 19 11 3c 36 ab 0e 3e
       -0.028051836 0.16987734 0.008856142 0.139325
000350 fe c8 1c be 52 d0 22 be 08 aa 45 3d 2a c9 b9 3a
       -0.15311047 -0.1589978 0.048257858 0.0014174331
000360 3b f1 17 be 0f 32 c7 bd 74 be c3 3d 1d 99 dd 3d
       -0.14838116 -0.09726345 0.095578104 0.1082022
000370 a4 85 06 be dc 96 9e bd e4 22 80 3a f2 94 08 3b
       -0.13136917 -0.07743618 0.0009776023 0.0020840731
000380 de 2b 05 be e1 e6 ff 3d 58 b0 f7 bd 9b 83 fc 3d
       -0.13005015 0.124952085 -0.12094182 0.12329789
000390 df 9c db bd 68 38 30 be 66 ac 30 3d 75 8d a9 bd
       -0.1072328 -0.17209017 0.043133162 -0.08278934
0003a0 00 23 ef 3d 6c 36 6b bd 80 7b 87 3c f5 fa 00 3e
       0.116765976 -0.057424948 0.016538382 0.12595733
0003b0 aa b4 e6 bd 83 0a 92 bd 8e fd f5 3d 1a 9d 15 3e
       -0.11264928 -0.07130911 0.12011252 0.1461071
0003c0 20 4f f7 3c ac 58 08 3e 60 0a d8 3d d0 92 c8 3d
       0.030189097 0.13315076 0.10548854 0.09793627
0003d0 20 bf df bb af fc 2a 3e 6c 88 61 bd 73 5f 46 3c
       -0.006828204 0.16697954 -0.055061743 0.012107718
0003e0 72 cc 4c bd df 5f 5f bc c8 2b d5 3d 89 25 03 3e
       -0.04999966 -0.013633697 0.10408741 0.12807287
0003f0 a1 33 d4 3c c6 c9 f1 3d 39 e3 f0 3d 1e de a6 3d
       0.025903525 0.11806063 0.11762089 0.08147834

mean.2.bias f4 [100]
000000 34 98 53 ba e6 7b ea 3b 0e bf 85 bc 86 46 99 3c
       -0.0008071691 0.007155883 -0.016326454 0.018710386
000010 ae e4 0a 3c 85 f9 0f 3e f1 fa 67 bc 19 e0 e8 bc
       0.008477373 0.14060028 -0.01415895 -0.02842717
000020 40 2b 07 3b ba 15 54 bc bd d9 99 3d 42 57 62 39
       0.0020625144 -0.012944633 0.075122334 0.00021585546
000030 22 af a7 be 00 00 00 00 00 00 00 00 82 ad 29 bd
       -0.32750803 0.0 0.0 -0.041425236
000040 7b 4c a8 bc 00 00 00 00 e5 18 8f bb ff 6b b4 3d
       -0.020544281 0.0 -0.0043669813 0.08809661
000050 0e d1 1c 3b 41 36 a8 3c 34 3b f7 3d 79 19 14 bc
       0.0023928317 0.020533683 0.12071839 -0.009039276
000060 b5 23 53 bd 93 76 d1 3d 5d cd 91 bc f4 48 8d 3d
       -0.051547725 0.10227694 -0.01779812 0.0689868
000070 4f e1 a8 bc fa 93 0f 3f 1d c3 bf 3c b9 2c b6 3d
       -0.020615248 0.5608517 0.023408467 0.08895249
000080 c5 7f 99 3c a2 2c 13 3c f2 10 ce bd 3c 70 a5 bb
       0.018737683 0.008982809 -0.10061826 -0.00504878
000090 44 29 fb 3c 66 6b 01 3f 74 59 91 3d 00 00 00 00
       0.030659325 0.505545 0.0709714 0.0
0000a0 ef eb 96 bd b4 5c ee 3c da d4 f9 bc d7 c2 f7 3d
       -0.073692195 0.029096939 -0.030497003 0.120977096
0000b0 00 00 00 00 00 00 00 00 62 0d 93 bb 26 e2 c9 3b
       0.0 0.0 -0.0044876793 0.006160992
0000c0 c1 90 12 3b 00 00 00 00 00 00 00 00 a7 f2 2a bc
       0.0022364112 0.0 0.0 -0.010433829
0000d0 23 dc a2 3d ca ca 10 3d 12 b8 6f bd 90 ce 92 be
       0.07952144 0.035349645 -0.058525153 -0.2867322
0000e0 2a 7b a8 3a 88 69 c5 ba c4 fc 2c bc 8b 29 e4 bb
       0.0012854089 -0.0015061358 -0.010558311 -0.00696296
0000f0 e4 00 3d 3c 1e 68 77 3c 7c 2f 80 3c 3a 47 a3 bc
       0.011535857 0.015100507 0.015647642 -0.019931424
000100 29 6b 39 be ba 29 76 bb 00 00 00 00 0a 6f ac 3d
       -0.18107285 -0.0037561492 0.0 0.084196165
000110 07 84 93 be ce f4 d3 3d 92 70 cf bb 14 b2 43 3e
       -0.28811666 0.10349427 -0.006330558 0.191109
000120 e3 7a 9f 3b 03 6e 58 3c 5e 07 fc 3c 00 00 00 00
       0.004866944 0.013209823 0.030765232 0.0
000130 84 d4 cf bb 9a b0 8e 3d 00 00 00 00 5a be 46 bb
       -0.0063424725 0.06967278 0.0 -0.003032586
000140 99 cd 5f 3d 36 2b aa 3c a3 40 43 bd 00 00 00 00
       0.054639433 0.020772558 -0.047669064 0.0
000150 5c 02 6a bd 94 89 08 bd 00 00 00 00 5c 47 7c bd
       -0.057131156 -0.03333433 0.0 -0.06159149
000160 9c 40 f2 3c 00 00 00 00 bb dd b7 3e 58 bd 8a 3d
       0.029571824 0.0 0.35911354 0.06774396
000170 00 00 00 00 00 00 00 00 b4 e7 ab 3d 76 a5 20 bd
       0.0 0.0 0.08393803 -0.039220296
000180 00 00 00 00 fc 4a 82 3d 7c 03 d7 3c d3 e1 35 bd
       0.0 0.063619584 0.026246779 -0.044404816

mean.4.weight f4 [2, 100]
000000 07 93 d2 3d 33 01 44 3e 6c f0 9d bd 5b 99 48 be
       0.102819495 0.19141082 -0.077118725 -0.1958975
000010 c7 6b 16 bd 08 8f 68 3e 5e ab 53 3e d9 c5 fe bd
       -0.03672388 0.22710812 0.2067084 -0.1244008
000020 0c a9 00 3d d3 8c 3a be 5e c9 59 3e c1 48 0c 3e
       0.031411216 -0.18217783 0.21268222 0.13699628
000030 56 9b af bd 14 66 e2 3d 30 44 8f 3c 27 a4 11 be
       -0.0857455 0.11054626 0.017488569 -0.14222775
000040 72 24 70 be c2 76 18 3e ea 32 5f be 28 99 64 3e
       -0.23451403 0.14889053 -0.21796766 0.2232405
000050 39 77 87 bd e6 af 70 3e 7d e1 2a 3e 4c db 1a 3e
       -0.06614537 0.235046 0.1668758 0.15122718
000060 46 d3 b0 bd 05 77 dd 3d ea 01 6c 3d d3 50 01 bc
       -0.08634047 0.10813717 0.057619013 -0.007892805
000070 52 65 86 3c fc fd 84 3d b5 31 ec 3d 62 4e 58 3e
       0.016405735 0.06493756 0.11532918 0.2112365
000080 51 be b7 bd 6a e0 38 bb dc b6 8c bd 81 2c 7d bd
       -0.08971847 -0.0028209933 -0.06870815 -0.06181002
000090 bd f3 00 3e 35 f8 a7 3e 0c 3f 2f 3e 28 95 79 bd
       0.12592979 0.32806554 0.17113894 -0.060933262
0000a0 e8 13 1a 3e 56 f3 3b 3e 1f 9b 74 3d 14 6d 97 3e
       0.15046656 0.18354544 0.059718248 0.29575408
0000b0 7c 63 a0 3d 88 de 46 bd 51 5c a5 3d 4e 51 7d 3d
       0.07831475 -0.048552066 0.080742486 0.061845116
0000c0 89 f1 d6 3d 74 5f 73 bd cc e7 35 be 35 60 5f be
       0.10495288 -0.059417203 -0.17764205 -0.21814044
0000d0 4e 95 3d be 8f ec 19 3e a0 3a 6a bd 94 38 70 be
       -0.18513986 0.15031646 -0.057184815 -0.23459083
0000e0 0f 7a 3d 3e b6 ab 50 be 30 4d 9d 3d 4b 1c 30 3e
       0.18503593 -0.20378003 0.07680738 0.17198293
0000f0 42 3c 01 be 2a 6c 37 bb 29 a0 8b 3e 9f ed 5f 3e
       -0.12620643 -0.0027988055 0.2727063 0.21867989
000100 5e 64 68 3e b1 92 f4 bc 00 b5 12 3e d9 4b 0c 3e
       0.22694537 -0.029855104 0.14326859 0.13700809
000110 1a 62 6a 3c 23 1b 83 3e ed 11 9b 3d 23 03 33 3e
       0.014305616 0.2560664 0.075717784 0.17481665
000120 62 0e 51 be 1b 40 cd 3d 1f 92 82 be d0 ff 25 3d
       -0.20415643 0.10021993 -0.25502107 0.040527165
000130 cc d5 b5 3d d5 b0 59 3e 8a 18 04 3e 4f 5f dd bd
       0.08878669 0.21258862 0.12899986 -0.10809194
000140 a5 dd bb 3d 68 b1 72 be 6b c5 4b 3e a0 a1 ee 3d
       0.09173135 -0.23700488 0.19899528 0.11651921
000150 71 60 19 bd 00 e8 ab 3d b2 dc 08 3e 24 ab 5a be
       -0.03744549 0.0839386 0.13365439 -0.21354347
000160 e8 1f 4f 3e d4 43 94 3d 18 2b c4 3e be a7 60 3d
       0.20227015 0.072395 0.38314128 0.05484747
000170 40 66 c6 3c 50 74 64 3d dd 07 4d 3e 6b df 59 be
       0.024218678 0.055774987 0.20022531 -0.21276633
000180 ee 51 09 3e 69 0f 45 3e 37 54 28 bd dd 2b 27 be
       0.1341016 0.1924416 -0.04109594 -0.16325326
000190 dc 21 50 3e 31 c7 0e 3e ea 5f ef bd 47 a8 88 3d
       0.20325416 0.13943173 -0.11688216 0.06672721
0001a0 24 d5 a5 bd 09 b5 0f be 6e 4b 52 3e bd 16 c3 3d
       -0.08097294 -0.14033903 0.20536587 0.09525821
0001b0 74 40 94 bb e1 be 1a 3e 96 a1 34 3e d2 30 ca 3d
       -0.004524285 0.15111877 0.17639765 0.09872593
0001c0 11 00 c4 3d 34 c2 39 be 1a f3 c6 bd d9 57 4c 3e
       0.09570325 -0.18140489 -0.09714337 0.19955386
0001d0 dc 58 97 3d 94 77 88 3d d3 70 fa bd 3c 26 37 be
       0.073899955 0.06663433 -0.12228551 -0.17885679
0001e0 4d 57 c7 bd c3 ca 9c 3c 5c 40 28 be 5a 7a 3d 3e
       -0.09733448 0.019139653 -0.16430801 0.18503705
0001f0 85 2d 46 be b5 0b f8 bc d6 9f 52 3e b3 ba b7 bd
       -0.19353302 -0.03027902 0.20568785 -0.08971157
000200 7c d4 63 bc 71 6b 07 be 36 95 e4 3d f7 d9 41 be
       -0.013905641 -0.1322458 0.11161272 -0.18930803
000210 8d 94 3b be 05 ce bf bd 9b a6 e5 3d 2f 0b b5 bd
       -0.18318386 -0.09365467 0.11213418 -0.08840024
000220 19 3f 52 be 18 3e 1e be 46 24 1e be f2 78 4e 3e
       -0.20531882 -0.15453374 -0.15443525 0.20163324
000230 31 50 26 bd fa da 22 3e 62 e4 72 3e 61 d0 80 be
       -0.04060382 0.15903845 0.23719934 -0.2515898
000240 24 c3 be 3d 48 26 07 3d 79 e5 52 3e 18 61 83 3b
       0.09314564 0.032995492 0.2059535 0.004009377
000250 2d 51 19 3d 25 20 73 be 0e 38 6e 3e 33 08 43 be
       0.03743093 -0.23742731 0.2326357 -0.19046097
000260 4b 98 55 3e c3 06 26 be dc 38 52 3d 59 f8 26 3d
       0.20858876 -0.16213517 0.051323757 0.040764187
000270 ce fd 38 3e 84 b4 7a be c4 bc 2d 3e db 80 8b 3e
       0.18065569 -0.24482924 0.1696654 0.27246746
000280 2d 99 9b 3d 4b ef 63 3e 7c f8 27 3e 20 5b 17 3a
       0.07597575 0.22259252 0.16403383 0.00057737716
000290 ab 73 ab 3d 2c 7a 42 3b b0 25 73 3d 3a e0 54 be
       0.08371671 0.002967487 0.059362113 -0.2078866
0002a0 40 b8 88 bd 80 3c 28 be 35 30 19 be 7f ed 35 be
       -0.06675768 -0.16429329 -0.14959796 -0.17766379
0002b0 5a bb a9 bd da d2 77 3c f6 7b c7 3c 60 8e df 3d
       -0.082876876 0.0151259545 0.024351101 0.10915828
0002c0 62 1f a9 3d 42 1e 0c be d8 2d 2f 3e 72 c5 2c be
       0.08257939 -0.13683417 0.17107332 -0.16872194
0002d0 92 e5 ad bd 66 4a 6b 3e 02 f3 f4 3d e0 64 f0 3d
       -0.08491053 0.229776 0.119604126 0.117379904
0002e0 ce 86 69 be 60 f2 26 3e a8 5e 4b be bd 3b 64 3d
       -0.2280533 0.16303396 -0.19860327 0.055721033
0002f0 51 03 2b be f8 c3 bb 3d 40 80 90 be 30 05 81 be
       -0.16700484 0.091682374 -0.28222847 -0.2519927
000300 40 bf 5f be ac 74 3e be 85 25 c2 bd bd 22 99 3c
       -0.218503 -0.18599194 -0.094798125 0.018693322
000310 aa 61 af bd ce bd 08 be 7f d1 82 3d 80 ca 4f 3e
       -0.0856355 -0.13353655 0.063876145 0.20292091

mean.4.bias f4 [2]
000000 26 13 93 3e 79 13 93 be
       0.28725547 -0.28725794
