save/exp18/it18_model.pt (torch, 52263 bytes, 7 tensors)

sigma f4 [2]
0	0xc01a2333	-2.4083984
1	0x3e8c8ceb	0.27451262

mean.0.weight f4 [100, 20]
0	0x3cd615ea	0.026133496
1	0x3e137307	0.14399348
2	0xbe731ef9	-0.23742284
3	0xbd1d1b60	-0.038356185
4	0xbdf85e6e	-0.12127386
5	0x3e1e0deb	0.15434997
6	0xbdf6b1b1	-0.12045611
7	0x3ea9d2d4	0.33168662
8	0xbe5dbeb4	-0.21654779
9	0xbc2106b5	-0.009828259
10	0xbdac0e61	-0.0840118
11	0xbd7ea406	-0.062168144
12	0xbddac666	-0.10682373
13	0x3c9731d5	0.018456379
14	0x3e492c83	0.19645886
15	0x3d689f9d	0.056792844
16	0x3df9f16b	0.1220425
17	0x3db320f6	0.08746521
18	0xbc43969b	-0.011937763
19	0x3d02bcf7	0.031918492
20	0x3e43e6f3	0.19131069
21	0x3bc62c3f	0.006047755
22	0x3e2011fc	0.1563186
23	0x3e19b031	0.15008618
24	0x3e26a64e	0.16274378
25	0x3d9c4ec3	0.0763221
26	0x3e86c9c2	0.26325804
27	0xbdc279ca	-0.09495886
28	0x3e73b421	0.23799182
29	0x3e9b3d57	0.30320236
30	0x3e303708	0.17208493
31	0x3c04b1ff	0.008099078
32	0xbe2fca5d	-0.17167039
33	0x3dda6948	0.10664612
34	0xbe3daeee	-0.18523762
35	0xbdefbdbf	-0.11706113
36	0xbcef373e	-0.029201146
37	0xbee4d2e7	-0.44692156
38	0x3d3757bc	0.044761404
39	0xbe4f2372	-0.20228365
40	0x3dd05c72	0.101738825
41	0xbe2b6b28	-0.16740096
42	0x3de6f3cf	0.112769715
43	0x3e3300c8	0.17480767
44	0x3e1936a0	0.14962244
45	0x3e85ba34	0.26118624
46	0x3d854bb1	0.065085776
47	0xbdafbacf	-0.08580553
48	0x3dd50f15	0.10403267
49	0x3d24f3a3	0.040271413
50	0xb9deff22	-0.00042533228
51	0xbe4aeddf	-0.19817303
52	0xbd46c07e	-0.04852342
53	0xbd5af5f4	-0.053457215
54	0x3e0dff43	0.13866906
55	0x3dc794e4	0.097451955
56	0x3e0ec431	0.13942029
57	0x3d4e4f80	0.050368786
58	0xbda3939b	-0.07987138
59	0xbe1de0e0	-0.15417814
60	0x3debf873	0.11521997
61	0xbdd44045	-0.10363821
62	0x3ec61933	0.386911
63	0x3da789b4	0.08180562
64	0x3e52ea07	0.20597087
65	0xbca321c7	-0.019913567
66	0xbe216b12	-0.157635
67	0xbe70558e	-0.23470137
68	0x3eb5ebe7	0.35531542
69	0x3ddc1038	0.10745281
70	0x3d96e373	0.07367601
71	0xbe4df486	-0.2011281
72	0xbe27c272	-0.16382769
73	0xbe5cfaea	-0.21580091
74	0x3da83e56	0.08215015
75	0xbe8f39ac	-0.27973688
76	0x3d9b3861	0.07579113
77	0x3c4c29fd	0.012461183
78	0xbd7bec64	-0.061504737
79	0x3e5a56dc	0.21322197
80	0xbdbaf490	-0.09128678
81	0xbd8d9d2f	-0.06914746
82	0xbdf0b2c2	-0.11752845
83	0xbe713cf6	-0.23558411
84	0xbd3dfdb0	-0.046384513
85	0x3c9504dc	0.018190794
86	0xbe6725a4	-0.22572953
87	0x3c916bdc	0.017751627
88	0xbe5334c0	-0.20625591
89	0xbe5683ad	-0.20948668
90	0xbe11d9bc	-0.14243215
91	0xbdbbdf38	-0.09173435
92	0xbd0f2eb9	-0.034956668
93	0xbd9a21f0	-0.07526004
94	0x3dc71fc9	0.097228594
95	0xbe831aa8	-0.25606275
96	0xba73eb80	-0.00093048066
97	0xbd8276a4	-0.06370285
98	0x3d5c0a18	0.053720564
99	0x3e244523	0.16041999
100	0x3e4e3ab6	0.20139584
101	0xbe088dea	-0.13335386
102	0xbdf13316	-0.11777322
103	0xbd0331b3	-0.03202982
104	0xbdad6281	-0.08466054
105	0x3e0dc062	0.1384292
106	0xbbd26c1f	-0.0064215804
107	0x3e3c1624	0.18367821
108	0x3e2100f6	0.15723023
109	0x3dc43004	0.09579471
110	0x3d084230	0.033266246
111	0x3dc43e4b	0.09582194
112	0x3d089554	0.033345535
113	0x3e8376a0	0.2567644
114	0xbe0cef63	-0.13763194
115	0x3d64bff4	0.055847123
116	0xbe1da6ce	-0.15395662
117	0xbe1c2de3	-0.1525188
118	0x3d1a3be1	0.03765476
119	0x3e207887	0.15670978
120	0x3d778809	0.060432468
121	0x3d379bc0	0.04482627
122	0xbe497d58	-0.19676721
123	0xbda6674c	-0.08125171
124	0xbe064ea4	-0.13115937
125	0xbe4387a4	-0.19094712
126	0xbb97415d	-0.004615946
127	0x3e8ac3b4	0.27102435
128	0x3e24042a	0.16017213
129	0xbe9ac8df	-0.30231377
130	0xbdd5c370	-0.10437667
131	0xbe0f2a73	-0.13981037
132	0xbdead39f	-0.11466145
133	0xbe5209da	-0.2051157
134	0x3cf2c823	0.029636448
135	0xbdf82165	-0.121157445
136	0x3e352b87	0.17692386
137	0x3e9e2533	0.30887756
138	0xbe95bc92	-0.2924543
139	0xbeb5d536	-0.3551423
140	0x3c0ef1b0	0.008724615
141	0xbd7fac58	-0.06242022
142	0x3d86701c	0.06564352
143	0xbe1afecc	-0.1513626
144	0x3dbb74dc	0.091531485
145	0xbe45c68e	-0.19314024
146	0xbdf1b0c8	-0.118012965
147	0xbdf0be4f	-0.117550485
148	0x3ddd98b0	0.108201385
149	0xbbbfd560	-0.0058542937
150	0xbe5c0cc9	-0.21489252
151	0xbe02c572	-0.12770632
152	0xbdd3ed5a	-0.103480056
153	0xbe5472c2	-0.20746902
154	0x3cea8e00	0.028632164
155	0x3da32f0c	0.07967958
156	0xbd280bc4	-0.041026846
157	0xbdb63cce	-0.08898316
158	0xbab1be00	-0.0013560653
159	0xbe35de8e	-0.17760679
160	0xbe45c8a9	-0.19314827
161	0x3c5e2c00	0.013560295
162	0x3dd390c8	0.10330349
163	0xbda911ae	-0.08255325
164	0x3c8319e3	0.016003555
165	0xbe2e2c93	-0.17009191
166	0xbdad68d2	-0.084672585
167	0xbe8d4cac	-0.27597558
168	0x3e33c252	0.17554596
169	0x3e38f253	0.1806119
170	0xbce24e3c	-0.027625196
171	0x3d1b21a8	0.037873894
172	0x3e22cd10	0.15898538
173	0x3d2c906d	0.042129923
174	0x3db9d06a	0.09072955
175	0xbe89fb75	-0.2694966
176	0xbe680bb3	-0.22660713
177	0xbe89473a	-0.26812154
178	0xbad2b95d	-0.0016076971
179	0xbe907ddf	-0.28221032
180	0xbe3f35bd	-0.18672843
181	0xbd2919f2	-0.04128451
182	0xbe5a6a4e	-0.21329615
183	0xbc851554	-0.016245522
184	0x3d11cf1e	0.035597913
185	0xbe3d239d	-0.18470617
186	0x3e8132eb	0.2523416
187	0xbbf07eec	-0.007339349
188	0xbd9b2169	-0.07574732
189	0x3e6c44b2	0.2307308
190	0x3d989be6	0.0745161
191	0xbdaa7b22	-0.08324267
192	0xbe173b50	-0.1476872
193	0xbda55ba5	-0.080741204
194	0x3d8ea2f1	0.06964672
195	0x3e6a2ec7	0.22869407
196	0x3e4ab870	0.1979692
197	0xbd35cd9f	-0.04438555
198	0xbe5afa95	-0.21384652
199	0xbe16a9b0	-0.14713168
200	0xbd91d270	-0.07120216
201	0x3aaf73ea	0.0013385986
202	0xbdcdaf17	-0.10043161
203	0xbe37115e	-0.17877719
204	0x3cbab569	0.022791581
205	0xbe3682b2	-0.17823294
206	0xbe30a872	-0.17251757
207	0xbe3ac740	-0.1824007
208	0xbd84603a	-0.06463666
209	0x3e497897	0.19674908
210	0x3da76edb	0.08175441
211	0xbcee26aa	-0.02907117
212	0x3d2821eb	0.04104797
213	0x3da9473b	0.08265539
214	0xba982f1b	-0.0011610718
215	0xbe36caa2	-0.17850736
216	0xbe108577	-0.14113413
217	0xbe1b74b3	-0.15181236
218	0xbc0c3e8d	-0.008559835
219	0xbe51ad07	-0.20476161
220	0xbc370af5	-0.011172046
221	0xbd6958f0	-0.056969583
222	0x3e8e397c	0.27778232
223	0x3e47b398	0.19502103
224	0x3e5f14d1	0.21785285
225	0x3da2fd41	0.079584606
226	0x3d0d746b	0.034534853
227	0x3dd96364	0.106146604
228	0xbe13aa9b	-0.1442055
229	0xbd696a1f	-0.05698597
230	0xbd029e75	-0.031889398
231	0x3c80a5eb	0.015704116
232	0xbe529769	-0.20565571
233	0x3dc495f8	0.09598917
234	0x3e310cb8	0.17290008
235	0xbe2e594f	-0.17026256
236	0x3d69f5fe	0.057119362
237	0xbd7f7a46	-0.06237247
238	0xbd7eb7b0	-0.062186897
239	0xbd3abb97	-0.045589056
240	0x3e80729f	0.2508745
241	0x3dc1a774	0.09455767
242	0xbe0587f5	-0.13040145
243	0xbdc9c321	-0.09851671
244	0x3e0dd8d4	0.13852245
245	0x3d10472e	0.035224132
246	0x3d38d242	0.045122392
247	0xb986dc48	-0.00025722594
248	0xbe023930	-0.12717128
249	0xbdce428b	-0.10071286
250	0xbe1ba556	-0.1519979
251	0x3cb8d592	0.022562776
252	0x3c8fe16c	0.017563544
253	0x3e527de3	0.20555834
254	0xbdc6f334	-0.09714356
255	0x3ceb81a5	0.028748343

mean.0.bias f4 [100]
0	0xbdc2fad3	-0.09520497
1	0xbd609047	-0.054825094
2	0xbd8857f6	-0.06657402
3	0x3ddca914	0.107744366
4	0xbe023d2c	-0.12718648
5	0x3d965ba4	0.07341698
6	0xbe0b7726	-0.1361967
7	0x00000000	0.0
8	0xbdd49ade	-0.10381101
9	0x3cd1e18c	0.025620244
10	0xbbb96253	-0.005657473
11	0x3dfa7ebe	0.122312054
12	0x3cc81cfc	0.024427883
13	0xbd77df68	-0.06051579
14	0xbd69e684	-0.057104602
15	0xbe0e5fbc	-0.13903707
16	0xbdfc3bcc	-0.12316093
17	0xbde475e3	-0.111552976
18	0xbcbfc4d6	-0.023409288
19	0x3b2adfb3	0.0026073277
20	0x3e2c7385	0.16840942
21	0x3d9fcfc6	0.078033015
22	0x3e0efe90	0.13964295
23	0x3d757684	0.05992748
24	0x3d3814f7	0.04494187
25	0xbdb64874	-0.08900538
26	0x3da42d64	0.0801647
27	0xbd09c97a	-0.03363941
28	0x00000000	0.0
29	0xbe29a885	-0.16568191
30	0x3da2896f	0.0793637
31	0xbe074d5f	-0.13213108
32	0xbdab2880	-0.08357334
33	0xbd271a7c	-0.04079674
34	0x3a346ab9	0.0006882358
35	0xbd5d845c	-0.054081306
36	0xbd0f276d	-0.03494971
37	0xbd9f8a51	-0.07790054
38	0xbe0a928a	-0.13532463
39	0x3d977fbe	0.07397412
40	0x3da6b7c6	0.08140521
41	0xbd1b1f39	-0.037871573
42	0x3cfceb64	0.030873962
43	0x3c8c2a9f	0.017110167
44	0x3d544fcf	0.051833924
45	0x3c5e1753	0.013555366
46	0xbd873966	-0.06602745
47	0xbe105c27	-0.14097653
48	0xbc280a75	-0.010256399
49	0x3d988127	0.07446509
50	0xbdb506c8	-0.08839184
51	0x3d6b5c28	0.057460934
52	0xbde141f5	-0.109989084
53	0x3e22cb5f	0.15897892
54	0x3dc77ae0	0.097402334
55	0xbca6558a	-0.02030446
56	0xbd463be6	-0.048396967
57	0xbd807bc7	-0.06273609
58	0x3dea42af	0.114385
59	0xbd8187da	-0.0632474
60	0x3c8b75d5	0.01702396
61	0xbda508b0	-0.08058298
62	0x3dfab9aa	0.12242444
63	0xbdaac24c	-0.083378404
64	0xbe2073b5	-0.15669139
65	0xbbb5dac7	-0.005549762
66	0x3c4d1662	0.0125175435
67	0x3d7bef10	0.061507285
68	0xbc016403	-0.00789738
69	0x3cdab4e4	0.026697583
70	0x3db4b2b0	0.088231444
71	0xbe5a78e3	-0.21335177
72	0x3cfd27bc	0.030902736
73	0x3dd50dc0	0.10403013
74	0xbc8a1bf3	-0.01685903
75	0xbda344e3	-0.079721235
76	0x3df47eb0	0.11938226
77	0x3c5464b9	0.012963467
78	0xbd229de2	-0.03970135
79	0x3e3a20d0	0.1817658
80	0x3cb8661c	0.022509627
81	0x3dee2b02	0.11629297
82	0xbcb5256e	-0.022112574
83	0xbc55920a	-0.013035307
84	0xbd821746	-0.06352095
85	0x3ba8f3fb	0.005156038
86	0xbcc97ddd	-0.02459615
87	0x3de9a5bb	0.11408564
88	0x3d4ce71c	0.05002509
89	0xbc012d5b	-0.007884349
90	0x3e2c3552	0.16817215
91	0xbbed14c2	-0.0072351405
92	0xbd99480c	-0.07484445
93	0x3df13540	0.11777735
94	0x3b347791	0.0027537087
95	0xbcb1795f	-0.02166432
96	0xbdc368c9	-0.095414706
97	0xbd95e688	-0.07319361
98	0xbb794632	-0.0038036224
99	0xbd997531	-0.074930556

mean.2.weight f4 [100, 100]
0	0xbdcf06c0	-0.10108709
1	0xbd4c6cca	-0.049908437
2	0xbcf179c4	-0.029477008
3	0xbd0389f6	-0.03211399
4	0xba9dc2cc	-0.0012036203
5	0xbe3d105c	-0.18463272
6	0xbe301043	-0.17193703
7	0x3e1f9684	0.15584761
8	0x3e2df376	0.16987404
9	0xbe15cb27	-0.14628278
10	0xbdf81f87	-0.12115388
11	0xbc2e9da5	-0.010657703
12	0xbdd8bf02	-0.10583307
13	0xbe25d0be	-0.1619291
14	0x3d516e7c	0.051130757
15	0xbde8c002	-0.113647476
16	0x3d949a12	0.07255949
17	0xbdcb8d13	-0.09939017
18	0x3b041aa8	0.002015749
19	0xbd7f7514	-0.062367514
20	0xbceecc5b	-0.029150179
21	0xbe120052	-0.14257935
22	0xbe2b55d8	-0.16731966
23	0x3dec7a92	0.11546816
24	0xbd0ae5dd	-0.03391062
25	0xbdc9c8b7	-0.098527364
26	0x3e222729	0.15835251
27	0x3cc4442b	0.023958286
28	0xbd272904	-0.0408106
29	0x3c50d600	0.012746334
30	0xbd201392	-0.039081164
31	0x3c7f4b5e	0.015581934
32	0x3d485312	0.048907347
33	0x3d734412	0.05939109
34	0x3e065fea	0.13122526
35	0x3db5ec88	0.088830054
36	0xbd891680	-0.06693745
37	0xbb8844ce	-0.004158593
38	0xbd3c3871	-0.045952264
39	0x3e367587	0.1781827
40	0xbdf1e2e2	-0.118108526
41	0x3e08c0bc	0.13354772
42	0xbdc7a1a2	-0.09747626
43	0x3e09c7b3	0.13455085
44	0x3d99a81d	0.07502768
45	0x3dc0d910	0.094164014
46	0xbe048d5c	-0.1294455
47	0xbd3b697a	-0.045754887
48	0x3e0ab58d	0.13545819
49	0xbe37f440	-0.17964268
50	0xbd57d829	-0.05269638
51	0xbe4df81a	-0.20114174
52	0xbe1afc5c	-0.1513533
53	0x3dd1b488	0.10239512
54	0xbdbca5b7	-0.09211295
55	0xbd878e48	-0.06618935
56	0xbe1f2896	-0.15542826
57	0xbe08958b	-0.13338296
58	0x3e147a56	0.14499792
59	0xbc89d7dc	-0.016826563
60	0xbd440159	-0.047852848
61	0xbd225c28	-0.03963867
62	0x3e2926c7	0.16518699
63	0x3daab6b3	0.08335628
64	0x3deb75c1	0.11497069
65	0x3e185cbe	0.14879128
66	0x3d0238a7	0.03179231
67	0x3c94e52b	0.018175682
68	0x3bfc9f8c	0.007709449
69	0xbd5998ec	-0.053124353
70	0xbe23b3f6	-0.15986618
71	0x3e0e5700	0.13900375
72	0x3e18a897	0.14908062
73	0xbd26e64e	-0.04074698
74	0xbd8a0d60	-0.06740832
75	0x3e2bc306	0.16773614
76	0xbe0994dd	-0.13435693
77	0xbd4d455f	-0.050114986
78	0xbd90b314	-0.070654064
79	0xbdaed9a8	-0.085376084
80	0xbe1d2135	-0.15344699
81	0x3e39271e	0.18081328
82	0x3e1d212d	0.15344687
83	0x3ddd7b4a	0.10814531
84	0xbdc34628	-0.095348656
85	0xbd9f981d	-0.07792685
86	0x3be73a10	0.007056482
87	0x3d936250	0.07196486
88	0x3e4d899c	0.20072025
89	0x3ddca9ca	0.10774572
90	0xbd74a46b	-0.059727114
91	0xbddc8d59	-0.107691474
92	0x3e203c34	0.15647966
93	0xbe147210	-0.14496636
94	0xbe0e9add	-0.13926263
95	0xbc00a3fd	-0.007851598
96	0xbd86e7ae	-0.06587158
97	0x3d67d532	0.056599803
98	0xbdf86ffc	-0.12130734
99	0xbd71e652	-0.05905754
100	0xbe1b010d	-0.1513712
101	0x3dfa93f2	0.122352496
102	0x3c7e4c1c	0.015521076
103	0xbd98c259	-0.07458944
104	0xbd34c0fd	-0.04412936
105	0x3e015c05	0.12632759
106	0x3e058e97	0.13042675
107	0xbe232626	-0.15932521
108	0xbdef40ed	-0.116823055
109	0x3d76abbd	0.060222376
110	0x3d341b50	0.04397136
111	0xbdceca34	-0.10097161
112	0x3cc38267	0.023865892
113	0x3dc482a6	0.09595232
114	0xbdc98e05	-0.09841541
115	0xbe12a325	-0.14320047
116	0x3c246b18	0.010035299
117	0x3ce6f11f	0.028191147
118	0x3d725ad4	0.05916865
119	0x3e08aef4	0.1334799
120	0x3e038c51	0.12846495
121	0x3e5316bc	0.20614141
122	0xbe082394	-0.13294822
123	0xbd85208e	-0.0650035
124	0xbe415b66	-0.18882522
125	0x3e1e28fb	0.1544532
126	0xbdfc5054	-0.12320009
127	0xbdad2c08	-0.08455664
128	0xbe209fe2	-0.1568599
129	0xbd17b17e	-0.037034504
130	0xbe0e20b1	-0.13879658
131	0x3daee551	0.085398324
132	0xbe027bce	-0.1274254
133	0x3ddca43f	0.10773515
134	0xbcd46a92	-0.025929723
135	0x3d2c061c	0.041998014
136	0xbddb3b59	-0.10704679
137	0x3cf6d946	0.0301329
138	0x3dfe9842	0.124313846
139	0x3d9d4887	0.07679849
140	0x3da5d056	0.080963776
141	0xbd549311	-0.051898066
142	0xbe07db65	-0.13267286
143	0x3d147006	0.036239646
144	0x3de612d3	0.11234059
145	0x3d9b223f	0.07574891
146	0x3e1845a0	0.1487031
147	0xbe12aa21	-0.14322712
148	0x3df38185	0.11889938
149	0x3e014ac5	0.12626179
150	0x3dd9517a	0.106112435
151	0xbd942784	-0.072340995
152	0x3df0ee6b	0.117642246
153	0xbe0e7725	-0.13912638
154	0xbd96d074	-0.07363978
155	0x3d8f39c3	0.06993439
156	0x3daf2f12	0.085539
157	0x3df0c8e9	0.117570706
158	0xbd2a3e34	-0.041563228
159	0xbe0e95ff	-0.13924406
160	0x3de07e12	0.10961546
161	0xbdb31293	-0.08743777
162	0x3dddc7c3	0.10829117
163	0x3ccf6acd	0.025319481
164	0x3daa77ee	0.08323656
165	0x3cf62b4d	0.030049944
166	0xbd716fd4	-0.05894454
167	0xbd91bfe1	-0.07116676
168	0xbcf389d4	-0.029728808
169	0xbd863773	-0.06553545
170	0xbdf547fe	-0.11976622
171	0x3d5ccb05	0.053904552
172	0x3d8282ce	0.06372605
173	0xbe439252	-0.19098786
174	0xbdb8540c	-0.09000406
175	0xbe40dbe2	-0.18833879
176	0x3bebe619	0.0071990606
177	0xbd775451	-0.060383145
178	0x3e0d43f8	0.1379546
179	0xbdd5f0f7	-0.10446351
180	0xbda74ad7	-0.081685714
181	0x3e3b2657	0.18276344
182	0x3d0f1e97	0.034941282
183	0x3df6baad	0.12047324
184	0xbda379c9	-0.07982213
185	0x3e24308d	0.16034146
186	0xbd6e8958	-0.05823645
187	0xbdafaed2	-0.08578266
188	0xbe20b9c8	-0.1569587
189	0x3e192b7f	0.14957999
190	0x3d9297d8	0.07157868
191	0xbdb40498	-0.08789939
192	0xbc8a5386	-0.01688553
193	0x3d493cfa	0.049130417
194	0xbe1acdfa	-0.15117636
195	0xbdcd99ec	-0.10039124
196	0x3d93f5dc	0.07224628
197	0x3e04913a	0.12946025
198	0xbb4689bd	-0.00302945
199	0x3e402566	0.18764266
200	0xbc2e60c1	-0.010643185
201	0x3dacfb95	0.08446423
202	0x3d9f3594	0.07773891
203	0x3e4b51dd	0.19855447
204	0x3da06c91	0.078332074
205	0xbe0dc241	-0.13843633
206	0x3e0f80e3	0.1401401
207	0xbda9527a	-0.08267684
208	0xbe0b979b	-0.13632052
209	0xbe08c5fe	-0.13356778
210	0x3e2ffb28	0.17185652
211	0x3c4ab8ca	0.012373159
212	0x3d836c49	0.06417138
213	0xbddfb50e	-0.10923205
214	0xbe0cf360	-0.13764715
215	0x3d1e007c	0.03857468
216	0xbe187d73	-0.14891605
217	0x3d3e01c0	0.046388388
218	0xbcade3ae	-0.02122673
219	0x3bb17a46	0.0054161875
220	0x3dbc02af	0.09180199
221	0xbe15ddf7	-0.14635454
222	0x3d036bc4	0.032085195
223	0xbda9fcba	-0.08300157
224	0xbd23a2bd	-0.03995012
225	0xbdbb73cc	-0.09152946
226	0xbdc777af	-0.09739625
227	0x3d819a14	0.06328216
228	0x3db01610	0.08597958
229	0xbe05d855	-0.13070805
230	0xbb30ba05	-0.0026966345
231	0x3cd5d8e0	0.02610439
232	0x3d9fcb0a	0.078023985
233	0x3c1d214f	0.009590461
234	0x3e1ab5dd	0.15108438
235	0x3e072537	0.1319779
236	0xbe1f6335	-0.15565188
237	0x3e095c0e	0.13414022
238	0xbb968ed6	-0.004594664
239	0xbd399976	-0.045312367
240	0xbdbeca19	-0.09315891
241	0xbde51cd3	-0.111871384
242	0x3d06e4ec	0.03293316
243	0xbd4a84f5	-0.049443204
244	0x3d6fc176	0.058534108
245	0xbce462ad	-0.027879084
246	0xbd2a1cc0	-0.041531324
247	0x3dd40bf9	0.10353846
248	0xbddab6c0	-0.10679388
249	0xbd8e273b	-0.06941076
250	0x3e0ab471	0.13545395
251	0x3dbca533	0.09211197
252	0x3e2c7092	0.16839817
253	0x3e127ce2	0.14305452
254	0xbe049701	-0.12948228
255	0x3dd70065	0.10498122

mean.2.bias f4 [100]
0	0xbe476511	-0.19472148
1	0x3bf03699	0.0073307273
2	0xbc20b15b	-0.00980791
3	0xbc17e804	-0.009271625
4	0x3d9390f8	0.07205385
5	0x3d7c4102	0.061585434
6	0xbc0da0d9	-0.008644306
7	0x3d5b3d96	0.05352553
8	0xbd97ad45	-0.074060954
9	0x3b3884b0	0.002815526
10	0x3ddc4406	0.10755162
11	0xbc66558a	-0.01405848
12	0x3de5ed58	0.1122691
13	0x3daf6d92	0.08565821
14	0xbd984152	-0.07434334
15	0x00000000	0.0
16	0x3dc22c8e	0.094811544
17	0x3e679d1c	0.22618526
18	0x3b8f9108	0.0043813027
19	0x3c193914	0.009351987
20	0xbe24ea81	-0.16105081
21	0xbe5c7071	-0.21527268
22	0x3d8c8812	0.06861891
23	0xbda4f49e	-0.080544695
24	0x3d42059f	0.047368642
25	0xbd351f14	-0.04421909
26	0xbdaa1ab5	-0.08305875
27	0xbdfbe420	-0.12299371
28	0xbcad91a3	-0.021187609
29	0x3c329ce6	0.010901665
30	0xbe4d7efe	-0.20067975
31	0xbd5c2d32	-0.05375404
32	0x3e2c080d	0.16799946
33	0x3b2bcd47	0.0026214884
34	0x3e03a6a4	0.12856537
35	0xbbb13955	-0.005408446
36	0x3dfb9eb4	0.122861296
37	0xbc80b7df	-0.015712677
38	0xbd2fc01d	-0.042907823
39	0x3d876d83	0.066126846
40	0xbd8768d1	-0.06611789
41	0x3d49703d	0.049179304
42	0x3c67bb9b	0.01414385
43	0x3dc3acf7	0.09554475
44	0xbcf744c5	-0.030184159
45	0xbd07d887	-0.03316548
46	0xbcfd56d2	-0.030925188
47	0xbddddc76	-0.10833065
48	0x3cd20767	0.025638295
49	0xbe0f53ec	-0.13996857
50	0xbd80292e	-0.062578544
51	0x3de42ffd	0.111419655
52	0x3cc07eae	0.023497906
53	0xbd36ab4f	-0.044596966
54	0x3d18240d	0.037143756
55	0xbc01fc2a	-0.007933656
56	0x3c726066	0.014793491
57	0x3d99cb1a	0.07509442
58	0xbe0a5c6b	-0.13511817
59	0xbdfa8ddb	-0.12234088
60	0x3c62e57a	0.013848657
61	0xbd83ff34	-0.064451605
62	0x3d4991fe	0.049211495
63	0x3caa2234	0.020768262
64	0x3cf5e78a	0.030017633
65	0x3c0e9f16	0.008704921
66	0xbd25b457	-0.04045519
67	0xbd39b589	-0.04533914
68	0xbcd2482b	-0.025669178
69	0xbdacda87	-0.08440118
70	0x3cdb6e7f	0.026786087
71	0x3db4303a	0.08798261
72	0x3cd6c21f	0.026215611
73	0x3d8d22d2	0.06891407
74	0xbc49c01d	-0.01231387
75	0x3ad9a7de	0.0016605814
76	0xb95b9046	-0.00020939214
77	0xbdbd987f	-0.09257602
78	0xbc6ab73b	-0.014325912
79	0xbd225e4e	-0.039640717
80	0x3c0f19b2	0.008734154
81	0x3e319b04	0.1734429
82	0xbc1494e3	-0.0090687005
83	0x3d02a1a9	0.031892452
84	0x3da610c5	0.08108667
85	0x3e1943d3	0.14967279
86	0x3d022a04	0.03177835
87	0xbc904f8c	-0.017616056
88	0xbc733e51	-0.0148464
89	0xbcbb3938	-0.022854432
90	0xbc0ee375	-0.008721222
91	0x3cc7c45c	0.024385624
92	0xbe0e6959	-0.13907374
93	0xbdb7fbf2	-0.08983602
94	0x3ccd2a69	0.025044637
95	0x3c9b744c	0.018976353
96	0x3b4db140	0.0031386167
97	0xbc58383e	-0.013197003
98	0x3d181661	0.037130717
99	0xbc953d0f	-0.018217592

mean.4.weight f4 [2, 100]
0	0x3e2d4f4c	0.1692478
1	0x3e79eb95	0.24406274
2	0xbc7a3b1c	-0.015272882
3	0x3d607e8e	0.054808192
4	0xbeb0332f	-0.3441405
5	0xbd1bbdde	-0.03802287
6	0x3e2e1898	0.1700157
7	0xbcdfda71	-0.02732584
8	0xbdc2bc8c	-0.09508619
9	0x3e280f38	0.16412055
10	0x3d4a1b1d	0.049342263
11	0xbe48be83	-0.19603924
12	0x3ea300bb	0.31836495
13	0xbd5bca0e	-0.05365949
14	0xbdd774d2	-0.105203286
15	0x3de29b64	0.11064795
16	0xbed6c0f4	-0.41944087
17	0x3f026c23	0.50946254
18	0x3eee23bd	0.4651164
19	0x3bf4aff3	0.007467264
20	0x3e7daef2	0.24773768
21	0xbe4b78a9	-0.19870247
22	0x3e963884	0.29339993
23	0x3d39c14a	0.04535035
24	0x3ddd18d1	0.10795749
25	0x3e72e48f	0.2372
26	0x3db070bc	0.086152524
27	0x3e478b15	0.1948665
28	0x3cbfd06a	0.02341481
29	0x3e99249d	0.29910746
30	0x3daa5ed0	0.08318865
31	0xbdd44030	-0.10363805
32	0xbdd903b6	-0.10596411
33	0x3d21dd15	0.03951748
34	0xbeeb382c	-0.45941293
35	0x3da075fe	0.07835005
36	0xbf0e8cc5	-0.5568355
37	0x3e345bdf	0.17613171
38	0xbe0fb97b	-0.14035599
39	0xbf5dad86	-0.865929
40	0x3e8428a8	0.25812268
41	0x3e1cb66d	0.15303965
42	0xbe2ee247	-0.17078505
43	0xbe6b99b3	-0.2300785
44	0xbdfb20ce	-0.122621164
45	0xbe548efd	-0.2075767
46	0x3e3d11e3	0.18463854
47	0xbe8f38b0	-0.27972937
48	0xbd746061	-0.059662227
49	0xbe355a3e	-0.17710206
50	0x3e6f55f2	0.2337263
51	0xbe81b5ad	-0.2533392
52	0xbedd0e63	-0.4317504
53	0x3e8fc53d	0.28080168
54	0x3e88aa0e	0.2669224
55	0x3dabb885	0.08384804
56	0xbe4631f6	-0.19354996
57	0xbee9a384	-0.45632565
58	0xbca5b401	-0.020227434
59	0x3d74690a	0.059670486
60	0xbe42b21c	-0.19013256
61	0xbe7e8722	-0.24856237
62	0xbd9d6a0e	-0.07686244
63	0x3e5eb8f7	0.21750246
64	0x3d354596	0.044255815
65	0xbda1ccad	-0.07900367
66	0xbe87a12b	-0.2649015
67	0xbdcdbf75	-0.10046283
68	0x3d0f01fe	0.03491401
69	0x3e414ae5	0.18876226
70	0x3e2f2a5a	0.17106
71	0xbe7abffb	-0.24487297
72	0x3e2a752b	0.16646259
73	0xbc95fee9	-0.018310027
74	0xbddb8e5c	-0.10720512
75	0xbe891789	-0.26775768
76	0x3e7afc29	0.24510254
77	0xbe4be40a	-0.19911209
78	0x3e3e8c05	0.186081
79	0x3e320193	0.17383413
80	0xbde92cc2	-0.1138549
81	0xbebf9e2d	-0.37425366
82	0xbd078d02	-0.03309346
83	0x3dee8c9a	0.11647911
84	0x3e69822e	0.22803566
85	0xbf0b2f53	-0.54369086
86	0xbf01b004	-0.50659204
87	0xbdad03e6	-0.08448009
88	0xbe52fdc3	-0.20604615
89	0x3e06c81c	0.13162273
90	0xbc43e551	-0.011956529
91	0xbe8153ec	-0.2525934
92	0x3da4eaef	0.080526225
93	0x3e3e6c73	0.18596058
94	0x3e9492a3	0.29018125
95	0xbe250daa	-0.16118494
96	0x3df32b4d	0.11873493
97	0x3e22a956	0.15884909
98	0x3ea3dfa8	0.32006574
99	0x3d03e195	0.032197554
100	0xbd9ddd4a	-0.07708223
101	0xbd5d1346	-0.05397346
102	0x3d6cf638	0.057852
103	0x3e55e333	0.20887451
104	0x3ee87696	0.45402974
105	0x3ec3fab5	0.38277212
106	0xbeacad57	-0.33725998
107	0xbd34d38c	-0.04414706
108	0xbcd4be5a	-0.025969673
109	0xbd5bc53e	-0.0536549
110	0x3e36721f	0.17816971
111	0xbdd249ff	-0.1026802
112	0xbdbc0e36	-0.09182398
113	0x3edbb6df	0.42912957
114	0xbd8854f1	-0.06656826
115	0x3da2674c	0.079298586
116	0x3f169dd7	0.58834594
117	0xbea6c74e	-0.32573932
118	0xbeb14ee5	-0.34630504
119	0x3eb8a54e	0.36063617
120	0xbef334fe	-0.47501367
121	0x3e5e3806	0.21701059
122	0xbe22d49d	-0.15901418
123	0x3ddd44a0	0.10804105
124	0x3c1f6fe5	0.009731268
125	0xbe08c05d	-0.13354631
126	0x3dffd18e	0.12491141
127	0xbddf7be8	-0.10912305
128	0xbe92b3ad	-0.28652707
129	0xbe3b085d	-0.18264909
130	0xbe309851	-0.17245604
131	0xbe2e45b5	-0.17018779
132	0x3ee5828d	0.44826165
133	0x3c50d50c	0.012746107
134	0x3e08764b	0.13326375
135	0x3e94a65a	0.29033166
136	0x3eb65336	0.3561036
137	0x3ded26ec	0.115796894
138	0x3d5e4896	0.054268442
139	0x3f728d57	0.9474692
140	0x3d837cc7	0.06420284
141	0xbe3804b4	-0.17970544
142	0xbe5641fa	-0.20923606
143	0x3f083d3c	0.53218436
144	0xbe75f526	-0.24019298
145	0xbcf32ee9	-0.029685454
146	0xbd0f401d	-0.034973253
147	0x3e9cbbb6	0.30611962
148	0xbe8a9307	-0.27065298
149	0x3cd2766d	0.025691235
150	0x3cbc3abe	0.02297723
151	0x3ebc6501	0.3679581
152	0x3eebb392	0.4603544
153	0xbe93943e	-0.28824037
154	0x3e041b5f	0.12901066
155	0x3e42d5d7	0.19026886
156	0x3e6969ba	0.22794238
157	0x3e5d966d	0.21639414
158	0x3e2b6a9f	0.16739891
159	0xbce040b0	-0.027374595
160	0xbca677a1	-0.020320715
161	0x3ccf632e	0.025315847
162	0x3e5035ce	0.20333025
163	0xbe8caffa	-0.2747801
164	0x3db6d71f	0.0892775
165	0xbdbfad82	-0.09359266
166	0x3e3552bd	0.17707343
167	0x3e41188d	0.18857022
168	0x3ebd2caa	0.36948138
169	0xbe4dbcd3	-0.20091562
170	0xbdb4eb33	-0.08833923
171	0x3eb52506	0.3537981
172	0x3e693a35	0.2277611
173	0x3e42b73d	0.19015212
174	0x3e725d31	0.23668362
175	0xbd50a869	-0.05094186
176	0x3e3e66a0	0.18593836
177	0xbe032fdf	-0.1281123
178	0xbe9cbbb1	-0.30611947
179	0xbe08c6be	-0.13357064
180	0xbd9cc20c	-0.07654199
181	0x3f011fb4	0.50439
182	0xbed7fe60	-0.4218626
183	0xbcb3ea15	-0.021962205
184	0xbecbe43c	-0.39822567
185	0x3ef4e038	0.47827315
186	0x3ed9e356	0.42556256
187	0xbdd01520	-0.10160279
188	0xbe3e460a	-0.18581405
189	0x3daa3c31	0.08312262
190	0x3de51cde	0.111871466
191	0xbe4926c2	-0.19643691
192	0xbc37aa34	-0.011210013
193	0xbdb91b3b	-0.09038397
194	0xbe76269a	-0.24038163
195	0xbc10d2fe	-0.008839367
196	0xbeda326d	-0.42616597
197	0xb8f704b5	-0.000117787546
198	0x3c85b47f	0.016321419
199	0x3e083ea2	0.13305143

mean.4.bias f4 [2]
0	0x3cc81df1	0.02442834
1	0xbcc81ea1	-0.024428668
