save/exp25/it25_model.pt (torch, 52263 bytes, 7 tensors)

sigma f4 [2]
00000000: c9f9 5abf f82c 343e
-0.8553739 0.17595279

mean.0.weight f4 [100, 20]
00000000: 2b76 2c3e 4852 10bc 5bee dc3d 01db dbbd
00000010: 94c4 14bd 3423 f23d fa9a 27bd acb6 2d3e
00000020: 81cf a63c 4878 31bc 9691 0f3e eb68 eb39
00000030: 3648 28be 4f63 733d f192 583d 40de 61b9
00000040: 59cb 123e 8744 1e3e 38db 903b 02a8 9b3d
00000050: f186 6ebd 785c c0bc d41f 5c3c 3a39 6f3e
00000060: 32c9 9a3c 5538 2bbb ef50 8b3e 6bf7 e9bd
00000070: a54f df3d ca1b a43d 2078 da3d 74e4 c03c
00000080: 276d 69be d4d9 4c3e b59a 8ebd 22ed f93d
00000090: c9d5 273e fb56 2bbe 4ea7 c8bd 4500 97bd
000000a0: aa2c 8e3e 6d05 81be 1a62 8e3e 114d fb3d
000000b0: ff4b 893d ea1f 153e 0903 993c 1055 9cbe
000000c0: 68ae 8b3e dd5e e33d fe85 14be 98d7 93be
000000d0: 56f0 24be ac1a 3abe 2d96 c33e 8e7f 3d3e
000000e0: e2c8 df3d 3281 5d3e 67ed a6be 6103 82bd
000000f0: 4216 8cbd cd21 acbd b7b7 563e 7fcf 4e3d
00000100: 9f2e d93d 7054 b6bb d259 5bbe c485 b2bd
00000110: f563 753e e860 fa3d 2791 ee3d 4f5c a4bd
00000120: 1fc1 69be bb80 05be f4f9 dd3d 5ab8 88bd
00000130: 013e 803d d86a dc3d f2aa 03be 5f6b 2e3e
00000140: 5919 05bd 49da afbb 6e48 cbbd 0c77 4fbe
00000150: ccd1 c43d 55a4 ad3d 148f 81bd 97af 523e
00000160: 851a 5cbe 591a 65be b486 11be e113 9bbd
00000170: 06c3 2039 af68 e7bc 1059 033e 889c 21be
00000180: 8720 2f3d e9a0 243d 80a1 9e3d 1f50 863e
00000190: ec92 aa3d ec12 21be 851c 59be 9cfa aebd
000001a0: b721 0bbe 9226 aa3c 1833 65bb c295 203e
000001b0: 35cd 813d ccc2 f4bd b296 66bc b4ea aa3c
000001c0: c21d 83bd 00fb 093e 136c 3dbe 3832 023e
000001d0: 3381 eebd 8833 59be 38f7 b9bd f179 c13d
000001e0: 140f 3e3e 7ed6 023e 2a2a f5bc 82eb 233b
000001f0: 58c3 ecbd f05e 9bba a281 bbbd a8a6 443e
00000200: d113 f03d 1b88 27be fb23 18bd 146c 0bbe
00000210: 159f 4e3c 3565 33be b603 da3c 7455 25be
00000220: c0bd 923e a39b 203e 09e9 00be 00f2 35be
00000230: 510b babd 58ac 7fbd 2e7a 743d ccfe 1abe
00000240: 4ddd 993d 8ec6 45be ffe3 d8bd 4fbe f0bd
00000250: 3d72 573d 60d5 bfbb 24f7 88be 72c5 02be
00000260: 2eb7 33be c272 54be 22e3 84bd 0c2f a33d
00000270: b5cb 9bbd ce3c b6bd 162d 0abd 8ede 35be
00000280: 240f 583d 7e63 e6bc f363 9a3e b510 9dbd
00000290: e9cd 223e d1d1 a0bd dac4 dbbd 0973 54be
000002a0: 7456 233e 8824 3e3e 1e21 30bb 6c9e 2b3e
000002b0: 886e 963e 240c 223e 94cf 193e cda5 3dbe
000002c0: 5dfd 5fbe 1e9b f8bd df65 7e3e 745b 19be
000002d0: 9688 86bd 1ddd 92be 339e 00bf 7b7a ccbd
000002e0: e512 833d c256 09be 636e c33e 46db 2c3c
000002f0: bbae a4ba 924e 513e d0ad d23e 5368 933d
00000300: b5e4 57be 2590 813d 8b92 9e3d c9e8 0b3e
00000310: ccaa 383e a8f5 50be d816 d3be 7085 8dbe
00000320: 4a2a b8bd 1c73 2e3b 455c cfbd 395a 35be
00000330: 9993 163d 051d 36be afef 35be f3d2 3abe
00000340: 115e 81bd 1e67 473e 751b 513d 3fb0 f7bc
00000350: dd51 b23d c3a4 af3d 674e 97bc df08 3bbe
00000360: 4a99 0ebe 5fa7 1bbe 7293 18bc 5e5e 52be
00000370: 2833 1fbe e637 18bd af12 0c3f 235f 913e
00000380: 4bd9 913e 92ce 17bc 04cc 13be 1db5 653c
00000390: c12f c7be 27fa f4bd 74db a0bd 400e 16bd
000003a0: e90b 8ebd cf9e 85bd 3019 823e 68a3 4abe
000003b0: 08b2 71bd b51f e1bd 961a b13c 0160 25be
000003c0: f145 543e db43 91bd d53a 4bbc cc32 56bd
000003d0: 5506 443e 0009 b23d 0268 c73c 48e6 86bd
000003e0: cf37 e8bc e989 d3bd 9dcc 83bc 355c 093c
000003f0: 8384 133e ea32 2e3e 0f75 b73d 04b9 603d
0.16841953 -0.00880868 0.1078765 -0.10735131 -0.036320284 0.11823121 -0.04091928 0.16964215
0.020362617 -0.0108319 0.1402038 0.00044900863 -0.16433796 0.05942088 0.05287451 -0.00021540467
0.14335383 0.15455829 0.004420664 0.07600404 -0.05823416 -0.023481593 0.013435323 0.23361674
0.018894766 -0.0026126106 0.27210185 -0.11424144 0.10903863 0.08013113 0.10667443 0.023546435
-0.22795545 0.2000497 -0.06963102 0.122034326 0.16390146 -0.16732399 -0.09797536 -0.07373098
0.2776845 -0.25199452 0.2780922 0.122705586 0.06703948 0.14562955 0.018678205 -0.30533648
0.272815 0.11102078 -0.14504239 -0.28875422 -0.16107306 -0.18174237 0.38200513 0.1850569
0.10926987 0.21631315 -0.32603 -0.06348301 -0.06840183 -0.084048845 0.20968519 0.050490852
0.106045954 -0.005564265 -0.21420982 -0.0871692 0.23963912 0.12225515 0.11648779 -0.08025419
-0.22827576 -0.13037388 0.108386904 -0.06675787 0.06261826 0.10762566 -0.12858179 0.17033146
-0.032494877 -0.005366598 -0.09925924 -0.20260257 0.09610328 0.084786095 -0.06326118 0.20574795
-0.21494491 -0.22373332 -0.14211541 -0.07572151 0.00015331441 -0.02824816 0.12826943 -0.15782368
0.04275563 0.04019252 0.077456474 0.26233003 0.083288044 -0.15729874 -0.21202286 -0.08543894
-0.1358708 0.020770345 -0.0034973081 0.15682128 0.06337968 -0.11951217 -0.0140740145 0.020863868
-0.0640216 0.13474655 -0.18498258 0.1271447 -0.116457365 -0.21211064 -0.09080356 0.094470866
0.1856044 0.12777135 -0.029927332 0.00250122 -0.11560696 -0.0011853855 -0.09155585 0.192042
0.1172253 -0.16360514 -0.03714369 -0.13615447 0.01261117 -0.17519076 0.026613098 -0.16145879
0.28660393 0.1568437 -0.12588896 -0.17768097 -0.0908419 -0.06242022 0.059686832 -0.1513626
0.07512913 -0.19314024 -0.10590362 -0.117550485 0.05259918 -0.0058542937 -0.26751053 -0.12770632
-0.17550346 -0.20746902 -0.06488635 0.07967958 -0.076072134 -0.08898316 -0.033734404 -0.17760679
0.052748814 -0.028123613 0.3015438 -0.07669202 0.15898861 -0.07852519 -0.10730906 -0.20747007
0.15950948 0.18568623 -0.0026875208 0.16759652 0.29381204 0.15824944 0.15020591 -0.18520279
-0.21873994 -0.12138961 0.24843548 -0.14976293 -0.065690205 -0.2868432 -0.5024139 -0.09984299
0.06400088 -0.13412002 0.38170156 0.010550326 -0.0012564281 0.20440128 0.41148233 0.07197633
-0.21083339 0.063263215 0.077427946 0.13663019 0.18033904 -0.2040621 -0.41228366 -0.27640867
-0.08992441 0.0026618904 -0.10125021 -0.17710198 0.036761854 -0.17784508 -0.17767213 -0.18244533
-0.0631677 0.1947293 0.051051576 -0.030235408 0.087070204 0.08576348 -0.018470002 -0.18265103
-0.13925663 -0.15200566 -0.009312497 -0.2054381 -0.15546858 -0.037162684 0.5471601 0.28392896
0.28486094 -0.009265559 -0.14433295 0.014020232 -0.3890362 -0.11961775 -0.07854357 -0.036634684
-0.069358654 -0.06524431 0.25409842 -0.19788897 -0.059007674 -0.10992376 0.021619122 -0.16149904
0.20729806 -0.070930205 -0.012404163 -0.052294537 0.1914304 0.08693123 0.024341587 -0.065868914
-0.028346924 -0.10329039 -0.016088778 0.0083838 0.14406018 0.1701161 0.08957874 0.054863945

mean.0.bias f4 [100]
00000000: 07b1 f43b 150b e5bc 9aff 75be f848 85bc
00000010: e495 aa3d c085 99bd 8bdd 983d 8c2a d2bd
00000020: 6da3 813d 4764 323e 0ee4 41bc 2516 f0bb
00000030: 6dc1 9bbb 8153 1abd cb29 963b 92d1 dd3d
00000040: ecdc d63d 380d 9e3b 7e6f c5bd 2157 e5bd
00000050: bc27 5e3e 0d14 f5bd c729 61bd 287b 2f3d
00000060: 1015 e7bd ba79 763d a91a 48bd ada8 953d
00000070: c0dc 093d 8474 f53d e930 183c 3ebb 85bd
00000080: 1077 7dbd 5bd3 da3d f722 fcbb a99c 873c
00000090: 4291 cebc 04ae 573e 66bc 95bc fc9a fd3d
000000a0: 329c a1bc 5888 95bd e56f 643e 939d c5bd
000000b0: 847f ffbc 94e8 f43d 59b5 843d d80c acbb
000000c0: 5970 a8bd 739b 7fbd 0cb5 3a3d 1231 32bd
000000d0: 253b 4dbd 2cc7 803e b89e 11be 7f85 03bd
000000e0: 4560 1fbd eb09 2dbb 3c5a 873c 4316 ffbc
000000f0: c5fa b6bd 837a a5bc ed39 45bc f734 cabc
00000100: bdf8 9ebd 3849 5ebe 1e12 e13d 6c3a d8bd
00000110: eb4a 513d 5d49 fcbc bc83 583d 2087 84be
00000120: 7a9c 1ebe b042 6d3d a28c 343d dad7 e73d
00000130: 9e51 c3bd dcfa b23b e4ad 153e dd34 1ebe
00000140: 8c85 c4bd 938c c23d cbac a7bc 96c6 733d
00000150: 840d 53bd 256a 04bc 57a9 143e 97c1 f0bc
00000160: f633 bc3e fd7f 29bc c12e edbc 1272 f2bd
00000170: 2e37 ddbd 7dbd 4abe 8423 61bd 3274 b93d
00000180: 1b01 4fbd 6eae 6f3d fd25 863d 8ff6 be3c
0.0074673924 -0.027959386 -0.24023286 -0.016270146 0.083293706 -0.07496214 0.07464131 -0.102620214
0.06329999 0.17421065 -0.011834158 -0.0073268586 -0.0047532828 -0.03767729 0.004582619 0.10830988
0.10491356 0.004823353 -0.09640406 -0.11198259 0.21694845 -0.11966715 -0.054971483 0.04284206
-0.11283314 0.06017468 -0.04885355 0.07307563 0.03365779 0.11985114 0.009289005 -0.06529854
-0.061881125 0.10684844 -0.007694598 0.016554194 -0.025215749 0.21062475 -0.018278312 0.123830765
-0.0197278 -0.07301396 0.2230831 -0.096491955 -0.031188734 0.11958423 0.06479902 -0.0052505545
-0.082245536 -0.062404107 0.045582816 -0.04350383 -0.050105233 0.25151956 -0.14220703 -0.032109734
-0.03891017 -0.0026403617 0.01652252 -0.031138545 -0.08934549 -0.02020002 -0.012037736 -0.024683459
-0.07762287 -0.21707618 0.10989784 -0.10558018 0.051096838 -0.030796701 0.052860007 -0.25884342
-0.15489379 0.057924926 0.04407943 0.11320467 -0.095370516 0.0054620337 0.14617115 -0.15449853
-0.095957845 0.09499469 -0.020468136 0.05951556 -0.05152656 -0.008081947 0.14517723 -0.029389186
0.36758393 -0.010345456 -0.028952958 -0.118381634 -0.1080154 -0.19798847 -0.05496551 0.090553656
-0.050538164 0.05851596 0.065502144 0.023310928

mean.2.weight f4 [100, 100]
00000000: 4aff 513d 6975 963b a125 593e 601f 2b3e
00000010: 2852 c53c bca5 21be 14e4 10be d8bf 2b3e
00000020: 65dd 093e cead 7abe 92b8 e7bd 5889 8bbd
00000030: 173d 7dbd e108 57be 5752 8d3d a723 923c
00000040: e5cf 6b3d f33f babd 16e4 e43d cdf4 10bd
00000050: 01aa a3bd db65 303d 164c d3bd 0568 153e
00000060: 1584 d23d 3418 d4bd 04f7 273e 1a35 a23c
00000070: 7ee5 c6bc c4b0 5c3d ef6b b03d 9a58 4a3e
00000080: d6aa 833e 1461 89bc e5e3 633e 723b 0b3e
00000090: f3cd 4abb cf1c 793b 271c fbbc 7b6a 2b3e
000000a0: aeb2 eabc 3dda 063e 92fb 90bd 6aca 193e
000000b0: 0486 c43d 6c9a ed3d 0e07 0bbe e160 f93c
000000c0: feb9 463e 15b6 cebd b4bb 84bc 9826 0dbe
000000d0: 1d87 0dbe ce88 f03d 6351 5cbd 647d 373e
000000e0: da2a 0fbe 277c 57be 0a8f 383e 27bd 6a3d
000000f0: a73e 71bd 5dc2 90bd 201f 5f3e cb5a 903e
00000100: ee3e 223e 69fd 393e 176f a83d a30c 8e3c
00000110: e24d cbbb 4a84 a3bd f115 5ebe dfde 593e
00000120: 51a2 593e 17c1 823d d305 89bd 109c 293e
00000130: f250 2b3d c42d 433c 6c13 1cbd e69b dabd
00000140: c790 babd 2b7a 133e c835 1c3e 12bb de3d
00000150: 1e96 243d 8437 0b3c 23c9 2a3e 6dca 4f3e
00000160: b713 833d 538c 643d 0c6d 97bd 4471 abbc
00000170: 8ac1 633e 0503 c8bd 5ffb 11be 1823 553c
00000180: 7f38 b03d 6e9a 723d 987d abbd b790 4b3d
00000190: c1e1 e8bd e995 6f3d b0ab 8c3d 55a8 02be
000001a0: e0bb 3abd 0acc c63d 9927 2a3e f311 1abe
000001b0: 00cc 14be e1ac 013d cd72 323d 0e60 16be
000001c0: 1ae0 ac3d bc94 26bd 3767 fcbd 5a7b 08be
000001d0: 09fc 27bd 6f3c 1a3d 6a41 9f3d 4873 0e3d
000001e0: 67e4 033e 36b2 213e 51b3 09be 1a47 94bd
000001f0: 4195 0dbe 8f0e 913d 3117 33be d3e0 abbd
00000200: 0068 22be 0c47 1c3c 3580 43bc 7b28 9c3d
00000210: 1ca5 41be 2b81 c63d 0ec0 b8bd d2cc 1e3c
00000220: 8c97 fcbd 9c9e ca3d 5c35 f83d f1b9 513d
00000230: 4dd4 333d c436 48bd 8456 4fbe 6f89 1b3d
00000240: 0671 183e 869b da3d d280 013e 9803 cebc
00000250: 3a09 bf3d 3a38 1f3e 21fd 043e 7250 fcbd
00000260: b792 083e fcf8 48be 820d ffbd 0096 da3d
00000270: 002a 3b3e b855 a33d 7337 3fbd 9b35 14be
00000280: 43c0 ce3d 43e6 cebd d5ab b33d 467f 1cbc
00000290: 4d02 983d 9cc5 f33c 88a6 05bc 95c9 86bd
000002a0: 4824 49bd db86 98bc 4383 13be d411 a13d
000002b0: 5527 b53d 212a 4bbe b182 9abd 0d11 a4bd
000002c0: 2184 82bd c3b3 07be c570 2e3e f681 0bbe
000002d0: dc9f 8abd bfb4 873d b854 bbba 48bd a13d
000002e0: c9c6 06be e103 173e d1ac 12be 87ae a2bd
000002f0: c5d0 2bbe 3490 573e 16bc b63d e276 d8bd
00000300: 2efa c3bc e524 16bd 015e 97bd c72a afbd
00000310: a2ef 9b3d 87b6 c03d 52ad 5f3c 71e2 163e
00000320: 8ee6 a0bc dc8b c83d 1923 4d3d c047 213e
00000330: 66aa 973d c575 dbbd 35b5 e63d 56eb b5bd
00000340: 9811 12be 7ff4 fabd 5726 2d3e 0177 a53d
00000350: 9341 803d 7080 50bd 88fd 07be e9c2 453d
00000360: 4701 0dbe c80c e13c 1bc1 48bd 3559 c83c
00000370: 1532 f23d be31 29be 7868 513d 09e5 afbd
00000380: e2f8 20bd 56a2 90bd 6f6a 50bd eb1f 6d3d
00000390: 0ca1 a53d 77af 14be 39d9 2b3d 21b5 13bc
000003a0: b14a a93d 5853 643c e785 1d3e 2320 063e
000003b0: 1dfe 28be e79f 183e 90d3 a73c 19fc 7bbc
000003c0: 6b70 f3bd 13dc c8bd 92ee 2a3d dfb1 9bbd
000003d0: cc86 8b3d 8807 67bc 1e3d 4bbd 07c8 b53d
000003e0: 6279 ebbd c9d2 6dbd 945d ed3d 2d1f 8f3d
000003f0: c307 273e 546d 013e 1c0e f2bd d964 b73d
0.051268853 0.004591633 0.2120576 0.16711187 0.024087027 -0.15785879 -0.14149505 0.16772401
0.13463362 -0.24480364 -0.11314501 -0.068133056 -0.061825838 -0.20999481 0.06900471 0.017839266
0.05757131 -0.090942286 0.111763164 -0.03538971 -0.0799141 0.043065887 -0.103172466 0.14590462
0.10279099 -0.10356179 0.16402823 0.019800711 -0.024279352 0.053879514 0.08614337 0.19760361
0.25716275 -0.016769923 0.22254904 0.13596895 -0.003094551 0.0038011556 -0.030653073 0.16739838
-0.028649654 0.13169189 -0.07079233 0.15018621 0.09595874 0.11601719 -0.1357691 0.030441703
0.19406888 -0.10093323 -0.016202785 -0.13784254 -0.13821073 0.117448434 -0.053788554 0.17918926
-0.1398119 -0.21043454 0.18023315 0.057309296 -0.05889764 -0.07068322 0.21789217 0.2819427
0.15844318 0.18163075 0.08224314 0.01734001 -0.0062043527 -0.079842165 -0.21688057 0.21276425
0.21253325 0.06384485 -0.06690564 0.1656344 0.041825242 0.011912767 -0.03810446 -0.106742665
-0.09109645 0.14402072 0.15254891 0.108755246 0.040182225 0.008497123 0.1667829 0.20292063
0.06400245 0.055797886 -0.07393846 -0.020928033 0.22241798 -0.09766201 -0.14256047 0.013008855
0.08604526 0.059229307 -0.083735645 0.049698558 -0.11371184 0.058492575 0.06868684 -0.12759526
-0.045589328 0.09706886 0.16616668 -0.1504591 -0.14530945 0.03165901 0.043566514 -0.1468508
0.084411815 -0.040669188 -0.12324374 -0.13328305 -0.041011844 0.03765529 0.077761486 0.03477791
0.12880097 0.15790638 -0.1344731 -0.07240124 -0.13826467 0.07082855 -0.17489316 -0.08392491
-0.15859985 0.009538423 -0.011932422 0.076249085 -0.1891064 0.096926056 -0.090210065 0.009692388
-0.12333593 0.098935336 0.121195525 0.05120272 0.043903638 -0.048880354 -0.20247847 0.037972864
0.14886865 0.10674195 0.12646797 -0.025148198 0.09327932 0.15548792 0.12987186 -0.12320031
0.13337217 -0.1962623 -0.12453748 0.106731415 0.1827774 0.07975334 -0.04668374 -0.14473574
0.10095265 -0.10102513 0.08773009 -0.009551829 0.07422314 0.029757313 -0.00815738 -0.065814175
-0.049106866 -0.018618992 -0.14405541 0.078647286 0.088453926 -0.1984029 -0.07544459 -0.08011065
-0.06372858 -0.13252167 0.17035206 -0.13623795 -0.06768772 0.066262715 -0.0014292216 0.07897431
-0.13161768 0.14747573 -0.14323737 -0.07943445 -0.16778858 0.21051103 0.08922593 -0.1056955
-0.023923006 -0.03665628 -0.07390977 -0.08553081 0.07614066 0.09409814 0.013652163 0.14734818
-0.019641187 0.09792301 0.0500823 0.15750027 0.07405548 -0.10715822 0.11265031 -0.088827774
-0.14264524 -0.12253665 0.16909157 0.08079339 0.06262507 -0.050903738 -0.13280308 0.048281584
-0.13770019 0.027471915 -0.049012285 0.0244566 0.11825959 -0.16522881 0.05112502 -0.08588607
-0.039299853 -0.07062213 -0.050882753 0.057891767 0.08087358 -0.1452006 0.041955207 -0.009015352
0.082661994 0.013935886 0.15383111 0.13098197 -0.16503187 0.14904748 0.020486623 -0.015379929
-0.118866764 -0.09807601 0.041731425 -0.076022856 0.0681282 -0.014100917 -0.049618833 0.08876043
-0.11497761 -0.05806235 0.11590114 0.06988368 0.16311555 0.12639362 -0.118190974 0.08954782

mean.2.bias f4 [100]
00000000: a0d2 233e 42aa 12be 4567 093b b9e6 dcba
00000010: 6ef9 e0bd 64d1 523d 3554 33be 5a3e 8cbc
00000020: b5fa 2f3e 83df b9bc 421b 33bd 5826 c83d
00000030: c37a 27bd dea8 40bd a91a b53c 0000 0000
00000040: 487d 27be 30c4 3dbe 4024 a53d ac3e 6e3c
00000050: 214b 0cbd 7a1b 8a3e 6359 873c 10f2 8d3e
00000060: ef51 dbbd 3dff 83bc bd59 983e 1789 19bc
00000070: 9dc3 65bc 06c2 20bd e6b7 5e3d 95da 81bc
00000080: f57f 8cbd 2737 0ebc b546 a3bc 6b9c 443d
00000090: 359c 08bc c584 673d 35a6 cd3b 8b4c a93d
000000a0: bb06 193e 83ba 51bb a7f5 40bc efa7 e7bd
000000b0: d4d4 413d 1c18 9d3c 8aad 553d 9bd0 833e
000000c0: d5ca 5dbc 3999 853d d7ae 36bc b03e e53d
000000d0: 73c5 2bbd 1b67 443e 0635 593b 2c50 ce39
000000e0: 9e87 c1bb d1b3 a43d b5a7 9d3d d5a5 ec3d
000000f0: 2859 f1bd 8070 813e 92e6 2cbd de5f 10be
00000100: 4767 d13e 1b55 47bc dfe0 12bc fbcf 033e
00000110: b310 dfbc 60e3 e73d 1daa b93b 4c4b 263d
00000120: 1d85 17bc 4e9b 623d 618b 823d dda3 17bc
00000130: 40ab 6fbd b903 9c3d 242a 463d 3834 9a3d
00000140: b7e7 0cbd 6a84 61be 5f66 fd3c 3db7 cb3b
00000150: fc2a cf3d 57be 11be 4682 4b3d 34fd a0ba
00000160: 673a 033e 5a5b df3c 01b3 593c 546c f13b
00000170: 0312 95bc 55fa 1c3d 15f5 c33d dc66 deb9
00000180: 5d79 7e3d 20b1 473d 12fc 8f3c 3745 a13c
0.15998316 -0.1432276 0.0020966094 -0.0016853429 -0.10985075 0.05146922 -0.17512591 -0.017119575
0.17185481 -0.022689587 -0.043727167 0.097729385 -0.04088856 -0.047036044 0.02210744 0.0
-0.16356385 -0.18531871 0.08063555 0.014541309 -0.034251336 0.26974088 0.016522115 0.27723742
-0.10708987 -0.016112918 0.29755965 -0.009371064 -0.014023689 -0.039247535 0.054374598 -0.015851298
-0.06860343 -0.0086801415 -0.019931177 0.048000734 -0.008338024 0.056523103 0.006275917 0.082665525
0.14943974 -0.0032002039 -0.011777318 -0.11311328 0.04732211 0.019176535 0.052167453 0.2574509
-0.013537128 0.065233655 -0.0111500835 0.11193597 -0.04193635 0.19179957 0.0033143177 0.00039351115
-0.0059060594 0.0804211 0.07698003 0.115550674 -0.11784583 0.25281143 -0.042212076 -0.1409907
0.40899107 -0.012166287 -0.008964746 0.12872307 -0.027229642 0.11322665 0.005666031 0.040599152
-0.009248045 0.05532389 0.06374241 -0.009255377 -0.058512926 0.076178975 0.048380032 0.07529491
-0.034400668 -0.22023168 0.030932603 0.006216912 0.101156205 -0.14232765 0.049684785 -0.0012282492
0.12815247 0.02726524 0.013287307 0.00736765 -0.018197065 0.038324673 0.0956823 -0.00042419776
0.06212746 0.048752904 0.017576251 0.019686325

mean.4.weight f4 [2, 100]
00000000: d355 e43e ae14 923e 5af4 a83b 9bb7 553d
00000010: a47d 4bbd 5f74 973c ded7 453e 96d3 01be
00000020: 5fc7 44be 7f02 033e 837f 983e 1507 bfbe
00000030: 7b49 f83d e260 9f3e b94f c2be 649b e23d
00000040: 9e5e 893e c80d 913d aa75 7b3e a774 2c3e
00000050: 9397 c1bd 5605 f0be e6d5 333e 3f69 c1be
00000060: e868 db3d 2de7 933d 4bbb 46be 227a d03e
00000070: 86bc 60bb e987 183d 0c67 da3e c693 12be
00000080: d225 003e 5f4a 2fbe 73fc 96be 0d0f 013e
00000090: ac32 12be ecd7 debd f55a 2abd 691d 85be
000000a0: 2020 e5bd eb70 6fbc 7e16 54be d737 2f3e
000000b0: 8dfd e2bd 1383 6abe c4e3 883e 1d40 cdbe
000000c0: 33ad dabd 7d0c fd3c 61c7 9a3e 5cd5 a3be
000000d0: f2ed 8abe a65a d53e 9db4 373e a0d3 973d
000000e0: a556 d7bc bc6f c8be 16b0 0abe 710e 723e
000000f0: 0a75 c8bd 6696 15bf 2da9 1a3d c598 cc3d
00000100: 9099 2cbf aeb8 7d3d 6493 9a3d 1f27 d3bd
00000110: 64a2 fc3e 8f08 dd3e ec44 053d cc0c 3fbd
00000120: d35e a23e 3ba0 5fbe c51c 34be 7517 53be
00000130: c274 e83e 6311 ebbe 2e8d 82be ff4a 56bc
00000140: aaee ac3e 48fd dd3c 01ba a9be 00d9 d6bd
00000150: eac9 86be 0e3c 2dbe 4750 abbe fb63 8ebd
00000160: dc83 b1be aae3 223e 74fd 26bc 7576 3cbe
00000170: 61e8 503e 39b2 933e 275c 443e cb78 a33d
00000180: ee83 a73d 9be8 4d3e 185b fa3e 26df a6bd
00000190: 2025 b5be a406 c3bd ca48 193d f094 583e
000001a0: 5e65 233e a50b a73e 178d b8be 128c 623d
000001b0: a3a2 913d 1925 8fbc 9f0e 90bd 3656 983d
000001c0: d9aa d73d 5b73 833d cdba 543e 4c67 a23d
000001d0: c68f cbbd 5c31 e73d c8cd 01be 177a 4c3e
000001e0: 4def 07be 7264 f93e 23e6 28bd 6ef9 073f
000001f0: c2e3 2c3c 57be 003d c96e cf3e ae93 a4be
00000200: 91f5 84be 853c a23d 9d0d 04bf 05d2 05be
00000210: 145d 5e3e 13ce 643e 8504 00bd 8c78 783e
00000220: ed6b 6dbd a82d cd3e 0942 36bd f4dc ae3e
00000230: 0250 de3e 3873 45bc c00d 31be 1023 063e
00000240: 5b03 81be f71c 07bc 810b f1bd 61c3 da3e
00000250: 8ae7 64be 2aad 3abe c6c7 3abd 7b84 de3e
00000260: 1793 993e 8129 d9be ceba 5d3e 03c8 4c3e
00000270: 4c88 783d 982d 1b3e 19b2 903e 45fc 50be
00000280: 888d e6bd bcdf b83e d6ac b53d b1f3 20be
00000290: 0cc9 4e3f 7c2b 70be e439 27be 1ecc 433e
000002a0: 9156 b6bd fe40 e3be ad8c 4d3d f34a 1f3e
000002b0: 6fe3 9d3d baca c73e bc58 9c3e 5e84 e6bd
000002c0: 8b39 bcbc 6d0e 073e b22e 0a3e f97d 5a3d
000002d0: 7335 07bf eb04 d33d a8d9 fcbd 4835 4c3e
000002e0: a998 be3d 217c d43d 63d3 813e 57b5 eebd
000002f0: 83f2 38bd 5b09 643d ea7f e13d 13ac 87be
00000300: 2dee 09be 4185 45be af5d 11be fed6 7fbe
00000310: 3248 c7be b07a 2dbd af40 1cbe b6a6 7c3e
0.4459673 0.28531402 0.005156082 0.052177053 -0.049680367 0.018488107 0.19320628 -0.1267837
-0.19216679 0.12793921 0.29784784 -0.3731009 0.1212339 0.31128603 -0.3795145 0.11064795
0.2683 0.07082707 0.24556604 0.16841374 -0.094527386 -0.4687907 0.17562065 -0.3777561
0.10713369 0.07221828 -0.19407384 0.4071818 -0.0034292056 0.03723899 0.42656744 -0.14314184
0.12514427 -0.17118214 -0.29489478 0.12603398 -0.14277142 -0.108810276 -0.04159065 -0.25999
-0.11187768 -0.014614324 -0.20711705 0.17111145 -0.11083517 -0.22901563 0.2673627 -0.40087977
-0.106775664 0.030889744 0.3023024 -0.31998718 -0.27134663 0.41670722 0.17939992 0.07413411
-0.026286433 -0.39147747 -0.13543734 0.23638321 -0.097879484 -0.58432615 0.037758995 0.09990076
-0.6742182 0.061943702 0.07547644 -0.10310196 0.49342644 0.43170592 0.032536432 -0.046643063
0.3171297 -0.21838467 -0.175891 -0.20614417 0.4540158 -0.45911703 -0.25498337 -0.013079404
0.33775836 0.027098313 -0.33149722 -0.10490608 -0.26325923 -0.1691744 -0.33459684 -0.069526635
-0.34670913 0.1590716 -0.010192264 -0.18404563 0.20401146 0.2884691 0.19175778 0.07982024
0.081794605 0.20108263 0.48897624 -0.08148031 -0.35379887 -0.09522751 0.037422933 0.21150565
0.15956637 0.32626072 -0.36045143 0.055309363 0.071110986 -0.017473744 -0.07034039 0.074383184
0.105306335 0.06418487 0.20774384 0.079298586 -0.09939532 0.112887114 -0.12676156 0.19968449
-0.1327488 0.48709446 -0.0412351 0.53114974 0.010552349 0.031431522 0.4051421 -0.3214392
-0.25968602 0.079216994 -0.5158327 -0.13068397 0.21715194 0.22344236 -0.03125431 0.24264735
-0.057964254 0.40073895 -0.04449657 0.3415295 0.43420416 -0.012051396 -0.17290401 0.13099313
-0.25197873 -0.008246652 -0.11769772 0.42727187 -0.2235395 -0.1823012 -0.045600675 0.4346045
0.29995033 -0.42414477 0.21653292 0.19998173 0.060676858 0.15154111 0.28260878 -0.20408733
-0.11257464 0.36108196 0.088708565 -0.15717961 0.80775523 -0.23454088 -0.16330677 0.19120833
-0.0890323 -0.44385523 0.050182987 0.15555935 0.07709395 0.39021856 0.3053645 -0.11255716
-0.022976657 0.13189097 0.13494375 0.053342793 -0.5281593 0.103036724 -0.12346202 0.199422
0.09306461 0.10375238 0.25356588 -0.116556816 -0.045153152 0.055672985 0.11010726 -0.2649847
-0.13469763 -0.19289114 -0.14195894 -0.24984357 -0.38922268 -0.042353332 -0.1525905 0.2467297

mean.4.bias f4 [2]
00000000: fd59 3fbe dd59 3f3e
-0.18686672 0.18686624
