save/exp1/it1_model.pt (torch, 48231 bytes, 7 tensors)

sigma f4 [2]
00000000: aa08 7c3e 010a d8bf
0.2461268 -1.6878053

mean.0.weight f4 [100, 10]
00000000: f42c cbbe 93f6 1d3e 0008 86be 87ef 513e
00000010: edaf 30bd cfd1 5c3e 4c13 273e 497d 05bd
00000020: fc47 583e 1bae da3d dcfe f7bd 846c 5bbe
00000030: 14bf b4bd 2e90 653e f1c6 763c df05 383e
00000040: d6b5 93bd f9ee 2f3e 852d af3d d549 eb3d
00000050: 79fe 98be d8b7 9fbe b353 003e 9c4e d7bd
00000060: 55df d03e f7af 3cbe 9a77 363c ed5d 043e
00000070: da0d 703d 0113 2c3e 9f46 a5be 8ef0 383e
00000080: 4977 26be b38e aabe 779a d73d 3bd6 11be
00000090: 1606 e0bd 1fc2 d23d 879a 60be 77ca 89be
000000a0: f6d3 d63c 61be 32bd 9e2f 253d c015 4bbe
000000b0: effc 9abc a016 e3bd 0d5c 00be 1f79 59be
000000c0: e383 a33d 90b0 e03c 7256 9abe 5269 e33e
000000d0: baed 16bd 6643 443b 880f 64be 2f72 bdbc
000000e0: cc3b e23d 9b03 abbb 8895 7dbe b2a5 1f3d
000000f0: 3193 f83d be01 673e 4a2f b43e 412d 0abd
00000100: bea7 9cbe a540 593e 6e06 99bd 677c 85bb
00000110: 655b 25be 45a4 39be 4053 61be 4127 53be
00000120: a140 57be 7c9e c83d ccf4 983e 3305 713e
00000130: 2172 083e 4009 6c3c e382 043e fcc1 0fbe
00000140: d21f 263d 6633 653d 2d12 83be b2f3 9abe
00000150: 90ca 533d 9722 16be 520c e13b 4279 2abe
00000160: cb42 073d 169c 0e3e b0b7 f3bd ce15 403e
00000170: 89f1 213e 895c 5bbe 396f 33be d54c 53be
00000180: ffb1 c1bd 3d08 fcbd 3a01 27bd 936a 87bd
00000190: 7d42 96be 2dbf af3d 58a7 e5bd faa2 c13e
000001a0: f6bd 9cbd 690d 07be 377f d53d 1cb2 1ebe
000001b0: b458 e83d 5812 ac3d ef09 243d 0371 c7be
000001c0: 6730 a13e 77af 1e3e a29d 05be fe65 983e
000001d0: 65c5 1b3e 3c51 2c3d f158 563e 3c41 0fbe
000001e0: 8c22 e2be d48f e53e b23d 9e3e 80f5 a2be
000001f0: 730a 853d dad5 83be 8032 3f3e c9de 083e
00000200: 4d31 39bd 2a1a 52be d45e c93d ad43 e93d
00000210: 78ac f03d d8d6 943d 2097 eb3d 0aa4 fdbd
00000220: 5068 963b d936 923d c92d af3c 32cd 983e
00000230: ccd5 3fbe 5ada 49bd e0ef 2d3d 13b6 273d
00000240: fc2c 913e cbb9 4cbd 24c7 55be 6e9a b4bd
00000250: 1794 47bd 148f 49bb e110 35bd 3c63 5abe
00000260: 1a20 2fbd abcd adbd 0697 9bbd f3c7 1a3e
00000270: 8e97 c7bd 692f 173e 7cb0 643d 496a 44be
00000280: 4ee5 313f 38fc 423f 2737 aebe ea1d 2fbd
00000290: fd80 4e3f 8ccc 863d 7ca3 c7be e695 443e
000002a0: b0c5 b13e 8e2e d2be ba0a 39bd 1fa8 12bd
000002b0: 2461 57be a6c0 d13c ce0b 45be 7f43 063e
000002c0: f1e4 0a3e f34f ae3c 9e9d 7abd 7e07 d9bb
000002d0: f1c3 debe 4107 2dbe b0fa 113f 8bce cc3d
000002e0: f51e 0cbf 2e47 d23e eeb2 973e ec0c e3be
000002f0: 274f 223f d15e f33e 6785 9d3e ac95 be3e
00000300: 0790 d53c e604 a63a b4c9 3b3e 1264 3a3e
00000310: a94c aabe 2501 4abe e70c 353e 46bf 483e
00000320: 509a 6bbe 389f 1cbe 7324 f53d aa6d 1e3e
00000330: 2fb4 82be e88f 3f3e 1f1c b23e f39b c8be
00000340: a0b8 60bd 06ac ea3d 864d c33d cbf0 593e
00000350: 7bbc 08be fb73 37be fb49 4b3e 8419 16be
00000360: 15a9 48bd 5685 ce3d 525c a9be 4817 5c3d
00000370: 4973 0abe 02d4 d8bd d934 6fbe a237 9e3e
00000380: 6317 33be a225 74be 2100 a53e 0df1 243e
00000390: 78a4 eabe 0eb0 2c3e 2d23 88be 4420 0ebe
000003a0: c001 5c3e e9cc b63e 0aba f2bd 3cf0 803e
000003b0: 0d8d 853e 5c00 e9bb 46d6 fc3d 7a23 96be
000003c0: ad66 3e3d aaec 24be 1611 f5bd b812 a93d
000003d0: 7321 803d 90ad 34be 85fd 493d a96d 473e
000003e0: cff8 7cbe 4fb6 8ebd a984 103d 62bb 833c
000003f0: 1162 073e 0024 f33c 565d 4f3e 8a67 0cbd
-0.39682734 0.15426092 -0.2617798 0.20501529 -0.043136526 0.2156441 0.16315955 -0.032590184
0.2112121 0.10677739 -0.121091574 -0.21428114 -0.08825508 0.22418281 0.01506208 0.1797099
-0.07212417 0.17181005 0.08553604 0.11488692 -0.29881647 -0.3119495 0.12531929 -0.105130404
0.4079539 -0.184265 0.011136914 0.12926455 0.05860696 0.16804124 -0.32280442 0.18060514
-0.16256441 -0.33311996 0.10527509 -0.14241879 -0.10938661 0.10290932 -0.21933948 -0.2691228
0.026224118 -0.04363859 0.040328614 -0.19832516 -0.018919436 -0.110883 -0.12535115 -0.2123761
0.0798414 0.027427942 -0.30144078 0.4441629 -0.036847807 0.00299474 -0.2227155 -0.023125736
0.110465616 -0.0052189357 -0.24764073 0.03897638 0.121374495 0.22559258 0.3519233 -0.033734564
-0.30596727 0.21216066 -0.074719295 -0.004073668 -0.16148145 -0.1812907 -0.22004414 -0.20620443
-0.21020748 0.097958535 0.29874265 0.2353714 0.13324787 0.014406502 0.12940554 -0.14038843
0.04055769 0.05595722 -0.25599805 -0.3026405 0.05170685 -0.14661632 0.006867924 -0.16647819
0.033022683 0.1392673 -0.1190027 0.18758318 0.15814795 -0.21422018 -0.17522897 -0.20634778
-0.09457778 -0.12306259 -0.040772654 -0.06612124 -0.29347602 0.08581386 -0.11213559 0.37819654
-0.0765342 -0.1318871 0.10424655 -0.15497631 0.11345044 0.08401936 0.040048536 -0.3895341
0.3148224 0.15496622 -0.13048413 0.29765314 0.15212019 0.04206966 0.20932366 -0.13989729
-0.44166982 0.44836295 0.30906445 -0.31827927 0.06496134 -0.25749093 0.18671608 0.13366236
-0.045213033 -0.20517793 0.0983254 0.11389861 0.11751646 0.07267541 0.11503434 -0.123848036
0.0045900717 0.071393676 0.021384137 0.29844052 -0.18733901 -0.049280502 0.04246509 0.040945124
0.28354633 -0.049981873 -0.20876747 -0.088185176 -0.048725214 -0.0030755447 -0.04420555 -0.21326917
-0.042755224 -0.08486494 -0.07597165 0.15115337 -0.09745704 0.1476418 0.05583237 -0.1918117
0.69490516 0.76166105 -0.34026453 -0.042753138 0.8066557 0.06581983 -0.38991916 0.19197807
0.34721136 -0.41051143 -0.045176245 -0.035804864 -0.2103315 0.025604557 -0.19242784 0.13111685
0.13563897 0.021278357 -0.06118547 -0.0066232076 -0.43508866 -0.16897298 0.57023144 0.100003324
-0.54734737 0.4106993 0.296287 -0.44345796 0.63402027 0.47533277 0.3076584 0.37223566
0.026069654 0.0012666255 0.18338662 0.18202236 -0.33261612 -0.19726999 0.17680703 0.19604215
-0.23008084 -0.15295112 0.11969843 0.15471521 -0.25528094 0.1870724 0.3478708 -0.3918148
-0.054863572 0.11458592 0.09536271 0.21283261 -0.1335315 -0.17915337 0.1985244 -0.14658171
-0.048989374 0.100840256 -0.33078247 0.05373314 -0.1352054 -0.10587312 -0.23360004 0.3090182
-0.1748939 -0.23842481 0.3222666 0.16107579 -0.45828605 0.16864035 -0.26589337 -0.13879496
0.21485043 0.3570321 -0.118518904 0.25183284 0.26084176 -0.0071106385 0.12345557 -0.2932394
0.046484638 -0.16105905 -0.119661495 0.082555234 0.0625638 -0.17644334 0.04931404 0.19475426
-0.24704288 -0.06968366 0.035282765 0.016080562 0.13221003 0.029680252 0.20250449 -0.03427843

mean.0.bias f4 [100]
00000000: 9cf3 a1be 0756 20bd a08d b4bd 3f4f 19be
00000010: df74 7fbd b36e 19be b351 553d b137 4ebe
00000020: 7848 a43d 1977 0c3b 00b6 87bd 048a 2abe
00000030: d3bf 2b3d 719f 21bd 54bb 833c bf7b aabd
00000040: 9ffd b3be 2b0b 75be 90f7 263e 1dab aebd
00000050: 5607 253c 3ec1 6abe 11e7 343d 9dfb f4bd
00000060: c37a 9d3c f45a 12bd 36f3 76bb 9057 37bd
00000070: 1436 983d fb9f 6fbd ec69 3cbb f02d 8cbd
00000080: 2f4e c8bd 0a1d 6bbe 82df c83b 1506 20bd
00000090: e932 43be f0de 713b 8132 35be 55d6 98bd
000000a0: edc4 fd3d eadd f6bd 2339 eabd 7566 b0bc
000000b0: bbe1 31bc 94c9 4bbd cdf2 453d 5e55 2d3c
000000c0: 50f6 fdbd acc4 c43d 6f3f 8b3d 6800 81bd
000000d0: cf9f 8c3d a8ae 6a3e dbc7 e0bc 8735 d33d
000000e0: 6d6a 183d 6f41 7fbd 47b0 8f3d 2794 183c
000000f0: ccba e9bd 7b1c 5ebd 2c27 ce3c e82d 11be
00000100: 71cc 2bbe e334 d1bd ecfd afbd 53be 413e
00000110: c6cd 63bd 656d 00bd bc87 9ebc 3502 8f3d
00000120: 595c 3bbd 2cb0 8b3d 1226 c33a 95c7 8fbe
00000130: 8541 efbd ba11 3bbe 0b80 75bd 689e c33d
00000140: b88c ddbd 8526 95bd f5df a7bd a95b 173e
00000150: 02ec 95be 87c1 8f3d cd3b edbc 0804 82bb
00000160: 93ed 283e c794 80bc 6928 6d3e 9833 a8ba
00000170: e6f2 ee3d dc54 983e 8bd3 edbd b9e4 7dbc
00000180: ca90 15bd 40af 74bc 75b6 a2be b7db d13b
-0.31631172 -0.039144542 -0.08816075 -0.14971636 -0.062367316 -0.14983635 0.052079868 -0.20138432
0.08021635 0.0021433292 -0.066265106 -0.16654211 0.041930985 -0.039458696 0.016080536 -0.08324384
-0.35154435 -0.23930041 0.16305375 -0.08528731 0.01007255 -0.22925279 0.044165675 -0.11962054
0.019223576 -0.03573127 -0.0037681586 -0.04476124 0.074321896 -0.05850218 -0.0028749658 -0.068446994
-0.09780537 -0.22960296 0.00613016 -0.0390683 -0.1906239 0.0036906563 -0.17695047 -0.074627556
0.12391076 -0.120540455 -0.11436679 -0.02153323 -0.010857041 -0.049752787 0.048327256 0.010579435
-0.12400496 0.09607825 0.067992084 -0.062989056 0.068664186 0.22918189 -0.027439049 0.10312944
0.03721087 -0.06231826 0.07016044 0.009312666 -0.11412582 -0.05422638 0.025165163 -0.14177668
-0.16777207 -0.102151655 -0.08593354 0.18920259 -0.055616163 -0.031354327 -0.019351833 0.06982843
-0.045742366 0.068207115 0.0014888665 -0.28081957 -0.11682419 -0.18268481 -0.059936564 0.09551698
-0.108178556 -0.07282738 -0.08197013 0.1478106 -0.29281622 0.07019334 -0.02895918 -0.0039677657
0.16496877 -0.015695943 0.23159947 -0.0012832759 0.11667423 0.29752243 -0.11612614 -0.015496426
-0.036515035 -0.014934361 -0.3177983 0.006404366

mean.2.weight f4 [100, 100]
00000000: a68b a0bd eea4 ebbd b210 2bbe 0a2b d13d
00000010: 2e51 9d3d 6a0a 3bbd f051 1c3e b2f7 e9bd
00000020: a1eb e5bc 48e3 dfbb ef88 8e3d 8205 313e
00000030: e9d7 bfbd 7afa 4d3e ed5f 283e 0d14 323d
00000040: 4bfa c2bd 5571 6e3d f589 503d f405 22bd
00000050: bd3e 313e 527b 0dbe e78b 57bd b79f 4dbd
00000060: afe0 38bd b4c7 0f3e 3de5 3abc bf75 433d
00000070: b99a 1dbe 384a dbbd 8cd1 de3d 4525 59bd
00000080: 0cd6 7d3d 385a fcbd cdc5 c9bd 90f8 b03d
00000090: dd8e f93d 374c 2d3c ba1e 20be a9b0 dfbd
000000a0: e405 5fbd 5166 da3d 4feb 10be a324 e5bd
000000b0: 6d61 19be 9ef6 fabd f03e 063e de97 64bd
000000c0: f15e 24bd a847 343c 0e66 d8bc c2a7 73bd
000000d0: 16df c73a 1f40 a8bd 8d10 f63d 4f03 74bb
000000e0: 1662 993d 86a8 973c 6e87 123e 4e10 b73d
000000f0: f1a7 adbd bf51 cabc bcc8 323d e09b 82bd
00000100: 1e2f d5bd b873 303e 8c91 ec3d f04c a7bd
00000110: c066 223d 573b ee3d df51 debd efd6 ecbc
00000120: 61ac fabd 5212 1ebe 1350 133e adca 7c3d
00000130: 9ec7 dbbd 97b9 54bc 742e acbd b31e 19bd
00000140: 0c13 1bbd 7b64 5c3d cc04 293d 58b4 e9bd
00000150: 3015 c43d 7b2d 353c 0a67 adbd 5b2d c0bd
00000160: 34d8 5fba 5d98 753d 783e 23be 2167 26bd
00000170: c042 e5bd d742 24be 8704 e83d 0931 80bd
00000180: 7c8d 19be 73c7 4abd 38a7 babd 16ba c23d
00000190: 2b79 f2bc d44e b9bd aca4 8bbd 5cb6 27bd
000001a0: 20fe 083e fa35 3ebc 194e 02be 465b 37bd
000001b0: 6b2c 0e3e a117 20be 5296 62bd 94d1 2b3e
000001c0: ca24 a1bd b72a 213e c1b6 fabd 38d3 053e
000001d0: e60b 353e e6d7 08bd 15d8 1cbe 5594 16bd
000001e0: dac5 603d 9751 6ebd d992 f0bd 626a 12be
000001f0: 2116 bf3d 833c 173e fb11 a8bd ae01 b13c
00000200: 7178 05be 6424 c53d fe1c e9bd 0efb c9bd
00000210: a86e 8fbd 50f2 21bc 1da2 a23c ec03 15be
00000220: 0552 95bd c599 8fbd 622b 09bd 1a82 80bc
00000230: 1143 c6bc 3964 f53d 7043 c8bd a4a2 afbb
00000240: 4e90 343e 3b3e c83c aced 08be 7f72 0a3e
00000250: cd2f 1cbe 291a 823d 00e0 313e 01ba ba3c
00000260: 38c8 c43d aeed 0d3e 8c21 9d3d 4922 63bd
00000270: 0b0b 383d 4a79 073e f690 0c3d 875e f2bd
00000280: c132 183e f96d 493e 7dc0 733d ab5a a73d
00000290: 62f5 e73d 55c5 b1bd b917 74bd 2c11 9f3d
000002a0: 7c87 373d 92dc 493d 9398 d2ba dde0 40be
000002b0: 6069 983d 5a16 d0bd 51b3 0bbe ed92 323e
000002c0: 759c b83d cd90 bc3d 12fe bbbd b300 113d
000002d0: 204d bd3c df7c ea3d 93dd d9ba 4a24 213e
000002e0: 0c39 73bc 89ff 1b3e 0948 453e e1d4 be3c
000002f0: c9dd 06be 5abc a93b ffca 093e 2a28 00be
00000300: 5892 63bd d540 0e3d bee6 6b3d bd25 153e
00000310: 59c3 de3c 8297 4bbc 7c78 173d df54 02bd
00000320: 666e 2fbe 8a68 9fbd 1b23 3cbe 384c 053e
00000330: 73e3 2e3c d5fd 053c f0bc 4cbd 9115 c9bd
00000340: 3df3 ffbd c12e 13bd 4b4a 333d 57e4 34be
00000350: 34d5 2cbe ddfe 9f3d a88a 82bd 0c30 bb3d
00000360: cc47 323e 8976 283e 92a1 e0bd 73ce af3c
00000370: 6f3a 0cbe 6883 d63c 8df3 db3c 3c5c 11be
00000380: a82d 5d3d d2f4 b7bd 2763 b33d eee8 3abd
00000390: d2fc df3d b192 a63d 396c 1e3d a915 fa3c
000003a0: 1331 a0bd 2838 dabd 2d0a f03d b55c c03d
000003b0: 9be3 c23c f64a 063e a256 a83d a9ba e13d
000003c0: cd08 a5bd 36f3 57bc 9918 0cbe ce41 23be
000003d0: 7f54 5d3d b222 dfbd a29b b83d 36a2 16be
000003e0: 5fbb 1fbe 3c3d 23be 1d99 e83d 848d d6bd
000003f0: aa85 27be a86e 6e3d 5793 67bd ef7c 30be
-0.07839136 -0.11506067 -0.16705588 0.10213287 0.076814994 -0.04566423 0.15265632 -0.11424197
-0.028066458 -0.006832514 0.06959712 0.17287257 -0.093673535 0.2011508 0.16442843 0.043476153
-0.09520396 0.05821355 0.050912816 -0.03955646 0.17309089 -0.13816574 -0.052623656 -0.050201144
-0.04513615 0.14041024 -0.011407194 0.047719713 -0.15391053 -0.107075155 0.10879812 -0.05301406
0.06197171 -0.12321895 -0.09852181 0.086411595 0.12185452 0.010577253 -0.15636721 -0.10922367
-0.054448977 0.106640466 -0.14152263 -0.111886285 -0.14978571 -0.1225407 0.13109946 -0.055808894
-0.040129606 0.011003412 -0.026415851 -0.05948616 0.001524898 -0.08215355 0.120148756 -0.0037233417
0.074894115 0.018512975 0.14309475 0.08938657 -0.08479298 -0.024697183 0.043648466 -0.06377387
-0.104093775 0.17231643 0.11551198 -0.081689715 0.03964877 0.11632412 -0.108554594 -0.028911082
-0.1223991 -0.15436676 0.14386015 0.061716724 -0.10731433 -0.012983701 -0.08407298 -0.037382793
-0.03785996 0.053806763 0.04126434 -0.11411351 0.09574354 0.011058207 -0.08466919 -0.09383651
-0.00085389917 0.059959758 -0.15941799 -0.040625695 -0.11194372 -0.16041122 0.113289885 -0.06259353
-0.14995378 -0.049506616 -0.09113926 0.09508149 -0.029598793 -0.090482384 -0.06818518 -0.040945396
0.13378191 -0.011609549 -0.12725104 -0.04476478 0.13884132 -0.15634014 -0.055319138 0.16779166
-0.07868345 0.1573895 -0.12241889 0.13068855 0.1768032 -0.03340902 -0.15316804 -0.036762554
0.054876186 -0.05818328 -0.11746759 -0.14298394 0.09330393 0.14769177 -0.082065545 0.021607246
-0.13034226 0.096260816 -0.11382483 -0.09862338 -0.07003528 -0.009884432 0.019852692 -0.14552277
-0.072910346 -0.07011751 -0.03348864 -0.015687037 -0.024201902 0.119820066 -0.09778488 -0.0053599644
0.17633173 0.024443736 -0.13371915 0.1352024 -0.1525261 0.06352646 0.17370605 0.022793772
0.09608501 0.13860199 0.07672414 -0.05545262 0.044932406 0.13229862 0.034317933 -0.11834436
0.14863111 0.19670857 0.059509743 0.081715904 0.113261 -0.08680216 -0.059592936 0.07766947
0.044806942 0.049282618 -0.0016067199 -0.18835779 0.07441974 -0.10160513 -0.13642623 0.1743886
0.09014217 0.09207306 -0.091793194 0.035401057 0.023108065 0.114495985 -0.001662182 0.157365
-0.014845144 0.15234198 0.1926576 0.023294868 -0.13170542 0.005179924 0.13456343 -0.12515321
-0.055559486 0.034729797 0.0575931 0.14565177 0.027192758 -0.012426259 0.036980137 -0.03181922
-0.17131957 -0.07783611 -0.18372767 0.13017356 0.010674345 0.008178194 -0.049984872 -0.098185666
-0.12497566 -0.03593326 0.043772023 -0.1766523 -0.16878206 0.07812283 -0.06374103 0.091400236
0.17410201 0.16451468 -0.10968317 0.021460747 -0.13694166 0.026185706 0.026849532 -0.14195341
0.05399862 -0.08982243 0.08759146 -0.045632295 0.109368935 0.08133448 0.038677428 0.030527906
-0.0782186 -0.10655242 0.11720691 0.093926825 0.023790171 0.13114533 0.08219649 0.11021931
-0.08058319 -0.013180545 -0.13681258 -0.15943071 0.05403566 -0.108952895 0.090140596 -0.14710316
-0.1559882 -0.15941328 0.11357329 -0.10476211 -0.16359583 0.058211 -0.056537 -0.17235158

mean.2.bias f4 [100]
00000000: ebe5 033d 5891 5f39 5f68 15be 8865 733e
00000010: 9be7 0ebd f8c0 4d3e cfbb 9abd 194f 703d
00000020: 6dbc 5d3d 24f4 db3c cd99 a2bb 1542 3ab9
00000030: 6d94 5b3c a993 88bd d497 ad3a 6be1 e1bc
00000040: 3a82 21bd 7776 dc3d 8c17 323c b49d 2c3d
00000050: 3616 39bd 1f14 023c b07a 873b ee01 173c
00000060: 1c75 f8bd 6be6 453e 48c1 663d 1fd5 f33c
00000070: 95eb f5bc c29e 34bd 9648 453c f20f cabd
00000080: 450a 023e 61af dabd 9ea0 2d3c 8005 b8bc
00000090: 882e 193e 7ebe 233d 7d24 59be 5f24 523d
000000a0: 4ed1 a2be 964a 5c3d deed adbd 5a8b 4c3d
000000b0: 99f5 d8bd 570f 0a3d d396 d03c 9e13 dbbc
000000c0: 7614 abbd b1e7 903d 99f7 fb3d b0cf 373c
000000d0: 06e3 d1bd e129 a53b 650a ebbc d461 b2bc
000000e0: 0cca 99bc 307d 133c 50a6 063e df8c fcbc
000000f0: 9e10 0fbc 4b2a c73c a8c1 123c 23a0 243d
00000100: 464b 2c3e 5c57 38bd 2115 87bd 0d35 ea3c
00000110: 1be1 533e 7512 923d 0269 453c c293 9abc
00000120: a1f3 933d 84f3 773b e390 d9bc 2ad0 8cbd
00000130: 1ae4 00be f35a 0dbb d540 94bb 600c 413c
00000140: daef b83d ae17 063d ab8c 31bb 3709 d33d
00000150: 905d 803c 739e 8abd d2a8 d53d 17f6 183e
00000160: 0e82 a83d f701 2b3b 9c93 4f3d 7a2e b43b
00000170: c4b5 c53c 5963 3f3c 239e 4f3b fd50 163e
00000180: 5b27 e93c a296 abbe b524 393d 9dff 053d
0.03220169 0.00021321082 -0.14590596 0.237692 -0.034888845 0.20093143 -0.07555353 0.058669183
0.054134775 0.026849814 -0.004962182 -0.0001776296 0.013402087 -0.06668789 0.0013244101 -0.027573308
-0.039430834 0.10764783 0.010869872 0.042142585 -0.045187198 0.007939368 0.0041344985 0.009216769
-0.12131712 0.19326179 0.05633667 0.02976471 -0.03001956 -0.044096716 0.012041232 -0.098663226
0.1269923 -0.10677982 0.010597376 -0.02246356 0.14959157 0.03997659 -0.21205325 0.051304217
-0.31800312 0.05378207 -0.08492635 0.049937584 -0.10593719 0.033706035 0.025462544 -0.026742753
-0.08353512 0.07075442 0.12303085 0.01121895 -0.102483794 0.0050403927 -0.02869148 -0.021775164
-0.018773101 0.009002015 0.1314938 -0.030828891 -0.008731989 0.024312159 0.008957304 0.04019178
0.1682559 -0.045005187 -0.06595827 0.02858975 0.2069134 0.07132427 0.012048962 -0.018869285
0.07224203 0.0037834356 -0.026558345 -0.06875642 -0.12587014 -0.0021569103 -0.00452433 0.011782736
0.09030123 0.032737426 -0.0027091901 0.10304492 0.015669614 -0.06768503 0.104325905 0.14937626
0.08227931 0.00260937 0.05067788 0.0054987045 0.024134524 0.011681401 0.003167995 0.14679332
0.028461149 -0.3351336 0.045201022 0.032714475

mean.4.weight f4 [2, 100]
00000000: 456e c73d b60a 68bd 88b9 d1bd 7384 d43e
00000010: bb9e 4fbd 43d3 093f 5354 163e 672f 70be
00000020: 67cc 91be 0024 3c3e 0bde 223e cf4a 4cbd
00000030: 77f7 14be 93ad 233e eb3b e03d fa39 853c
00000040: a115 42be 3fb6 e33d 1777 f0bd 4d62 b7bd
00000050: 7a9a 203f e04b 1b3d 0ce9 d6be 0712 32bd
00000060: 6ff7 9abe 652e eb3e 273f 51be 0bae 39bd
00000070: a08c 963e d00e 2e3d 3348 f53d 95e1 51bc
00000080: 0861 b73e 0060 87bc 7ddf 583e a6d1 963c
00000090: 4b3a 253f 865d a4be 0927 883e 2278 93be
000000a0: e857 6f3e e482 babe 0abf ea3d 91a5 fe3d
000000b0: d9c2 3ebd 0da7 abbe 4655 923e e504 ccbc
000000c0: f0a4 debb e706 ae3e 1d3c b43e c4ae c13b
000000d0: 9025 e3bd af31 a3bb e254 89bd 53b9 1b3f
000000e0: 4064 58bd f9df 5c3e 73d6 9e3e d819 46be
000000f0: d8cb 1fbf f261 bcbd 0e66 9dbd 1f22 a43d
00000100: bf97 ba3e 3a61 f73e 4342 003e 235d c23d
00000110: 819a c33e 277c b1be ca50 0abe 7004 01bd
00000120: 2ce5 84bd 9fc5 6dbe cb75 0dbe 02bd 843d
00000130: 3637 21bd 2f4c 713e b5c0 40be 3d26 953d
00000140: c268 833e 45fb 5dbe 9019 e93d 7232 cc3e
00000150: 23a7 bfbc 9d8c 39be c29e ba3e 08d0 8f3e
00000160: c37e bb3e 3d1e 5dbe 00fd 4b3d e8bd a73c
00000170: b016 863e 8716 11be 57b3 6c3c b177 f53e
00000180: 7089 f4be c846 6b3e 5fc6 c23e d258 40be
00000190: a6cb 1d3e 5e2b 8e3e 3fee 523d f00a 88be
000001a0: 0886 1d3e d2fd e1be 8447 3dbe dc00 713d
000001b0: baa3 c03e c3df 943e d8e2 8abd 7782 2b3e
000001c0: 0d0a dd3d 853c 34be 409a 88be 802a 23be
000001d0: 82e8 debc 3e35 8dbc 606e 403e dbde 40be
000001e0: 681d efbe fabf 783e e751 d73e 47b8 073d
000001f0: c890 3a3d 7ed4 f6be f119 36be d28d a3be
00000200: 7d54 cebe 3437 01be 3055 5cba 7fe6 373e
00000210: 629a 48be 63b2 493e 81b8 013e bb98 b73d
00000220: af9c a1be 55c6 093e 8706 3abe 48c7 093e
00000230: 9e0d a9be d74d bc3d a2a0 cfbd cd69 cdbe
00000240: e132 76be 94e7 e93e 60f3 cdbd c6a9 343e
00000250: 9b09 013e 50ba debc 6a44 babe 4ba7 93bd
00000260: 71ee 023e c72c 0d3e 6a58 4abe 7779 27be
00000270: 86b2 ab3e e8b1 2e3d d97c a7be 3716 7d3e
00000280: df05 113f 9908 fe3d 9f76 0fbe 2bf7 f93b
00000290: ef43 eabe 33bd c9be 601d f1bd cfaa a63e
000002a0: ff5e 01bf 8ef6 7b3e 2826 e83d ea11 f73a
000002b0: 150d 103d 83b5 adbd d154 4d3e 50bf 723e
000002c0: 632e 32be 83d1 ce3d f70a a4bc 48ae aabc
000002d0: ca01 23be 793d a83e 815b 213e 16e5 93be
000002e0: fbaf d7be 02ea 6dbd de0b a83a bca1 0cbf
000002f0: 8ec7 1a3d aba4 b43d e1c2 45be 7955 58ba
00000300: aac1 4c3d c1e0 88be 8e2f 80be 9839 1fbf
00000310: 70a9 eb3e 50a6 f2be e8e0 cebd da9b bb3e
0.09737829 -0.05665084 -0.102404654 0.415073 -0.050688487 0.53837985 0.14680605 -0.23455583
-0.2847626 0.18373108 0.15905015 -0.04987603 -0.14547525 0.15984182 0.109489284 0.016262997
-0.18953563 0.11118745 -0.117414646 -0.08954296 0.6273571 0.037914157 -0.41974676 -0.043474223
-0.30266902 0.45933834 -0.20434247 -0.045331996 0.29404163 0.042494595 0.119766615 -0.012810131
0.35816216 -0.016525269 0.21179004 0.018410515 0.64542073 -0.32102603 0.2659228 -0.28802592
0.23373377 -0.36427987 0.11462219 0.12433923 -0.04657254 -0.33525887 0.28580683 -0.024904678
-0.0067945644 0.3398964 0.35202113 0.0059107263 -0.11091149 -0.004980288 -0.06705643 0.6082966
-0.05282998 0.21569814 0.31022987 -0.19345796 -0.62420416 -0.09198369 -0.07685481 0.080143206
0.36443898 0.48316365 0.12525277 0.09490421 0.38203815 -0.34665033 -0.13507381 -0.031498373
-0.064890236 -0.23219918 -0.13814466 0.06481363 -0.039359294 0.23564218 -0.18823512 0.07282684
0.2566586 -0.21677883 0.11381829 0.39882237 -0.023395127 -0.18120046 0.36449248 0.28088403
0.3662015 -0.21593566 0.049801826 0.020476297 0.26189184 -0.1416875 0.014447055 0.4794288
-0.47761106 0.2297622 0.3804197 -0.18783882 0.15409717 0.27767462 0.05149674 -0.26570845
0.1538316 -0.44138962 -0.18484312 0.05883871 0.37624913 0.29076967 -0.06781548 0.16748987
0.10792933 -0.17601211 -0.26680183 -0.15934181 -0.027210478 -0.017237302 0.18792105 -0.18835013
-0.46702123 0.24291983 0.42054674 0.033134725 0.04554823 -0.48208994 -0.17783333 -0.31944138
-0.40298834 -0.12618715 -0.0008405028 0.17959021 -0.19590142 0.19696955 0.12668039 0.08964678
-0.31564853 0.13454564 -0.18166552 0.13454926 -0.33018202 0.09194534 -0.1013806 -0.40119782
-0.24042846 0.45684493 -0.10056186 0.17642888 0.1260132 -0.02718845 -0.3638032 -0.07209643
0.1278627 0.13786612 -0.1976029 -0.16354929 0.3353464 0.042650133 -0.3271244 0.24715506
0.56649584 0.124039836 -0.14010094 0.0076283417 -0.45754954 -0.3940216 -0.11773181 0.32552192
-0.5053558 0.24605772 0.11335403 0.0018849943 0.035168726 -0.08481886 0.20051886 0.23705792
-0.17400508 0.10098555 -0.02002476 -0.020835057 -0.15918651 0.328594 0.15757562 -0.28885716
-0.4212645 -0.058084495 0.001282092 -0.5493429 0.037787966 0.088204704 -0.19312622 -0.00082524825
0.04998938 -0.26733974 -0.2503628 -0.62197256 0.46027708 -0.4739251 -0.10101491 0.36642343

mean.4.bias f4 [2]
00000000: 6ff0 dc3d 4bf0 dcbd
0.107880466 -0.1078802
