save/exp28/it28_model.pt (torch, 48231 bytes, 7 tensors)

sigma f4 [2]
0.29837382 -2.2591004
00000000: 74c4 983e 1a95 10c0

mean.0.weight f4 [100, 10]
-0.4491473 0.19576733 -0.12185344 0.43401027 -0.16990979 0.095312655 0.011386932 -0.03424028
0.006588909 0.25109452 -0.23375618 -0.2922933 -0.18465975 0.08159575 -0.17389642 0.019818993
0.022500692 0.17503755 0.16553383 0.22509478 -0.18706822 -0.29147953 0.048791505 -0.29231435
0.2652921 -0.25697693 0.1937178 0.14278802 0.017045835 -0.04586234 -0.34959352 0.17681025
-0.1732962 -0.3350275 0.088767186 -0.16673659 -0.14917216 0.116755486 -0.22616298 -0.28393137
0.045652926 -0.047346473 0.041551005 -0.19945283 0.003913744 -0.11160381 -0.123872474 -0.21221521
0.097589545 0.045045033 -0.33496416 -0.13525265 -0.099573076 -0.06683033 -0.26649547 -0.0021064454
0.26513922 0.18810101 -0.10021397 0.2887073 0.026877118 0.14306563 0.2560126 -0.008676271
-0.34476238 0.18840857 -0.10376844 0.088928446 -0.21917507 -0.1333917 0.031004565 -0.06689487
-0.013953902 0.071094625 0.2198246 0.24341181 0.19565487 0.007013898 0.13417801 -0.017981967
0.074792534 0.09764493 -0.19015683 -0.22366673 0.026206585 -0.16673139 -0.004768088 -0.118138395
0.04482633 0.18054703 -0.13039479 0.11934878 0.10924713 -0.23900972 -0.17794298 -0.22326936
-0.12772909 -0.13792084 -0.046618223 -0.062473174 -0.17558864 0.002708037 0.049104605 0.3498771
-0.04709343 -0.14092836 0.0414541 -0.006510208 0.18267132 0.33735064 0.15374322 -0.14784682
0.20802695 0.1423009 -0.045405686 0.34106347 0.27114883 -0.022428421 0.35342717 -0.17277324
-0.52448606 0.3204238 0.6309065 -0.21120554 0.13822056 -0.50051546 -0.06641338 0.18595119
-0.40034127 0.042384606 0.046971936 0.07034261 0.15687402 0.13946335 0.16152516 -0.11645989
-0.13390647 -0.056174245 -0.006932998 0.2691569 -0.2921251 -0.102546245 0.10229012 0.08589431
0.27169168 -0.07847764 -0.20037031 -0.04901533 -0.17954734 -0.045024306 -0.089839295 -0.2659582
-0.09356205 -0.08045837 -0.16151926 0.14487742 -0.123606935 0.07570452 -0.022010006 -0.20918489
0.6929866 0.85782593 -0.12638739 0.076504976 0.8256349 0.2834933 -0.15147448 0.29568148
-0.01041415 -0.8151043 0.039323933 0.005677378 -0.14705858 0.05465908 -0.20916153 0.18748176
0.16783518 0.14051749 -0.025059452 0.020377211 -0.69259125 -0.8449561 0.31916606 -0.25869954
-0.45638403 0.058086623 0.4236509 -0.68317395 0.8151716 0.6506109 0.28467095 0.4060633
0.1550343 -0.10104249 0.33464018 0.33350652 -0.29134703 -0.2907808 0.3457704 -0.010002549
-0.0659107 -0.025814496 0.05252467 0.07059483 -0.13683248 0.11868062 0.22009915 -0.24574052
0.048937723 0.044991963 -0.07581772 0.1614417 -0.14571455 -0.24217914 0.091066726 -0.2009464
-0.06521951 -0.005827993 -0.4331849 0.0105074495 0.06654788 -0.19716817 -0.12540606 0.11304908
-0.24004082 -0.4519189 0.20027359 0.16873969 -0.5080706 0.09594411 -0.16939463 -0.12506557
0.13058093 0.15524015 -0.18422559 0.21841091 0.29061186 0.06380506 0.26382834 -0.110303715
-0.019392684 -0.14858575 -0.1115843 0.00027394702 -0.06803978 -0.18544434 -0.07216545 0.09413781
-0.24242337 -0.09019283 0.0977859 0.13299078 0.107296675 0.055014007 0.31250787 -0.055602774
00000000: a3f6 e5be 3b77 483e 4c8e f9bd 9836 de3e
00000010: d5fc 2dbe 4833 c33d 4190 3a3c 893f 0cbd
00000020: c6e7 d73b 768f 803e c85d 6fbe 78a7 95be
00000030: 7217 3dbe ac1b a73d e711 32be 715b a23c
00000040: 5f53 b83c 0b3d 333e b381 293e 3f7f 663e
00000050: d08e 3fbe ce3c 95be 9ad9 473d 3aaa 95be
00000060: 5ed4 873e 7b92 83be f55d 463e 0637 123e
00000070: b5a3 8b3c 26da 3bbd ecfd b2be bf0d 353e
00000080: 8f74 31be b988 abbe 92cb b53d ffbc 2abe
00000090: 96c0 18be 801d ef3d 4597 67be 745f 91be
000000a0: 90fe 3a3d 60ee 41bd 6331 2a3d 5d3d 4cbe
000000b0: dd3e 803b 8a90 e4bd dab0 fdbd f24e 59be
000000c0: 07dd c73d 2481 383d 6c80 abbe ac7f 0abe
000000d0: f8ec cbbd 57de 88bd 1872 88be 4a0c 0abb
000000e0: 54c0 873e 8d9d 403e fb3c cdbd 71d1 933e
000000f0: 672d dc3c cc7f 123e 1514 833e eb26 0ebc
00000100: b284 b0be 2dee 403e 8c84 d4bd 1e20 b63d
00000110: 6e6f 60be d597 08be 49fd fd3c 2d00 89bd
00000120: e89e 64bc 0f9a 913d b319 613e f240 793e
00000130: c059 483e d7d4 e53b f665 093e eb4e 93bc
00000140: d42c 993d 11fa c73d 79b8 42be e408 65be
00000150: 31af d63c a2bb 2abe 9f3d 9cbb 8bf2 f1bd
00000160: d09b 373d 52e1 383e 3686 05be 226d f43d
00000170: f6bc df3d f7be 74be af36 36be b9a0 64be
00000180: 6acb 02be 1f3b 0dbe c0f2 3ebd dfe3 7fbd
00000190: 82cd 33be 5279 313b e921 493d 1723 b33e
000001a0: 0ae5 40bd 864f 10be c6cb 293d 9553 d5bb
000001b0: 310e 3b3e 39b9 ac3e dd6e 1d3e 2865 17be
000001c0: 0405 553e 54b7 113e 50fb 39bd df9f ae3e
000001d0: 05d4 8a3e cfbb b7bc 68f4 b43e 78eb 30be
000001e0: b844 06bf 970e a43e 1783 213f 4446 58be
000001f0: b189 0d3e c821 00bf bd03 88bd fd69 3e3e
00000200: 88f9 ccbe 7b9b 2d3d a565 403d c90f 903d
00000210: 95a3 203e 7bcf 0e3e da66 253e 8682 eebd
00000220: c71e 09be f716 66bd 342e e3bb efce 893e
00000230: 6c91 95be c403 d2bd 7c7d d13d 5be9 af3d
00000240: 2c1b 8b3e e3b8 a0bd e02d 4dbe 4cc4 48bd
00000250: 42db 37be 686b 38bd aafd b7bd ac2b 88be
00000260: 769d bfbd 5cc7 a4bd 4e65 25be bf5a 143e
00000270: a225 fdbd f90a 9b3d 544e b4bc 9034 56be
00000280: 9267 313f 7b9a 5b3f b26b 01be a4ae 9c3d
00000290: cf5c 533f 0926 913e 201c 1bbe 9063 973e
000002a0: 1ca0 2abc adaa 50bf 2212 213d 4c09 ba3b
000002b0: 8696 16be 33e2 5f3d 712e 56be 38fb 3f3e
000002c0: fcdc 2b3e d1e3 0f3e 7b49 cdbc 1cee a63c
000002d0: a94d 31bf 0b4f 58bf bc69 a33e 4474 84be
000002e0: 2bab e9be 3dec 6d3d c5e8 d83e 7de4 2ebf
000002f0: 16af 503f 708e 263f 64c0 913e 87e7 cf3e
00000300: 50c1 1e3e 5def cebd f555 ab3e 5ec1 aa3e
00000310: 702b 95be 39e1 94be d108 b13e bbe1 23bc
00000320: 30fc 86bd ec78 d3bc 1c24 573d 0694 903d
00000330: d01d 0cbe d30e f33d ac61 613e 67a3 7bbe
00000340: ec72 483d 7e49 383d 5246 9bbd f950 253e
00000350: 3236 15be cffd 77be 3181 ba3d e5c4 4dbe
00000360: ce91 85bd c0f8 bebb 69ca ddbe 7027 2c3c
00000370: 414a 883d 74e6 49be 726a 00be 4786 e73d
00000380: 43cd 75be ea61 e7be 8514 4d3e 19ca 2c3e
00000390: ea10 02bf 587e c43d c975 2dbe 3011 00be
000003a0: 02b7 053e 46f7 1e3e a2a5 3cbe 1ca7 5f3e
000003b0: 14cb 943e 3aac 823d 8214 873e eae6 e1bd
000003c0: 68dd 9ebc dd26 18be 4f86 e4bd 8ca0 8f39
000003d0: 7158 8bbd 1fe5 3dbe 7bcb 93bd 53cb c03d
000003e0: d53d 78be 05b7 b8bd f943 c83d bc2e 083e
000003f0: 5cbe db3d 5e56 613d 0801 a03e bcbf 63bd

mean.0.bias f4 [100]
-0.098776795 -0.0054136687 -0.092331395 -0.17123723 -0.020681476 -0.025144033 0.007658241 -0.13797595
0.08120228 -0.09184197 -0.032552857 -0.117610976 0.1846497 -0.05198068 0.12075123 -0.13047558
-0.5683203 -0.13850911 0.29679152 -0.22867855 -0.05809412 -0.3292768 -0.02320278 -0.051168762
-0.08866592 -0.19125164 0.009439448 -0.099625155 -0.23946092 0.007857946 -0.0033564102 -0.061350606
-0.09426533 -0.29271448 -0.0028070787 -0.016151715 -0.20777515 0.011814638 0.02628171 0.008736794
0.26429084 -0.18311903 -0.07692202 0.02569414 0.030743837 -0.06543231 0.07407249 -0.0059425477
-0.08983425 -0.078340895 -0.019166877 -0.38565338 0.082567066 -0.11478234 -0.24025436 -0.1787902
0.08474646 -0.0026845708 -0.27957827 0.026113821 -0.039501913 -0.16432627 0.20939401 -0.035362262
-0.1341862 -0.14427635 -0.21491694 0.18864655 -0.07188179 -0.0060967407 0.059235245 -0.08091384
0.019299973 0.06664687 -0.027721426 -0.19858873 -0.1713456 -0.1963137 -0.032177527 -0.0528273
-0.09081208 -0.077687584 -0.011123253 0.25941917 -0.33032423 0.06723478 -0.065171145 -0.028283976
0.42346743 -0.057552714 -0.028071683 0.017849604 0.16036539 0.16409159 -0.098244525 -0.026210265
0.030880623 -0.24105027 -0.17307402 -0.12109146
00000000: 7d4b cabd 2565 b1bb 3e18 bdbd d058 2fbe
00000010: 336c a9bc dcfa cdbc fbf1 fa3b 9149 0dbe
00000020: 624d a63d a517 bcbd 2556 05bd 06de f0bd
00000030: d014 3d3e b2e9 54bd 6c4c f73d 649b 05be
00000040: 707d 11bf 55d5 0dbe 0ff5 973e b62a 6abe
00000050: 1af4 6dbd f896 a8be c213 bebc 5696 51bd
00000060: 7a96 b5bd 78d7 43be eaa7 1a3c 4608 ccbd
00000070: 3e35 75be 9dbe 003c 38f7 5bbb c64a 7bbd
00000080: 2e0e c1bd acde 95be f7f6 37bb 9a50 84bc
00000090: 02c3 54be 2f92 413c be4c d73c c524 0f3c
000000a0: 2151 873e 8e83 3bbe 4b89 9dbd 847c d23c
000000b0: 80da fb3c 6001 86bd 51b3 973d b4b9 c2bb
000000c0: 05fb b7bd 3171 a0bd db03 9dbc 5c74 c5be
000000d0: ec18 a93d 0113 ebbd 3d05 76be c714 37be
000000e0: 8d8f ad3d a0ef 2fbb e224 8fbe a7ec d53c
000000f0: c2cc 21bd 2545 28be 626b 563e 05d8 10bd
00000100: 1b68 09be 2ebd 13be 3013 5cbe 902c 413e
00000110: c336 93bd 2bc7 c7bb a8a0 723d 28b6 a5bd
00000120: fa1a 9e3c 277e 883d 0b18 e3bc d85a 4bbe
00000130: 3975 2fbe 7506 49be 95cc 03bd 7061 58bd
00000140: affb b9bd ab1a 9fbd 4e3e 36bc 97d2 843e
00000150: 4220 a9be 63b2 893d 7378 85bd ccb3 e7bc
00000160: b9d0 d83e 65bc 6bbd 96f6 e5bc 5539 923c
00000170: d336 243e a007 283e 6d34 c9bd e9b6 d6bc
00000180: 5cf9 fc3c e2d5 76be 513a 31be cdfe f7bd

mean.2.weight f4 [100, 100]
-0.08567121 -0.10843312 -0.16581374 0.10198483 0.07682165 -0.043677036 0.14600621 -0.1261521
-0.027951129 -0.0049037184 0.06819115 0.13819697 -0.10002605 0.17820187 0.1672556 0.045967214
-0.11916235 0.05351961 0.04770883 -0.05895953 0.16552214 -0.14080434 -0.06745009 -0.059609797
-0.04753242 0.13674603 -0.00946702 0.013498279 -0.15445934 -0.1195402 0.10879812 -0.05294137
0.061973836 -0.13458692 -0.09835157 0.08548002 0.12213015 0.009694956 -0.16125636 -0.108970225
-0.073431276 0.076331675 -0.14121217 -0.11107678 -0.17207591 -0.12212317 0.12332912 -0.06605145
-0.035712503 0.0060796696 -0.034818612 -0.059524857 -0.008039176 -0.0880744 0.10259883 -0.00700882
0.08686763 0.008860083 0.13862395 0.087838575 -0.083668485 -0.044525504 0.03128441 -0.06424342
-0.1213947 0.14113584 0.11631163 -0.08537594 0.04015514 0.12052401 -0.10180457 -0.024243824
-0.14069897 -0.16898891 0.12930982 0.07760052 -0.10118243 -0.012966963 -0.07806425 -0.038119804
-0.037455063 0.054823093 0.032445572 -0.11376893 0.08858938 0.01262022 -0.09060069 -0.09813288
0.006122366 0.060136516 -0.16081147 -0.040277805 -0.12059847 -0.16855359 0.09177903 -0.05991025
-0.16528141 -0.056852005 -0.09451723 0.08918138 -0.03266621 -0.07577642 -0.079291865 -0.04133566
0.13158865 0.018940832 -0.15672755 -0.019030232 0.14282896 -0.15207455 -0.05673789 0.18798955
-0.10878664 0.13052714 -0.13893893 0.13729468 0.20821004 -0.029056381 -0.066206016 -0.01700348
0.0391215 -0.06770756 -0.09905514 -0.12561208 0.08236895 0.14269976 -0.0894845 0.0059893928
-0.11014304 0.09218894 -0.11382203 -0.098420314 -0.06901039 -0.033181652 0.021367261 -0.13785644
-0.073901914 -0.07438302 -0.036041755 -0.024710312 -0.0002462808 0.10984261 -0.1044761 -0.0053033014
0.1603169 0.02280389 -0.15863688 0.14448349 -0.15937623 0.06539829 0.16683078 0.056670103
0.09764501 0.13791542 0.1086923 -0.056881927 0.029758196 0.15406944 0.03951485 -0.111772925
0.15038319 0.15828532 0.06582759 0.086554416 0.10502122 -0.12231243 -0.06264468 0.025902124
0.045723755 0.043256026 -0.012710508 -0.17757174 0.07635121 -0.091052614 -0.15473634 0.20386995
0.07771578 0.09002892 -0.086658254 0.0788302 0.025333641 0.11689297 0.008433569 0.22578181
-0.036400173 0.147167 0.17858176 0.022896273 -0.13861239 -0.0031203923 0.10902546 -0.12625039
-0.07388926 0.029012233 0.038126204 0.17041703 0.029286038 -0.030552175 0.03550661 -0.022993494
-0.11104208 -0.017806748 -0.08911681 0.13189958 0.0086921705 0.04514554 -0.020356162 0.019692067
-0.13745241 -0.03274795 0.03771569 0.056605823 -0.11212863 0.18515311 -0.081451364 0.103587866
0.30480912 0.21429864 -0.060859095 0.11592942 -0.13741943 0.0773216 0.061164517 -0.03626944
0.054351673 0.00974724 0.06893337 0.087959 0.12855552 0.10921504 0.038672388 0.030590918
-0.076968476 -0.08957174 0.11822713 0.11806204 0.023119548 0.16628219 0.099990256 0.09187992
-0.053116735 0.15719251 -0.1411129 -0.1679666 0.18212248 -0.11184367 0.13659866 -0.051284127
-0.07342226 -0.13699019 0.1404174 -0.08529142 -0.1589838 0.06169387 -0.016238589 -0.16929427
00000000: 6374 afbd 2f12 debd 14cb 29be 6cdd d03d
00000010: ab54 9d3d b1e6 32bd a782 153e 042e 01be
00000020: c4f9 e4bc 5faf a0bb cda7 8b3d 8283 0d3e
00000030: 75da ccbd 8d7a 363e 0d45 2b3e 1e48 3c3d
00000040: 640b f4bd 6137 5b3d 566a 433d 8c7f 71bd
00000050: a37e 293e 032f 10be 4623 8abd 6729 74bd
00000060: 5bb1 42bd 2707 0c3e 8f1b 1bbc e327 5d3c
00000070: 972a 1ebe 7ed1 f4bd 8cd1 de3d 0dd9 58bd
00000080: 47d8 7d3d 27d1 09be 8c6c c9bd 2610 af3d
00000090: 5f1f fa3d 98d7 1e3c 6320 25be c82b dfbd
000000a0: 2363 96bd c853 9c3d ec99 10be 397c e3bd
000000b0: ab34 30be b61b fabd fa93 fc3d fc45 87bd
000000c0: 4647 12bd f737 c73b f69d 0ebd 56d0 73bd
000000d0: c0b6 03bc 5a60 b4bd 561f d23d 3eaa e5bb
000000e0: a8e7 b13d e229 113c 70f3 0d3e b6e4 b33d
000000f0: 625a abbd 6060 36bd 1524 003d 0e92 83bd
00000100: c99d f8bd ea85 103e cb34 ee3d 95d9 aebd
00000110: b779 243d 4bd5 f63d ea7e d0bd fc9a c6bc
00000120: 6413 10be 6e0b 2dbe cb69 043e 05ed 9e3d
00000130: bc38 cfbd 6373 54bc 26e0 9fbd 8323 1cbd
00000140: 7b6a 19bd 2e8e 603d a6e5 043d afff e8bd
00000150: 596e b53d 0ac5 4e3c db8c b9bd e4f9 c8bd
00000160: 219e c83b b551 763d c3ab 24be 57fa 24bd
00000170: 55fc f6bd 5099 2cbe a5f6 bb3d 7364 75bd
00000180: 883f 29be a6dd 68bd 4092 c1bd baa4 b63d
00000190: 01cd 05bd ab30 9bbd c663 a2bd 954f 29bd
000001a0: 2dbf 063e ce29 9b3c 307d 20be 4ae5 9bbc
000001b0: c141 123e 6eb9 1bbe fd65 68bd 5580 403e
000001c0: 88cb debd e8a8 053e 0246 0ebe fa96 0c3e
000001d0: 0335 553e a607 eebc 0597 87bd e24a 8bbc
000001e0: de3d 203d 43aa 8abd 6cdd cabd 74a0 00be
000001f0: 0db1 a83d e31f 123e a643 b7bd ab42 c43b
00000200: ad92 e1bd 8ecd bc3d 861b e9bd 9790 c9bd
00000210: 5255 8dbd 7ce9 07bd 650a af3c 3d2a 0dbe
00000220: e359 97bd 2056 98bd 85a0 13bd 486d cabc
00000230: 401f 81b9 2af5 e03d 91f7 d5bd 51c7 adbb
00000240: 1d2a 243e 39cf ba3c b571 22be 7bf3 133e
00000250: 8633 23be 8aef 853d b0d5 2a3e e91e 683d
00000260: 1bfa c73d b339 0d3e 129a de3d 06fd 68bd
00000270: 76c7 f33c 61c4 1d3e 53da 213d 34e9 e4bd
00000280: 0dfe 193e 8c15 223e 9ed0 863d 7143 b13d
00000290: 5e15 d73d f07e fabd db4b 80bd b130 d43c
000002a0: d548 3b3d 3b2d 313d bc3f 50bc 5ed5 35be
000002b0: 065e 9c3d cb79 babd 3473 1ebe 49c3 503e
000002c0: 7329 9f3d 1561 b83d e279 b1bd ba71 a13d
000002d0: 7f88 cf3c 9565 ef3d f42c 0a3c 5933 673e
000002e0: 5918 15bd f2b2 163e 23de 363e f790 bb3c
000002f0: 68f0 0dbe 7f7f 4cbb be48 df3d c847 01be
00000300: 4153 97bd 10ab ed3c 392a 1c3d cd81 2e3e
00000310: 46e9 ef3c 8e48 fabc 616f 113d da5c bcbc
00000320: 086a e3bd 75df 91bc e082 b6bd af10 073e
00000330: 9b69 0e3c 88ea 383d f7c1 a6bc 4251 a13c
00000340: 53c0 0cbe b722 06bd c47b 1a3d 82db 673d
00000350: b2a3 e5bd c798 3d3e f9cf a6bd e025 d43d
00000360: f10f 9c3e 1a71 5b3e 6347 79bd 676c ed3d
00000370: aeb7 0cbe c95a 9e3d a587 7a3d 448f 14bd
00000380: dc9f 5e3d e3b2 1f3c f02c 8d3d d923 b43d
00000390: 0fa4 033e 23ac df3d f066 1e3d ce99 fa3c
000003a0: a6a1 9dbd 6371 b7bd 1121 f23d 83ca f13d
000003b0: 3565 bd3c e145 2a3e b1c7 cc3d 8a2b bc3d
000003c0: ef90 59bd 13f7 203e e67f 10be 70ff 2bbe
000003d0: 517e 3a3e 4b0e e5bd 85e0 0b3e 4e0f 52bd
000003e0: 695e 96bd 2847 0cbe 94c9 0f3e 45ad aebd
000003f0: a6cc 22be b6b2 7c3d ca06 85bc 7a5b 2dbe

mean.2.bias f4 [100]
0.00085944793 -0.05086513 0.04207504 -0.035359208 -0.027439661 0.20019066 0.1374216 0.05923106
-0.022519352 -0.012974566 0.00289793 -0.03827451 -0.056057528 0.3082667 0.07563436 0.10441085
-0.051426776 0.06571937 -0.032909155 -0.0042018234 0.16196474 0.044211835 -0.14186282 0.040765714
0.021053256 0.13616599 0.12298394 0.11272479 0.13146116 0.020187292 0.0518523 -0.0820041
0.116031095 -0.13367338 -0.01610532 -0.08766245 0.2386922 -0.14549726 -0.1498447 -0.079910934
-0.27576372 -0.058293004 0.24869303 0.039831255 0.018605597 -0.050391264 0.170901 -0.047092885
0.038608577 0.009277378 0.13801017 -0.024595086 -0.13498423 -0.012121578 0.0756385 0.061584577
0.023647476 -0.0026902703 0.18728842 0.058372337 -0.0013217157 0.0010585312 -0.0021414268 -0.0063534915
0.2382185 0.040755056 -0.072671086 -0.0064556054 0.18443419 0.060953334 -0.022414595 0.0074365893
0.09055402 -0.015900064 -0.048304327 -0.0880831 -0.10458464 0.012406783 -0.007342823 -0.013980206
0.22009432 0.07231064 -0.024471028 0.049770363 0.015128601 -0.03463285 0.2195262 0.21616752
0.18686318 -0.010191458 0.076527596 0.022234922 -0.02907698 -0.001948929 -0.018116213 0.3418438
-0.050201192 0.010974976 0.020291805 0.07891165
00000000: 934c 613a f457 50bd e156 2c3d d1d4 10bd
00000010: 24c9 e0bc c8fe 4c3e 3fb8 0c3e 459c 723d
00000020: 817a b8bc 4693 54bc 33eb 3d3b bcc5 1cbd
00000030: 949c 65bd 22d5 9d3e 30e6 9a3d 5bd5 d53d
00000040: e2a4 52bd e197 863d c0cb 06bd 73af 89bb
00000050: 16da 253e 7817 353d 7d44 11be f3f9 263d
00000060: e177 ac3c 196f 0b3e 01df fb3d 41dc e63d
00000070: c19d 063e d25f a53c 1463 543d c4f1 a7bd
00000080: b6a1 ed3d ade1 08be 4eef 83bc 5f88 b3bd
00000090: ba6b 743e 3cfd 14be e470 19be 58a8 a3bd
000000a0: e730 8dbe a5c4 6ebd 63a9 7e3e 1926 233d
000000b0: c46a 983c 1267 4ebd ac00 2f3e 78e4 40bd
000000c0: 0724 1e3d 2500 183c 8a52 0d3e a27b c9bc
000000d0: 4e39 0abe 9599 46bc 5ce8 9a3d 1c40 7c3d
000000e0: 5ab8 c13c 3f4f 30bb 89c8 3f3e d517 6f3d
000000f0: 6b3d adba 6abe 8a3a 2e57 0cbb f330 d0bb
00000100: 8def 733e c6ee 263d 94d4 94bd 8b89 d3bb
00000110: 51dc 3c3e 34aa 793d d09e b7bc a2ae f33b
00000120: 6374 b93d da40 82bc c2da 45bd ea64 b4bd
00000130: 7930 d6bd d245 4b3c 109c f0bb 3c0d 65bc
00000140: 6860 613e 9a17 943d 7777 c8bc 02dc 4b3d
00000150: f4dd 773c 2ddb 0dbd 7acb 603e 055b 5d3e
00000160: 1059 3f3e 13fa 26bc 80ba 9c3d 0326 b63c
00000170: d932 eebc 3573 ffba 7468 94bc 2706 af3e
00000180: c49f 4dbd 63d0 333c 003b a63c 6e9c a13d

mean.4.weight f4 [2, 100]
0.09365804 -0.10823189 -0.22414066 0.3874545 -0.051730335 0.5281978 0.39986944 -0.4752558
-0.2846405 0.25861105 0.16545852 -0.022192141 -0.14234212 0.21287943 0.13488519 0.07870547
-0.10483891 -0.01955756 -0.17839618 -0.14437681 0.37976137 -0.016570564 -0.23651332 -0.04836094
-0.35246602 0.28979427 -0.031935986 0.100812785 0.2524207 -0.054235265 0.24576563 -0.01770332
0.34433943 -0.01687055 0.19908705 0.07997722 0.7203054 -0.63057363 0.21125358 -0.24159427
0.2312667 -0.5739281 0.17148021 0.055725403 0.11216501 -0.3514464 0.35487917 -0.02226562
-0.11566894 0.23465163 0.32802254 0.00058701826 -0.13954243 -0.02766094 -0.01651264 0.59327185
0.14224926 0.16165216 0.22273216 -0.24303068 -0.6151464 -0.029708602 -0.09004915 0.020080289
0.4787901 0.55567634 0.10233145 0.112653255 0.34602547 -0.3882887 -0.1888145 -0.070102386
0.10167996 -0.24176651 -0.053014386 0.13030547 -0.036883175 0.26963946 -0.23094788 0.09386751
0.35782427 -0.3376741 0.10769923 0.36077684 -0.12576662 -0.19387238 0.47560862 0.19019784
0.5391727 -0.28878 0.01833562 0.03309522 0.20604883 -0.24378562 0.0069354675 0.43838337
-0.24969469 0.20384204 0.21026821 -0.07999623 0.15781677 0.32926 0.17323606 -0.23808403
0.15487373 -0.4312016 -0.43790635 0.29954606 0.3761326 0.21589479 -0.07422366 0.13980816
0.10479726 -0.22904259 -0.29219484 -0.22178552 -0.11190719 0.113509536 0.24890631 -0.13351096
-0.2194251 0.297409 0.23731728 0.038022324 0.09534796 -0.31254068 -0.35023913 -0.46558073
-0.36136305 -0.029455256 -0.12683941 0.18448344 -0.18207426 0.19731483 0.13938342 0.028079817
-0.39052615 0.4440955 -0.12699345 0.08812028 -0.32771194 0.30159548 -0.15823281 -0.33258078
-0.3991663 0.47303724 -0.16963007 0.17378978 0.23488955 0.078055814 -0.33980483 -0.06677242
0.15649451 0.16055067 -0.24814616 -0.14851902 0.14027306 0.09669754 -0.23962626 0.29672977
0.5574464 0.06176483 -0.12690677 0.067690454 -0.57189566 -0.4665307 -0.09481011 0.30777565
-0.46933994 0.28770185 0.16709541 0.040490728 -0.1314028 -0.07525173 0.11538861 0.17156608
-0.17648153 0.0669885 0.022688283 -0.041875146 -0.26035047 0.4494954 0.16369566 -0.25080693
-0.3188906 -0.045412734 -0.10983326 -0.45865563 -0.13517493 0.16105443 -0.16165935 -0.013443962
0.105832666 -0.16523746 -0.24285117 -0.5809183 0.23236156 -0.44800028 0.06914134 0.25858226
00000000: c9cf bf3d aea8 ddbd 2185 65be 7060 c63e
00000010: 30e3 53bd f937 073f b0bb cc3e ba54 f3be
00000020: 66bc 91be ab68 843e f56d 293e 4bcc b5bc
00000030: 22c2 11be 11fd 593e 581f 0a3e 5530 a13d
00000040: c8b5 d6bd 2d37 a0bc 7dad 36be 84d7 13be
00000050: 1570 c23e febe 87bc 8c30 72be 1f16 46bd
00000060: 6d76 b4be ea5f 943e 4fcf 02bd ef76 ce3d
00000070: 493d 813e cc25 5ebd fca9 7b3e 8e06 91bc
00000080: 424d b03e 1c34 8abc 7add 4b3e 19cb a33d
00000090: ef65 383f 466d 21bf dc52 583e 7d64 77be
000000a0: 2ed1 6c3e f4ec 12bf 8298 2f3e 5240 643d
000000b0: c5b6 e53d c8f0 b3be b9b2 b53e 6466 b6bc
000000c0: d6e3 ecbd 8448 703e 92f2 a73e 21e2 193a
000000d0: 36e4 0ebe 3299 e2bc 8445 87bc aae0 173f
000000e0: caa9 113e 2588 253e e613 643e 09dd 78be
000000f0: 3c7a 1dbf 745f f3bc b06b b8bd 6b7f a43c
00000100: fa23 f53e ce40 0e3f 2793 d13d c0b6 e63d
00000110: 402a b13e c7cd c6be 9758 41be d791 8fbd
00000120: 953d d03d a491 77be 9d25 59bd cc6e 053e
00000130: d012 17bd 2f0e 8a3e 9a7d 6cbe 9c3d c03d
00000140: be34 b73e 9fe3 acbe 6a91 dc3d beb7 b83e
00000150: f7c8 00be 7b86 46be f982 f33e 39c3 423e
00000160: 3907 0a3f f9da 93be 9534 963c da8e 073d
00000170: 77fe 523e f0a2 79be eb42 e33b c973 e03e
00000180: f7af 7fbe f8bb 503e 8d50 573e 10d5 a3bd
00000190: b89a 213e c494 a83e cb64 313e 4dcc 73be
000001a0: 3897 1e3e 75c6 dcbe 4335 e0be 1a5e 993e
000001b0: 7494 c03e 8613 5d3e 9302 98bd df29 0f3e
000001c0: f29f d63d 248a 6abe 909a 95be be1b 63be
000001d0: 992f e5bd b077 e83d 4ce1 7e3e 19b7 08be
000001e0: f9b0 60be fe45 983e 4d03 733e 4cbd 1b3d
000001f0: cb45 c33d 5505 a0be 8b52 b3be 9960 eebe
00000200: 9404 b9be 264c f1bc 31e2 01be 3ae9 3c3e
00000210: ad71 3abe e60c 4a3e 87ba 0e3e a507 e63c
00000220: 0bf3 c7be 7c60 e33e 920a 02be 6878 b43d
00000230: dcc9 a7be b96a 9a3e c807 22be 0748 aabe
00000240: 865f ccbe f031 f23e 81b3 2dbe f3f5 313e
00000250: e386 703e badb 9f3d e6fa adbe fbbf 88bd
00000260: 1940 203e 6567 243e 071a 7ebe 5f15 18be
00000270: bea3 0f3e 5c09 c63d 9660 75be f7ec 973e
00000280: cfb4 0e3f 1efd 7c3d d9f3 01be 4ba1 8a3d
00000290: c167 12bf 1ddd eebe ce2b c2bd c594 9d3e
000002a0: 534d f0be a84d 933e 0f1b 2b3e 9bd9 253d
000002b0: 758e 06be 941d 9abd dd50 ec3d 05af 2f3e
000002c0: 93b7 34be 4431 893d c7dc b93c 4685 2bbd
000002d0: a84c 85be 4324 e63e d69f 273e c469 80be
000002e0: a145 a3be b402 3abd 43f0 e0bd e9d4 eabe
000002f0: 4c6b 0abe 74eb 243e 078a 25be 1044 5cbc
00000300: ccbe d83d 0234 29be faad 78be 10b7 14bf
00000310: 30f0 6d3e 4b60 e5be fa99 8d3d e564 843e

mean.4.bias f4 [2]
0.1832166 -0.18321571
00000000: 229d 3b3e e69c 3bbe
