save/exp19/it19_model.pt (torch, 52263 bytes, 7 tensors)

sigma f4 [2]
0	0xbf6e7aef	-0.9315633
1	0x3e88ed03	0.26743326

mean.0.weight f4 [100, 20]
0	0x3cc9d21a	0.024636317
1	0x3e11bfa9	0.14233269
2	0xbe7381a1	-0.23779918
3	0xbd2056d8	-0.03914532
4	0xbdf9305d	-0.12167428
5	0x3e1cad5a	0.15300503
6	0xbdf712e3	-0.12064149
7	0x3ea857ac	0.32879388
8	0xbe5d9558	-0.21639001
9	0xbc38bdbe	-0.011275707
10	0xbdaca60d	-0.08430109
11	0xbd81faf6	-0.06346695
12	0xbdde46f8	-0.1085338
13	0x3c83c55f	0.016085325
14	0x3e464f54	0.19366199
15	0x3d5c0d13	0.053723406
16	0x3df6e76d	0.1205586
17	0x3dada0e0	0.0847795
18	0xbc7ad0bc	-0.015308555
19	0x3ce61a5b	0.02808874
20	0x3e470538	0.19435585
21	0x3c0ee8c4	0.008722488
22	0x3e24a0fc	0.16077036
23	0x3e1d9226	0.15387782
24	0x3e29ed04	0.1659432
25	0x3da1ef4c	0.079069704
26	0x3e886a91	0.26643804
27	0xbdbba2bb	-0.09161898
28	0x3e7631b4	0.24042398
29	0x3e9c6c88	0.30551553
30	0x3e3241db	0.17407934
31	0x3c219eac	0.0098644905
32	0xbe2e2580	-0.17006493
33	0x3ddf4c5f	0.109032385
34	0xbe3d3ae1	-0.18479492
35	0xbdee3774	-0.116316706
36	0xbceb5119	-0.028725194
37	0xbee49559	-0.44645193
38	0x3d3cfc93	0.04613931
39	0xbe4dc598	-0.20094907
40	0x3dd37f0c	0.10326967
41	0xbe2a0207	-0.16602336
42	0x3deb552f	0.11490857
43	0x3e348a88	0.1763097
44	0x3e1b287d	0.15152164
45	0x3e867cfb	0.26267228
46	0x3d8894ff	0.06669044
47	0xbdabdb14	-0.08391395
48	0x3dd695e2	0.10477807
49	0x3d2a17c6	0.04152658
50	0xb88f3d36	-6.830173e-05
51	0xbe4a5204	-0.19757849
52	0xbd43d72a	-0.04781262
53	0xbd57cbcc	-0.05268459
54	0x3e0ec2ec	0.13941544
55	0x3dc964ee	0.09833704
56	0x3e0f14dc	0.13972801
57	0x3d506917	0.05088147
58	0xbda2b4e7	-0.07944661
59	0xbe1d0db3	-0.15337257
60	0x3ddf3123	0.10898044
61	0xbddbc037	-0.107300214
62	0x3ec2979b	0.3800629
63	0x3da13ba9	0.078727074
64	0x3e4ca5e5	0.19985159
65	0xbcc0365d	-0.023463422
66	0xbe253371	-0.16132905
67	0xbe7466b3	-0.23867302
68	0x3eb48c4a	0.35263282
69	0x3dd441ce	0.10364114
70	0x3d940942	0.07228328
71	0xbe4fecf1	-0.2030523
72	0xbe29d210	-0.16584039
73	0xbe5f53bf	-0.2180929
74	0x3da715f1	0.08158482
75	0xbe907399	-0.28213194
76	0x3d9a1a27	0.075245194
77	0x3c15bdb0	0.009139463
78	0xbd898279	-0.06714339
79	0x3e54a09c	0.20764393
80	0xbdbaf490	-0.09128678
81	0xbd8d9d2f	-0.06914746
82	0xbdf0b2c2	-0.11752845
83	0xbe713cf6	-0.23558411
84	0xbd3dfdb0	-0.046384513
85	0x3c9504dc	0.018190794
86	0xbe6725a4	-0.22572953
87	0x3c916bdc	0.017751627
88	0xbe5334c0	-0.20625591
89	0xbe5683ad	-0.20948668
90	0xbe11d9bc	-0.14243215
91	0xbdbbdf38	-0.09173435
92	0xbd0f2eb9	-0.034956668
93	0xbd9a21f0	-0.07526004
94	0x3dc71fc9	0.097228594
95	0xbe831aa8	-0.25606275
96	0xba73eb80	-0.00093048066
97	0xbd8276a4	-0.06370285
98	0x3d5c0a18	0.053720564
99	0x3e244523	0.16041999
100	0x3e4ebde2	0.20189622
101	0xbe082318	-0.13294637
102	0xbdf0b419	-0.11753101
103	0xbd020a56	-0.03174814
104	0xbdad35b9	-0.084575124
105	0x3e0de5e0	0.13857222
106	0xbbced5e8	-0.0063121207
107	0x3e3c5a08	0.18393719
108	0x3e213e2e	0.15746376
109	0x3dc4a47a	0.09601684
110	0x3d0957dc	0.033531055
111	0x3dc50623	0.09620311
112	0x3d0a830f	0.033816393
113	0x3e83c8a0	0.25739002
114	0xbe0c7af4	-0.13718778
115	0x3d6827cb	0.056678575
116	0xbe1d9979	-0.15390576
117	0xbe1bb1d9	-0.15204562
118	0x3d1a2e60	0.037641883
119	0x3e21024d	0.15723534
120	0x3d777b65	0.060420413
121	0x3d377403	0.04478837
122	0xbe498054	-0.1967786
123	0xbda68034	-0.081299216
124	0xbe0651b9	-0.13117112
125	0xbe43903d	-0.19097991
126	0xbb97eb41	-0.0046361987
127	0x3e8abbed	0.270965
128	0x3e23f54d	0.16011544
129	0xbe9acdcb	-0.30235133
130	0xbdd5c449	-0.10437829
131	0xbe0f35e9	-0.13985409
132	0xbdead52a	-0.11466439
133	0xbe520baf	-0.2051227
134	0x3cf25f35	0.029586414
135	0xbdf82e98	-0.12118262
136	0x3e3510a0	0.17682123
137	0x3e9e17c0	0.30877495
138	0xbe95bc92	-0.2924543
139	0xbeb5d536	-0.3551423
140	0x3c0ef1b0	0.008724615
141	0xbd7fac58	-0.06242022
142	0x3d86701c	0.06564352
143	0xbe1afecc	-0.1513626
144	0x3dbb74dc	0.091531485
145	0xbe45c68e	-0.19314024
146	0xbdf1b0c8	-0.118012965
147	0xbdf0be4f	-0.117550485
148	0x3ddd98b0	0.108201385
149	0xbbbfd560	-0.0058542937
150	0xbe5c0cc9	-0.21489252
151	0xbe02c572	-0.12770632
152	0xbdd3ed5a	-0.103480056
153	0xbe5472c2	-0.20746902
154	0x3cea8e00	0.028632164
155	0x3da32f0c	0.07967958
156	0xbd280bc4	-0.041026846
157	0xbdb63cce	-0.08898316
158	0xbab1be00	-0.0013560653
159	0xbe35de8e	-0.17760679
160	0xbe45c50a	-0.19313446
161	0x3c5f3d4d	0.013625455
162	0x3dd39a16	0.10332124
163	0xbda8ec12	-0.08248152
164	0x3c8326a5	0.016009638
165	0xbe2e1af6	-0.17002472
166	0xbdad04a0	-0.08448148
167	0xbe8d410e	-0.27588695
168	0x3e33fed9	0.17577685
169	0x3e3912b7	0.18073545
170	0xbcdfdda5	-0.027327368
171	0x3d1bed40	0.038068056
172	0x3e23091d	0.15921445
173	0x3d2dc8b5	0.042427737
174	0x3db9e43a	0.09076734
175	0xbe89fad7	-0.26949188
176	0xbe680331	-0.22657467
177	0xbe89473a	-0.26812154
178	0xbace7f89	-0.0015754561
179	0xbe907c40	-0.28219795
180	0xbe3f0448	-0.18653977
181	0xbd2ba6af	-0.04190701
182	0xbe5b0643	-0.21389107
183	0xbc88f794	-0.016719617
184	0x3d0eb9f3	0.034845304
185	0xbe3dd411	-0.18537928
186	0x3e806a34	0.25081027
187	0xbc1254d0	-0.008931354
188	0xbd9d5a61	-0.07683254
189	0x3e6a158d	0.22859783
190	0x3d984d16	0.07436578
191	0xbdab7ccd	-0.08373413
192	0xbe17b2f7	-0.14814363
193	0xbda6ede8	-0.08150846
194	0x3d8d4e26	0.06899671
195	0x3e698da9	0.22807945
196	0x3e4a51cb	0.19757764
197	0xbd36eb30	-0.044657886
198	0xbe5bab76	-0.21452126
199	0xbe174e1c	-0.1477589
200	0xbd91d283	-0.0712023
201	0x3aaf43f8	0.0013371697
202	0xbdcdaf17	-0.10043161
203	0xbe3711e9	-0.17877926
204	0x3cbab3dd	0.022790844
205	0xbe368305	-0.17823417
206	0xbe30a8d9	-0.1725191
207	0xbe3ac7b4	-0.18240243
208	0xbd846386	-0.06464295
209	0x3e497703	0.19674306
210	0x3da76871	0.081742175
211	0xbcee39f4	-0.029080369
212	0x3d281654	0.04103692
213	0x3da94148	0.082644045
214	0xba98d2de	-0.0011659523
215	0xbe36cb6e	-0.1785104
216	0xbe108669	-0.14113773
217	0xbe1b74bb	-0.15181248
218	0xbc0c5071	-0.008564101
219	0xbe51ad73	-0.20476322
220	0xbc0d0958	-0.008608185
221	0xbd5e8f92	-0.054336138
222	0x3e903988	0.28168893
223	0x3e4aba14	0.19797546
224	0x3e629187	0.22125827
225	0x3da93a85	0.08263115
226	0x3d1b6315	0.03793629
227	0x3de11ae4	0.10991457
228	0xbe116698	-0.14199293
229	0xbd5e1dce	-0.054227643
230	0xbcf6bf06	-0.030120384
231	0x3c91f0e0	0.017815053
232	0xbe50ff37	-0.20409857
233	0x3dc9c269	0.09851534
234	0x3e323dc1	0.1740637
235	0xbe2cda63	-0.16880183
236	0x3d6c4a08	0.05768779
237	0xbd7aa363	-0.061190974
238	0xbd795823	-0.06087507
239	0xbd32aee1	-0.04362381
240	0x3e7f2e59	0.24920024
241	0x3dbf0149	0.09326417
242	0xbe06fdc5	-0.13182743
243	0xbdcc1d31	-0.09966505
244	0x3e0ce9a8	0.13761008
245	0x3d0cfdf9	0.034421895
246	0x3d3586de	0.044318072
247	0xbab11327	-0.0013509736
248	0xbe02b2fd	-0.12763591
249	0xbdcf567c	-0.101239175
250	0xbe1c291c	-0.15250057
251	0x3cb3b5e6	0.021937322
252	0x3c8a43fd	0.016878122
253	0x3e518f1c	0.20464748
254	0xbdc84332	-0.097784415
255	0x3ce413f9	0.027841555

mean.0.bias f4 [100]
0	0xbdd00abc	-0.101582974
1	0xbd4244ba	-0.047428824
2	0xbd80cdcf	-0.06289255
3	0x3dc44066	0.095825955
4	0xbe023d2c	-0.12718648
5	0x3d9858b7	0.07438796
6	0xbe0b920c	-0.13629931
7	0x00000000	0.0
8	0xbdd3feb9	-0.10351319
9	0x3cbf20e9	0.023331122
10	0xbbb9c8cd	-0.0056696893
11	0x3e0516e3	0.12997012
12	0x3cafdae8	0.021466687
13	0xbd477cf7	-0.04870316
14	0xbd69e684	-0.057104602
15	0xbe0e5fbc	-0.13903707
16	0xbdfc3bcc	-0.12316093
17	0xbde475e3	-0.111552976
18	0xbc8217e5	-0.015880534
19	0x3b9b8665	0.0047462457
20	0x3e37af57	0.1793798
21	0x3d93c610	0.07215512
22	0x3e0eef23	0.13958411
23	0x3d7f6a78	0.062357396
24	0x3d1d7057	0.038437214
25	0xbdb6553c	-0.08902976
26	0x3dc8406a	0.09777911
27	0xbd09c97a	-0.03363941
28	0x00000000	0.0
29	0xbe29a885	-0.16568191
30	0x3d8ff9e8	0.07030088
31	0xbe09bd59	-0.13451137
32	0xbdc0454f	-0.093882196
33	0xbd2cf156	-0.042222343
34	0x3befdea4	0.007320242
35	0xbd5b0728	-0.05347362
36	0xbd0c566b	-0.034262102
37	0xbd9c63b9	-0.07636208
38	0xbe0a3552	-0.13496903
39	0x3da41b68	0.0801304
40	0x3d8beae3	0.068319105
41	0xbce5d212	-0.02805427
42	0x3ca2bd2a	0.019865591
43	0x3c228ee1	0.00992176
44	0x3d54b3f9	0.051929448
45	0x3c88650f	0.016649751
46	0xbd873966	-0.06602745
47	0xbe106682	-0.14101604
48	0xbc920432	-0.017824266
49	0x3d9a3aa6	0.075307176
50	0xbdb506c8	-0.08839184
51	0x3d5ed520	0.05440247
52	0xbde1fb0e	-0.11034213
53	0x3e197b1e	0.14988372
54	0x3dc5b38d	0.09653387
55	0xbcd29114	-0.025703944
56	0xbd646810	-0.055763304
57	0xbd80b18a	-0.06283863
58	0x3df36f5d	0.11886475
59	0xbd687416	-0.056751333
60	0x3c8d9c53	0.017286455
61	0xbda508b0	-0.08058298
62	0x3e00a7f6	0.12564072
63	0xbdaadb50	-0.08342612
64	0xbe2073b5	-0.15669139
65	0xbbb73158	-0.005590599
66	0x3bb0113d	0.0053731487
67	0x3d751759	0.05983672
68	0x3b792da0	0.003802158
69	0x3cb9004b	0.022583148
70	0x3dc10306	0.09424405
71	0xbe5a78e3	-0.21335177
72	0x3d207029	0.039169464
73	0x3dcff18c	0.10153493
74	0xbc904090	-0.01760891
75	0xbdaad632	-0.08341636
76	0x3ddb2486	0.10700326
77	0x3b6cd91a	0.0036140145
78	0xbd229de2	-0.03970135
79	0x3e3dbf42	0.1852999
80	0x3cc3a68b	0.023883125
81	0x3dedbb0e	0.116079435
82	0xbc94e2dc	-0.018174581
83	0xbcbe5e05	-0.023238191
84	0xbd8a5a02	-0.06755449
85	0x3a21009e	0.00061417546
86	0xbd03413a	-0.032044627
87	0x3dc003ff	0.09375762
88	0x3d3f8c11	0.046764437
89	0xbc68790d	-0.014189017
90	0x3e338b70	0.1753366
91	0xbc25f7ac	-0.01012985
92	0xbdb48da6	-0.0881608
93	0x3ded9b08	0.116018355
94	0x3c6f6dc8	0.014613576
95	0xbcad7b41	-0.021176936
96	0xbdd6fe00	-0.104976654
97	0xbd9f0dbf	-0.07766294
98	0xbc4cea60	-0.012507051
99	0xbd99883a	-0.07496686

mean.2.weight f4 [100, 100]
0	0xbdcf06c0	-0.10108709
1	0xbd4c6cca	-0.049908437
2	0xbcf179c4	-0.029477008
3	0xbd0389f6	-0.03211399
4	0xba9dc2cc	-0.0012036203
5	0xbe3d105c	-0.18463272
6	0xbe301043	-0.17193703
7	0x3e1f9684	0.15584761
8	0x3e2df376	0.16987404
9	0xbe15cb27	-0.14628278
10	0xbdf81f87	-0.12115388
11	0xbc2e9da5	-0.010657703
12	0xbdd8bf02	-0.10583307
13	0xbe25d0be	-0.1619291
14	0x3d516e7c	0.051130757
15	0xbde8c002	-0.113647476
16	0x3d949a12	0.07255949
17	0xbdcb8d13	-0.09939017
18	0x3b041aa8	0.002015749
19	0xbd7f7514	-0.062367514
20	0xbceecc5b	-0.029150179
21	0xbe120052	-0.14257935
22	0xbe2b55d8	-0.16731966
23	0x3dec7a92	0.11546816
24	0xbd0ae5dd	-0.03391062
25	0xbdc9c8b7	-0.098527364
26	0x3e222729	0.15835251
27	0x3cc4442b	0.023958286
28	0xbd272904	-0.0408106
29	0x3c50d600	0.012746334
30	0xbd201392	-0.039081164
31	0x3c7f4b5e	0.015581934
32	0x3d485312	0.048907347
33	0x3d734412	0.05939109
34	0x3e065fea	0.13122526
35	0x3db5ec88	0.088830054
36	0xbd891680	-0.06693745
37	0xbb8844ce	-0.004158593
38	0xbd3c3871	-0.045952264
39	0x3e367587	0.1781827
40	0xbdf1e2e2	-0.118108526
41	0x3e08c0bc	0.13354772
42	0xbdc7a1a2	-0.09747626
43	0x3e09c7b3	0.13455085
44	0x3d99a81d	0.07502768
45	0x3dc0d910	0.094164014
46	0xbe048d5c	-0.1294455
47	0xbd3b697a	-0.045754887
48	0x3e0ab58d	0.13545819
49	0xbe37f440	-0.17964268
50	0xbd57d829	-0.05269638
51	0xbe4df81a	-0.20114174
52	0xbe1afc5c	-0.1513533
53	0x3dd1b488	0.10239512
54	0xbdbca5b7	-0.09211295
55	0xbd878e48	-0.06618935
56	0xbe1f2896	-0.15542826
57	0xbe08958b	-0.13338296
58	0x3e147a56	0.14499792
59	0xbc89d7dc	-0.016826563
60	0xbd440159	-0.047852848
61	0xbd225c28	-0.03963867
62	0x3e2926c7	0.16518699
63	0x3daab6b3	0.08335628
64	0x3deb75c1	0.11497069
65	0x3e185cbe	0.14879128
66	0x3d0238a7	0.03179231
67	0x3c94e52b	0.018175682
68	0x3bfc9f8c	0.007709449
69	0xbd5998ec	-0.053124353
70	0xbe23b3f6	-0.15986618
71	0x3e0e5700	0.13900375
72	0x3e18a897	0.14908062
73	0xbd26e64e	-0.04074698
74	0xbd8a0d60	-0.06740832
75	0x3e2bc306	0.16773614
76	0xbe0994dd	-0.13435693
77	0xbd4d455f	-0.050114986
78	0xbd90b314	-0.070654064
79	0xbdaed9a8	-0.085376084
80	0xbe1d2135	-0.15344699
81	0x3e39271e	0.18081328
82	0x3e1d212d	0.15344687
83	0x3ddd7b4a	0.10814531
84	0xbdc34628	-0.095348656
85	0xbd9f981d	-0.07792685
86	0x3be73a10	0.007056482
87	0x3d936250	0.07196486
88	0x3e4d899c	0.20072025
89	0x3ddca9ca	0.10774572
90	0xbd74a46b	-0.059727114
91	0xbddc8d59	-0.107691474
92	0x3e203c34	0.15647966
93	0xbe147210	-0.14496636
94	0xbe0e9add	-0.13926263
95	0xbc00a3fd	-0.007851598
96	0xbd86e7ae	-0.06587158
97	0x3d67d532	0.056599803
98	0xbdf86ffc	-0.12130734
99	0xbd71e652	-0.05905754
100	0xbe1afcca	-0.15135494
101	0x3dfac2e4	0.12244204
102	0x3c7e276d	0.0155123295
103	0xbd98c91d	-0.07460234
104	0xbd34c0fd	-0.04412936
105	0x3e01541b	0.1262974
106	0x3e058e97	0.13042675
107	0xbe232626	-0.15932521
108	0xbdef40ed	-0.116823055
109	0x3d76f7f4	0.06029506
110	0x3d341b50	0.04397136
111	0xbdceccc7	-0.10097652
112	0x3cc3638a	0.023851175
113	0x3dc47c99	0.095940776
114	0xbdc98e05	-0.09841541
115	0xbe12a325	-0.14320047
116	0x3c246b18	0.010035299
117	0x3ce6f11f	0.028191147
118	0x3d726048	0.059173852
119	0x3e08b108	0.13348782
120	0x3e0387da	0.12844792
121	0x3e530ce1	0.20610382
122	0xbe0834ed	-0.1330144
123	0xbd8508db	-0.0649583
124	0xbe416b1d	-0.18888517
125	0x3e1e28d8	0.15445268
126	0xbdfc54b7	-0.123208456
127	0xbdad2c08	-0.08455664
128	0xbe209fe2	-0.1568599
129	0xbd17b17e	-0.037034504
130	0xbe0e3a8e	-0.13889524
131	0x3daedf41	0.08538676
132	0xbe027778	-0.12740886
133	0x3ddc9d7b	0.107722245
134	0xbcd439e6	-0.025906514
135	0x3d2c061c	0.041998014
136	0xbddb39c3	-0.107043765
137	0x3cf6d943	0.030132895
138	0x3dfe96fb	0.12431141
139	0x3d9d416d	0.076784946
140	0x3da5f295	0.081029095
141	0xbd5453c8	-0.051837713
142	0xbe07d2a4	-0.13263947
143	0x3d147412	0.036243506
144	0x3de602c4	0.11230996
145	0x3d9b1139	0.07571644
146	0x3e1845a0	0.1487031
147	0xbe12aa21	-0.14322712
148	0x3df3797c	0.11888406
149	0x3e013d83	0.12621121
150	0x3dd9517a	0.106112435
151	0xbd942130	-0.072328925
152	0x3df0f025	0.11764554
153	0xbe0e77c1	-0.1391287
154	0xbd96c6b0	-0.073621154
155	0x3d8f0aac	0.069844574
156	0x3daf5cdb	0.08562633
157	0x3df0c8e9	0.117570706
158	0xbd2a3ba9	-0.041560803
159	0xbe0e91bd	-0.13922782
160	0x3de07c29	0.10961182
161	0xbdb31293	-0.08743777
162	0x3dddaf28	0.10824424
163	0x3ccf3690	0.025294572
164	0x3daa77ee	0.08323656
165	0x3cf62b4d	0.030049944
166	0xbd717fa4	-0.05895962
167	0xbd91cd4a	-0.07119234
168	0xbcf30167	-0.029663755
169	0xbd864305	-0.06555752
170	0xbdf51ff9	-0.11968989
171	0x3d5ccb05	0.053904552
172	0x3d828a64	0.06374052
173	0xbe438a57	-0.19095741
174	0xbdb85467	-0.090004735
175	0xbe40dd41	-0.18834402
176	0x3bea1b29	0.007144351
177	0xbd7733f9	-0.0603523
178	0x3e0d43f8	0.1379546
179	0xbdd5ff7e	-0.10449122
180	0xbda74c43	-0.08168843
181	0x3e3b16fd	0.18270488
182	0x3d0f2bee	0.034954004
183	0x3df6beba	0.12048097
184	0xbda379c9	-0.07982213
185	0x3e242913	0.16031294
186	0xbd6e802a	-0.058227696
187	0xbdafd510	-0.0858556
188	0xbe20bf73	-0.15698032
189	0x3e191f3e	0.14953324
190	0x3d9299a6	0.07158212
191	0xbdb3f1cb	-0.08786353
192	0xbc8a65de	-0.016894277
193	0x3d48ce92	0.049025126
194	0xbe1ace07	-0.15117656
195	0xbdcd99ec	-0.10039124
196	0x3d93fd84	0.07226089
197	0x3e049b80	0.12949944
198	0xbb438664	-0.0029834742
199	0x3e40221f	0.18763016
200	0xbc2ea687	-0.01065982
201	0x3dace7db	0.084426604
202	0x3d9f23e5	0.07770518
203	0x3e4b45ea	0.19850889
204	0x3da06c91	0.078332074
205	0xbe0dc9d8	-0.13846529
206	0x3e0f80a1	0.14013912
207	0xbda9527a	-0.08267684
208	0xbe0b979b	-0.13632052
209	0xbe08c4b4	-0.13356286
210	0x3e2ffb28	0.17185652
211	0x3c497038	0.012294821
212	0x3d835225	0.06412152
213	0xbddfc569	-0.10926325
214	0xbe0cf360	-0.13764715
215	0x3d1e007c	0.03857468
216	0xbe187d73	-0.14891605
217	0x3d3e01c0	0.046388388
218	0xbcae5c55	-0.021284262
219	0x3bb17e54	0.005416671
220	0x3dbbf1ad	0.09176955
221	0xbe15e984	-0.1463986
222	0x3d02ec1f	0.031963464
223	0xbdaa1f24	-0.08306721
224	0xbd23c183	-0.03997947
225	0xbdbb73d2	-0.0915295
226	0xbdc77a8f	-0.09740173
227	0x3d819a14	0.06328216
228	0x3db01610	0.08597958
229	0xbe05d855	-0.13070805
230	0xbb35988d	-0.0027709336
231	0x3cd5d904	0.026104458
232	0x3d9fc3ea	0.078010395
233	0x3c1c8674	0.0095535405
234	0x3e1ab112	0.1510661
235	0x3e0724c1	0.13197614
236	0xbe1f61af	-0.15564607
237	0x3e095ace	0.13413545
238	0xbb968ed6	-0.004594664
239	0xbd39b231	-0.045335952
240	0xbdbee174	-0.093203455
241	0xbde5368d	-0.11192045
242	0x3d06a7e5	0.03287496
243	0xbd4aa8a9	-0.049477253
244	0x3d6f790a	0.05846504
245	0xbce4b120	-0.027916491
246	0xbd2a1cc0	-0.041531324
247	0x3dd40bf3	0.10353842
248	0xbddac65f	-0.106823675
249	0xbd8e2e70	-0.06942451
250	0x3e0ab471	0.13545395
251	0x3dbc986c	0.0920876
252	0x3e2c7075	0.16839774
253	0x3e126ae3	0.14298587
254	0xbe04a0e2	-0.12951997
255	0x3dd6f149	0.1049524

mean.2.bias f4 [100]
0	0xbe476511	-0.19472148
1	0x3bef294e	0.007298625
2	0xbc239b80	-0.009985805
3	0xbc19a660	-0.009378046
4	0x3d818b42	0.063253894
5	0x3d7a884b	0.061165135
6	0xbbb8b13a	-0.0056363614
7	0x3d5c8291	0.053835455
8	0xbd97ad45	-0.074060954
9	0x3bbffce0	0.0058590025
10	0x3dda0545	0.10645536
11	0xbc6813ad	-0.014164847
12	0x3df07086	0.11740212
13	0x3da36041	0.07977343
14	0xbd986806	-0.07441716
15	0x00000000	0.0
16	0x3dacf35a	0.08444853
17	0x3e72e845	0.23721416
18	0x3c76b1c3	0.01505703
19	0x3ba8a1fa	0.0051462622
20	0xbe24ea7d	-0.16105075
21	0xbe5c7071	-0.21527268
22	0x3d948e9d	0.07253764
23	0xbda561b9	-0.0807528
24	0x3d471949	0.0486081
25	0xbd29e9cd	-0.041482735
26	0xbdaa1ab5	-0.08305875
27	0xbdfbe420	-0.12299371
28	0xbc9ac759	-0.018893884
29	0x3c62afba	0.013835842
30	0xbe4d7efe	-0.20067975
31	0xbd5c2d32	-0.05375404
32	0x3e257aa1	0.1616006
33	0x3b4504df	0.0030062718
34	0x3df90bab	0.121604286
35	0xbbcc9bdc	-0.006244166
36	0x3de55a8d	0.11198912
37	0xbc795ea4	-0.015220318
38	0xbd3044f2	-0.0430345
39	0x3d3fc640	0.046819925
40	0xbd86b65f	-0.06577753
41	0x3d550a4a	0.052011766
42	0x3c67bb9b	0.01414385
43	0x3db24542	0.08704616
44	0xbcf618cd	-0.030041123
45	0xbd07ecb5	-0.033184726
46	0xbcfd56d2	-0.030925188
47	0xbddddc76	-0.10833065
48	0x3ce9dd56	0.028547924
49	0xbe0f53ec	-0.13996857
50	0xbd8025cc	-0.06257209
51	0x3dd68d30	0.10476148
52	0x3ca14c55	0.019689718
53	0xbd1a22bd	-0.037630785
54	0x3d1d51ea	0.038408197
55	0xbc01fc2a	-0.007933656
56	0x3c2e2fdb	0.010631527
57	0x3d89aacb	0.06722029
58	0xbe0a5c6b	-0.13511817
59	0xbdfa8ddb	-0.12234088
60	0x3c445dac	0.011985224
61	0xbd848a8c	-0.06471738
62	0x3d40d7e7	0.0470809
63	0x3cd226d6	0.025653284
64	0x3cf5bce3	0.029997295
65	0x3c10f91f	0.008848458
66	0xbd2c3bad	-0.0420491
67	0xbd38dadb	-0.04513059
68	0xbce009c4	-0.027348407
69	0xbdacda87	-0.08440118
70	0x3cf4a8ce	0.029865649
71	0x3da5a80b	0.08088692
72	0x3cd3b9bd	0.025845403
73	0x3d88a35c	0.06671783
74	0xbc778f94	-0.015109915
75	0xba2e12f8	-0.00066404
76	0xb942479b	-0.00018527957
77	0xbdbdcfaa	-0.092681244
78	0xbc12fc75	-0.008971323
79	0xbd21910b	-0.039444964
80	0x3c09ff34	0.008422662
81	0x3e26716d	0.16254206
82	0xbb9c8f8d	-0.004777855
83	0x3d0ab946	0.033868097
84	0x3db677b4	0.0890955
85	0x3e0c9ecb	0.1373245
86	0x3cc03636	0.02346335
87	0xbc8f86d3	-0.017520344
88	0xbc739bbf	-0.014868676
89	0xbcba437f	-0.022737263
90	0xbc0e78f7	-0.008695832
91	0x3cc5331d	0.024072224
92	0xbe0e6959	-0.13907374
93	0xbdb7f2e9	-0.08981878
94	0x3cedd742	0.029033307
95	0x3c9493c4	0.018136866
96	0x3be96a6c	0.007123282
97	0xbc479a23	-0.012182745
98	0x3d250c8e	0.040295176
99	0xbc963b60	-0.01833886

mean.4.weight f4 [2, 100]
0	0x3e2d4f4c	0.1692478
1	0x3e79d606	0.2439805
2	0xbc75dc76	-0.015006175
3	0x3d60d4f8	0.054890603
4	0xbeae14ed	-0.3400034
5	0xbd19816e	-0.03747695
6	0x3e30da33	0.17270736
7	0xbccd722e	-0.02507886
8	0xbdc2bc8c	-0.09508619
9	0x3e2d8db7	0.16948591
10	0x3d6c1804	0.05764009
11	0xbe48bf2d	-0.19604178
12	0x3ea5d128	0.32386136
13	0xbd50a3ff	-0.05093765
14	0xbdd74e5e	-0.10512994
15	0x3de29b64	0.11064795
16	0xbed506fa	-0.41606885
17	0x3f054a54	0.5206654
18	0x3ef3447a	0.4751318
19	0x3c35701e	0.011074094
20	0x3e7daef2	0.24773768
21	0xbe4b78a9	-0.19870247
22	0x3e97beda	0.29637796
23	0x3d3b0928	0.04566303
24	0x3ddfc99d	0.109271266
25	0x3e753538	0.23946083
26	0x3db070bc	0.086152524
27	0x3e478b15	0.1948665
28	0x3cd1ec97	0.02562551
29	0x3e9a98c7	0.30194685
30	0x3daa5ed0	0.08318865
31	0xbdd44030	-0.10363805
32	0xbdc94e82	-0.09829427
33	0x3d2dd7c3	0.042442095
34	0xbee7ef40	-0.4529972
35	0x3da13f6a	0.078734234
36	0xbf0ca646	-0.54941213
37	0x3e355cf2	0.17711237
38	0xbe0fb7c7	-0.14034949
39	0xbf5c9755	-0.86168414
40	0x3e8440e9	0.25830773
41	0x3e1fad29	0.15593399
42	0xbe2ee247	-0.17078505
43	0xbe657fc3	-0.22412018
44	0xbdfafe47	-0.12255531
45	0xbe548ea6	-0.20757541
46	0x3e3d11e3	0.18463854
47	0xbe8f38b0	-0.27972937
48	0xbd6bb003	-0.057540905
49	0xbe355a3e	-0.17710206
50	0x3e6f5600	0.2337265
51	0xbe805e19	-0.2507179
52	0xbedc4aa3	-0.43025693
53	0x3e91ce26	0.2847759
54	0x3e89a273	0.2688175
55	0x3dabb885	0.08384804
56	0xbe444ad3	-0.19169168
57	0xbee5c897	-0.448796
58	0xbca5b401	-0.020227434
59	0x3d74690a	0.059670486
60	0xbe3ed517	-0.18635975
61	0xbe7e4f95	-0.24835046
62	0xbd990a13	-0.07472625
63	0x3e6185cc	0.22023696
64	0x3d355c4c	0.044277474
65	0xbda044f5	-0.078256525
66	0xbe877ca3	-0.26462278
67	0xbdcdc94e	-0.100481614
68	0x3d10105c	0.03517185
69	0x3e414ae5	0.18876226
70	0x3e33b912	0.17551067
71	0xbe759b09	-0.23984922
72	0x3e2cf06b	0.16888587
73	0xbc642e18	-0.013927005
74	0xbdd77ee3	-0.105222486
75	0xbe87b2e9	-0.26503685
76	0x3e7b0676	0.24514183
77	0xbe4bb8d5	-0.19894727
78	0x3e42e012	0.19030789
79	0x3e31ec84	0.1737538
80	0xbde66730	-0.1125015
81	0xbebd6edc	-0.36998641
82	0xbce057b5	-0.027385572
83	0x3df577d0	0.11985743
84	0x3e6f4b65	0.23368604
85	0xbf0a3b88	-0.5399709
86	0xbf0134d6	-0.50471246
87	0xbdaad1f7	-0.08340829
88	0xbe52fd82	-0.20604518
89	0x3e07466a	0.13210455
90	0xbc43a700	-0.011941671
91	0xbe8078a3	-0.2509204
92	0x3da4eaef	0.080526225
93	0x3e3e6cbd	0.18596168
94	0x3e964758	0.29351306
95	0xbe2482c3	-0.16065507
96	0x3df61861	0.12016369
97	0x3e23a633	0.15981369
98	0x3ea55b31	0.32296136
99	0x3d040f29	0.03224102
100	0xbd9ddd4a	-0.07708223
101	0xbd5cbd05	-0.0538912
102	0x3d6bde8e	0.05758529
103	0x3e55cd97	0.20879208
104	0x3ee65853	0.4498926
105	0x3ec3b327	0.3822262
106	0xbeae0e22	-0.33995157
107	0xbd3e07a9	-0.046394024
108	0xbcd4be5a	-0.025969673
109	0xbd71bf4b	-0.05902032
110	0x3e2df2e8	0.16987193
111	0xbdd248ab	-0.102677666
112	0xbdc74fe5	-0.097320355
113	0x3eda5220	0.4264078
114	0xbd887b65	-0.06664161
115	0x3da2674c	0.079298586
116	0x3f15c0e0	0.5849743
117	0xbeac83ba	-0.3369425
118	0xbeb66fa2	-0.35632044
119	0x3eb6cc91	0.35702947
120	0xbef334fe	-0.47501367
121	0x3e5e3806	0.21701059
122	0xbe25e148	-0.16199219
123	0x3ddca0a6	0.10772829
124	0x3c09e9ab	0.008417527
125	0xbe0b1106	-0.13580713
126	0x3dffd18e	0.12491141
127	0xbddf7be8	-0.10912305
128	0xbe93d570	-0.28873777
129	0xbe3df0ae	-0.18548843
130	0xbe309851	-0.17245604
131	0xbe2e45b5	-0.17018779
132	0x3ee1953e	0.44059175
133	0x3c20ea4f	0.0098214885
134	0x3e01e46a	0.1268479
135	0x3e9473fd	0.28994742
136	0x3eb28648	0.34868073
137	0x3deb24c9	0.114816256
138	0x3d5e41cc	0.054261968
139	0x3f717726	0.9432243
140	0x3d831be0	0.06401801
141	0xbe3afb70	-0.18259978
142	0xbe5641fa	-0.20923606
143	0x3f06b6bd	0.52622586
144	0xbe760664	-0.24025875
145	0xbcf331e5	-0.029686878
146	0xbd0f401d	-0.034973253
147	0x3e9cbbb6	0.30611962
148	0xbe8ba90d	-0.27277413
149	0x3cd2766d	0.025691235
150	0x3cbc3a3e	0.02297699
151	0x3ebb0d6d	0.3653368
152	0x3eeaefd2	0.45886093
153	0xbe959d28	-0.29221463
154	0x3e022a9a	0.12711564
155	0x3e42d5d7	0.19026886
156	0x3e678296	0.22608408
157	0x3e55e085	0.20886429
158	0x3e2b6a9f	0.16739891
159	0xbce040b0	-0.027374595
160	0xbcc55fa7	-0.024093462
161	0x3ccda6f9	0.025104033
162	0x3e4e05cd	0.201194
163	0xbe8e1666	-0.27751464
164	0x3db6cbc2	0.089255825
165	0xbdc1353a	-0.0943398
166	0x3e35099f	0.17679451
167	0x3e411d81	0.18858911
168	0x3ebd0ae1	0.36922362
169	0xbe4dbcd3	-0.20091562
170	0xbdbe08a9	-0.092789955
171	0x3eb29291	0.34877446
172	0x3e66bef5	0.22533782
173	0x3e3e3a42	0.18576911
174	0x3e705577	0.23470102
175	0xbd5bcd97	-0.053662863
176	0x3e3e5c53	0.18589906
177	0xbe035b14	-0.12827712
178	0xbe9ee5bc	-0.31034648
179	0xbe08b1af	-0.13349031
180	0xbd9f879f	-0.077895395
181	0x3f00080e	0.5001229
182	0xbedaea82	-0.4275704
183	0xbccf96f6	-0.025340538
184	0xbecec8db	-0.40387616
185	0x3ef2f8a2	0.47455317
186	0x3ed8ecf9	0.42368296
187	0xbdd24711	-0.10267461
188	0xbe3e464b	-0.18581502
189	0x3da93f8d	0.082640745
190	0x3de51517	0.11185663
191	0xbe4add50	-0.19810987
192	0xbc37aa34	-0.011210013
193	0xbdb91bcb	-0.09038504
194	0xbe799001	-0.2437134
195	0xbc198153	-0.009369212
196	0xbedaedb0	-0.42759466
197	0xba8de0c1	-0.0010824428
198	0x3c5bf6e4	0.0134255625
199	0x3e08333b	0.13300793

mean.4.bias f4 [2]
0	0x3d1713d0	0.03688413
1	0xbd171429	-0.03688446
