save/test.pt (torch, 52263 bytes, 7 tensors)

sigma f4 [2]
000000 29 db 83 bf 98 27 8a 3e
       -1.0301257 0.26983333

mean.0.weight f4 [100, 20]
000000 7d 8b ca 3c f9 d3 11 3e 2d 92 73 be ca 18 20 bd
       0.024724716 0.14241017 -0.2378623 -0.03908614
000010 1b 57 f9 bd 48 c0 1c 3e 6d 1a f7 bd b3 70 a8 3e
       -0.12174817 0.15307724 -0.12065587 0.32898483
000020 da 98 5d be fa 79 35 bc f2 aa ac bd 55 c8 81 bd
       -0.2164034 -0.011076445 -0.08431043 -0.063370384
000030 fa 27 de bd f2 70 85 3c f9 8b 46 3e 59 2d 5d 3d
       -0.10847469 0.016289208 0.19389333 0.053998325
000040 65 20 f7 3d a7 34 ae 3d 4b 8a 78 bc 91 ca e8 3c
       0.12066726 0.085061364 -0.01516969 0.028416904
000050 82 ba 46 3e 02 22 0b 3c 28 52 24 3e fa 3a 1d 3e
       0.19407085 0.008491995 0.16046965 0.15354529
000060 9e dc 29 3e 54 c6 a1 3d 34 64 88 3e 59 f6 bb bd
       0.16588065 0.07899156 0.2663895 -0.091778465
000070 9d 4a 76 3e 99 6e 9c 3e 0c 34 32 3e a2 54 20 3c
       0.240519 0.3055313 0.17402667 0.009785803
000080 e6 2d 2e be e4 09 df 3d ab 39 3d be b3 35 ee bd
       -0.17009696 0.10890558 -0.1847903 -0.11631336
000090 ee 99 eb bc 40 99 e4 be 46 9d 3c 3d 2d e4 4d be
       -0.028759923 -0.4464817 0.046048425 -0.20106573
0000a0 60 32 d3 3d 36 1c 2a be 13 13 eb 3d 41 66 34 3e
       0.10312343 -0.16612324 0.114782475 0.17617132
0000b0 78 1e 1b 3e 83 75 86 3e 72 81 88 3d 17 15 ac bd
       0.15148342 0.2626153 0.06665315 -0.0840246
0000c0 50 af d6 3d b5 fb 29 3d 74 ad 8d b8 fb 5e 4a be
       0.10482657 0.041499812 -6.755712e-05 -0.19762795
0000d0 a4 fe 43 bd cf 26 58 bd 83 b0 0e 3e 80 2c c9 3d
       -0.047850266 -0.052771386 0.13934521 0.09822941
0000e0 29 0a 0f 3e b2 0d 50 3d c5 cd a2 bd 15 2e 1d be
       0.1396872 0.05079431 -0.07949404 -0.1534961
0000f0 04 88 e0 3d f3 27 db bd 66 ca c2 3e 07 b6 a1 3d
       0.10963443 -0.10700979 0.38045043 0.07896047
000100 20 b2 4c 3e 86 77 c0 bc 40 4c 25 be f9 50 74 be
       0.19989824 -0.023494493 -0.16142368 -0.23859014
000110 cc 73 b4 3e d3 17 d4 3d 3e f7 93 3d 0c e6 4f be
       0.35244596 0.103561066 0.07224892 -0.203026
000120 6b a6 29 be b3 1e 5f be 6c 2e a7 3d 91 62 90 be
       -0.1656739 -0.21789055 0.08163151 -0.282002
000130 58 14 9a 3d 98 6c 18 3c 6d 02 89 bd c3 ea 54 3e
       0.075234115 0.0093032345 -0.06689916 0.2079268
000140 90 f4 ba bd 2f 9d 8d bd c2 b2 f0 bd f6 3c 71 be
       -0.09128678 -0.06914746 -0.11752845 -0.23558411
000150 b0 fd 3d bd dc 04 95 3c a4 25 67 be dc 6b 91 3c
       -0.046384513 0.018190794 -0.22572953 0.017751627
000160 c0 34 53 be ad 83 56 be bc d9 11 be 38 df bb bd
       -0.20625591 -0.20948668 -0.14243215 -0.09173435
000170 b9 2e 0f bd f0 21 9a bd c9 1f c7 3d a8 1a 83 be
       -0.034956668 -0.07526004 0.097228594 -0.25606275
000180 80 eb 73 ba a4 76 82 bd 18 0a 5c 3d 23 45 24 3e
       -0.00093048066 -0.06370285 0.053720564 0.16041999
000190 3c af 4e 3e eb 2e 08 be 1e ce f0 bd 10 2e 02 bd
       0.20184034 -0.13299148 -0.11758064 -0.03178221
0001a0 4e 4c ad bd 3e dd 0d 3e fe e2 cf bb b6 51 3c 3e
       -0.084618196 0.13853928 -0.0063441982 0.18390545
0001b0 aa 36 21 3e e4 93 c4 3d 44 57 09 3d d8 fc c4 3d
       0.15743509 0.095985204 0.03353049 0.096185386
0001c0 12 76 0a 3d e6 c4 83 3e 07 84 0c be f5 e7 67 3d
       0.033804007 0.2573616 -0.1372224 0.056617696
0001d0 a4 9d 1d be e5 ba 1b be 94 23 1a 3d 9f f8 20 3e
       -0.15392166 -0.15208013 0.037631586 0.15719841
0001e0 68 7c 77 3d 30 77 37 3d 16 80 49 be 36 7e a6 bd
       0.060421377 0.0447914 -0.19677767 -0.081295416
0001f0 79 51 06 be 8c 8f 43 be ab dd 97 bb 8d bc 8a 3e
       -0.13117017 -0.19097728 -0.004634579 0.27096978
000200 7e f6 23 3e 65 cd 9a be 37 c4 d5 bd fe 34 0f be
       0.16011998 -0.3023483 -0.10437816 -0.13985059
000210 09 d5 ea bd 89 0b 52 be 99 67 f2 3c 8a 2d f8 bd
       -0.114664145 -0.20512213 0.029590415 -0.12118061
000220 c7 12 35 3e d4 18 9e 3e 92 bc 95 be 36 d5 b5 be
       0.17682944 0.30878317 -0.2924543 -0.3551423
000230 b0 f1 0e 3c 58 ac 7f bd 1c 70 86 3d cc fe 1a be
       0.008724615 -0.06242022 0.06564352 -0.1513626
000240 dc 74 bb 3d 8e c6 45 be c8 b0 f1 bd 4f be f0 bd
       0.091531485 -0.19314024 -0.118012965 -0.117550485
000250 b0 98 dd 3d 60 d5 bf bb c9 0c 5c be 72 c5 02 be
       0.108201385 -0.0058542937 -0.21489252 -0.12770632
000260 5a ed d3 bd c2 72 54 be 00 8e ea 3c 0c 2f a3 3d
       -0.103480056 -0.20746902 0.028632164 0.07967958
000270 c4 0b 28 bd ce 3c b6 bd 00 be b1 ba 8e de 35 be
       -0.041026846 -0.08898316 -0.0013560653 -0.17760679
000280 1c c5 45 be 3b 36 5f 3c f0 99 d3 3d 25 ed a8 bd
       -0.19313473 0.013623769 0.103320956 -0.08248357
000290 bc 25 83 3c 5c 1b 2e be 82 06 ad bd 4f 41 8d be
       0.016009204 -0.17002624 -0.08448507 -0.2758889
0002a0 49 fd 33 3e d5 11 39 3e ac ef df bc 65 e7 1b 3d
       0.1757709 0.18073209 -0.027335964 0.038062472
0002b0 41 07 23 3e b1 bf 2d 3d 16 e3 b9 3d df fa 89 be
       0.15920736 0.04241914 0.09076516 -0.26949212
0002c0 bc 03 68 be 3a 47 89 be b9 c4 ce ba 52 7c 90 be
       -0.22657675 -0.26812154 -0.0015775181 -0.2821985
0002d0 46 08 3f be ec a4 2b bd 24 19 5b be 35 25 89 bc
       -0.186555 -0.04190533 -0.21396309 -0.016741375
0002e0 f2 62 0e 3d c2 d5 3d be 27 65 80 3e 9b 82 11 bc
       0.03476233 -0.18538573 0.25077173 -0.008881236
0002f0 09 7d 9d bd 10 1d 6a 3e 40 3c 98 3d 3f 7b ab bd
       -0.07689864 0.22862649 0.07433367 -0.08373117
000300 d2 b2 17 be 63 cb a6 bd 70 71 8d 3d a9 a2 69 3e
       -0.14814308 -0.08144262 0.06906402 0.22815956
000310 2d 62 4a 3e 16 c1 36 bd f0 a0 5b be 16 38 17 be
       0.19764014 -0.044617735 -0.21448112 -0.14767489
000320 80 d2 91 bd b8 49 af 3a 17 af cd bd d7 11 37 be
       -0.07120228 0.001337341 -0.10043161 -0.17877899
000330 0e b4 ba 3c f9 82 36 be ca a8 30 be a2 c7 3a be
       0.022790935 -0.178234 -0.17251888 -0.18240216
000340 12 63 84 bd 43 77 49 3e 5e 69 a7 3d 02 37 ee bc
       -0.06464209 0.19674401 0.08174394 -0.029078964
000350 03 18 28 3d 1e 42 a9 3d 7c bb 98 ba 48 cb 36 be
       0.041038524 0.08264564 -0.0011652554 -0.17850983
000360 4a 86 10 be b9 74 1b be 05 4e 0c bc 63 ad 51 be
       -0.14113727 -0.15181245 -0.008563523 -0.20476298
000370 09 ad 11 bc 8f 85 5f bd ce 19 90 3e b3 75 4a 3e
       -0.008891352 -0.05457073 0.28144687 0.19771461
000380 47 83 62 3e b9 02 a9 3d 95 1a 1b 3d 09 a5 e0 3d
       0.22120391 0.082524724 0.037867147 0.10968978
000390 b8 5f 11 be 48 5f 5e bd f2 33 f7 bc 29 06 91 3c
       -0.1419667 -0.054290086 -0.030176137 0.017703133
0003a0 18 0b 51 be aa 68 c9 3d 04 26 32 3e b1 fc 2c be
       -0.20414388 0.09834416 0.17397314 -0.16893269
0003b0 1d 10 6c 3d bf 0a 7b bd e7 e4 79 bd 3c 6f 33 bd
       0.057632554 -0.061289545 -0.061009314 -0.043807253
0003c0 7f 53 7f 3e 6e 39 bf 3d 12 e2 06 be bf e7 cb bd
       0.24934195 0.09337126 -0.13172176 -0.099563114
0003d0 e8 f7 0c 3e b7 24 0d 3d fa e0 35 3d 80 18 a2 ba
       0.13766444 0.034458842 0.044404007 -0.0012366921
0003e0 a4 b0 02 be a8 3c cf bd 77 26 1c be b4 19 b4 3c
       -0.12762696 -0.10118991 -0.15249048 0.021984912
0003f0 af 4b 8a 3c bd 9b 51 3e bc 27 c8 bd 46 a1 e4 3c
       0.016881792 0.20469566 -0.09773204 0.027908932

mean.0.bias f4 [100]
000000 2c 26 cf bd 20 f7 43 bd 5f 55 81 bd e7 3d c5 3d
       -0.101147026 -0.0478431 -0.06315111 0.096309476
000010 2c 3d 02 be cb 24 98 3d e5 8f 0b be 00 00 00 00
       -0.12718648 0.07428893 -0.1362911 0.0
000020 3b 03 d4 bd fe 89 bf 3c fd b9 b9 bb c9 97 04 3e
       -0.10352179 0.02338123 -0.0056679235 0.12948526
000030 bc ae b1 3c ba cc 47 bd 84 e6 69 bd bc 5f 0e be
       0.021689765 -0.048779227 -0.057104602 -0.13903707
000040 cc 3b fc bd e3 75 e4 bd 99 52 86 bc 45 12 9a 3b
       -0.12316093 -0.111552976 -0.016396808 0.004701885
000050 86 f7 36 3e b4 27 94 3d f0 cb 0e 3e 80 54 7f 3d
       0.1786786 0.07234135 0.13944983 0.062336445
000060 cf 65 1e 3d 5c 4d b6 bd 6a 10 c7 3d 7a c9 09 bd
       0.03867131 -0.08901474 0.097199276 -0.03363941
000070 00 00 00 00 85 a8 29 be 98 de 90 3d dd ac 09 be
       0.0 -0.16568191 0.070737064 -0.13444848
000080 6a f1 bf bd c0 a7 2b bd 8e 40 e4 3b 1c 42 5b bd
       -0.09372218 -0.041908026 0.0069657033 -0.053529844
000090 11 0c 0c bd a0 78 9c bd 59 38 0a be 5b 35 a3 3d
       -0.034191195 -0.07640195 -0.13498057 0.07969161
0000a0 f1 da 8e 3d 5f cd e9 bc ea 95 a6 3c 6a bf 2b 3c
       0.069753535 -0.028540311 0.020335156 0.010482648
0000b0 36 8a 54 3d 81 9a 86 3c 66 39 87 bd a8 65 10 be
       0.05188962 0.016431095 -0.06602745 -0.14101279
0000c0 68 27 90 bc 55 55 9a 3d c8 06 b5 bd 5e ee 5e 3d
       -0.017596915 0.07535807 -0.08839184 0.054426543
0000d0 0e ed e1 bd 42 ab 19 3e 12 6f c5 3d 08 1a cf bc
       -0.11031543 0.15006736 0.096403256 -0.025280967
0000e0 90 3a 62 bd 1d ac 80 bd 25 26 f3 3d ea b5 69 bd
       -0.05523163 -0.06282828 0.1187251 -0.057058252
0000f0 15 82 8d 3c b0 08 a5 bd ac 7a 00 3e 8f df aa bd
       0.017273942 -0.08058298 0.12546796 -0.08343422
000100 b5 73 20 be 8a be b7 bb 08 4d b8 3b 63 6e 75 3d
       -0.15669139 -0.005607431 0.005624417 0.059919726
000110 9f 2d 5c 3b a2 42 b8 3c 34 a5 c0 3d e3 78 5a be
       0.0033596528 0.02249271 0.0940651 -0.21335177
000120 5c c1 1e 3d b2 1e d0 3d 47 c2 8f bc 0f 55 aa bd
       0.03875862 0.10162105 -0.017548693 -0.08317005
000130 a9 30 dc 3d d1 f6 84 3b e2 9d 22 bd 30 ad 3d 3e
       0.10751469 0.004057743 -0.03970135 0.18523097
000140 9d e2 c2 3c 94 ab ed 3d 95 95 95 bc 54 68 bd bc
       0.023789698 0.116049916 -0.018259803 -0.023121037
000150 b3 92 8a bd 3c 5c 78 3a 2d ae 02 bd a9 53 c2 3d
       -0.06766262 0.0009474193 -0.03190439 0.09488613
000160 57 7c 41 3d fb c6 69 bc e0 3f 33 3e 33 85 24 bc
       0.04723772 -0.014268632 0.17504835 -0.010041523
000170 eb ba b3 bd a8 c2 ed 3d c1 aa 5f 3c 55 0b ae bc
       -0.08775886 0.11609393 0.013651551 -0.021245638
000180 3c c7 d5 bd da 55 9e bd d0 44 46 bc 9b 83 99 bd
       -0.104383916 -0.07731219 -0.012101367 -0.07495805

mean.2.weight f4 [100, 100]
000000 c0 06 cf bd ca 6c 4c bd c4 79 f1 bc f6 89 03 bd
       -0.10108709 -0.049908437 -0.029477008 -0.03211399
000010 cc c2 9d ba 5c 10 3d be 43 10 30 be 84 96 1f 3e
       -0.0012036203 -0.18463272 -0.17193703 0.15584761
000020 76 f3 2d 3e 27 cb 15 be 87 1f f8 bd a5 9d 2e bc
       0.16987404 -0.14628278 -0.12115388 -0.010657703
000030 02 bf d8 bd be d0 25 be 7c 6e 51 3d 02 c0 e8 bd
       -0.10583307 -0.1619291 0.051130757 -0.113647476
000040 12 9a 94 3d 13 8d cb bd a8 1a 04 3b 14 75 7f bd
       0.07255949 -0.09939017 0.002015749 -0.062367514
000050 5b cc ee bc 52 00 12 be d8 55 2b be 92 7a ec 3d
       -0.029150179 -0.14257935 -0.16731966 0.11546816
000060 dd e5 0a bd b7 c8 c9 bd 29 27 22 3e 2b 44 c4 3c
       -0.03391062 -0.098527364 0.15835251 0.023958286
000070 04 29 27 bd 00 d6 50 3c 92 13 20 bd 5e 4b 7f 3c
       -0.0408106 0.012746334 -0.039081164 0.015581934
000080 12 53 48 3d 12 44 73 3d ea 5f 06 3e 88 ec b5 3d
       0.048907347 0.05939109 0.13122526 0.088830054
000090 80 16 89 bd ce 44 88 bb 71 38 3c bd 87 75 36 3e
       -0.06693745 -0.004158593 -0.045952264 0.1781827
0000a0 e2 e2 f1 bd bc c0 08 3e a2 a1 c7 bd b3 c7 09 3e
       -0.118108526 0.13354772 -0.09747626 0.13455085
0000b0 1d a8 99 3d 10 d9 c0 3d 5c 8d 04 be 7a 69 3b bd
       0.07502768 0.094164014 -0.1294455 -0.045754887
0000c0 8d b5 0a 3e 40 f4 37 be 29 d8 57 bd 1a f8 4d be
       0.13545819 -0.17964268 -0.05269638 -0.20114174
0000d0 5c fc 1a be 88 b4 d1 3d b7 a5 bc bd 48 8e 87 bd
       -0.1513533 0.10239512 -0.09211295 -0.06618935
0000e0 96 28 1f be 8b 95 08 be 56 7a 14 3e dc d7 89 bc
       -0.15542826 -0.13338296 0.14499792 -0.016826563
0000f0 59 01 44 bd 28 5c 22 bd c7 26 29 3e b3 b6 aa 3d
       -0.047852848 -0.03963867 0.16518699 0.08335628
000100 c1 75 eb 3d be 5c 18 3e a7 38 02 3d 2b e5 94 3c
       0.11497069 0.14879128 0.03179231 0.018175682
000110 8c 9f fc 3b ec 98 59 bd f6 b3 23 be 00 57 0e 3e
       0.007709449 -0.053124353 -0.15986618 0.13900375
000120 97 a8 18 3e 4e e6 26 bd 60 0d 8a bd 06 c3 2b 3e
       0.14908062 -0.04074698 -0.06740832 0.16773614
000130 dd 94 09 be 5f 45 4d bd 14 b3 90 bd a8 d9 ae bd
       -0.13435693 -0.050114986 -0.070654064 -0.085376084
000140 35 21 1d be 1e 27 39 3e 2d 21 1d 3e 4a 7b dd 3d
       -0.15344699 0.18081328 0.15344687 0.10814531
000150 28 46 c3 bd 1d 98 9f bd 10 3a e7 3b 50 62 93 3d
       -0.095348656 -0.07792685 0.007056482 0.07196486
000160 9c 89 4d 3e ca a9 dc 3d 6b a4 74 bd 59 8d dc bd
       0.20072025 0.10774572 -0.059727114 -0.107691474
000170 34 3c 20 3e 10 72 14 be dd 9a 0e be fd a3 00 bc
       0.15647966 -0.14496636 -0.13926263 -0.007851598
000180 ae e7 86 bd 32 d5 67 3d fc 6f f8 bd 52 e6 71 bd
       -0.06587158 0.056599803 -0.12130734 -0.05905754
000190 eb fd 1a be 7e cc fa 3d b0 3a 7e 3c 62 c2 98 bd
       -0.15135925 0.12246035 0.015516922 -0.074589506
0001a0 fd c0 34 bd 24 5a 01 3e 97 8e 05 3e 26 26 23 be
       -0.04412936 0.12632042 0.13042675 -0.15932521
0001b0 ed 40 ef bd 7f f3 76 3d 50 1b 34 3d 31 c9 ce bd
       -0.116823055 0.06029081 0.04397136 -0.10096968
0001c0 b8 5b c3 3c cd 86 c4 3d 05 8e c9 bd 25 a3 12 be
       0.023847446 0.09596024 -0.09841541 -0.14320047
0001d0 18 6b 24 3c 1f f1 e6 3c 52 60 72 3d 6b b3 08 3e
       0.010035299 0.028191147 0.05917389 0.13349693
0001e0 d9 87 03 3e b8 13 53 3e bd 2f 08 be dc 04 85 bd
       0.1284479 0.20612991 -0.1329946 -0.064950675
0001f0 de 66 41 be d3 28 1e 3e 36 52 fc bd 08 2c ad bd
       -0.18886897 0.1544526 -0.12320368 -0.08455664
000200 e2 9f 20 be 7e b1 17 bd 7a 38 0e be aa df ae 3d
       -0.1568599 -0.037034504 -0.13888732 0.08538754
000210 19 78 02 be 55 9d dc 3d 0e 42 d4 bc 1c 06 2c 3d
       -0.12741126 0.10772196 -0.025910404 0.041998014
000220 d5 38 db bd 43 d9 f6 3c 0f 97 fe 3d 2b 41 9d 3d
       -0.10704199 0.030132895 0.12431156 0.076784454
000230 e3 ef a5 3d 29 4e 54 bd e8 ce 07 be 12 74 14 3d
       0.081023954 -0.05183235 -0.13262522 0.036243506
000240 7a 02 e6 3d cf 11 9b 3d a0 45 18 3e 21 aa 12 be
       0.11230941 0.07571756 0.1487031 -0.14322712
000250 a5 82 f3 3d aa 43 01 3e 7a 51 d9 3d 1f 18 94 bd
       0.11890153 0.12623468 0.106112435 -0.07231163
000260 25 f0 f0 3d b7 77 0e be 61 c0 96 bd 98 11 8f 3d
       0.11764554 -0.13912855 -0.07360912 0.069857776
000270 29 55 af 3d e9 c8 f0 3d 3d 35 2a bd e2 8e 0e be
       0.08561165 0.117570706 -0.04155468 -0.13921693
000280 e5 7b e0 3d 93 12 b3 bd 75 b2 dd 3d 19 41 cf 3c
       0.10961131 -0.08743777 0.108250536 0.025299596
000290 ee 77 aa 3d 4d 2b f6 3c 42 7b 71 bd ac cb 91 bd
       0.08323656 0.030049944 -0.05895544 -0.071189255
0002a0 66 ed f2 bc 74 41 86 bd b0 19 f5 bd 05 cb 5c 3d
       -0.029654216 -0.06555453 -0.1196779 0.053904552
0002b0 48 8b 82 3d 9f 87 43 be 37 54 b8 bd 6d dd 40 be
       0.06374222 -0.19094704 -0.09000438 -0.18834467
0002c0 53 8c ea 3b 3a 35 77 bd f8 43 0d 3e 6e f0 d5 bd
       0.007157841 -0.060353495 0.1379546 -0.10446249
0002d0 58 49 a7 bd 21 1a 3b 3e f7 35 0f 3d f3 bc f6 3d
       -0.08168286 0.18271686 0.034963574 0.12047758
0002e0 c9 79 a3 bd 99 2d 24 3e 77 81 6e bd 96 ce af bd
       -0.07982213 0.16033019 -0.058228936 -0.08584325
0002f0 1b c0 20 be 03 20 19 3e 22 a0 92 3d f4 f0 b3 bd
       -0.15698282 0.14953618 0.07159449 -0.087861925
000300 94 63 8a bc 30 eb 48 3d 07 ce 1a be ec 99 cd bd
       -0.016893186 0.049052417 -0.15117656 -0.10039124
000310 ea fc 93 3d 56 9a 04 3e 71 5a 43 bb f6 21 40 3e
       0.07225974 0.129495 -0.0029808546 0.18762955
000320 22 9f 2e bc ec e8 ac 3d 7a 23 9f 3d a6 46 4b 3e
       -0.010658057 0.08442864 0.077704385 0.19851169
000330 91 6c a0 3d 2a c9 0d be a7 80 0f 3e 7a 52 a9 bd
       0.078332074 -0.13846269 0.1401392 -0.08267684
000340 9b 97 0b be bf c4 08 be 28 fb 2f 3e d6 83 49 3c
       -0.13632052 -0.13356303 0.17185652 0.012299499
000350 f9 53 83 3d 6a c5 df bd 60 f3 0c be 7c 00 1e 3d
       0.06412501 -0.109263256 -0.13764715 0.03857468
000360 73 7d 18 be c0 01 3e 3d 22 56 ae bc 69 81 b1 3b
       -0.14891605 0.046388388 -0.021281306 0.005417038
000370 ff f3 bb 3d 17 e9 15 be 6b f9 02 3d c5 1b aa bd
       0.09177398 -0.14639698 0.031976145 -0.08306078
000380 2e bf 23 bd d1 73 bb bd 19 7a c7 bd 14 9a 81 3d
       -0.039977245 -0.091529496 -0.09740085 0.06328216
000390 10 16 b0 3d 55 d8 05 be a0 09 35 bb fd d8 d5 3c
       0.08597958 -0.13070805 -0.0027624145 0.026104445
0003a0 8f c4 9f 3d 78 9c 1c 3c 9c b1 1a 3e d4 24 07 3e
       0.078011625 0.009558789 0.15106815 0.13197643
0003b0 c8 61 1f be d7 5a 09 3e d6 8e 96 bb 0e b0 39 bd
       -0.15564644 0.13413559 -0.004594664 -0.045333914
0003c0 65 de be bd b1 33 e5 bd f7 ad 06 3d ce a4 4a bd
       -0.09319762 -0.111915 0.03288075 -0.049473576
0003d0 0b 7f 6f 3d 0b a8 e4 bc c0 1c 2a bd f4 0b d4 3d
       0.058470767 -0.02791216 -0.041531324 0.103538424
0003e0 28 c3 da bd b3 2d 8e bd 71 b4 0a 3e 6f 99 bc 3d
       -0.10681754 -0.0694231 0.13545395 0.09208953
0003f0 78 70 2c 3e 98 6c 12 3e c8 a0 04 be 0e f4 d6 3d
       0.16839778 0.14299238 -0.12951958 0.104957685

mean.2.bias f4 [100]
000000 11 65 47 be be 75 f0 3b d2 52 23 bc 41 9a 19 bc
       -0.19472148 0.0073382547 -0.009968476 -0.009375156
000010 be 15 82 3d c0 a9 7a 3d 16 80 bc bb 81 7b 5c 3d
       0.06351803 0.061197042 -0.0057525737 0.05382872
000020 45 ad 97 bd ab d0 bb 3b d3 18 da 3d 48 65 68 bc
       -0.074060954 0.0057316623 0.10649266 -0.014184304
000030 b5 08 f0 3d 23 de a3 3d 65 68 98 bd 00 00 00 00
       0.11720411 0.080013536 -0.07441787 0.0
000040 1d 4f ae 3d ff 6f 72 3e 5b 71 6f 3c a2 16 ae 3b
       0.085111834 0.23675536 0.014614428 0.0053127566
000050 7d ea 24 be 71 70 5c be 26 0f 94 3d ce 56 a5 bd
       -0.16105075 -0.21527268 0.07229452 -0.08073197
000060 48 d2 46 3d 16 73 2a bd b5 1a aa bd 20 e4 fb bd
       0.048540384 -0.04161366 -0.08305875 -0.12299371
000070 00 87 9b bc 8b 34 61 3c fe 7e 4d be 32 2d 5c bd
       -0.018985271 0.013745437 -0.20067975 -0.05375404
000080 4e bd 25 3e fc 1e 44 3b 0e 9d f9 3d c4 0f cb bb
       0.16185495 0.0029925695 0.12188159 -0.006196948
000090 d7 3e e6 3d 83 de 79 bc 5b 26 30 bd 69 76 43 3d
       0.112424545 -0.015250805 -0.04300533 0.047720347
0000a0 f4 aa 86 bd a0 de 54 3d 9b bb 67 3c 55 f3 b2 3d
       -0.065755755 0.051970124 0.01414385 0.08737818
0000b0 a7 2f f6 bc b5 ec 07 bd d2 56 fd bc 76 dc dd bd
       -0.03005202 -0.033184726 -0.030925188 -0.10833065
0000c0 49 00 e9 3c ec 53 0f be cc 25 80 bd 8a 3b d7 3d
       0.028442519 -0.13996857 -0.06257209 0.10509403
0000d0 54 d0 a5 3c 6d 6b 1b bd 48 2a 1d 3d 2a fc 01 bc
       0.02024094 -0.037944246 0.0383704 -0.007933656
0000e0 7a 80 2f 3c ae 4f 8a 3d 6b 5c 0a be db 8d fa bd
       0.010711784 0.06753479 -0.13511817 -0.12234088
0000f0 d8 be 45 3c 59 83 84 bd bc 29 41 3d 82 5d d0 3c
       0.0120694265 -0.06470365 0.04715894 0.025435213
000100 9a c6 f5 3c c5 e6 10 3c c8 e1 2b bd 1b e6 38 bd
       0.030001927 0.008844082 -0.04196337 -0.04514132
000110 5b 85 df bc 87 da ac bd 77 9f f3 3c 7e 3d a6 3d
       -0.027285269 -0.08440118 0.029739125 0.081171975
000120 32 d0 d3 3c 62 cf 88 3d d0 57 75 bc e6 b3 18 ba
       0.025856111 0.0668018 -0.014974549 -0.0005825147
000130 ab 45 46 b9 53 ce bd bd 67 3f 16 bc ac aa 21 bd
       -0.00018908705 -0.09267869 -0.00917039 -0.039469406
000140 56 57 0a 3c 33 e9 26 3e 1e 21 a2 bb 6d 67 0a 3d
       0.008443674 0.16299896 -0.0049477955 0.03379004
000150 2d d2 b5 3d 23 22 0d 3e 18 51 c3 3c 5f 9e 8f bc
       0.088779785 0.13782553 0.02384238 -0.017531572
000160 2e 9a 73 bc c7 43 ba bc 41 7e 0e bc 0b 26 c5 3c
       -0.014868302 -0.022737397 -0.008697093 0.024065992
000170 59 69 0e be f6 ec b7 bd 60 fe eb 3c 46 01 95 3c
       -0.13907374 -0.089807436 0.028807819 0.018189084
000180 e8 db e5 3b 41 45 48 bc a6 41 24 3d 4c 38 96 bc
       0.0070147403 -0.012223543 0.04010167 -0.018337391

mean.4.weight f4 [2, 100]
000000 4c 4f 2d 3e 46 d8 79 3e b2 57 76 bc a8 d1 60 3d
       0.1692478 0.24398908 -0.015035557 0.054887444
000010 4e 28 ae be ad a4 19 bd a8 d1 30 3e b8 ee cd bc
       -0.34015125 -0.037510563 0.17267478 -0.025138244
000020 8c bc c2 bd a4 61 2d 3e 0b bf 6a 3d 80 bd 48 be
       -0.09508619 0.16931778 0.0573111 -0.19603539
000030 9a b4 a5 3e b3 34 51 bd 37 4f d7 bd 64 9b e2 3d
       0.3236435 -0.05107565 -0.10513156 0.11064795
000040 0e 26 d5 be 9f 25 05 3f c7 08 f3 3e 2e 0c 32 3c
       -0.41630596 0.5201053 0.47467634 0.010867162
000050 f2 ae 7d 3e a9 78 4b be 67 a7 97 3e e8 dc 3a 3d
       0.24773768 -0.19870247 0.29619905 0.04562083
000060 2e a1 df 3d 44 2e 75 3e bc 70 b0 3d 15 8b 47 3e
       0.109194145 0.2394343 0.086152524 0.1948665
000070 12 b8 d1 3c 3b 93 9a 3e d0 5e aa 3d 30 40 d4 bd
       0.025600467 0.30190453 0.08318865 -0.10363805
000080 73 dd c9 bd 85 2d 2d 3d ab 10 e8 be d3 20 a1 3d
       -0.09856691 0.04227974 -0.45325217 0.07867589
000090 e7 bb 0c bf 66 56 35 3e 93 b9 0f be d1 a7 5c bf
       -0.54974216 0.1770874 -0.14035635 -0.8619357
0000a0 9a 41 84 3e c5 a6 1f 3e 47 e2 2e be c7 9d 65 be
       0.258313 0.15590961 -0.17078505 -0.22423469
0000b0 23 02 fb bd a6 8e 54 be e3 11 3d 3e b0 38 8f be
       -0.12256267 -0.20757541 0.18463854 -0.27972937
0000c0 47 eb 6b bd 3e 5a 35 be 00 56 6f 3e 8b 76 80 be
       -0.057597425 -0.17710206 0.2337265 -0.2509044
0000d0 3f 66 dc be 65 c2 91 3e ec 98 89 3e 85 b8 ab 3d
       -0.43046758 0.28468624 0.26874483 0.08384804
0000e0 96 61 44 be 72 e6 e5 be 01 b4 a5 bc 0a 69 74 3d
       -0.19177851 -0.44902378 -0.020227434 0.059670486
0000f0 3c 10 3f be fe 55 7e be 1f 2e 99 bd 85 73 61 3e
       -0.18658537 -0.24837491 -0.074795 0.22016723
000100 7e 59 35 3d 25 56 a0 bd 67 80 87 be a4 c8 cd bd
       0.0442748 -0.07828931 -0.2646515 -0.10048035
000110 67 e6 0f 3d e5 4a 41 3e 29 9c 33 3e a5 e0 75 be
       0.03513184 0.18876226 0.17540039 -0.24011476
000120 92 dd 2c 3e 28 bb 66 bc 47 bc d7 bd af c4 87 be
       0.16881397 -0.014082707 -0.10533958 -0.26517245
000130 84 03 7b 3e ba bb 4b be 81 ce 42 3e b7 ec 31 3e
       0.2451306 -0.19895831 0.19024087 0.17375456
000140 f2 9e e6 bd 64 8f bd be 88 d2 e1 bc 0a 47 f5 3d
       -0.11260785 -0.3702346 -0.02756621 0.1197644
000150 7c 2e 6f 3e 15 48 0a bf 97 39 01 bf 46 fa aa bd
       0.23357576 -0.5401624 -0.504785 -0.08348517
000160 e2 fc 52 be 17 46 07 3e d3 ac 43 bc 90 7d 80 be
       -0.2060428 0.13210331 -0.01194306 -0.25095797
000170 ef ea a4 3d 51 6d 3e 3e a3 2e 96 3e 42 89 24 be
       0.080526225 0.18596388 0.29332456 -0.16067985
000180 58 ee f5 3d 77 a6 23 3e 2c 49 a5 3e d0 0a 04 3d
       0.12008351 0.1598147 0.32282388 0.032236874
000190 4a dd 9d bd 07 c6 5c bd 5d fd 6b 3d 6b ce 55 3e
       -0.07708223 -0.05389979 0.057614673 0.20879523
0001a0 b4 6b e6 3e 8f b7 c3 3e dc 09 ae be 64 c9 3d bd
       0.45004046 0.38225982 -0.33991897 -0.04633464
0001b0 5a be d4 bc fd 0e 71 bd 26 49 2e 3e 06 4c d2 bd
       -0.025969673 -0.058852185 0.17020091 -0.102684066
0001c0 ad dd c6 bd 37 64 da 3e 8c 7a 88 bd 4c 67 a2 3d
       -0.0971025 0.42654583 -0.06663999 0.079298586
0001d0 6a d0 15 3f 50 3a ac be ef 33 b6 be b1 e7 b6 3e
       0.5852114 -0.3363824 -0.35586497 0.35723642
0001e0 fe 34 f3 be 06 38 5e 3e 62 b2 25 be c6 b6 dc 3d
       -0.47501367 0.21701059 -0.16181329 0.10777049
0001f0 26 2d 0b 3c 12 0a 0b be 8e d1 ff 3d e8 7b df bd
       0.008494651 -0.1357806 0.12491141 -0.10912305
000200 28 d2 93 be 97 e5 3d be 51 98 30 be b5 45 2e be
       -0.28871274 -0.18544613 -0.17245604 -0.17018779
000210 fa b8 e1 3e 47 93 23 3c 40 27 02 3e a3 7b 94 3e
       0.44086438 0.009983844 0.12710285 0.29000577
000220 8b b1 b2 3e e2 31 eb 3d fb 48 5e 3d a2 87 71 3f
       0.3490108 0.11484124 0.05426882 0.94347584
000230 1d 19 83 3d 0c f5 3a be fa 41 56 be 3e be 06 3f
       0.06401274 -0.1825754 -0.20923606 0.52634037
000240 76 04 76 be e5 31 f3 bc 1d 40 0f bd b6 bb 9c 3e
       -0.24025139 -0.029686878 -0.034973253 0.30611962
000250 a5 a1 8b be 6d 76 d2 3c 3e 3a bc 3c df 25 bb 3e
       -0.27271762 0.025691235 0.02297699 0.3655233
000260 6e 0b eb 3e 67 91 95 be a9 3d 02 3e d7 d5 42 3e
       0.45907158 -0.29212496 0.12718834 0.19026886
000270 59 99 67 3e 3a 1c 56 3e 9f 6a 2b 3e b0 40 e0 bc
       0.22617091 0.20909205 0.16739891 -0.027374595
000280 7f 86 c3 bc 42 da cd 3c d3 17 4e 3e 42 0d 8e be
       -0.023867844 0.025128487 0.20126276 -0.2774449
000290 29 cd b6 3d 0a 24 c1 bd 28 11 35 3e 2c 1d 41 3e
       0.0892585 -0.09430702 0.17682326 0.18858784
0002a0 20 10 bd 3e d3 bc 4d be d7 ce bd bd 5f b5 b2 3e
       0.36926365 -0.20091562 -0.09267967 0.34904
0002b0 ce d1 66 3e 13 63 3e 3e 29 74 70 3e 6a 3f 5b bd
       0.22540972 0.18592481 0.23481812 -0.053527273
0002c0 45 5f 3e 3e 2f 58 03 be f4 dc 9e be e2 b1 08 be
       0.1859103 -0.12826608 -0.3102795 -0.13349107
0002d0 dd 4f 9f bd 52 18 00 3f d5 d2 da be df d3 ce bc
       -0.077789046 0.5003711 -0.42738977 -0.025247512
0002e0 66 ba ce be bd 11 f3 3e 7c f6 d8 3e c2 1e d2 bd
       -0.40376586 0.4747447 0.42375553 -0.10259773
0002f0 eb 46 3e be 33 40 a9 3d d1 15 e5 3d 76 d3 4a be
       -0.1858174 0.08264198 0.11185802 -0.19807228
000300 34 aa 37 bc f3 1c b9 bd 96 5e 79 be 63 19 19 bc
       -0.011210013 -0.09038725 -0.24352488 -0.009344432
000310 2e e3 da be 95 02 8e ba 90 37 5e 3c 51 34 08 3e
       -0.4275145 -0.001083451 0.013563052 0.13301207

mean.4.bias f4 [2]
000000 78 00 15 3d d1 00 15 bd
       0.0363774 -0.03637773
