save/test.pt (torch, 64231 bytes, 7 tensors)

sigma f4 [2]
0	0xbe63d9ea	-0.22251096
1	0xbd4035ee	-0.04692643

mean.0.weight f4 [100, 50]
0	0xbd4c06d2	-0.04981119
1	0x3d763b69	0.06011525
2	0x3a16eb05	0.00057570665
3	0x3e1d78c9	0.15378107
4	0x3e3cd404	0.18440253
5	0x3dde9292	0.108678
6	0x3d81bd70	0.063349605
7	0x3d34de60	0.044157386
8	0x3cb664ef	0.022264926
9	0x3cd0e8e2	0.025501672
10	0x3d0a9156	0.03383001
11	0x3e217a2f	0.15769266
12	0x3dec8c64	0.11550215
13	0xbcb21f29	-0.021743374
14	0x3d727f06	0.05920317
15	0xbd23c402	-0.03998185
16	0x3dae38d9	0.085069366
17	0x3e30b601	0.17256929
18	0xbe01b4a9	-0.12666573
19	0x3d44188a	0.047874965
20	0xbd35735f	-0.04429948
21	0xbe3ebf87	-0.1862775
22	0xbe45a53a	-0.1930131
23	0xbcd7747f	-0.026300667
24	0x3e103f37	0.14086615
25	0xbde6d1e0	-0.11270499
26	0x3d39222b	0.0451986
27	0x3e03c548	0.12868226
28	0xbe14c746	-0.14529142
29	0x3dab55fd	0.0836601
30	0x3d201422	0.0390817
31	0xbe2f4e78	-0.17119777
32	0xbcb3760a	-0.021906871
33	0xbe366ea9	-0.17815651
34	0x3e37f7a3	0.1796556
35	0x3de5f882	0.1122904
36	0x3da0adeb	0.07845672
37	0x3e306068	0.17224276
38	0x3e122b99	0.14274444
39	0x3e51c091	0.20483615
40	0x3dafae9c	0.08578226
41	0xbe122994	-0.14273673
42	0x3e4e4588	0.20143712
43	0x3d840965	0.06447104
44	0xbdaaac25	-0.08333615
45	0xbd8aef52	-0.06783928
46	0x3e10947e	0.14119145
47	0x3d490730	0.04907912
48	0x3e11afb2	0.14227179
49	0x3cfd51bb	0.030922761
50	0x3e426841	0.18985082
51	0xbe2c82de	-0.16846797
52	0x3d81647b	0.06317993
53	0x3d64ba3a	0.055841662
54	0x3bd580ed	0.0065156133
55	0x3e40811b	0.1879925
56	0x3cf5e18a	0.030014772
57	0x3c8283be	0.01593196
58	0x3df206e4	0.118177205
59	0xbca34e04	-0.019934662
60	0xbcef8c5c	-0.029241733
61	0xbe36d561	-0.17854835
62	0x3cd9fcab	0.02660974
63	0xbd7fa53b	-0.062413435
64	0x3e0f768d	0.14010067
65	0x3e6c9302	0.23102954
66	0xbe400f0c	-0.1875574
67	0xbdc83e17	-0.09777468
68	0x3e465004	0.19366461
69	0xbd886098	-0.06659049
70	0x3e3f0102	0.18652728
71	0x3e597185	0.2123471
72	0xbd39f981	-0.04540396
73	0xbe13c211	-0.14429499
74	0x3dd197ea	0.102340534
75	0x3da97644	0.082745105
76	0x3e4dbf84	0.20092589
77	0x3ca05f3b	0.01957666
78	0x3dd9e96f	0.10640227
79	0xbe26d941	-0.16293813
80	0x3cbefc5f	0.0233137
81	0x3d0257cf	0.031822022
82	0x3e14a307	0.14515315
83	0xbdedb0be	-0.116059765
84	0xbbc7d145	-0.006097945
85	0xbdfa27d2	-0.12214626
86	0xbde5d068	-0.11221391
87	0x3daa8a48	0.08327156
88	0x3d3adb8b	0.04561953
89	0x3dac092b	0.08400186
90	0x3b586100	0.00330168
91	0xbb832f12	-0.004003414
92	0xb9f7d224	-0.00047268078
93	0x3dd30306	0.10303311
94	0xbde83275	-0.11337749
95	0x3d3c9696	0.046042047
96	0x3e29de12	0.1658862
97	0x3e00a123	0.12561469
98	0xbd9bedc5	-0.0761371
99	0x3e235793	0.15951376
100	0xbdf3e9cf	-0.1190983
101	0x3dd25ccd	0.102716066
102	0x3e34bed1	0.17650916
103	0x3c3696c4	0.011144344
104	0x3d9fde73	0.07806101
105	0xbe3869fb	-0.18009178
106	0xbd84f328	-0.06491691
107	0xbd7fca5f	-0.062448855
108	0xbe0e20f0	-0.13879752
109	0xba3bdb3c	-0.00071661524
110	0x3e2d1913	0.16904096
111	0x3c77f061	0.015132994
112	0x3e59bc52	0.21263245
113	0xbe3a6cc8	-0.18205559
114	0x3d7fc58f	0.062444266
115	0x3e35c7fd	0.1775207
116	0x3e2ffda6	0.17186603
117	0xbdb0a906	-0.08625989
118	0xbe35a042	-0.17736915
119	0xbd811264	-0.06302336
120	0x3e226151	0.15857436
121	0x3cf70690	0.030154496
122	0x3e4d02aa	0.20020548
123	0xbe0b1e03	-0.13585667
124	0xbdfa14cc	-0.12210998
125	0x3dccdd8e	0.10003196
126	0x3d961bb6	0.07329504
127	0xbe0011a0	-0.12506723
128	0x3e458615	0.1928943
129	0xbd91919b	-0.0710785
130	0xbe2c3b1a	-0.1681942
131	0x3d540cce	0.051770024
132	0xbdb8ee0b	-0.09029778
133	0xbdc4e5f6	-0.09614174
134	0xbdd18dcb	-0.10232123
135	0x3d6eec5d	0.058330882
136	0x3dd9883f	0.1062169
137	0x3e13083a	0.14358607
138	0xbdf32e14	-0.11874023
139	0xbd5f36c1	-0.054495577
140	0x3e3e0a3b	0.1855859
141	0xbdefd849	-0.11711175
142	0xbd660b98	-0.0561634
143	0xbca8b3da	-0.020593572
144	0xbe3ab420	-0.18232775
145	0xbe10971e	-0.14120147
146	0x3e61b16f	0.22040342
147	0x3d2c3783	0.042045128
148	0x3da3a0d8	0.07989663
149	0x3dccdb46	0.100027606
150	0x3e52752c	0.2055251
151	0x3e511090	0.20416474
152	0x3e177199	0.14789428
153	0x3d9725cf	0.07380258
154	0x3e1e0f11	0.15435435
155	0x3de9be45	0.11413244
156	0xbda77e3d	-0.08178375
157	0xbcb7a4fa	-0.022417534
158	0xbe213161	-0.15741493
159	0xbe2f1fdb	-0.17101996
160	0x3e060cb1	0.13090779
161	0xbe34da2e	-0.17661354
162	0xbe3e5a1e	-0.18589064
163	0xbe73acf4	-0.23796445
164	0xbe3c8902	-0.1841164
165	0x3d6cfa19	0.0578557
166	0x3d521b37	0.051295485
167	0xbe4fe0b2	-0.20300558
168	0x3d5a581e	0.05330669
169	0xbe38c1dd	-0.18042703
170	0x3d54788b	0.05187277
171	0x3d89aab7	0.067220144
172	0xbd66a476	-0.056309186
173	0xbe039541	-0.12849905
174	0x3ddb2544	0.10700467
175	0xbe15e1b9	-0.14636888
176	0xbda0ad5e	-0.07845567
177	0xbe66db39	-0.22544564
178	0x3e2cfa15	0.16892274
179	0x3dd5555a	0.1041667
180	0xbd9800ff	-0.07422065
181	0x3dde3339	0.10849614
182	0x3e8579f6	0.2606961
183	0x3ced6316	0.028977912
184	0xbdfe800c	-0.12426767
185	0xbe0a5740	-0.13509846
186	0x3e4713e2	0.19441178
187	0x3d9ba671	0.076001056
188	0xbc3f39ac	-0.011671465
189	0x3e102dfd	0.14080043
190	0xbdaa9c30	-0.08330572
191	0x3d13ccaf	0.036083873
192	0x3e57d7cc	0.21078414
193	0xbc33a15c	-0.010963764
194	0xbe1cc0b1	-0.15307881
195	0xbc8f3512	-0.01748136
196	0x3e25ef86	0.16204652
197	0x3d867276	0.065648004
198	0xbd8d9f47	-0.06915145
199	0xbde7f9c6	-0.113269374
200	0x3d6191ea	0.055070795
201	0x3d0fa4cf	0.035069283
202	0xbd96b248	-0.07358223
203	0xbd8d003e	-0.06884812
204	0x3cd8039e	0.026368912
205	0x3d7c1b07	0.061549213
206	0xbd5794f0	-0.052632272
207	0x3e1b6894	0.15176612
208	0x3d4f6b3c	0.050639376
209	0x3da5c543	0.08094265
210	0x3dba86b0	0.09107721
211	0xbc054db0	-0.008136198
212	0x3d70e611	0.05881316
213	0x3c913ebc	0.01773011
214	0x3df90900	0.1215992
215	0xbd3d89f5	-0.046274144
216	0xbda07726	-0.07835226
217	0xbe46bda7	-0.19408284
218	0xbd634b56	-0.055491768
219	0x3d448071	0.047974054
220	0x3e3f7a99	0.18699111
221	0xbe65a7e7	-0.22427331
222	0xbd7a9ba8	-0.0611836
223	0x3dd03803	0.101669334
224	0xbdd5096d	-0.104021885
225	0x3deb23a8	0.1148141
226	0xb9323100	-0.00016993657
227	0xbe578b47	-0.21049224
228	0x3d6fe766	0.058570288
229	0xbde73b7e	-0.11290644
230	0x3db203bb	0.08692118
231	0xbe393e39	-0.18090142
232	0x3e919f3d	0.28441802
233	0xbda39184	-0.07986739
234	0x3e28472c	0.164334
235	0xbe342bcc	-0.17594832
236	0xbe178b93	-0.14799337
237	0x3d45e96d	0.048318315
238	0x3de01b73	0.109427355
239	0xbcc22bf3	-0.023702597
240	0xbe2cb5bb	-0.168662
241	0xbdb8d197	-0.09024351
242	0xbdc5fbfe	-0.09667204
243	0x3d5d2551	0.053990666
244	0x3d9fbb77	0.07799428
245	0x3e08039d	0.13282628
246	0x3e882d12	0.26596886
247	0xbdd1d84c	-0.102463335
248	0x3e333868	0.17501986
249	0x3e183b81	0.14866449
250	0x3d51f134	0.05125542
251	0xbe2def47	-0.16985808
252	0xbdb6a1af	-0.089175574
253	0x3df40213	0.11914458
254	0x3e4aca47	0.19803725
255	0x3e0bf48a	0.13667503

mean.0.bias f4 [100]
0	0x3c93aa4a	0.018025536
1	0x3d2df29c	0.0424677
2	0x3d407523	0.04698671
3	0x3d92e561	0.07172657
4	0x3db029bc	0.0860171
5	0x3d46747e	0.04845094
6	0xbc256d04	-0.010096792
7	0xbb87d905	-0.004145744
8	0x3d67f86b	0.056633394
9	0x3c265923	0.010153088
10	0xbc2144e0	-0.009843081
11	0x3cfa9159	0.030586885
12	0x3c2938e5	0.010328506
13	0x3e0fa072	0.14026049
14	0xbd059d08	-0.03262046
15	0x3e62b71a	0.2214016
16	0x3d96e60a	0.07368095
17	0xbcc3956d	-0.023874963
18	0x00000000	0.0
19	0x3d11ecc0	0.035626173
20	0x3cbdf819	0.023189591
21	0xbd97c20c	-0.074100584
22	0x3ca5230d	0.020158315
23	0x3b67893a	0.0035329596
24	0x3bdf4536	0.0068136705
25	0xbc5f7dc9	-0.013640829
26	0x3dae27a8	0.085036576
27	0xbcfbb7bb	-0.030727258
28	0x3c8db681	0.017298939
29	0xbcd316f9	-0.02576779
30	0xbd022d97	-0.03178176
31	0xbd9809f0	-0.074237704
32	0xbd63dc82	-0.055630215
33	0x3be377fa	0.0069417926
34	0xbd0e0a93	-0.034678053
35	0x3b22d27e	0.0024844701
36	0xbcd47340	-0.025933862
37	0x3d1e269c	0.03861104
38	0x3c2c0cb6	0.010501077
39	0xbd2419d5	-0.040063698
40	0xbd9c3862	-0.07627942
41	0x3d1bdba3	0.03805126
42	0x3c4e7b20	0.0126025975
43	0x3d8db169	0.06918604
44	0xbb6e5f36	-0.0036372668
45	0x3b3b679f	0.0028595699
46	0x3bd7d58a	0.006586735
47	0x3d9976f1	0.074933894
48	0x3bce03de	0.006287082
49	0x00000000	0.0
50	0xbd9a8df5	-0.075466074
51	0xbd0e1c3a	-0.034694888
52	0x3d0460b5	0.03231879
53	0x3c078ae6	0.008272862
54	0xbbd6c955	-0.0065547624
55	0x3db225fe	0.08698653
56	0x3c3b60e0	0.011436671
57	0xbd184919	-0.037179086
58	0x3c699c47	0.014258451
59	0xbce0f743	-0.027461654
60	0xbcb1f9e8	-0.02172561
61	0xbd5c77c9	-0.053825174
62	0xbd0a8e4b	-0.033827107
63	0x3d8a3b93	0.06749644
64	0xbcae35f0	-0.021265954
65	0xbc69d9fe	-0.014273165
66	0xbc606309	-0.013695487
67	0x3ca4be79	0.020110356
68	0xbc8cc9f4	-0.017186143
69	0x3cbd0b53	0.023076689
70	0x3db13ee5	0.08654574
71	0x3d0cde3b	0.034391623
72	0xbad7433a	-0.0016423233
73	0x3c7a8290	0.015289918
74	0x3ccd24f7	0.02504204
75	0x3c90d0e2	0.017677728
76	0xbca1fdeb	-0.019774398
77	0xbcba1ffc	-0.02272033
78	0x3ca16270	0.019700259
79	0x3e604602	0.21901706
80	0x3c3afc72	0.011412727
81	0xbdb4cb0a	-0.08827789
82	0x3d8bae34	0.06820336
83	0x3d96e9ae	0.073687896
84	0x3d428eaa	0.047499336
85	0xbc284211	-0.010269658
86	0xbd38a464	-0.04507865
87	0xbc26ed1a	-0.010188365
88	0xbb852980	-0.004063785
89	0xbc667a76	-0.014067283
90	0xbcf242f0	-0.029572934
91	0xbd4aac68	-0.049480826
92	0xba665a38	-0.00087872474
93	0xbc03fab5	-0.008055379
94	0x3da388c0	0.07985067
95	0xbc1f9a38	-0.009741358
96	0xbc8517e7	-0.01624675
97	0xbb531b20	-0.0032212213
98	0xbd589f2e	-0.05288618
99	0x3bea6e17	0.007154237

mean.2.weight f4 [100, 100]
0	0x3e182504	0.1485787
1	0xbd2d1043	-0.042251837
2	0xbe070b01	-0.13187791
3	0xbdc470b3	-0.09591808
4	0xbd94910e	-0.072542295
5	0xbb8492a2	-0.0040458003
6	0xbc259486	-0.0101062115
7	0xbe20a2bd	-0.1568708
8	0x3e294dad	0.16533537
9	0x3c466eaf	0.01211135
10	0x3e36239b	0.1778702
11	0xbd912c91	-0.070885785
12	0x3dc242cf	0.09485399
13	0x3d97e70a	0.07417114
14	0xbe11e1dc	-0.14246315
15	0x3e19e75d	0.15029664
16	0x3dfd0ff6	0.1235656
17	0xbe072ed8	-0.13201463
18	0x3e11d57e	0.14241597
19	0xbce50a07	-0.027958883
20	0xbda3b5c8	-0.079936564
21	0xbd7da46b	-0.06192438
22	0xbdf08ead	-0.11745963
23	0x3df65604	0.12028125
24	0xbd344104	-0.044007316
25	0xbddb3459	-0.10703344
26	0x3e2f39e0	0.17111921
27	0xbe46a041	-0.1939707
28	0xbe137b6d	-0.14402552
29	0x3d0eddeb	0.034879606
30	0x3e30cd4f	0.17265819
31	0xbdda3451	-0.1065451
32	0xbdd5addb	-0.10433551
33	0xbda0e752	-0.07856621
34	0x3ddd089a	0.10792656
35	0xbb7d032e	-0.0038606632
36	0xbe04558d	-0.1292326
37	0xbd80665b	-0.06269523
38	0xbe0f8351	-0.14014937
39	0x3d7a080c	0.06104283
40	0xbdd441b2	-0.10364093
41	0xbb8e9397	-0.00435109
42	0x3df72d6b	0.1206921
43	0x3e0ddb51	0.13853194
44	0xbe2d5759	-0.16927852
45	0x3db9e2c8	0.09076458
46	0x3e26ebb3	0.1630085
47	0x3e1b39e6	0.15158805
48	0x3cf8a8ea	0.030353982
49	0xbc099e10	-0.008399501
50	0xbdce38e7	-0.10069447
51	0xbda85800	-0.0821991
52	0xbd94e4de	-0.072702155
53	0xbd4ac24d	-0.049501706
54	0x3dbb0009	0.09130866
55	0x3e3ede10	0.18639398
56	0x3dbb7ec4	0.09155038
57	0xbd448aec	-0.04798405
58	0x3c9f41c9	0.019440548
59	0xbd88f10c	-0.06686601
60	0xbdbe6cdf	-0.09298109
61	0xbd006293	-0.031344008
62	0xbcc28dd0	-0.023749262
63	0x3c24370b	0.010022889
64	0x3d3fdea8	0.0468432
65	0x3d975c37	0.073906355
66	0x3dddcaf3	0.10829725
67	0x3cc1b167	0.023644162
68	0xbe09038d	-0.13380261
69	0x3cd9bd3d	0.026579494
70	0x3d8ccc9c	0.06874964
71	0xbe0b4298	-0.13599622
72	0x3c023aa2	0.007948549
73	0x3dd73803	0.1050873
74	0xbdca380d	-0.09873972
75	0x3d8a85e7	0.06763821
76	0xbe02057d	-0.12697406
77	0x3dbfa2d7	0.09357231
78	0x3d49c057	0.049255695
79	0x3dd1f5df	0.10251974
80	0xbe023418	-0.12715185
81	0x3ca053a1	0.019571127
82	0xbdc00329	-0.09375603
83	0xbd84baff	-0.06480979
84	0x3dca7004	0.098846465
85	0xbdfa5777	-0.12223714
86	0x3dc0f1e0	0.09421134
87	0x3db9c586	0.09070878
88	0x3e273c22	0.16331533
89	0xbe0177e2	-0.12643388
90	0x3d71f0c7	0.059067514
91	0x3e027cf3	0.12742977
92	0x3dcc7f62	0.09985234
93	0xbd438db1	-0.04774255
94	0x3e415b65	0.1888252
95	0x3dd2242b	0.10260805
96	0x3d3af69f	0.045645352
97	0xbd5a39f5	-0.05327793
98	0xbdde076e	-0.10841261
99	0x3e1c76a2	0.1527963
100	0x3c7b1f96	0.015327355
101	0xbcb345a0	-0.021883786
102	0x3ae25913	0.0017268978
103	0xbdc7981a	-0.09745808
104	0x3dbc1b61	0.091849096
105	0x3d2d5773	0.042319726
106	0x3d0d0b2c	0.034434482
107	0xbd049b4b	-0.03237466
108	0x3d7d61ac	0.061860725
109	0x3e1679b6	0.14694867
110	0x3dc1cb5f	0.09462618
111	0x3e1e7af7	0.15476595
112	0x3d34317b	0.0439925
113	0x3dc28c48	0.09499413
114	0xbd62f881	-0.055412773
115	0xbdfecfd8	-0.12441987
116	0x3db66939	0.089067884
117	0x3cbebe0a	0.023283977
118	0xbbc4f080	-0.006010115
119	0x3d1d6071	0.03842205
120	0x3d90e178	0.07074255
121	0xbc292ef2	-0.010326134
122	0x3d9f2923	0.07771518
123	0x3e28aa4e	0.16471216
124	0xbcde8577	-0.02716325
125	0xbd46c935	-0.04853173
126	0xbdaa493a	-0.08314748
127	0x3de781b5	0.113040365
128	0xbd507384	-0.050891414
129	0x3d1b6276	0.037935697
130	0xbde83242	-0.11337711
131	0x3d4a889a	0.04944668
132	0xbe0892d2	-0.13337258
133	0x3d122cde	0.03568732
134	0xbddab186	-0.10678391
135	0xbe20694d	-0.15665169
136	0x3c4d87a1	0.0125445435
137	0x3d685cd5	0.056729157
138	0xbdf5a971	-0.11995209
139	0xbdbfac27	-0.09359007
140	0x3debd67f	0.11515521
141	0xbd01a5e0	-0.03165233
142	0x3df7ddeb	0.12102874
143	0xbdaa311e	-0.083101496
144	0xbd3d3967	-0.04619732
145	0x3db9a2f7	0.09064286
146	0xbe170dce	-0.1475136
147	0x3d4a12f4	0.04933448
148	0xbde9c361	-0.11414219
149	0xbdadfce0	-0.08495498
150	0x3d05ab69	0.032634173
151	0x3dd5c960	0.104388
152	0xbdab58ca	-0.083665445
153	0x3c84832f	0.016175834
154	0xbcd72f41	-0.02626765
155	0xbde8bb28	-0.11363822
156	0xbd01cae9	-0.03168765
157	0x3c9486c6	0.018130671
158	0xbda79d1e	-0.081842646
159	0xbdafaf3b	-0.085783444
160	0x3e0371b1	0.12836339
161	0xbddf9e5f	-0.10918879
162	0xbccd3aae	-0.025052395
163	0x3e07d904	0.13266379
164	0xbd907a68	-0.07054597
165	0xbe0ee1d3	-0.13953333
166	0xbdb5e187	-0.088809066
167	0xbe0c46e9	-0.13698925
168	0x3dfc48e7	0.123185925
169	0xbd934fab	-0.0719293
170	0x3d6e1064	0.0581211
171	0x3db423f7	0.08795922
172	0xbd2ab5f6	-0.041677438
173	0x3d97bb27	0.07408743
174	0x3e196526	0.14979991
175	0xbd024566	-0.031804465
176	0x3d5a6b14	0.053324774
177	0xbd951ee2	-0.07281281
178	0x3de7c9d0	0.113177896
179	0xbe26d86b	-0.16293494
180	0xbd292c46	-0.041301988
181	0x3c814fd7	0.01578514
182	0xbe085148	-0.13312256
183	0xbe056d82	-0.13030055
184	0x3db148ef	0.08656489
185	0xbe178832	-0.14798048
186	0xbb31f16f	-0.0027151962
187	0x3e1ca831	0.15298535
188	0xbe0fe193	-0.14050893
189	0x3e2aa95f	0.16666172
190	0x3e129a01	0.1431656
191	0xbd3e4f55	-0.046462376
192	0x3d7f8068	0.062378317
193	0xbd3e74d4	-0.046498135
194	0xbdb23e5e	-0.08703302
195	0x3dc60d9d	0.09670565
196	0x3cd487a7	0.02594359
197	0x3d7a918e	0.061173968
198	0x3e20080a	0.15628067
199	0xbcafdce6	-0.021467637
200	0xbcf524fe	-0.029924866
201	0xbe17421b	-0.14771311
202	0xbe1ea98f	-0.15494369
203	0xbde93d96	-0.113887
204	0xbde22b61	-0.1104343
205	0x3e0ee8a1	0.13955928
206	0xbd934fd8	-0.07192963
207	0xbce94d52	-0.028479252
208	0x3df6c28d	0.12048826
209	0xbda4820a	-0.080326155
210	0x3bd0d4b1	0.006373011
211	0xbe205125	-0.15655954
212	0x3dffedbd	0.12496517
213	0xbe2f65f9	-0.17128743
214	0x3dc36d04	0.095422775
215	0xbcec353b	-0.028833976
216	0xbd9b17d6	-0.07572906
217	0xbd12b971	-0.035821382
218	0xbe089dcf	-0.13341449
219	0xbd7bdebf	-0.061491724
220	0x3df95983	0.12175276
221	0x3e140713	0.14455824
222	0x3dce4300	0.10071373
223	0xbd653596	-0.055959307
224	0xbd410981	-0.047128204
225	0x3d8f52be	0.06998204
226	0xbe2c4607	-0.16823588
227	0xbe1d22b8	-0.15345275
228	0xbe241453	-0.16023378
229	0x3e3b5131	0.18292691
230	0x3d985a98	0.074391544
231	0xbda77cd1	-0.08178104
232	0xbd3ed201	-0.046586994
233	0x3cf88c17	0.030340238
234	0x3d36e4df	0.044651862
235	0x3cd2ebeb	0.02574726
236	0x3dac6201	0.0841713
237	0x3ceba812	0.028766666
238	0xbd488d2e	-0.048962764
239	0x3d508612	0.05090911
240	0x3dd23bd6	0.10265319
241	0xbca927ac	-0.0206488
242	0x3d2a6d51	0.04160816
243	0xbe3276c5	-0.1742812
244	0xbe2343e4	-0.15943867
245	0xbe215944	-0.15756708
246	0x3d55c2a1	0.052187566
247	0xbdd6d9c7	-0.104907565
248	0x3d7078b9	0.05870888
249	0x3c216140	0.009849846
250	0x3d737869	0.059441004
251	0xbe14ee7c	-0.145441
252	0x3e17f100	0.14838028
253	0xbe1c3443	-0.15254311
254	0xbd4e49f5	-0.0503635
255	0xbcd3fe10	-0.025877982

mean.2.bias f4 [100]
0	0x3d55d87f	0.05220842
1	0x3c570d96	0.013125798
2	0xbbc7293e	-0.0060779145
3	0x3b691a27	0.0035568567
4	0x3c8709ef	0.016484229
5	0x3d6482ec	0.05578892
6	0x3e1706ae	0.14748642
7	0xbb0113f0	-0.0019695722
8	0x3d439975	0.04775377
9	0x3cdff304	0.027337559
10	0x3de567c1	0.1120143
11	0xbcd473ef	-0.025934188
12	0x3c07ed77	0.008296362
13	0x3bb85197	0.0056249606
14	0xbc8a0526	-0.016848158
15	0x3c6cb04a	0.014446327
16	0x3ded948e	0.116006
17	0xbd003a49	-0.031305585
18	0x3d398441	0.045292143
19	0xbc78e89c	-0.015192177
20	0xbbde5229	-0.0067846966
21	0xbd0c0ee8	-0.034193903
22	0xba865ac6	-0.0010250441
23	0x3c19845c	0.009369936
24	0x3dd6926c	0.104771465
25	0xbcf2100c	-0.029548667
26	0xbd16dfec	-0.036834642
27	0x3bd59f7d	0.0065192566
28	0xbc0bfd87	-0.008544332
29	0xbcc61b72	-0.024183009
30	0x3c6ecc72	0.014575111
31	0x3af75aee	0.0018871704
32	0x3c4f11fc	0.012638565
33	0x3d903583	0.070414566
34	0xbd0518a6	-0.03249421
35	0xbc957cef	-0.01824805
36	0x3cfefaf0	0.031125516
37	0xbc7a7a71	-0.015287981
38	0x3d360edf	0.044447776
39	0x3d9c4bc8	0.076316416
40	0xbd2cf0ff	-0.04222202
41	0xbca8d929	-0.020611363
42	0xbd40dbf0	-0.04708475
43	0xbc50a896	-0.0127355065
44	0xbb9771be	-0.0046217134
45	0xbdc96054	-0.09832826
46	0x3d92a8a3	0.07161071
47	0xbc9e6502	-0.019335274
48	0xba16eb65	-0.00057571224
49	0xbb14c653	-0.0022701218
50	0x3da8302c	0.08212313
51	0x3b318ae0	0.0027090833
52	0xbbdc6a0d	-0.0067265094
53	0x3c9ea256	0.019364517
54	0x3be5e185	0.0070154094
55	0x3c8de2b1	0.017320009
56	0x3cee8b63	0.0291192
57	0xbce0a915	-0.027424375
58	0x00000000	0.0
59	0xbb9dc971	-0.0048152735
60	0x3ca65120	0.020302355
61	0x3d2f065c	0.042730674
62	0x3d9f4832	0.07777442
63	0x3cc7dfc3	0.02439869
64	0xbd2adcb6	-0.041714393
65	0x00000000	0.0
66	0xbc92bd4c	-0.01791253
67	0x3db6aa9f	0.08919262
68	0xbd32601e	-0.043548696
69	0x3cb04c14	0.021520652
70	0x3b8b5cbe	0.004252999
71	0xbd2934c6	-0.041310094
72	0x3e2f7e85	0.17138107
73	0xbc0ad2d6	-0.008473119
74	0xbb94bebf	-0.0045393403
75	0xbc628dbb	-0.0138277365
76	0x39cf3ba1	0.00039526544
77	0x3d133753	0.035941433
78	0xbcd96655	-0.026538054
79	0xbc998ee2	-0.01874489
80	0xbc30f466	-0.010800457
81	0x3d85bef8	0.06530565
82	0xbd29e297	-0.04147586
83	0xbd9516a9	-0.07279713
84	0xbd6d6f47	-0.05796745
85	0x3acf1700	0.0015799701
86	0x3c01f4f8	0.00793194
87	0xbc3d46c6	-0.011552518
88	0x3d6b86aa	0.057501473
89	0x3db8cf3c	0.09023902
90	0x3e10c077	0.1413592
91	0xbd5156fe	-0.051108353
92	0x3c6989f8	0.014254086
93	0x3dbd2e1d	0.09237311
94	0x3d00e94d	0.031472493
95	0x3e22f847	0.15915023
96	0x3cbc6878	0.022999033
97	0xbd05bb65	-0.032649416
98	0x3c2d89be	0.010591922
99	0xbb30b7ff	-0.002696514

mean.4.weight f4 [2, 100]
0	0x3e0eaaa4	0.13932282
1	0xbdecf8ab	-0.11570867
2	0xbe490f8c	-0.19634837
3	0xbe20b4d9	-0.15693988
4	0xbe21be62	-0.15795282
5	0x3dcbe084	0.09954932
6	0x3ebe42ff	0.3716049
7	0xbe0d1d26	-0.1378065
8	0x3e478695	0.19484933
9	0xbdabff17	-0.08398264
10	0x3e74059d	0.23830266
11	0x3cf3920c	0.029732727
12	0x3cb4c58a	0.02206685
13	0xbd4f92a5	-0.05067696
14	0xbde7b1b4	-0.11313191
15	0x3e94026b	0.28908095
16	0x3e9170db	0.28406414
17	0xbd20cbb2	-0.03925676
18	0x3d21519e	0.039384477
19	0xbe61a597	-0.22035824
20	0xbe5a767e	-0.21334264
21	0x3d4c43eb	0.04986946
22	0x3e24abf8	0.16081226
23	0x3e5b50f3	0.21417598
24	0x3e48afa9	0.19598259
25	0xbc615175	-0.013752331
26	0xbc99dbd6	-0.018781584
27	0xbe0c90fd	-0.13727184
28	0xbe504a8a	-0.20340934
29	0x3d039c2f	0.03213137
30	0xbe485755	-0.19564565
31	0x3e62ace6	0.22136268
32	0x3e2af184	0.16693693
33	0xbc97dae7	-0.018536998
34	0x3befa64c	0.0073135253
35	0x3d875a41	0.066090114
36	0xbedb2c86	-0.42807406
37	0x3e0caa2e	0.13736793
38	0x3d5601a0	0.052247643
39	0x3e3c06a6	0.18361911
40	0xbd722b18	-0.05912313
41	0x3e48ba3c	0.19602293
42	0xbe8c1b8c	-0.27364767
43	0xbc8f05e3	-0.017458862
44	0x3d2a94ca	0.041645803
45	0xbee0654e	-0.4382729
46	0x3d8fdd80	0.0702467
47	0x3cb52641	0.022112967
48	0xbe0e4f28	-0.13897383
49	0xbdd882e3	-0.1057184
50	0x3e466587	0.19374667
51	0x3d3079b4	0.043084815
52	0xbe0ec1f4	-0.13941175
53	0x3cb0ad81	0.021567108
54	0xbcfd7742	-0.030940656
55	0xbadfdf54	-0.0017080107
56	0xbb40e11f	-0.0029431058
57	0xbdcbc42b	-0.099495254
58	0x3e23b85a	0.15988293
59	0xbde7ad16	-0.113123104
60	0x3dacf942	0.0844598
61	0x3e09c9ae	0.13455841
62	0x3e79e5ff	0.24404143
63	0x3c13f052	0.009029465
64	0x3d29923a	0.04139922
65	0x3c999470	0.018747538
66	0xbdddcdb0	-0.108302474
67	0x3e7b0b61	0.2451606
68	0xbe8a6683	-0.27031335
69	0xbe046100	-0.12927628
70	0xbe324edd	-0.17412896
71	0xbdb30100	-0.08740425
72	0x3e94ae9b	0.29039463
73	0xbe994655	-0.29936472
74	0xbda7f0dd	-0.08200238
75	0xbeb20f5c	-0.34777343
76	0xbcef879f	-0.029239474
77	0xbd1d8c4d	-0.03846388
78	0xbc842862	-0.016132537
79	0xbbd965fc	-0.006634472
80	0xbe135fa9	-0.1439196
81	0x3e466acf	0.19376682
82	0xbdfe639b	-0.12421342
83	0xbbb254f3	-0.0054422556
84	0xbd9a3460	-0.07529521
85	0xbd2158c3	-0.03939129
86	0x3e197211	0.14984919
87	0xbe93316a	-0.28748637
88	0x3d4d180c	0.05007176
89	0x3e66702f	0.22503732
90	0x3e8cb484	0.27481472
91	0xbdf1592c	-0.11784586
92	0x3db5e70b	0.088819586
93	0x3ea6b17b	0.32557282
94	0x3d51b937	0.051202025
95	0x3ee5a996	0.44855946
96	0x3d621a4e	0.055200867
97	0x3e3d4e91	0.18487002
98	0x3be6d4a8	0.0070443936
99	0x3d443d02	0.047909744
100	0xbe2aae72	-0.16668108
101	0xbde8a7b6	-0.11360113
102	0xbd6e4a02	-0.058176048
103	0xbdd24079	-0.102662034
104	0xbe8124a8	-0.2522328
105	0xbe77d82b	-0.24203555
106	0xbe9da9ac	-0.30793512
107	0x3d186d31	0.037213508
108	0xbdf6c914	-0.12050071
109	0x3e48fb27	0.19627057
110	0xbe3dc2ef	-0.18531393
111	0x3e8218e2	0.2540961
112	0xbe0d21d7	-0.1378244
113	0x3da0fd15	0.078607716
114	0x3e3b7508	0.18306363
115	0x3d33ed79	0.043927643
116	0xbe9ef602	-0.31047064
117	0x3e93a640	0.28837776
118	0xbe29f50f	-0.16597389
119	0x3e31cb81	0.17362787
120	0xbe4c04ad	-0.19923659
121	0xbd240665	-0.04004516
122	0x3da36458	0.079781234
123	0x3b511008	0.0031900425
124	0xbddafecf	-0.10693132
125	0x3de8706d	0.113495685
126	0x3ec8611d	0.39136592
127	0xbd58a632	-0.05289287
128	0xbdd0fc95	-0.10204426
129	0x3e2c2247	0.16809951
130	0x3e725b38	0.2366761
131	0x3e45a144	0.19299799
132	0x3e73a2b5	0.23792537
133	0xbea63a5e	-0.32466406
134	0x3e48c189	0.19605078
135	0x3d149b0d	0.03628068
136	0x3e4dec8a	0.20109764
137	0x3df05f09	0.117368765
138	0xbe1a3122	-0.15057805
139	0xbe553fb3	-0.2082508
140	0x3dcc6d60	0.09981799
141	0xbdd4d421	-0.10392023
142	0x3e4c8279	0.19971646
143	0x3e4e8771	0.20168854
144	0x3ceb9613	0.028758084
145	0x3e9b0297	0.30275413
146	0xbe8fb120	-0.28064823
147	0x3d46223c	0.048372492
148	0xbd2576d8	-0.04039654
149	0xbcb0d901	-0.02158785
150	0xbe45d9c2	-0.1932135
151	0xbc21d5b4	-0.009877611
152	0x3d8e4f05	0.069486655
153	0xbdab75c1	-0.08372069
154	0xbe17c7fc	-0.14822382
155	0x3c87f20f	0.016594915
156	0x3df8ec89	0.121544905
157	0x3d0411a3	0.032243382
158	0x3d989e70	0.074520946
159	0x3daba93b	0.083818875
160	0xbe5d034f	-0.21583293
161	0xbe830606	-0.25590533
162	0xbcf4a6b6	-0.02986465
163	0x3e60d626	0.21956691
164	0x3e976e78	0.29576468
165	0xbe2dfee1	-0.1699176
166	0x3ce0f10f	0.027458696
167	0xbdbcf1b4	-0.09225789
168	0x3eb61bfa	0.3556822
169	0xbe43fce2	-0.19139436
170	0xbddeb3a5	-0.10874108
171	0x3ea4cef2	0.32189137
172	0xbeaef76a	-0.34173137
173	0x3e977e58	0.2958858
174	0xbd9892ea	-0.07449897
175	0x3dd76bd4	0.105186135
176	0xbca1a6eb	-0.019732913
177	0xbe1e3c67	-0.15452729
178	0xbe0dfad2	-0.13865212
179	0x3e58ce18	0.21172369
180	0xbe19c5c0	-0.15016842
181	0xbbf512e7	-0.00747906
182	0x3d46cd7d	0.048535813
183	0x3e590b3a	0.21195689
184	0x3e842cf4	0.25815547
185	0x3e0a11dc	0.13483375
186	0x3b26c6b0	0.0025448017
187	0x3ea91231	0.3302169
188	0xbe8730dd	-0.26404467
189	0xbe84cd68	-0.25937963
190	0xbdd91208	-0.10599142
191	0x3dd00463	0.10157087
192	0x3e85a103	0.26099405
193	0xbdc048ab	-0.0938886
194	0xbe3ae06d	-0.18249674
195	0xbec4dd5e	-0.3845014
196	0xbdd54d42	-0.104151264
197	0x3e63c810	0.22244287
198	0xbdc0e498	-0.09418601
199	0x3b139b7c	0.0022523096

mean.4.bias f4 [2]
0	0x3e82a058	0.25512958
1	0xbe82a05d	-0.25512972
