save/test.pt (torch, 64231 bytes, 7 tensors)

sigma f4 [2]
0	0xc03fdaaa	-2.9977212
1	0xbdbd18e8	-0.09233266

mean.0.weight f4 [100, 50]
0	0xbc17f3bc	-0.009274419
1	0x3dc49dd9	0.096004196
2	0x3ca4db45	0.020124087
3	0x3e271b00	0.16318893
4	0x3e5f0da3	0.21782546
5	0x3dfe2fa6	0.12411432
6	0x3db2ec6f	0.087365024
7	0x3d227071	0.039658014
8	0x3d557ed4	0.052122906
9	0xbc1c973f	-0.009557544
10	0x3d5e9a88	0.05434659
11	0x3e1aca79	0.151163
12	0x3e19fbb0	0.15037417
13	0xbbbdb238	-0.0057890676
14	0x3d29e78c	0.041480586
15	0xbda40e01	-0.080104835
16	0x3d7fb6e8	0.062430292
17	0x3e116b40	0.14201069
18	0xbe05963c	-0.13045591
19	0x3ceb2727	0.028705193
20	0xbcdfd370	-0.027322501
21	0xbe59d38d	-0.21272106
22	0xbe4dbbf5	-0.20091231
23	0xbd6fa052	-0.058502503
24	0x3dc36f06	0.095426604
25	0xbe2af141	-0.16693594
26	0xbb6c73a9	-0.003607968
27	0x3d9d3205	0.07675556
28	0xbe15d313	-0.146313
29	0x3d1b8980	0.037972927
30	0x3d71c829	0.05902878
31	0xbe4d3ce9	-0.20042767
32	0xbc397568	-0.011319496
33	0xbe4a5c8d	-0.19761868
34	0x3df843c6	0.12122302
35	0x3d59084e	0.052986436
36	0xbca5633a	-0.020188916
37	0x3dbfe621	0.093700655
38	0x3d9824d0	0.074288964
39	0x3e0c3aac	0.13694257
40	0x3dab1d13	0.08355155
41	0xbe51384a	-0.20431629
42	0x3e4e2eca	0.20135036
43	0x3d2c2a8c	0.042032763
44	0xbdc5ae0b	-0.09652337
45	0xbdd79712	-0.10526861
46	0x3dc4fe4a	0.09618814
47	0xbc221720	-0.009893209
48	0x3df00d87	0.1172133
49	0xbcb5314e	-0.022118237
50	0x3e29abfa	0.1656951
51	0xbe3a2126	-0.18176708
52	0x3d7d01ce	0.0617693
53	0x3d6d5ea4	0.057951584
54	0x3c5da751	0.013528661
55	0x3e4cf944	0.20016962
56	0x3d4be26a	0.049776472
57	0x3d149631	0.036276046
58	0x3e021ae7	0.12705575
59	0xbd016a26	-0.03159537
60	0x3b104e22	0.0022019227
61	0xbe5b0a26	-0.2139059
62	0x3d1624dc	0.036656246
63	0xbdbbe663	-0.09174802
64	0x3e24cdd5	0.16094144
65	0x3e536e34	0.20647508
66	0xbe3d50db	-0.18487875
67	0xbe0282ee	-0.12745258
68	0x3e514264	0.20435482
69	0xbda7c5cb	-0.08192023
70	0x3e3714f6	0.1787909
71	0x3e4d9001	0.20074464
72	0xbd1db4ce	-0.038502507
73	0xbe26b026	-0.16278133
74	0x3da35fbd	0.07977245
75	0x3d66055a	0.056157447
76	0x3e0860db	0.13318197
77	0xbd97b0b0	-0.07406747
78	0x3d8f3fb2	0.06994571
79	0xbe5eddba	-0.2176427
80	0x3cdcd9f0	0.02695939
81	0x3d5102a3	0.051027905
82	0x3df33923	0.11876132
83	0xbdc0e03a	-0.09417768
84	0xbd24eaee	-0.04026311
85	0xbde7fed9	-0.11327905
86	0xbe162e75	-0.1466616
87	0x3d41f027	0.047348168
88	0x3cc94d1a	0.024572898
89	0x3d36579c	0.044517145
90	0xbd4e0db6	-0.050306045
91	0xbd34def8	-0.044157952
92	0xbd1f9a7b	-0.038965683
93	0x3d8d8541	0.06910182
94	0xbe11722d	-0.14203711
95	0x3ce5c21e	0.028046664
96	0x3dea844a	0.114510134
97	0x3dd2396d	0.10264859
98	0xbdf5129a	-0.119664386
99	0x3df1aa56	0.11800067
100	0xbdde35b9	-0.108500905
101	0x3dd6ca95	0.10487858
102	0x3e35d89c	0.17758411
103	0x3c235bff	0.009970664
104	0x3daffc35	0.085930265
105	0xbe3bfc86	-0.18358049
106	0xbd73d0c7	-0.059525277
107	0xbd775798	-0.06038627
108	0xbdfdfcdb	-0.12401744
109	0x3bb818fa	0.005618212
110	0x3e3167f8	0.17324817
111	0x3ccd72b7	0.025079114
112	0x3e604b96	0.21903834
113	0xbe3a6985	-0.18204315
114	0x3d806fb9	0.062713094
115	0x3e316866	0.17324981
116	0x3e267546	0.16255674
117	0xbdc34043	-0.09533741
118	0xbe348784	-0.1762982
119	0xbd885818	-0.066574275
120	0x3e2ddc31	0.16978528
121	0x3cdb7a52	0.026791725
122	0x3e52024b	0.20508687
123	0xbe13f17b	-0.14447586
124	0xbe00cfc3	-0.12579255
125	0x3db711ba	0.08938928
126	0x3d7ba9a5	0.061441083
127	0xbe052d60	-0.1300559
128	0x3e2f1a76	0.17099938
129	0xbdc2b5d0	-0.09507334
130	0xbe2a2623	-0.1661611
131	0x3d153514	0.036427572
132	0xbdbcb8e9	-0.09214956
133	0xbdc574c0	-0.09641409
134	0xbdf2e65f	-0.11860346
135	0x3d34594b	0.04403047
136	0x3da36887	0.079789214
137	0x3e0642d6	0.13111433
138	0xbe05bcc9	-0.13060297
139	0xbd927806	-0.07151799
140	0x3e3881ee	0.18018314
141	0xbe0c66a6	-0.13711032
142	0xbd637a53	-0.05553658
143	0xbcad9e9b	-0.021193793
144	0xbe3bfd27	-0.18358289
145	0xbe0d9eac	-0.1383006
146	0x3e6833c6	0.22676
147	0x3d291f3c	0.041289553
148	0x3da2e4d8	0.07953805
149	0x3dd50ebe	0.104032025
150	0x3ec2775a	0.37981683
151	0x3ec698b3	0.38788375
152	0x3ea102fe	0.31447595
153	0x3e5b5775	0.21420081
154	0x3eaeefcc	0.34167325
155	0x3e825de0	0.25462246
156	0x3d3fd9ff	0.046838757
157	0x3bf7c178	0.007560905
158	0xbe31366e	-0.1730592
159	0xbe33c611	-0.17556025
160	0x3db43a64	0.088002
161	0xbe4e4e76	-0.20147118
162	0xbe85c673	-0.26127967
163	0xbe9e0b66	-0.3086807
164	0xbe36b8de	-0.17843959
165	0xbcf96198	-0.030442044
166	0x3d54dbbd	0.05196737
167	0xbe8e4311	-0.27785543
168	0x3c5797c5	0.013158743
169	0xbeaf3ab3	-0.3422447
170	0x3da69f2e	0.0813583
171	0xbcfe8cbf	-0.031072972
172	0x3d8c84c4	0.068612605
173	0xbda92ca9	-0.082604714
174	0x3e46c52f	0.19411157
175	0xbd0ac6c9	-0.033880983
176	0xbdc9eb56	-0.0985934
177	0xbe206773	-0.15664463
178	0x3e0ddfdb	0.13854925
179	0x3dc70edc	0.09719631
180	0xbd72a7d3	-0.05924208
181	0x3d121cac	0.035671875
182	0x3eac0bb2	0.33602673
183	0x3d822acc	0.06355819
184	0xbe350f7c	-0.17681688
185	0xbdf9fd99	-0.12206573
186	0x3d38d371	0.04512352
187	0x3dda81d6	0.106692955
188	0xbdefa757	-0.117018394
189	0x3e09d357	0.13459526
190	0xbd82e3f0	-0.06391132
191	0x3dbf2608	0.09333426
192	0x3e816627	0.2527325
193	0x3d2beca7	0.041973736
194	0xbdedf3a9	-0.1161874
195	0x3cf019a1	0.029309096
196	0x3e041288	0.12897694
197	0x3d96777b	0.07347008
198	0xbd22825f	-0.039675113
199	0xbd96bb6e	-0.07359968
200	0x3dba8e71	0.091092
201	0x3d25f1cc	0.0405138
202	0xbd7a6ffd	-0.061141957
203	0xbdb2e0e3	-0.087343
204	0x3d1a1f10	0.03762728
205	0x3dd63563	0.104594015
206	0xbda66863	-0.08125379
207	0x3e2beb11	0.1678889
208	0xbd2b6b75	-0.041850526
209	0x3cbea3a1	0.023271384
210	0x3d191861	0.037376765
211	0xbcdd3080	-0.027000666
212	0x3e270706	0.16311273
213	0x3dfed260	0.124424696
214	0x3e2fd59e	0.17171332
215	0xbc5849e9	-0.013201215
216	0xbcb3f484	-0.02196718
217	0xbe048439	-0.12941064
218	0x3c1020b3	0.008796859
219	0x3db6f792	0.08933939
220	0x3e9b5d9d	0.3034486
221	0xbe36a462	-0.17836145
222	0x3cd96a09	0.02653982
223	0x3e04e714	0.12978774
224	0xbc812067	-0.015762521
225	0x3e0a0113	0.13476972
226	0x3c649483	0.013951424
227	0xbe604201	-0.21900178
228	0x3d94976a	0.072554424
229	0xbe35b8b7	-0.17746244
230	0x3deaeb5c	0.114706725
231	0xbe588393	-0.21143942
232	0x3eb2dd64	0.34934533
233	0xbdfe8c2e	-0.12429081
234	0x3e23fc72	0.16014269
235	0xbe74aa9d	-0.23893209
236	0xbe777457	-0.24165474
237	0xbca8358d	-0.020533348
238	0x3c841d20	0.01612717
239	0xbd459010	-0.04823309
240	0xbe3e720d	-0.18598194
241	0xbdde60bc	-0.10858294
242	0xbdc4b1a3	-0.09604194
243	0x3db0582c	0.086105675
244	0x3d846cc9	0.064660616
245	0x3dbe0474	0.09278193
246	0x3e6ec880	0.23318672
247	0xbe0cfddd	-0.13768716
248	0x3e14949b	0.14509813
249	0x3e118527	0.1421095
250	0x3d537a1a	0.051630117
251	0xbe2a7c1a	-0.16648903
252	0xbd9e022e	-0.077152595
253	0x3e038369	0.12843098
254	0x3e737b50	0.23777509
255	0x3e2ecb2c	0.17069691

mean.0.bias f4 [100]
0	0xbd52bb2a	-0.051448025
1	0xbd1fe903	-0.039040577
2	0x3cfce21a	0.030869532
3	0x3de3a182	0.111147895
4	0x3dbb6311	0.09149755
5	0x3cfd1d59	0.030897783
6	0xbbb7d4b2	-0.005610072
7	0xbd4ab549	-0.049489293
8	0xbd154f4c	-0.036452577
9	0x3b4b0932	0.0030980823
10	0xbbe738cc	-0.0070563313
11	0xbc0137de	-0.007886855
12	0xbd9dd92f	-0.0770744
13	0x3e4b2068	0.19836581
14	0xbb1d6865	-0.0024018523
15	0x3dbf29ef	0.0933417
16	0x3ded882e	0.1159824
17	0xbcd729ae	-0.026264992
18	0x00000000	0.0
19	0xbc2275f4	-0.0099158175
20	0x3cf0abfb	0.029378882
21	0xbda250ea	-0.079255894
22	0x3d31ec15	0.043438036
23	0xbdbe8ee0	-0.09304595
24	0xbb5ce454	-0.003370543
25	0xbb86799c	-0.0041038524
26	0x3d7edf0d	0.062224437
27	0xbdfcaef9	-0.12338061
28	0xbd7f9025	-0.062393326
29	0xbdafb853	-0.08580079
30	0xbd83a770	-0.064284205
31	0xbe26724c	-0.16254538
32	0xbd8d8a7f	-0.06911182
33	0xbc4518df	-0.0120298555
34	0xbd06e034	-0.03292866
35	0x3cba26f0	0.022723645
36	0x3a938af8	0.0011256626
37	0x3d2cbc57	0.042171802
38	0x3ca83548	0.020533219
39	0xbd2419d5	-0.040063698
40	0xbd9c3862	-0.07627942
41	0xbc8d5b97	-0.017255588
42	0xbb79db22	-0.0038124998
43	0x3d55fbf4	0.052242234
44	0x3d393c29	0.04522339
45	0x3c3d3c32	0.011549996
46	0xbcf64a92	-0.030064855
47	0x3da98127	0.08276587
48	0xbda93f0a	-0.08263977
49	0x00000000	0.0
50	0xbd8be779	-0.06831259
51	0xbcb91e85	-0.02259756
52	0x3ca31f7a	0.01991247
53	0x3cd4e59f	0.025988398
54	0xbb836499	-0.004009795
55	0x3d3fc69f	0.04682028
56	0xbbe78db4	-0.007066453
57	0xbd303a0e	-0.043024115
58	0x3bafb266	0.005361843
59	0xbce0f743	-0.027461654
60	0xbe13395b	-0.14377348
61	0xbd7bbf4a	-0.061461724
62	0xbdc52277	-0.09625714
63	0x3a310b46	0.0006753694
64	0xbde47503	-0.11155131
65	0xbcc66da9	-0.024222212
66	0xbc21cd80	-0.009875655
67	0x3c88decd	0.016707802
68	0x3b8d0d2d	0.004304549
69	0xbaaf7d57	-0.0013388795
70	0x3d6a1b7c	0.057155117
71	0x3c55b2e9	0.013043144
72	0x3bb5fba6	0.0055536805
73	0xbda83b79	-0.082144685
74	0x3d601da2	0.05471576
75	0xbd47c4ca	-0.048771657
76	0xbd2ca22b	-0.042146843
77	0xbcc18312	-0.02362207
78	0xbe071c6c	-0.13194436
79	0x3e597aec	0.21238297
80	0xbc968eaf	-0.018378584
81	0xbe998209	-0.2998202
82	0x3e033030	0.12811351
83	0x3dd465c6	0.10370974
84	0x3dbaf75c	0.09129211
85	0xbe20e28e	-0.15711424
86	0xbd20a559	-0.039220188
87	0xbd043d5d	-0.032285083
88	0xbda8add6	-0.082362816
89	0xbda485eb	-0.08033355
90	0xbcd1d729	-0.025615292
91	0xbd56e008	-0.052459747
92	0x3db27cf2	0.08715238
93	0xbc0d2655	-0.008615096
94	0x3d3a42e7	0.04547396
95	0xbd855e8a	-0.065121725
96	0xbcaca39e	-0.021074113
97	0x3c88bce4	0.016691633
98	0xbd65c83e	-0.05609917
99	0x3c9893b6	0.018625122

mean.2.weight f4 [100, 100]
0	0x3e0fd974	0.14047796
1	0xbd3579b3	-0.044305515
2	0xbe091e57	-0.1339048
3	0xbd893674	-0.06699839
4	0xbd54a673	-0.05191655
5	0xbbe017de	-0.0068387827
6	0xbc2dbb1a	-0.0106036905
7	0xbe34b411	-0.17646815
8	0x3e2298d9	0.15878619
9	0x3bfd844a	0.0077367174
10	0x3e316291	0.17322756
11	0xbd9a80c3	-0.075440906
12	0x3dd931c1	0.10605193
13	0x3d64907f	0.055801865
14	0xbe0a7706	-0.13521966
15	0x3e053331	0.13007809
16	0x3e1081eb	0.1411206
17	0xbe076584	-0.13222319
18	0x3e11d57e	0.14241597
19	0xbcb6d807	-0.022319807
20	0xbdb0352f	-0.08603894
21	0xbd7cedde	-0.061750285
22	0xbdeb573d	-0.11491249
23	0x3de0fd5f	0.10985827
24	0xbd26706d	-0.04063456
25	0xbde64442	-0.11243488
26	0x3e18ad44	0.14909846
27	0xbe3e8de0	-0.18608809
28	0xbe198f9f	-0.14996193
29	0x3cfba55d	0.0307185
30	0x3e2d3ebd	0.16918464
31	0xbdd3d99e	-0.103442416
32	0xbe00a66d	-0.12563486
33	0xbd8f5045	-0.06997732
34	0x3de59802	0.11210634
35	0xbb0b4031	-0.0021247978
36	0xbe0dadc3	-0.13835816
37	0xbd3ff1df	-0.046861526
38	0xbe18bf11	-0.14916636
39	0x3d7a080c	0.06104283
40	0xbdd441b2	-0.10364093
41	0xbc023812	-0.0079479385
42	0x3db8785d	0.090073325
43	0x3e0de829	0.13858093
44	0xbe2624a1	-0.1622491
45	0x3da61037	0.081085615
46	0x3e271fce	0.16320726
47	0x3e0ad009	0.13555922
48	0x3d1fa00f	0.038971003
49	0xbc099e10	-0.008399501
50	0xbdcf84f2	-0.10132779
51	0xbd9f8041	-0.07788134
52	0xbd97c93b	-0.074114285
53	0xbd813f15	-0.0631086
54	0x3dbaf6e5	0.09129123
55	0x3e3593e9	0.17732204
56	0x3da7e779	0.08198447
57	0xbd429ac4	-0.047510877
58	0x3cc54c44	0.024084218
59	0xbd88f10c	-0.06686601
60	0xbdaef262	-0.085423246
61	0xbcecfdb8	-0.028929576
62	0xbcfd34ba	-0.030908931
63	0x3b208706	0.0024494543
64	0x3d0b764c	0.034048364
65	0x3da9c3ca	0.08289297
66	0x3dd80cc6	0.10549311
67	0x3cc9904c	0.024604939
68	0xbe072de8	-0.13201106
69	0x3ce9d238	0.028542623
70	0x3d86aad2	0.0657555
71	0xbdc26fb7	-0.09493964
72	0x3c4aa7c4	0.0123691
73	0x3dd89c0a	0.10576637
74	0xbdb5230c	-0.08844575
75	0x3d70ce08	0.058790237
76	0xbe05cb51	-0.1306584
77	0x3e02518f	0.12726425
78	0x3d36460c	0.044500396
79	0x3dbd1815	0.09233109
80	0xbe034570	-0.12819457
81	0x3ceb0e31	0.02869329
82	0xbdf3b688	-0.119000494
83	0xbd4e16e0	-0.050314784
84	0x3dd8cae4	0.10585573
85	0xbe0fb06a	-0.1403214
86	0x3dc323e2	0.095283285
87	0x3d9d0b55	0.07668177
88	0x3e1c8d95	0.15288384
89	0xbe0e1486	-0.13875017
90	0x3d83e5b3	0.06440296
91	0x3e02a5ba	0.12758532
92	0x3dab1be7	0.08354931
93	0xbd5c39e1	-0.053766135
94	0x3e49af04	0.1969567
95	0x3dc17e77	0.094479494
96	0x3d3a7810	0.045524657
97	0xbd5205fa	-0.05127523
98	0xbdde2389	-0.108466215
99	0x3e0fec9b	0.14055102
100	0x3c660a8b	0.0140406
101	0xbcbb4925	-0.022862026
102	0x3a917ddd	0.0011100132
103	0xbdc8d5de	-0.09806417
104	0x3dba6896	0.091019794
105	0x3d2b9d44	0.041898027
106	0x3d0d1cfa	0.034451462
107	0xbd083210	-0.03325087
108	0x3d7835f7	0.06059834
109	0x3e155e42	0.14586738
110	0x3dbfbc77	0.09362119
111	0x3e1d6e26	0.1537405
112	0x3d30f2c7	0.04320028
113	0x3dbed6d0	0.09318316
114	0xbd62abfb	-0.055339795
115	0xbe00f9c6	-0.12595281
116	0x3db544a0	0.0885098
117	0x3cbeda1a	0.023297358
118	0xbbc4f080	-0.006010115
119	0x3d1ba9d8	0.038003772
120	0x3d90d7f6	0.07072441
121	0xbc292225	-0.010323082
122	0x3d9f0c46	0.07766013
123	0x3e25d88d	0.16195889
124	0xbce119ff	-0.027478216
125	0xbd4604e4	-0.048344508
126	0xbdac653c	-0.084177464
127	0x3de5d744	0.11222699
128	0xbd55f5e1	-0.05223644
129	0x3d17e742	0.03708578
130	0xbde99326	-0.114050195
131	0x3d474618	0.04865083
132	0xbe083965	-0.13303144
133	0x3d103be3	0.035213362
134	0xbdda828a	-0.106694296
135	0xbe20c344	-0.15699488
136	0x3c3fccd2	0.011706548
137	0x3d64b6c7	0.055838373
138	0xbdf50254	-0.11963335
139	0xbdbfac27	-0.09359007
140	0x3debd67f	0.11515521
141	0xbd089d59	-0.033353183
142	0x3df859a6	0.12126474
143	0xbdab1d09	-0.083551474
144	0xbd3f151d	-0.046650995
145	0x3db5cde9	0.08877165
146	0xbe177f7e	-0.14794728
147	0x3d41f4e0	0.04735267
148	0xbdeb1a86	-0.11479668
149	0xbdadfce0	-0.08495498
150	0x3d0521d8	0.03250298
151	0x3dd51cd9	0.10405893
152	0xbdadd893	-0.08488574
153	0x3c874a3f	0.016514895
154	0xbcd734f1	-0.026270362
155	0xbde9ad00	-0.1140995
156	0xbd01f360	-0.03172624
157	0x3c946e33	0.018118953
158	0xbda79f02	-0.08184625
159	0xbdafaf3b	-0.085783444
160	0x3e010a03	0.12601475
161	0xbddf42cb	-0.109014116
162	0xbcce96ac	-0.02521833
163	0x3e06cb90	0.1316359
164	0xbd919ff7	-0.07110589
165	0xbe0fb8f0	-0.14035392
166	0xbdb5e189	-0.08880908
167	0xbe0c9ea4	-0.13732392
168	0x3dfd254f	0.12360632
169	0xbd955f66	-0.072935864
170	0x3d6cc65c	0.057806358
171	0x3db150fd	0.086580254
172	0xbd2b9b08	-0.041895896
173	0x3d9388d3	0.072038315
174	0x3e182e5a	0.14861432
175	0xbd090dd0	-0.03346044
176	0x3d55731c	0.05211173
177	0xbd978edf	-0.074002974
178	0x3de3a74d	0.111158945
179	0xbe270062	-0.1630874
180	0xbd2b2c1e	-0.04179012
181	0x3c3c34bc	0.011487182
182	0xbe09ca39	-0.13456048
183	0xbe066ea5	-0.13128145
184	0x3db00379	0.08594412
185	0xbe188b4f	-0.14896892
186	0xbb32ad33	-0.002726388
187	0x3e1bb6da	0.15206471
188	0xbe10865d	-0.14113756
189	0x3e29c475	0.16578849
190	0x3e1190e5	0.14215429
191	0xbd3e5000	-0.046463013
192	0x3d7c0eb5	0.061537463
193	0xbd3d9eea	-0.04629413
194	0xbdb67799	-0.0890953
195	0x3dc323a2	0.09528281
196	0x3cd487a7	0.02594359
197	0x3d78e5f6	0.060766183
198	0x3e200834	0.15628129
199	0xbcb234f5	-0.021753768
200	0xbd0d6469	-0.034519587
201	0xbe184e85	-0.14873703
202	0xbe1ed079	-0.15509214
203	0xbde90520	-0.11377931
204	0xbde44724	-0.111463815
205	0x3e0e2bc4	0.13883883
206	0xbd934fd8	-0.07192963
207	0xbcea3b79	-0.028592812
208	0x3df0fe14	0.117672116
209	0xbda4847f	-0.08033084
210	0x3bab8114	0.005233893
211	0xbe265200	-0.16242218
212	0x3df33147	0.11874633
213	0xbe302887	-0.1720296
214	0x3dc22516	0.0947973
215	0xbd01f0bf	-0.031723734
216	0xbd9cd42a	-0.076576546
217	0xbd12b935	-0.03582116
218	0xbe089dcf	-0.13341449
219	0xbd888658	-0.06666249
220	0x3df7c6e4	0.12098482
221	0x3e140713	0.14455824
222	0x3dce0f73	0.100615405
223	0xbd70dfb3	-0.058807086
224	0xbd47a13b	-0.048737746
225	0x3d8f3834	0.06993142
226	0xbe2aae22	-0.16667989
227	0xbe1f7d17	-0.15575062
228	0xbe256f41	-0.16155721
229	0x3e3905b7	0.18068586
230	0x3d9d548f	0.07682144
231	0xbdb01de4	-0.08599451
232	0xbd43b9ec	-0.04778473
233	0x3d00450e	0.031315856
234	0x3d1daae5	0.038493056
235	0x3cd2ebeb	0.02574726
236	0x3db03fd1	0.08605922
237	0x3ccaf6b7	0.024775846
238	0xbd499ace	-0.0492199
239	0x3d508612	0.05090911
240	0x3dd23bd6	0.10265319
241	0xbcd27bc5	-0.025693784
242	0x3d29c7b5	0.04145022
243	0xbe32898e	-0.17435285
244	0xbe248e58	-0.16069925
245	0xbe1fec54	-0.15617496
246	0x3d55ad70	0.052167356
247	0xbdddd862	-0.10832287
248	0x3d5f412f	0.054505523
249	0x3c216140	0.009849846
250	0x3d71bf64	0.059020415
251	0xbe15cf2f	-0.14629816
252	0x3e1b5932	0.15170744
253	0xbe1c334f	-0.15253948
254	0xbd49d74c	-0.04927759
255	0xbce54397	-0.02798633

mean.2.bias f4 [100]
0	0x3bad48c6	0.0052882163
1	0x3bb6f823	0.0055837794
2	0xbc8d4cca	-0.01724853
3	0xbc8899d7	-0.016674919
4	0xbc9cdcd4	-0.019148268
5	0x3cede7c0	0.029041171
6	0x3d6c3937	0.05767175
7	0xbbfe72f8	-0.00776517
8	0xbd3409c1	-0.043954615
9	0x3c869b16	0.016431373
10	0x3d594c46	0.053051256
11	0xbcd9da53	-0.026593363
12	0x3cc1371e	0.023585852
13	0xbd200fa1	-0.039077405
14	0xbb912544	-0.0044294912
15	0x3c957c54	0.01824776
16	0x3d8a6ff8	0.067596376
17	0xbd7f5f96	-0.062347017
18	0x3ba0fc0f	0.00491286
19	0xbadc993b	-0.0016830334
20	0xbc4efbcf	-0.012633278
21	0xbd418135	-0.047242362
22	0xbd0944d6	-0.033512913
23	0x3d2d3f17	0.042296495
24	0x3d86dcc5	0.06585077
25	0xbcf56ea2	-0.02995998
26	0x3cebb396	0.028772157
27	0x3ce53b00	0.027982235
28	0xbd23d28b	-0.03999571
29	0x3c392c74	0.011302102
30	0xbcba11ca	-0.02271356
31	0x3baf7599	0.005354595
32	0x3bbdd42b	0.0057931147
33	0x3d4c208b	0.049835723
34	0xbce1c22d	-0.02755841
35	0xbc89c555	-0.016817728
36	0xbd0629d0	-0.03275472
37	0xbce5cce9	-0.02805181
38	0xbcc9472b	-0.024570068
39	0x3d68cd92	0.056836672
40	0xbce42c84	-0.027853258
41	0x3bc11cfe	0.0058933487
42	0xbd37abb4	-0.044841483
43	0x3c014090	0.007888928
44	0xbb95cfef	-0.0045719068
45	0xbe027019	-0.12738074
46	0x3cdc5fc7	0.026901139
47	0xbd27765b	-0.040884357
48	0xbc079b73	-0.008276808
49	0xbc116331	-0.008873747
50	0x3d178ce0	0.036999583
51	0xba9b9899	-0.0011871039
52	0xbb1513dc	-0.0022747433
53	0xbc845119	-0.016151952
54	0xbb26b2a1	-0.002543606
55	0xbb84a35c	-0.0040477943
56	0x3c989f7a	0.018630732
57	0xbd2965f9	-0.041357014
58	0xbae69143	-0.0017590899
59	0xbd7ffb67	-0.062495615
60	0xbc91c28f	-0.017792968
61	0xbb4379f7	-0.0029827335
62	0x3d8714d3	0.06595769
63	0x3ce80216	0.028321307
64	0xbd956d81	-0.07296277
65	0x3c4cdecd	0.012504292
66	0xbc53277f	-0.012887835
67	0x3d122c4e	0.035686783
68	0xbd53f974	-0.05175157
69	0xbc026385	-0.007958298
70	0xbb96a762	-0.0045975903
71	0xbd8551d9	-0.06509752
72	0x3dc6b2ac	0.09702048
73	0x3bb6a3c0	0.0055737197
74	0xbb88d3d6	-0.0041756434
75	0xbd91f729	-0.0712722
76	0xbc94f36d	-0.01818248
77	0x3be5c837	0.007012393
78	0xbd1140d4	-0.035462216
79	0x3d4af9c2	0.049554594
80	0xbc309cef	-0.010779603
81	0x3d97cb31	0.074118026
82	0xbbf4d53d	-0.007471709
83	0xbda8a8c3	-0.08235314
84	0xbd6d6f4e	-0.057967477
85	0xbc10a6ac	-0.0088288
86	0x3b2c6481	0.0026305022
87	0xbd788da4	-0.060681954
88	0x3d851e4b	0.064999186
89	0x3d5f13b7	0.05446216
90	0x3d447ff3	0.047973584
91	0xbd1163b5	-0.03549548
92	0xbb8cfa7e	-0.004302322
93	0x3d88c562	0.06678273
94	0x3c8a89e8	0.016911462
95	0x3d8889ce	0.06666909
96	0xbcb07ba8	-0.021543339
97	0xbd3cfc95	-0.04613932
98	0x3b3bfbc4	0.0028684
99	0x3b799064	0.0038080448

mean.4.weight f4 [2, 100]
0	0x3d8b0187	0.06787401
1	0xbdea5dba	-0.11443658
2	0xbe4a7eae	-0.19774887
3	0xbe105a5b	-0.14096968
4	0xbe2b45f1	-0.167259
5	0x3d9ae195	0.075625576
6	0x3e796e1b	0.24358408
7	0xbe49b04e	-0.19696161
8	0x3e1de0db	0.15417807
9	0xbd0cfce4	-0.034420863
10	0x3e525c59	0.2054304
11	0x3db24eb7	0.0870642
12	0x3d2b8027	0.041870262
13	0xbd8ca639	-0.06867642
14	0xbd0c0342	-0.034182794
15	0x3e974bec	0.2955011
16	0x3dfdf2af	0.12399804
17	0xbe055b80	-0.13023186
18	0x3c322c00	0.010874748
19	0xbe45b3ae	-0.19306824
20	0xbe46c2eb	-0.19410293
21	0x3d3468cd	0.04404526
22	0x3e35d481	0.17756845
23	0x3e685f81	0.22692682
24	0x3e344a3d	0.17606445
25	0xba501d1a	-0.0007938907
26	0x3c109245	0.008823936
27	0xbe046684	-0.12929732
28	0xbe6495a4	-0.22322708
29	0x3cac1598	0.02100639
30	0xbe50e234	-0.2039879
31	0x3e678c88	0.22612202
32	0x3e23f155	0.1601003
33	0xbc0083bd	-0.007843909
34	0x3c65216b	0.013985018
35	0x3d88e329	0.06683952
36	0xbf192331	-0.5981932
37	0x3e0d0c35	0.13774188
38	0xbc66b097	-0.014080188
39	0x3e379432	0.17927626
40	0xbdf66a13	-0.12031951
41	0x3e65c092	0.22436741
42	0xbecbafac	-0.39782465
43	0xbc02063a	-0.007936055
44	0x3caa73a8	0.020807102
45	0xbf20daae	-0.6283368
46	0x3c920984	0.017826803
47	0x3d609718	0.054831594
48	0xbe09ebcc	-0.13468856
49	0xbe09e843	-0.13467507
50	0x3e265211	0.16242243
51	0x3d2ece8c	0.042677447
52	0xbdd46897	-0.103715114
53	0x3d168b9e	0.036754243
54	0xbcd844b7	-0.026399953
55	0x3c9fb9f9	0.019497858
56	0x3c4c69c5	0.012476389
57	0xbde3b1c7	-0.11117893
58	0x3e232efb	0.1593589
59	0xbe5fc3ad	-0.21851988
60	0x3ddc7957	0.10765331
61	0x3e2b9503	0.16756062
62	0x3e9f8c3d	0.3116168
63	0xbb9a3001	-0.0047054295
64	0xbd3b0125	-0.04565539
65	0x3cdccea3	0.026954
66	0xbdfc813e	-0.123293385
67	0x3e7bbd7a	0.24583998
68	0xbe80ddce	-0.25169224
69	0xbe0a44b7	-0.13502775
70	0xbe1b2cae	-0.15153763
71	0xbdf714ce	-0.12064515
72	0x3e29b895	0.16574319
73	0xbe73407e	-0.2375507
74	0xbd833a0b	-0.06407555
75	0xbf018444	-0.50592446
76	0xbccccb16	-0.024999183
77	0xbc9b677b	-0.018970242
78	0xbc56a5af	-0.0131010255
79	0xbd33345b	-0.043751102
80	0xbe134c53	-0.14384584
81	0x3e65a44a	0.22425953
82	0xbe1ce325	-0.15321024
83	0x3b1b0785	0.0023655605
84	0xbd9a3460	-0.07529521
85	0xbd0bcead	-0.03413265
86	0x3e3a0553	0.18166094
87	0xbedeaa9e	-0.43489546
88	0x3e0bc2c9	0.13648523
89	0x3e9b6a0e	0.3035435
90	0x3e462260	0.1934905
91	0xbe122817	-0.14273106
92	0x3dbd38bb	0.09239336
93	0x3e8361f6	0.25660676
94	0x3dabe2ab	0.08392843
95	0x3e97d7e9	0.29656914
96	0x3d5e8e26	0.054334782
97	0x3e70a9d7	0.23502289
98	0xbc2bc83c	-0.010484751
99	0x3d4e9cea	0.050442614
100	0xbdc3091d	-0.095232226
101	0xbdeb42b3	-0.11487331
102	0xbd688d6d	-0.0567755
103	0xbdf2f599	-0.1186325
104	0xbe78c19c	-0.24292606
105	0xbe5f5845	-0.21811016
106	0xbe383b15	-0.17991288
107	0x3dc55ce4	0.09636858
108	0xbda37d10	-0.07982838
109	0x3e163ac1	0.1467085
110	0xbe1c19af	-0.15244173
111	0x3e497ca1	0.19676448
112	0xbe216910	-0.15762734
113	0x3dc5da4f	0.0966078
114	0x3dd53a17	0.104114704
115	0x3d19a1b9	0.037507746
116	0xbe1a0358	-0.15040338
117	0x3ec23a51	0.37935117
118	0xbe0cc339	-0.13746347
119	0x3e15d95f	0.14633702
120	0xbe5fb84e	-0.2184765
121	0xbd0c2b4a	-0.03422097
122	0x3d8113c4	0.06302598
123	0xbc1ca799	-0.009561443
124	0xbdb233e0	-0.087013006
125	0x3dcde66e	0.100537166
126	0x3eba3ecd	0.36376038
127	0xbd794fea	-0.060867228
128	0xbda86670	-0.082226634
129	0x3e3786b0	0.17922473
130	0x3e7ae602	0.24501804
131	0x3e40c1a9	0.18823875
132	0x3e7aa2d5	0.24476178
133	0xbeabb3c3	-0.33535585
134	0x3e41ecaf	0.18937944
135	0x3d118964	0.035531417
136	0x3ebe100c	0.37121618
137	0x3def9b2f	0.11699521
138	0xbdac8b1c	-0.084249705
139	0xbe50ccce	-0.20390627
140	0x3e24e0f8	0.16101444
141	0xbe077059	-0.13226451
142	0x3ea5d544	0.3238927
143	0x3e44c742	0.19216636
144	0x3d4b25e2	0.049596675
145	0x3efc52a5	0.49281803
146	0xbe69b43e	-0.22822663
147	0x3c803da1	0.015654387
148	0xbd37044c	-0.044681832
149	0x3bf17c09	0.0073695225
150	0xbe25c5c4	-0.16188723
151	0xbc1b28e5	-0.009470199
152	0x3d0a67e9	0.033790503
153	0xbdca8f85	-0.098906554
154	0xbe1c6e47	-0.15276442
155	0xbb97188d	-0.004611081
156	0x3dd95878	0.10612577
157	0x3d33ece0	0.043927073
158	0x3d99b14b	0.07504519
159	0x3e41c1b8	0.18921554
160	0xbe74c378	-0.2390269
161	0xbe93ebbc	-0.2889079
162	0xbdc78e23	-0.09743907
163	0x3e6ee6d6	0.23330244
164	0x3ec400f3	0.38281974
165	0xbe36661e	-0.17812392
166	0x3d2ddeef	0.042448934
167	0xbdbe5514	-0.09293571
168	0x3eac9350	0.3370614
169	0xbe3e1908	-0.18564236
170	0xbe067c36	-0.1313332
171	0x3eb5d3e9	0.35513237
172	0xbe5e49ea	-0.21707883
173	0x3e6fb097	0.23407207
174	0xbdbd49bb	-0.092425786
175	0x3e86d401	0.2633362
176	0xbcc46347	-0.02397312
177	0xbe32325f	-0.17402028
178	0xbe111586	-0.14168367
179	0x3e7ed004	0.24884039
180	0xbe19d916	-0.15024218
181	0xbd1b88eb	-0.037972372
182	0x3d9ec959	0.07753248
183	0x3e510c7d	0.2041492
184	0x3e842cf4	0.25815547
185	0x3e04af59	0.12957515
186	0xbcefc108	-0.02926685
187	0x3ef48b62	0.4776259
188	0xbeb36f43	-0.35045823
189	0xbeacff3f	-0.33788487
190	0xbcca1225	-0.024666855
191	0x3e017dad	0.12645598
192	0x3e83cc97	0.25742027
193	0xbccc28c6	-0.024921786
194	0xbe5c6322	-0.21522191
195	0xbe6e16db	-0.23250906
196	0xbdd3870c	-0.103284925
197	0x3e306d17	0.17229114
198	0xbd9cfe74	-0.076657206
199	0xb993188e	-0.0002805632

mean.4.bias f4 [2]
0	0x3e2d62f7	0.16932283
1	0xbe2d62d6	-0.16932234
