save/test.pt (torch, 64231 bytes, 7 tensors)

sigma f4 [2]
00000000: 997c 30bc c017 933c
-0.010771894 0.01795566

mean.0.weight f4 [100, 50]
00000000: 501b 9abd 1f22 213d 496c 0cbd 3c65 063e
00000010: a584 263e 1bc1 c83d cb70 3c3d 6b3a 6a3d
00000020: d09d 503c 5613 083d a3eb 8b3b 4e8d 0b3e
00000030: ce91 d13d 7fe7 e3bc fe44 a23d f093 473c
00000040: c250 a43d b369 283e 02d1 03be 7824 f13c
00000050: 78b4 18bd 1695 47be 58fa 44be e792 d4bc
00000060: c9fa 023e 6b6d 0dbe 3357 4f3d 7388 d43d
00000070: e831 18be fdd3 ae3d a892 553d 106b 25be
00000080: 0043 503b 86ac 2cbe 0d34 333e 75c5 cb3d
00000090: 68f8 a83d 04a1 253e f47e 163e b699 583e
000000a0: 3f26 953d 3b7c 0bbe f9bb 363e 3870 853d
000000b0: e230 a1bd bc00 78bd 16ca 4f3e 9adf 813d
000000c0: 1e4b 2a3e 64d5 083d 72d2 403e 700d 0cbe
000000d0: be9f 473d e715 5e3d 806e 4f39 1c67 3c3e
000000e0: 0fd5 393d 1e68 563c fbe9 1d3e b6fd 05bc
000000f0: 56f2 1d3c a0e0 19be e2f6 8a3a cfbc b7bd
00000100: 166b eb3d 7144 303e 0aab 3ebe 0b5d e6bd
00000110: 77c5 4c3e c1eb 9fbd d2bb 3f3e 7ec6 523e
00000120: 7037 42bd 8e31 1abe dc98 c03d fbda bf3d
00000130: c547 313e 3f9f f53c 72a5 f03d 227f 20be
00000140: da0d 0d3d e497 783d f9a1 073e c54a b4bd
00000150: 21f9 86bc d460 d6bd 36a3 07be 91eb ab3d
00000160: b7d1 1a3d ab83 af3d 34c6 c03b c812 833a
00000170: 80c2 6239 a63d ed3d 9662 13be 3d3d 583d
00000180: 00a1 d73d 1b93 ef3d cc09 c2bd b4d5 263e
00000190: 8085 0ebe 4c87 c73d cedc 283e 52a0 7b3b
000001a0: 5545 773d 61f6 47be b940 a7bd 9bf6 a1bd
000001b0: 7990 49be 3533 4cbd 51bf 053e 03a2 e0bc
000001c0: 5aaf 3c3e c477 3ebe 2f17 913d 017f 2b3e
000001d0: de98 473e c057 9bbd dc57 3abe 731e 9dbd
000001e0: 3495 163e 148d 853c db81 433e f868 16be
000001f0: f05e fdbd 19da ce3d 023f 883d a4de 06be
00000200: e602 393e 4839 abbd abc0 2ebe bb5d 2c3d
00000210: 1db9 efbd 0e69 d6bd 0c2d ecbd 6988 383d
00000220: 9ea0 b53d b8dc fd3d 7da3 e8bd 841e 65bd
00000230: d6f5 403e 66e0 d9bd 5d59 96bd 4134 39bd
00000240: 9572 36be b66e 1fbe cbb8 343e 5990 f93c
00000250: 7457 143d d264 923d 32f2 b73d 76bc df3d
00000260: c7bb e53d 20c9 5f3d 5e81 023e 00c3 e83d
00000270: 860a 59bd f451 233b 0275 06be dd9c 2fbe
00000280: 4d0a 1e3e ba51 38be 3ca3 14be 6e18 56be
00000290: 38ea 24be 54ef 253d 4a96 c73d f15f 2fbe
000002a0: efad 8c3c 07b5 1fbe 2d66 093d 8b41 e03d
000002b0: ea45 adbd 60f8 c9bd cbb8 d73d 59b3 1cbe
000002c0: 90ef 5dbd 4a87 44be 38d8 083e e7ae 413d
000002d0: d798 98bd d532 0b3e cfe5 433e 5017 943d
000002e0: d2e1 17be b44c 79bd 7a66 1f3e b85c 043e
000002f0: 7462 96bd c137 ea3d 5a80 01be 889b 1b3d
00000300: b0bc 313e 9562 983c 5c79 21be d0c9 2b3d
00000310: 4d53 e63d 0478 f33d 4ee3 09be 2a91 73bd
00000320: b635 dabc 9c43 47bd 03dd 82bd f90e a9bd
00000330: 3f07 543d a0dc ad3d b94e 39bd 4ed4 1f3e
00000340: 6207 1dbc 40c1 5b3d c0b5 633d 44e6 75bd
00000350: 76d6 07bc 2abb b5bc b849 a23d 450f e1bd
00000360: 57dc bdbd f6cb 45be 6534 bdbd 4875 483d
00000370: 2b29 223e a217 54be aacf a4bd 129a ef3d
00000380: 20f0 e8bd fe22 f03d 9480 1b3c a3dc 45be
00000390: 2f6c 0b3d abe1 fbbd 2f7d 063d fc24 3ebe
000003a0: 2864 373e 71de bdbd cfe1 003e 9c5e 00be
000003b0: d68f 29be 6bda ac3d 463e 043e 1984 12bb
000003c0: 966f 2bbe a49e 6abd c474 0bbe 21f7 3c3d
000003d0: 0c91 0d3d 23e2 033e 5aa2 523e b147 c6bd
000003e0: 50d7 2f3e 5617 0e3e 2b0c e93c 5d21 46be
000003f0: 5901 0dbe 9ab6 ad3d 71a6 1f3e 82fd d73d
-0.07524741 0.03933918 -0.034282956 0.13124555 0.16261537 0.09802457 0.046006005 0.057184618
0.012732938 0.033221565 0.0042700334 0.13628122 0.10232888 -0.027820347 0.079233155 0.012181267
0.08023216 0.16446571 -0.12872699 0.029436335 -0.037281483 -0.19490466 -0.19236124 -0.025948955
0.1279098 -0.13811271 0.05062027 0.10377588 -0.14862788 0.08536527 0.052141815 -0.16154122
0.0031778216 -0.16862687 0.17500325 0.09949771 0.08250505 0.16174704 0.14696866 0.21152386
0.072826855 -0.13621609 0.17845143 0.06515545 -0.07870652 -0.060547575 0.20291933 0.06341477
0.16630217 0.03340663 0.18830279 -0.13677001 0.048736326 0.054220106 0.00019782223 0.18398708
0.045369204 0.013086347 0.15421288 -0.008178165 0.009640297 -0.15027094 0.0010602141 -0.08971559
0.114950344 0.17213608 -0.18619934 -0.11248215 0.19997202 -0.07808638 0.18723992 0.20583531
-0.04741615 -0.15057966 0.094041556 0.09367939 0.17312534 0.029983161 0.11750306 -0.15673497
0.034437038 0.06069173 0.13245381 -0.08803324 -0.016476216 -0.10467687 -0.13245854 0.0839454
0.037797656 0.085700355 0.0058830027 0.0010000104 0.00021625496 0.11584024 -0.14393076 0.052792776
0.10528755 0.1169798 -0.09474525 0.16292459 -0.13918114 0.09742603 0.1649048 0.003839512
0.060368855 -0.1952758 -0.08166642 -0.079083644 -0.19684018 -0.049853522 0.13061263 -0.027421003
0.18426266 -0.18600374 0.070845 0.16747667 0.19491908 -0.07585096 -0.18197578 -0.07671823
0.14705354 0.016302623 0.19092505 -0.1468848 -0.123716235 0.101001926 0.06652643 -0.13170868
0.18067512 -0.08360535 -0.17065684 0.042081576 -0.117052294 -0.10469256 -0.115320295 0.045051966
0.08868526 0.123956144 -0.11359308 -0.055937305 0.18843779 -0.10638504 -0.073412634 -0.04521585
-0.17817147 -0.15569577 0.17648618 0.030464338 0.036216214 0.07148136 0.08981742 0.10924618
0.11217456 0.054635167 0.12744662 0.11365318 -0.05298855 0.0024920674 -0.13130572 -0.17149682
0.15433617 -0.17999926 -0.14515394 -0.20907757 -0.16104972 0.040511444 0.09745462 -0.17126442
0.017172782 -0.155964 0.033544708 0.10950001 -0.08460601 -0.09861827 0.10533293 -0.1530279
-0.054183543 -0.19192234 0.13363731 0.04728594 -0.07451027 0.1359361 0.19130634 0.07231009
-0.14832237 -0.060864165 0.15566435 0.12925994 -0.07342997 0.114364155 -0.12646618 0.037990123
0.17357135 0.018601695 -0.15768951 0.04194051 0.11246357 0.118881255 -0.13465616 -0.05946461
-0.02663694 -0.04864846 -0.06389811 -0.08254809 0.051764723 0.084893465 -0.04524109 0.15608332
-0.00958428 0.053651094 0.055593252 -0.06003405 -0.008290878 -0.022183973 0.07924217 -0.109892406
-0.09270542 -0.19316086 -0.09238509 0.048939973 0.15836017 -0.2071214 -0.08047421 0.116993085
-0.11373925 0.11725424 0.009491105 -0.19322447 0.03403872 -0.12298902 0.032834228 -0.18568796
0.179093 -0.09270943 0.12586139 -0.1253609 -0.16558775 0.084400974 0.1291438 -0.0022356568
-0.16741785 -0.057280198 -0.13618761 0.046134118 0.034562156 0.12879233 0.20569745 -0.09681643
0.17171979 0.1387609 0.028448185 -0.19348665 -0.13770045 0.08482094 0.15590836 0.105464

mean.0.bias f4 [100]
00000000: ef8d 483b dec2 b33c 13ad 4cbc 69da 3cbd
00000010: 70b4 b4bb 8438 b4bc 07f1 d1ba ea35 183d
00000020: add5 35bd 5442 4a3c cc35 b23c f3de a3bb
00000030: b082 4ebd 250b 8f3c 0a18 883c 4053 a1bd
00000040: c77a 7ebb f40f a93c 0000 0000 5dd7 09bd
00000050: 59f3 763c b62f 8d3c 7604 1bbc e3e7 f4bc
00000060: e983 2bbd 45e7 b03c 92c6 7fbd 0e40 22bc
00000070: c97d 39bc 8617 b1bc 3ba7 433c 8914 33bd
00000080: 06e7 bebc 80a5 c3bc 2af1 cfbb bd8d 43bc
00000090: 4a4d 153d 552b b23c 0696 a83b 36b0 b7bc
000000a0: 551c 9cba fee5 fd3c ae96 66bc 27e1 cb3c
000000b0: 3d86 13bd 2f81 be3c d7f9 a9bc 7bfd 573c
000000c0: a670 f9bc 0000 0000 90ed 853d 5d04 25bc
000000d0: fae9 96ba ade4 873b 3a7a 463c ded3 b0bc
000000e0: 2ff6 e03a dbe3 933d ac5d a9ba 7df6 f03b
000000f0: 8215 e1ba 1c1c 493d ff03 aa3d b7fd fc3b
00000100: 98ed ec3c 7e47 163d d8a7 143c a137 713c
00000110: 552b dbbb a074 9d3c ab82 61bc ff51 063d
00000120: 0606 763c 81a9 b2bc ea73 06bb 3db5 56bc
00000130: f6bd 823b bae7 ab3c 1616 1dbd 6bf0 ca3c
00000140: ee47 133d dfbf 97bc 2cef 2b3d d136 2eba
00000150: c1bd 15bc 6ac8 293d 8ac4 733d 875a 413d
00000160: f087 793c 5fad bbbd 3256 d6bc 7b80 23bb
00000170: 279a 863c b3a6 f43b 408b 0d3c f4d8 003d
00000180: 98b2 203c 7a87 1f3b 0b94 c43d 843f 733c
0.0030602177 0.021943506 -0.012492436 -0.04610673 -0.005514674 -0.021999605 -0.0016017266 0.03716079
-0.04439323 0.012344915 0.021754168 -0.005000943 -0.050417602 0.017461369 0.016613025 -0.07877207
-0.0038830505 0.02063749 0.0 -0.033652652 0.015072667 0.017234664 -0.009461513 -0.029895728
-0.041873846 0.021594653 -0.06244523 -0.009902967 -0.011321493 -0.021617662 0.011941726 -0.043720756
-0.02330352 -0.023882627 -0.0063458877 -0.0119356485 0.03645066 0.021749178 0.0051448373 -0.022422891
-0.0011910299 0.030993458 -0.014074011 0.024887634 -0.03601669 0.023254959 -0.020749016 0.013182993
-0.030449223 0.0 0.06539452 -0.010071841 -0.0011513822 0.0041471333 0.012114102 -0.021585401
0.0017163212 0.07221194 -0.0012921593 0.0073536024 -0.0017172548 0.049099073 0.083015434 0.007720675
0.028921887 0.036689274 0.00907322 0.014722736 -0.006688515 0.01922065 -0.013764064 0.03279304
0.015016085 -0.021809341 -0.0020515868 -0.013104734 0.0039899303 0.02098452 -0.03835114 0.024772843
0.03595727 -0.018524108 0.04197614 -0.00066457415 -0.009139479 0.041450895 0.059513606 0.047205474
0.015230164 -0.09163927 -0.026164148 -0.0024948406 0.016430927 0.007466161 0.008639157 0.031456903
0.009808205 0.0024342225 0.095985495 0.014846686

mean.2.weight f4 [100, 100]
00000000: a069 fe3d 482a 56bd 127e 0fbe 2d11 12be
00000010: 6310 b2bd 9ce4 bbbc 802e 42bc aff9 19be
00000020: 5348 223e a62d cf3b 7222 243e fee9 73bd
00000030: 918e 053e f818 5e3d 54e3 1abe d3e9 dd3d
00000040: 1606 e63d fe07 01be 7ed5 113e 5f6d 2abd
00000050: 8f4f 92bd 26ce 70bd 8caa f7bd 626a 193e
00000060: 453e 63bd 70c0 ccbd bf6e 2b3e a160 31be
00000070: 2092 07be 0c95 713d 4094 1e3e 61fe aabd
00000080: d65a a9bd 1b35 b5bd 091c f33d 80bc 9cbb
00000090: b799 0ebe b0e4 9fbd 711d 11be c33d 883d
000000a0: c423 b4bd eeba 723c 3ae7 f53d 8949 fd3d
000000b0: 78c4 29be 4e4a ae3d c0fb 1c3e 52bb 0d3e
000000c0: bafe 683d 109e 09bc 7a11 ccbd e557 bdbd
000000d0: 2065 c5bd 7483 4cbd a2a7 c63d 7341 273e
000000e0: eb18 d23d 3e3f 45bd 21b8 8d3c 2060 7abd
000000f0: 082e 52bd 2eaa 05bd aaf8 0dbc a3cc 133c
00000100: 2607 a03d 97e2 5c3d aa79 f03d 7882 af3c
00000110: 56aa 0abe 3395 fd3b 0467 973d 5a5a 1fbe
00000120: bc19 153c 84bc cb3d 12b8 f4bd c9cb a63d
00000130: 5476 bbbd 8bbe 6f3d c659 8b3d 4e4c 9d3d
00000140: 05ba f2bd d939 a63d 0b87 ffbd 4ca6 b4bd
00000150: 7487 843d daf6 eebd 6693 cd3d ca23 c03d
00000160: 7366 283e 5377 debd 45b7 463d b90e 023e
00000170: b284 953d 0865 29bd c672 0c3e 58e2 e13d
00000180: f9fb 413d 800a 7bbd 90e7 d2bd cc54 213e
00000190: a8f7 57bb 2797 ebbc 455e 84ba 840f bfbd
000001a0: 2d89 a73d 0ddb 1d3d e84c 0c3d 41ef d0bc
000001b0: 0a7f 573d dfa1 183e 5257 c53d 2be6 203e
000001c0: e780 573d b134 b63d 2566 6dbd 5480 efbd
000001d0: b7b1 b73d 8836 be3c 80f0 c4bb 8969 b63c
000001e0: 2ea9 903d e535 45bb a42c 9f3d 2466 2a3e
000001f0: ade8 c0bc 49a2 46bd 408e a5bd 53a0 e93d
00000200: d9fb 39bd 903f 1a3d 5ba0 edbd bc5e 5a3d
00000210: ee7d 02be 1157 0b3d a2d4 c1bd 7e79 22be
00000220: 12e4 c63b bbc4 5b3d 414a f6bd 96e1 bdbd
00000230: 1811 f13d 4a30 a3bc 1188 e53d 7ac5 bebd
00000240: 7ef2 4dbd b291 bd3d 3368 23be 16e0 4d3d
00000250: f2cd d6bd e0fc adbd 7443 0f3d a24b ca3d
00000260: 34cf b9bd 50aa 843c 58a5 d4bc e74c fcbd
00000270: 5659 e4bc da42 8e3c 0081 a7bd 11e3 b0bd
00000280: ac04 123e 5b78 cbbd 4433 76bc d043 093e
00000290: 5988 8fbd 3228 09be 1e63 b4bd 0a76 0abe
000002a0: 77ed f93d 79e2 abbd 60f7 663d 7776 ba3d
000002b0: fa4c 2dbd e5d9 893d 33b2 143e ee33 bbbc
000002c0: 1a67 813d 1ff8 b2bd c6c6 043e 8b48 27be
000002d0: 1e9a 22bd 44d0 e53c 2213 09be c263 06be
000002e0: 58e7 ac3d 438f 16be 40bb 29bb de3f 293e
000002f0: c120 0cbe 7080 2d3e ec3b 0b3e cdf8 46bd
00000300: b7dd 6a3d 845b 3dbd 0aa8 d7bd 2050 e03d
00000310: 6867 d23c 153d 6a3d 36e6 223e e14f aabc
00000320: 6be0 89bc d726 20be f73e 1dbe 967e b0bd
00000330: bf81 e0bd 9d38 093e dd62 92bd cfe5 eebc
00000340: 906a f33d be96 a4bd 4026 023b 3c0d 18be
00000350: f9ae 003e ed76 2ebe 9b0e ce3d e534 a3bc
00000360: 72e3 96bd 1f17 23bd cf9d 08be c2e9 80bd
00000370: 587f f93d c004 0b3e 0043 ce3d bbc1 86bd
00000380: 8c4c 3abd b5c9 853d caa4 28be 5558 2abe
00000390: 81a6 28be 7307 263e 76b2 8f3d 6cd9 c4bd
000003a0: fe45 47bd 64d8 cd3c 9b86 5b3d 8808 d53c
000003b0: fb32 8d3d 1e7a bf3c 84e7 48bd 08d9 463d
000003c0: df40 d93d 8f34 debc 35f9 1b3d 19e4 32be
000003d0: b3fa 1cbe ab81 27be 5d43 633d ff62 d6bd
000003e0: 8f82 8b3d 4061 213c 5149 693d 75b8 18be
000003f0: d114 1a3e 3774 1bbe acd0 62bd bdc0 9cbc
0.1242249 -0.052286416 -0.14012936 -0.14264365 -0.08694532 -0.022936158 -0.011851907 -0.15036653
0.15847902 0.0063225804 0.16028765 -0.059549324 0.13042666 0.05422303 -0.15125781 0.10835614
0.112316296 -0.12600705 0.14241597 -0.04160821 -0.07144081 -0.05879035 -0.12093076 0.14981988
-0.055479307 -0.09997642 0.16741465 -0.17322017 -0.13239336 0.058980033 0.1548624 -0.083493
-0.08269279 -0.0884802 0.11870582 -0.004783213 -0.13925825 -0.078072906 -0.14171387 0.06652405
-0.08795884 0.014815075 0.120069936 0.12367541 -0.16578853 0.08510266 0.1533041 0.13840988
0.05688355 -0.008399501 -0.09964271 -0.0924528 -0.09638429 -0.04993005 0.09699942 0.1633356
0.10258659 -0.048156016 0.017299714 -0.06112683 -0.05131343 -0.032633 -0.008665243 0.009020957
0.078138635 0.05392703 0.117419556 0.021424517 -0.1354154 0.007738733 0.073926955 -0.1556181
0.009100374 0.09948066 -0.11949171 0.08144338 -0.09153429 0.058531325 0.06804232 0.076805696
-0.11851887 0.08116502 -0.12476929 -0.08820781 0.06471148 -0.11668177 0.1003788 0.09381826
0.16445331 -0.10862603 0.048514623 0.12700929 0.073007 -0.041356117 0.13715658 0.110295
0.04735944 -0.06128931 -0.10298073 0.15755004 -0.003295401 -0.028758598 -0.0010098895 -0.09329131
0.08180461 0.03853898 0.03425303 -0.02550471 0.05261139 0.14905499 0.09635796 0.15712802
0.052613165 0.08896769 -0.05795874 -0.116943985 0.08969443 0.023219362 -0.006010115 0.02226712
0.070635185 -0.0030091938 0.077721864 0.16640526 -0.023548448 -0.04849461 -0.08083773 0.114075325
-0.045406196 0.037658274 -0.11602851 0.053313002 -0.12743351 0.03401858 -0.094643846 -0.15866658
0.0060696686 0.053654414 -0.120258816 -0.09271543 0.117708385 -0.019920487 0.11207593 -0.093150094
-0.050280087 0.09256305 -0.15957718 0.050262533 -0.104885 -0.08495498 0.034976438 0.09877707
-0.09072724 0.016194493 -0.025957748 -0.123193555 -0.02787463 0.017365862 -0.08178902 -0.086370595
0.14259595 -0.09935065 -0.015026871 0.13404775 -0.07008428 -0.1339424 -0.088079676 -0.13521591
0.12203496 -0.083928056 0.05638826 0.091046266 -0.04230974 0.06731013 0.14521103 -0.02285191
0.06318493 -0.087387316 0.12966451 -0.16336267 -0.03969776 0.02805341 -0.13386205 -0.13123992
0.08442563 -0.14703088 -0.0025898963 0.1652827 -0.1368437 0.16943526 0.13597077 -0.04857712
0.05734035 -0.046229854 -0.10530098 0.10952783 0.025684074 0.05718716 0.15908131 -0.020790042
-0.016830644 -0.15639816 -0.1535605 -0.08617894 -0.10962247 0.13400503 -0.07147763 -0.029162316
0.118855596 -0.08036564 0.0019859225 -0.14848799 0.12566747 -0.17037554 0.100613795 -0.019922683
-0.073676005 -0.039816972 -0.13341449 -0.06294586 0.12182492 0.1357603 0.10071373 -0.0657992
-0.045483157 0.06532613 -0.16469112 -0.16635258 -0.16469766 0.16213779 0.070164606 -0.096117824
-0.048650734 0.025127597 0.053595167 0.026005045 0.068944894 0.02337366 -0.049048916 0.04854682
0.10608076 -0.027124671 0.03807946 -0.17469825 -0.15330009 -0.16358058 0.055484165 -0.10468101
0.068120115 0.009849846 0.056954686 -0.14914115 0.15047003 -0.15181051 -0.055374786 -0.019134874

mean.2.bias f4 [100]
00000000: ef8b a83b 90ca 283b 897f a4bc 06ba af3c
00000010: 08fb b03b 6d46 c2bb a5c3 52bd f26b 2a3c
00000020: 0163 013c 150d 76bc 80bf 2d3c 2442 3cbb
00000030: 2a58 c4bb ba2e 9c3b 6865 20bd 0cc5 e03b
00000040: b1b4 653c 9e5c c73b be0f 6e3c a1a2 8abc
00000050: 38b5 c5ba ec21 683d bd89 11bc 7353 d53c
00000060: ae0d 16b9 c76d 9e3c 3615 23bc db0a 883b
00000070: 5118 113c 84ce 96bc 451d 46bd d6e8 e839
00000080: 0d6f 893b 94e3 a7bc f381 ebbc 7106 70b9
00000090: 518d 993c de2b a93c 41b8 763c ddea 3a3c
000000a0: 969d a63d 4d4d b73d 72f7 58bd d147 923a
000000b0: 69bd cdba 0e48 84bc 38ff 82bc aae2 b2bd
000000c0: 8c73 6e3a 9ab6 debb bbf6 8dbc d185 a5bb
000000d0: bde0 0a3b c728 7f3a 0000 0000 1df6 14bc
000000e0: 868a 2cbd 9ebd 00bc 0000 0000 6d2b 0b3b
000000f0: 943e ea3b 685e d43b 1cb2 e73c cc96 833c
00000100: d2ae ffbb 0000 0000 9fe6 e53c 16ac 03bd
00000110: fab6 babc 8143 2a3b 2190 6939 aee2 b8bb
00000120: 3079 203d 900b 993b b0d4 82bb c556 a3bc
00000130: 6c0b a239 5317 83bc f523 a63c a72f 843c
00000140: c1b7 d5bb 1e08 e7bc bd65 4c3b e01c 0b3d
00000150: 76b2 d3ba 0000 0000 4b0d 3b3d e9c2 debb
00000160: f976 0ebc e251 1c3d b8c6 993b c827 90bb
00000170: 6228 0ebc 32dc 8dbb 654a 883d db0a a23c
00000180: e1c3 4d38 8c35 fdbb a15c 533c a9e1 893b
0.0051436345 0.0025755502 -0.020080345 0.021451008 0.005401019 -0.0059288056 -0.051456112 0.010401713
0.0078971395 -0.015017767 0.010604739 -0.0028725946 -0.0059919553 0.0047663124 -0.03915921 0.0068594273
0.014020131 0.006084039 0.01453012 -0.01692325 -0.0015083915 0.056672975 -0.008882937 0.026040768
-0.00014310211 0.019339455 -0.009953788 0.0041516847 0.008855895 -0.018409021 -0.048367757 0.00044423965
0.0041941465 -0.02049426 -0.028748488 -0.00022890583 0.018744143 0.0206508 0.015058578 0.011408535
0.08135526 0.08950291 -0.052970357 0.0011160319 -0.0015696707 -0.01614764 -0.015990838 -0.08734639
0.00090961973 -0.00679667 -0.017329564 -0.0050513525 0.0021191083 0.00097335543 0.0 -0.009091881
-0.042124294 -0.007857708 0.0 0.00212356 0.007148573 0.0064809807 0.028283171 0.016063116
-0.0078028226 0.0 0.02806407 -0.032146536 -0.022792328 0.0025980177 0.00022274304 -0.0056422567
0.039178073 0.004670568 -0.0039926395 -0.019938836 0.00030907558 -0.016002333 0.020280818 0.016136004
-0.0065221493 -0.028202113 0.003118857 0.033963084 -0.0016151208 0.0 0.045666974 -0.0067981374
-0.0086953575 0.038164027 0.0046928786 -0.0043992735 -0.00867662 -0.004329228 0.06654815 0.019780567
4.9058235e-05 -0.0077273306 0.012900502 0.004207809

mean.4.weight f4 [2, 100]
00000000: 60c3 1a3c ff61 35bd ff4f 26be 3499 a4bc
00000010: 68eb 2dbe f217 a2bd 0d75 933e 56b4 edbd
00000020: c390 993d 1f20 053d 0feb ca3d c40c 0d3e
00000030: 1602 86bb c0ec 3bbc a017 d2bd eadd 763e
00000040: 4137 563d e582 cc3d e03e 9fb9 9c28 38be
00000050: caf9 87be e6b9 193e fc13 3fbc fd33 443e
00000060: 62d9 263e 0827 bdbc 6e43 1f3e 78c7 7abc
00000070: ca8c 45be 4e3c 483d b7ee 4bbd b097 613e
00000080: 7b84 413e 3303 ebbd 52b5 0b3d 06a3 733d
00000090: 0939 4ebe 8874 c53d d140 063e 8025 1ebc
000000a0: 59d7 c7bd 5c1b 663e dc12 5bbe ca9a fd3d
000000b0: 442c ff3c ce5f 43be 4c8d ff3c 4bb7 ebbd
000000c0: 8684 0ebe 359e 29be 37eb 0c3e dd99 283d
000000d0: 6c81 b3bd 8b3e 113c 28db a2bc 92a4 0b3d
000000e0: 38a8 ca3b 7054 f4bd 5ab8 233e 3692 3ebd
000000f0: 107f ad3b 2577 bf3d 8db7 ce3d 00ab 023d
00000100: 6109 c63d 7094 993c 9710 8e3d 4a96 8b3e
00000110: 8eff 69be 7d0e 1fbe 04b7 3bbe 7c13 fe3c
00000120: 0159 423e 4bee 76be 336d c4bd 6eb5 27be
00000130: 0419 f4bc 02e1 16bc 007e a5bb 3a4d 6ebc
00000140: 5a42 14be fd03 7c3e c5f3 ebbd e4e8 ee3c
00000150: bc05 2abc 40bb 10bd 8c0d a03e ef52 03be
00000160: 2503 d8bd c204 303e bc84 313e e1f7 f7bd
00000170: 77b0 003e b867 cd3d 72fb 9d3d 4812 f63d
00000180: c5a0 e33c c78b 6d3e a8a9 923c 1983 5b3d
00000190: 9ebd 16bd a077 3dbe 1da4 bcbd ea41 75be
000001a0: 3d1c 76be 16b7 81bd edb6 65be 9286 7d3c
000001b0: c077 25ba 3c67 a33d 11cb 3cbd 9a97 153e
000001c0: d8b1 e4bd 7463 213d 45a8 303e cc44 bc3d
000001d0: 1d30 a1bd 5dd8 183e 0251 01be e64e 083e
000001e0: 4e87 16be 9baa 0fbe 3f28 813e e809 d33c
000001f0: 5951 97bd f28f fb3d 8c43 5e3e 050e 33be
00000200: 0d78 e6bd 53fa 1a3e a1ff b93d 7ab6 463e
00000210: 4a10 5d3e 6dee 69be 7351 2d3e 82ac 2f3d
00000220: 6899 d1bc 7f1f 223e 1bf1 6abe 5063 75bc
00000230: 9997 0d3e 33cb 07be f55e 0f3e 4266 773d
00000240: abc9 203d f76b 623d 0e65 77be 6e09 3e3e
00000250: 5fa1 24bd 6008 1d3d 615f 0cbe 5256 02bc
00000260: eb32 913c be70 91bd 7e1b 23be 2652 9dbc
00000270: 2f3b e63d 7233 553d 709e 983d c215 8d3c
00000280: 74f2 0bbe ecfd 5bbe 53eb e73d 706a 493e
00000290: 503d 763e e1fe 2dbe fad0 19be 1733 f5bd
000002a0: c0b5 a03e f44e 29be 5ce2 cbbd d85b 503e
000002b0: 8aea 76be 665e 733e fc2c 78bd 4366 a1bd
000002c0: 4715 9dbc e530 3cbe f053 19be bfe7 603e
000002d0: 14e3 18be 4005 75bd f7ed 213d 909b 353e
000002e0: 12e0 453e 7aea 053e 000e 24be 9714 2f3e
000002f0: 4033 debd 202f 53be f394 94bb 54a3 d63d
00000300: 6385 653e 828b 063e 6b6f 55be 28c0 65bd
00000310: 6127 9dbd 2d8b 333e b721 d7bd c8c5 60bb
0.009445995 -0.04428291 -0.16241454 -0.020092584 -0.16984332 -0.079147235 0.2880024 -0.11606662
0.07498314 0.032501336 0.09908115 0.13774401 -0.004089604 -0.01147002 -0.10258412 0.24108091
0.052298788 0.09985904 -0.0003037369 -0.17984241 -0.2655776 0.15012321 -0.0116624795 0.19160457
0.16293862 -0.0230899 0.15553066 -0.015306346 -0.19291988 0.048885636 -0.049788203 0.2203052
0.18898194 -0.114752196 0.034108467 0.059481643 -0.20138945 0.09641367 0.13110663 -0.009652495
-0.09757871 0.22471374 -0.21393913 0.12383039 0.031149037 -0.19079515 0.031195305 -0.1150957
-0.13917741 -0.16564257 0.13761602 0.04116236 -0.0876492 0.008865009 -0.019879892 0.034092493
0.006184604 -0.11930168 0.15988293 -0.046526156 0.005294688 0.09348897 0.10093603 0.03190136
0.09669758 0.018747538 0.06936758 0.272631 -0.22851393 -0.1553287 -0.18331534 0.03101515
0.18979265 -0.24114339 -0.095911406 -0.16377804 -0.029797085 -0.0092089195 -0.0050504208 -0.014544779
-0.14478436 0.24610896 -0.11521105 0.029163785 -0.010377344 -0.035334826 0.31260335 -0.12824605
-0.10547475 0.17189315 0.1733579 -0.12107826 0.12567316 0.100295484 0.07713975 0.120152056
0.027786622 0.23197852 0.017903164 0.05359182 -0.036801927 -0.18502665 -0.092109896 -0.23950925
-0.2403421 -0.06333749 -0.22433062 0.015473979 -0.00063120946 0.07978675 -0.046092097 0.14608613
-0.111667335 0.039401487 0.1725169 0.091928095 -0.07870505 0.14926286 -0.12628558 0.13311347
-0.14700052 -0.14029925 0.25226018 0.02576156 -0.07388563 0.12283315 0.21705455 -0.17485817
-0.112533666 0.15134554 0.090819605 0.19405547 0.21588245 -0.22844858 0.16925602 0.042889126
-0.025585845 0.15832327 -0.22943537 -0.014977291 0.13827361 -0.13261108 0.14001067 0.060400255
0.039254826 0.055278745 -0.24159643 0.18558285 -0.040192958 0.038338065 -0.13708259 -0.007955151
0.017724475 -0.07101582 -0.15928456 -0.01920421 0.11241757 0.052051015 0.074520946 0.017222289
-0.13666707 -0.21483582 0.113241814 0.19669509 0.24046826 -0.1699176 -0.15021124 -0.11972635
0.31388664 -0.16534024 -0.09955284 0.20347536 -0.24112907 0.23766479 -0.060589775 -0.07880833
-0.019175185 -0.18378027 -0.14973426 0.21963404 -0.14930373 -0.05981946 0.03953358 0.17735124
0.19323757 0.13077727 -0.16020966 0.17097698 -0.10849619 -0.20623446 -0.0045343577 0.10480371
0.22414164 0.13139156 -0.20843284 -0.056091458 -0.076735266 0.1753356 -0.105044775 -0.0034297574

mean.4.bias f4 [2]
00000000: 5cf0 783d 94f0 78bd
0.0607761 -0.06077631
