save/exp31/it31_model.pt (torch, 50615 bytes, 9 tensors)

sigma f4 [2]
0	0xbfea85bf	-1.8322066
1	0x3e1f6a84	0.15567976

mean.0.weight f4 [128, 10]
0	0xbded3f0f	-0.11584293
1	0x3c0dd81d	0.008657482
2	0xbd15edc1	-0.036603693
3	0x3d22ea4c	0.039774224
4	0xbbb6f93b	-0.00558391
5	0xbdd566b1	-0.104199775
6	0xbd940935	-0.072283186
7	0xbc8cda7f	-0.01719403
8	0xbe085178	-0.13312328
9	0x395b7fb8	0.00020933046
10	0xbdfc54a9	-0.12320835
11	0x3e52c763	0.20583872
12	0xbd191e2f	-0.0373823
13	0x3e115741	0.14193441
14	0xbe4212b8	-0.18952453
15	0xbe44a49e	-0.19203421
16	0x3ddece82	0.10879232
17	0xbe11ef29	-0.14251389
18	0x3cdd84c7	0.027040852
19	0xbe36fa5f	-0.17868946
20	0xbd8bf891	-0.0683452
21	0xbdb61038	-0.08889812
22	0x3e44c517	0.19215809
23	0x3e194bda	0.14970341
24	0x3d563c96	0.052303873
25	0x3e57baa3	0.2106729
26	0xbe73d09a	-0.23810044
27	0x3d47619c	0.048677072
28	0x3d7088a2	0.058724053
29	0x3e379f89	0.17931952
30	0xbe1d0a59	-0.15335979
31	0x3da0b3ee	0.07846819
32	0xbde51e4c	-0.11187419
33	0x3d149068	0.03627053
34	0xbe1817be	-0.14852807
35	0xbe7d93b8	-0.24763381
36	0xbe419d42	-0.18907645
37	0xbe159fa9	-0.14611687
38	0x3df3ac91	0.11898149
39	0x3dc4759d	0.095927455
40	0xbe87b33d	-0.26503935
41	0xbe08a67c	-0.13344759
42	0x3d15070f	0.036383685
43	0xbe276d1c	-0.16350216
44	0x3d6caf35	0.057784278
45	0x3ea71a14	0.32637084
46	0x3dea353d	0.11435936
47	0xbe3c3bbb	-0.1838216
48	0x3d981235	0.07425348
49	0x3e08f3cc	0.13374251
50	0x3e847b6d	0.25875416
51	0xbe14d663	-0.14534907
52	0xbe8a52dc	-0.27016342
53	0x3dde4798	0.10853499
54	0xbdb4009e	-0.0878918
55	0x3d969c12	0.07353987
56	0xbddd47c4	-0.10804704
57	0xbe56fc81	-0.2099476
58	0x3e7e0684	0.24807173
59	0x3d3cd8e8	0.046105295
60	0x3e2067bb	0.1566457
61	0x3e73c87c	0.23806947
62	0xbcfc4b98	-0.030797765
63	0x3dc4f41b	0.09616872
64	0x3de806dd	0.11329434
65	0x3e05860e	0.13039419
66	0xbe995186	-0.2994501
67	0xbd925630	-0.07145345
68	0x3aa6a1af	0.001271298
69	0x3df8dd3e	0.121515736
70	0x3c9eca03	0.019383436
71	0xbd9187c1	-0.07105971
72	0xbd41a5dc	-0.047277316
73	0x3d6c2d3a	0.05766032
74	0xbe1ce02a	-0.15319887
75	0xbe38c178	-0.18042552
76	0xbd7e0248	-0.062013894
77	0xbe1254ab	-0.14290111
78	0x3d748a5a	0.059702255
79	0x3dc97b6d	0.09837995
80	0xbcb02ddf	-0.021506248
81	0x3e4e668e	0.20156309
82	0xbdb0658b	-0.08613118
83	0xbdf07f96	-0.11743085
84	0xbdb95567	-0.09049492
85	0xbe16b8c4	-0.1471892
86	0xbe14709a	-0.14496079
87	0xbe3f766e	-0.18697521
88	0xbe37305c	-0.17889541
89	0x3d82a6c7	0.063794665
90	0x3da5e590	0.08100426
91	0x3e411740	0.18856525
92	0x3e19dd29	0.15025772
93	0xbc987561	-0.018610658
94	0x3dc94270	0.09827125
95	0xbda71248	-0.08157784
96	0x3e03d318	0.12873495
97	0xbe9e4168	-0.30909276
98	0x3e2d0212	0.16895321
99	0x3d435f3d	0.04769825
100	0x3a259d04	0.00063176476
101	0x3bcf68ca	0.0063296305
102	0xbd07665b	-0.0330566
103	0x3e683117	0.22674976
104	0x3d34fb1c	0.04418479
105	0x3e152c09	0.1456758
106	0x3dc021a7	0.09381419
107	0x3e20a371	0.15687348
108	0x3d676a29	0.056497727
109	0xbc522370	-0.012825832
110	0x3e137b7b	0.14402573
111	0xbc8ebc37	-0.017423732
112	0x3dea64d8	0.11445016
113	0x3e59f911	0.21286418
114	0x3e51b04b	0.20477407
115	0x3e95d4a4	0.29263794
116	0x3ded3fb0	0.11584413
117	0xbd32fbb7	-0.043697085
118	0x3b3ae710	0.0028519072
119	0x3b85a375	0.0040783235
120	0x3bd7d905	0.00658715
121	0xbc9922f1	-0.01869342
122	0x3e4306e2	0.19045594
123	0x3e212381	0.157362
124	0xbe146f03	-0.14495473
125	0xbc8d0119	-0.017212437
126	0xbd9b924c	-0.07596263
127	0xbdcab18e	-0.09897147
128	0x3d311797	0.043235388
129	0xbdaa19ea	-0.08305724
130	0xbdc049fd	-0.09389112
131	0xbd9a3118	-0.07528895
132	0xbe0cb0ea	-0.13739362
133	0x3e3aa52c	0.1822707
134	0x3d7120a3	0.058869015
135	0x3e949a55	0.29023996
136	0x3d4b9997	0.04970702
137	0x3d07a0e4	0.03311242
138	0x3e3c44ce	0.18385622
139	0x3d974611	0.07386411
140	0xbe089129	-0.13336624
141	0xbe2a29c4	-0.16617495
142	0xbe222343	-0.15833764
143	0xbd76ec79	-0.06028411
144	0x3e1dae9c	0.1539864
145	0x3e015f57	0.12634026
146	0x3e068e55	0.13140233
147	0x3d6ded44	0.058087602
148	0xbcee7953	-0.029110586
149	0xbe0a0518	-0.13478506
150	0xbe281ae8	-0.16416514
151	0xbdc17e74	-0.09447947
152	0x3dbf13ef	0.09329974
153	0x3e3c238a	0.18372932
154	0x3e5f8042	0.2182627
155	0xbd1d0792	-0.038337298
156	0xbcd06861	-0.025440397
157	0xbcc393fb	-0.023874274
158	0xbb5388a9	-0.00322775
159	0x3e0cea54	0.13761264
160	0xbd07e18d	-0.033174086
161	0x3b1dc733	0.002407503
162	0x3c46f4cf	0.012143328
163	0x3d87894a	0.06617983
164	0xbdbc3d04	-0.09191325
165	0xbdfffdde	-0.12499593
166	0x3d09b0b7	0.033615794
167	0xbd5465ca	-0.051854886
168	0xbdc1ce5c	-0.09463188
169	0x3d88892b	0.06666788
170	0xbd5b9900	-0.05361271
171	0xbc1b4d1f	-0.009478836
172	0xbe308a43	-0.17240243
173	0x3d8924c6	0.06696467
174	0xbddd397b	-0.10801979
175	0x3c4f7a30	0.012663409
176	0xbc916e4e	-0.017752793
177	0x3e3c7c7a	0.18406859
178	0x3dbb7f0f	0.09155094
179	0xbd04825c	-0.032350883
180	0xbca10384	-0.019654997
181	0x3e92809c	0.28613746
182	0xbe6487f7	-0.22317491
183	0x3d3d52e2	0.04622162
184	0xbd84e33c	-0.06488654
185	0xbe852148	-0.26001954
186	0x3e2771c5	0.16351993
187	0xbdec4e3e	-0.11538361
188	0xbd276736	-0.040869914
189	0xbe4add17	-0.19810902
190	0x3bdc2678	0.006718453
191	0x3e83dbec	0.25753725
192	0xbe8d9a05	-0.2765657
193	0x3e19dc8d	0.1502554
194	0xbea848f9	-0.32868174
195	0xbd157fe4	-0.03649892
196	0x3bdbe39c	0.0067104828
197	0x3e557eb4	0.20849115
198	0xbccc554b	-0.024943015
199	0x3e46f373	0.19428806
200	0x3dcd3278	0.10019392
201	0x3ef18f83	0.47179803
202	0x3d6a21ef	0.057161268
203	0x3e46bc19	0.19407691
204	0xbe723276	-0.23652062
205	0xbea50474	-0.3222996
206	0x3d316278	0.043306798
207	0xbe2af6ab	-0.16695659
208	0x3d0bba45	0.034113187
209	0x3d6692cd	0.056292344
210	0x3e9f8065	0.31152645
211	0x3c91adae	0.017783012
212	0xbd9870be	-0.07443379
213	0xbdda83ef	-0.106696956
214	0x3e33657a	0.17519179
215	0x3add5d4b	0.0016888765
216	0x3e355d8d	0.17711468
217	0xbd24a6ba	-0.040198065
218	0x3d72dd24	0.059292927
219	0xbe3d12f6	-0.18464264
220	0x3e229416	0.15876803
221	0x3e0eb2ea	0.13935438
222	0x3e3a058e	0.18166181
223	0xbd896315	-0.067083515
224	0xbd8bd5a5	-0.06827859
225	0x3e71d5ff	0.2361679
226	0x3aa4bcd0	0.0012568478
227	0xbe91b197	-0.28455803
228	0xbe2aca17	-0.16678654
229	0x3de4eea3	0.11178329
230	0x3e083b19	0.13303794
231	0x3e0031a9	0.12518944
232	0xbcf8c930	-0.030369371
233	0x3d83b13f	0.064302914
234	0xbeb88a54	-0.36043036
235	0xbd67f6f3	-0.056631994
236	0xbdd4a67a	-0.103833154
237	0xbe331258	-0.17487466
238	0x3e33bf11	0.17553355
239	0xbe6de500	-0.23231888
240	0x3db6f50a	0.08933456
241	0xbe5370a1	-0.20648433
242	0xbcc6bc62	-0.02425975
243	0xbd6b7352	-0.057483025
244	0x3d3a7448	0.04552105
245	0xbe074a6b	-0.13211982
246	0x3dc35063	0.09536817
247	0xbe5ac50b	-0.21364228
248	0x3e190b98	0.14945829
249	0xbe296d5a	-0.1654562
250	0x3e3cdd1d	0.18443723
251	0xbd2e289a	-0.04251919
252	0xbd243b66	-0.04009571
253	0xbdbc6279	-0.0919847
254	0x3e066eb1	0.13128163
255	0xba926669	-0.0011169437

mean.0.bias f4 [128]
0	0xbd0b5e2b	-0.034025352
1	0x3d99623d	0.074894406
2	0xbc8a8cc5	-0.016912827
3	0x3ccaa14a	0.024735112
4	0x3bf94fb1	0.007608377
5	0xbda30eac	-0.07961783
6	0xbe004b90	-0.12528825
7	0xbd8ca173	-0.068667315
8	0x3b746528	0.003729174
9	0xbb8e5a27	-0.004344243
10	0xba7ba3b4	-0.0009599284
11	0x3d432bcf	0.0476492
12	0x3db7aeab	0.08968862
13	0xbdbb2dd9	-0.09139604
14	0xbd864c9e	-0.06557582
15	0x3d2ed491	0.042683188
16	0xbd5e36ca	-0.05425147
17	0x3d63c73c	0.055609927
18	0x3d9eeff0	0.07760608
19	0x3d92e0c3	0.07171776
20	0x3de28804	0.11061099
21	0x3c572735	0.013131906
22	0x3bb08994	0.0053874943
23	0x3d7431fe	0.05961799
24	0xbc18e5ad	-0.009332103
25	0xbce9ba6b	-0.028531274
26	0x3d06dae0	0.03292358
27	0xbc412664	-0.011788938
28	0xbc3901e8	-0.011291958
29	0x3c9e0212	0.019288097
30	0x3d449923	0.047997605
31	0xbd2002c3	-0.039065134
32	0xbdb28e29	-0.08718521
33	0x3cf7571a	0.0301929
34	0x3dcaea8d	0.09908018
35	0x3de6a64d	0.11262188
36	0x3e003016	0.12518343
37	0x3db4d9b1	0.08830584
38	0x3d293a1a	0.041315176
39	0xbc411be8	-0.0117864385
40	0x3da6f346	0.081518695
41	0xbca54ad1	-0.020177277
42	0xbccd71e9	-0.02507873
43	0xb9250c4f	-0.00015740212
44	0xba388719	-0.0007039174
45	0xbd6c37ca	-0.057670392
46	0xbbad7291	-0.0052931984
47	0xbcde08cd	-0.027103806
48	0x3cb2f35b	0.021844557
49	0xbdc0252a	-0.093820885
50	0x3e1c7f63	0.15282969
51	0xbcd57351	-0.026055964
52	0xbd30f3cd	-0.043201257
53	0xbdae6dac	-0.08517012
54	0xbb9dca01	-0.0048153405
55	0xbd4aeb61	-0.04954088
56	0x3c97a2d8	0.018510267
57	0xbdd5ad88	-0.10433489
58	0x3cca35bf	0.024683831
59	0xbd37dd94	-0.044889048
60	0xbd23bf5e	-0.039977424
61	0x3e090b46	0.13383207
62	0xbd961ea0	-0.0733006
63	0xbd17790c	-0.036980674
64	0xbd23a895	-0.039955694
65	0xbd0ae58c	-0.03391032
66	0x3da4326e	0.08017431
67	0xbe1dec56	-0.15422186
68	0x3ddb254d	0.10700474
69	0xbb877b3c	-0.0041345637
70	0xbd25c558	-0.040471405
71	0x3d2cf0ff	0.04222202
72	0x3c85fbe9	0.016355472
73	0x3d0af043	0.033920538
74	0x3ca49b43	0.020093566
75	0xbd06043c	-0.032718882
76	0x3d3b712b	0.045762222
77	0x3d2e06c9	0.04248694
78	0x3d357be7	0.044307616
79	0x3d16b851	0.03679687
80	0x3da2e07b	0.079529725
81	0xbdb42a30	-0.08797109
82	0x3d46ba34	0.04851742
83	0xba9faae9	-0.0012181673
84	0xbd119e11	-0.035551134
85	0x3d291514	0.041279867
86	0x3d54e3ab	0.051974934
87	0x3b96b6b6	0.0045994176
88	0xbda10ab7	-0.07863372
89	0xbc70e3d8	-0.01470276
90	0xbdc82e65	-0.09774474
91	0x3d7dddc8	0.061979085
92	0xbc88ce0e	-0.016699817
93	0x3c9e79ab	0.019345125
94	0x3d5e4467	0.054264452
95	0x3c17fb61	0.009276242
96	0x3c05392f	0.008131309
97	0xbd356ccf	-0.04429322
98	0xbbbb6b7d	-0.0057196007
99	0xbda800dd	-0.0820329
100	0xbd885581	-0.066569336
101	0x3b5120d1	0.003191043
102	0x3b1475c8	0.002265321
103	0xbd4cf1f4	-0.050035432
104	0xbda43c62	-0.080193296
105	0x3d6779e2	0.05651272
106	0x3c25bde0	0.0101160705
107	0x3c7a58cd	0.015279961
108	0xbd81a03b	-0.0632939
109	0x3e03875b	0.12844603
110	0xbb12d14a	-0.0022402578
111	0xbd520cc4	-0.051281705
112	0xbd70afd1	-0.05876142
113	0xbce48036	-0.027893167
114	0x3cfe5f69	0.031051354
115	0x3d228186	0.039674304
116	0x3dcb5543	0.09928372
117	0xbda49572	-0.08036317
118	0x3bd5abe3	0.0065207346
119	0x3cf9ac3f	0.030477641
120	0x3ca0c9ee	0.019627538
121	0xbd97bbe9	-0.07408888
122	0xbc56d888	-0.0131131485
123	0xbc5da277	-0.013527504
124	0x3d3f6e39	0.046735976
125	0x3bc1b98f	0.005912013
126	0x3d280b30	0.041026294
127	0x3d5d1ac2	0.053980596

mean.2.weight f4 [64, 128]
0	0x3d04a7f9	0.032386754
1	0x3da09bc0	0.07842207
2	0x3cc5b6ef	0.024135081
3	0xbdcea648	-0.100903094
4	0xbce35b05	-0.027753362
5	0xbdd8931e	-0.105749354
6	0x3da96045	0.08270315
7	0x3e0270ac	0.12738293
8	0xbd860ca5	-0.065453805
9	0xbe3b0ce0	-0.1826663
10	0x3c353b45	0.011061494
11	0x3da6ed01	0.08150674
12	0xbdf96c20	-0.12178826
13	0x3d94109d	0.07229731
14	0x3e079018	0.13238561
15	0xbe183426	-0.14863643
16	0x3dbb84bd	0.09156177
17	0x3da7ccd9	0.081933685
18	0xbdc485c9	-0.0959583
19	0x3e16ba75	0.14719565
20	0xbd981016	-0.07424943
21	0x3e164b62	0.14677194
22	0xbe1ff4ba	-0.156207
23	0x3e203296	0.15644297
24	0xbd16a021	-0.036773805
25	0xbe16a09c	-0.14709705
26	0x3dcd37b9	0.10020394
27	0x3ba76964	0.005108999
28	0x3b9f33c5	0.0048584663
29	0x3d98fb44	0.074698
30	0xbc082d06	-0.008311516
31	0x3d85481d	0.06507895
32	0xbe1235f6	-0.14278397
33	0xbe2e8674	-0.17043477
34	0xbdcd4426	-0.10022764
35	0xbdb47124	-0.08810642
36	0xbe290b6a	-0.1650826
37	0x3c53d95f	0.012930243
38	0xbc689e44	-0.01419789
39	0xbd29fd95	-0.0415016
40	0x3b9be7ce	0.004757858
41	0x3d7c8a49	0.061655317
42	0xbd751c65	-0.059841532
43	0x3c8c5068	0.017128184
44	0x3b313616	0.0027040294
45	0x3d1fd188	0.039018184
46	0xbc827420	-0.015924513
47	0x3d7cc924	0.06171526
48	0xbd878195	-0.06616513
49	0x3e113140	0.14178944
50	0xbc28d602	-0.01030493
51	0x3d705289	0.05867246
52	0x3dee0455	0.1162192
53	0xbe41c394	-0.18922263
54	0x3d90250b	0.070383154
55	0x3e04f8e8	0.12985575
56	0x3dd96b09	0.106161185
57	0x3de75a47	0.11296516
58	0xbe1200cb	-0.14258115
59	0x3e1be56e	0.15224239
60	0x3d5bf7b4	0.053703025
61	0xbe2bbcbb	-0.16771214
62	0x3e21a880	0.15786934
63	0x3e16f250	0.14740872
64	0xbc845922	-0.016155783
65	0x3e2eb61a	0.17061654
66	0x3d02ab12	0.031901427
67	0x3e034056	0.12817511
68	0xbe22f027	-0.15911923
69	0xbe2a879e	-0.16653296
70	0x3d20f478	0.039295644
71	0xbcb2c54b	-0.021822592
72	0xbe3f386d	-0.18673868
73	0xbdb0fcc9	-0.08641965
74	0x3de1ae3e	0.11019562
75	0x3e09ffca	0.13476482
76	0xbe05acdb	-0.1305422
77	0xbdbe2a64	-0.09285429
78	0xba4bb85c	-0.0007771307
79	0x3b5e55bd	0.0033925616
80	0xbe028364	-0.12745434
81	0x3e030b3e	0.12797257
82	0xbdfe1acc	-0.12407455
83	0x3e04525d	0.12922044
84	0xbde0f1d0	-0.10983622
85	0xbe336d47	-0.17522155
86	0x3d173bf9	0.03692243
87	0xbd996b2c	-0.074911445
88	0x3dc0662e	0.09394489
89	0xbd721525	-0.059102196
90	0x3c85bf5d	0.0163266
91	0x3e0d7684	0.13814741
92	0xbe0fa158	-0.14026392
93	0xbdab4a9b	-0.08363839
94	0x3de4c685	0.11170677
95	0x3e1b52e1	0.15168335
96	0x3cedfd00	0.029051304
97	0x3e0c3bee	0.13694736
98	0x3e05f0d2	0.13080147
99	0x3dc4517a	0.09585853
100	0xbc963b92	-0.018338952
101	0x3e34dc7f	0.17662238
102	0xbd3a1cb8	-0.045437545
103	0x3c82e492	0.015978131
104	0xbd527988	-0.051385432
105	0xbc18a1f6	-0.009315958
106	0x3dd4e070	0.103943706
107	0x3ded7bef	0.11595904
108	0x3d5a5090	0.053299487
109	0x3de44b70	0.11147201
110	0x3e0f5d6a	0.14000478
111	0x3d709693	0.05873735
112	0xbd31be52	-0.043394394
113	0x3da4ab73	0.08040514
114	0x3df2b641	0.118511684
115	0x3e2b41d7	0.16724335
116	0x3d2ba87e	0.041908734
117	0x3df0c678	0.11756605
118	0xbdd84897	-0.105607204
119	0x3d1fd8c5	0.039025087
120	0xbe240286	-0.16016588
121	0x3dbfd354	0.093664795
122	0x3a080dd7	0.00051900506
123	0xbd488f04	-0.048964515
124	0x3e00a760	0.12563848
125	0xbce77549	-0.028254168
126	0x3db41835	0.087936796
127	0x3da8ee04	0.08248523
128	0xbdb37fdc	-0.087646216
129	0xbe1cbf1c	-0.15307277
130	0x3cfd0ac1	0.030888917
131	0xbddfe5ab	-0.109324776
132	0xbdc1847d	-0.09449098
133	0x3da238eb	0.079210125
134	0x3d531683	0.05153514
135	0xbd29ebba	-0.041484572
136	0xbd84dfe3	-0.064880155
137	0xbdf40d7a	-0.11916633
138	0xbd8703da	-0.065925315
139	0x3cdc1936	0.02686749
140	0xbdcd0059	-0.10009832
141	0xbe1f2cef	-0.15544485
142	0xbe2f038a	-0.17091194
143	0xbe2973ea	-0.16548124
144	0xbda7e5df	-0.08198141
145	0x3d4856c4	0.04891087
146	0xbd98ae15	-0.074550785
147	0x3de88b5d	0.113547064
148	0x3dcfd420	0.101478815
149	0xbe10ad68	-0.14128649
150	0x3d6877f7	0.056755032
151	0xbd957481	-0.07297612
152	0x3e13cbad	0.14433165
153	0x3e0c88c5	0.13724048
154	0x3da1998a	0.078906134
155	0xbdb0104d	-0.08596859
156	0x3cf2463b	0.029574504
157	0xbdddafaa	-0.10824521
158	0x3d214d2b	0.039380234
159	0x3e3613c4	0.17780977
160	0xbd051b5d	-0.0324968
161	0xbdc68538	-0.09693378
162	0xbd9d6b7e	-0.07686518
163	0xbdd46c22	-0.10372187
164	0x3db86321	0.09003282
165	0xbdce03bd	-0.10059307
166	0x3dfdcb4a	0.1239229
167	0x3dd49185	0.10379318
168	0x3ddf78b7	0.109116964
169	0xbbb40eeb	-0.0054949424
170	0xbd2195bd	-0.039449442
171	0x3d949dbb	0.07256647
172	0xbccfe117	-0.025375886
173	0x3da02106	0.07818799
174	0x3d65c473	0.05609555
175	0x3d808994	0.06276241
176	0xbd8cf3a0	-0.06882405
177	0x3dda53e9	0.10660536
178	0xbcd7436e	-0.02627727
179	0x3dc681dc	0.096927375
180	0xbc5ae329	-0.013359823
181	0xbe2ae211	-0.166878
182	0xbc416394	-0.011803526
183	0xbd54e319	-0.05197439
184	0xbdb5455c	-0.0885112
185	0xbb5d3f29	-0.003375957
186	0xbd87fffc	-0.06640622
187	0x3c6ea9d1	0.014566855
188	0xbd5312d0	-0.051531613
189	0xbde89cd0	-0.113580346
190	0x3d845e91	0.064633496
191	0xbe149e3d	-0.14513488
192	0xbe015886	-0.12631425
193	0xbce317e5	-0.027721355
194	0xbc8ed566	-0.01743574
195	0xbe26c14e	-0.16284677
196	0x3dc6265f	0.096752875
197	0x3c7afb7c	0.015318748
198	0x3d9d8c2b	0.076927505
199	0x3c0fc19f	0.00877419
200	0xbcd7de8d	-0.026351238
201	0xbd84c780	-0.06483364
202	0xbc7efbfc	-0.015563007
203	0xbe0e8567	-0.13918076
204	0x3da7d467	0.081948094
205	0x3d53e4a9	0.05173174
206	0x3e01a2bb	0.12659733
207	0xbe226598	-0.15859067
208	0xbc6831da	-0.014172042
209	0xbd8b42bb	-0.06799837
210	0x3b8495c1	0.0040461724
211	0x3cdadbc4	0.02671612
212	0xbcd5fe2c	-0.026122175
213	0xbc62a714	-0.01383378
214	0xbc9bdbc1	-0.019025685
215	0x3d2c2072	0.04202313
216	0xbdb421c5	-0.087955035
217	0xbca7d110	-0.020485431
218	0x3db16db7	0.086635046
219	0x3dfe1dfe	0.12408064
220	0x3ca40cfe	0.020025726
221	0xbc81a5a1	-0.015826048
222	0x3d12d99a	0.035852052
223	0x3da56c08	0.08077246
224	0x3d096d50	0.033551514
225	0xbdcf7c82	-0.1013117
226	0xbe1152a7	-0.14191686
227	0x3da7edd0	0.08199656
228	0xbd9a2dc0	-0.07528257
229	0x3d8883d9	0.06665773
230	0xbe1a380b	-0.15060441
231	0x3dc802a8	0.09766132
232	0x3db040c6	0.086061046
233	0xbd081cdd	-0.03323065
234	0xbe075eb0	-0.13219714
235	0xbc8740ed	-0.016510451
236	0x3dd1b86e	0.10240255
237	0x3e09db15	0.1346248
238	0xbc305a70	-0.0107637495
239	0xbbc308ea	-0.0059519904
240	0x3e19e00a	0.1502687
241	0x3d0385d4	0.03211005
242	0x3e33e35f	0.17567204
243	0x3e298c72	0.16557482
244	0xbde45ef7	-0.111509256
245	0xbdfdb3bc	-0.12387797
246	0xbd54fa0f	-0.051996287
247	0xbce82c0d	-0.028341318
248	0x3e2c007b	0.16797058
249	0xbe086c3f	-0.13322543
250	0x3da75847	0.081711344
251	0x3e0d0e37	0.13774954
252	0x3c41f97b	0.011839266
253	0xbe189028	-0.14898741
254	0xbe0728f0	-0.1319921
255	0x3ced3c92	0.028959546

mean.2.bias f4 [64]
0	0xbdbcbacd	-0.09215317
1	0x3c26cbad	0.010180396
2	0x3d2d4ad2	0.042307682
3	0xbcb6d27c	-0.022317164
4	0x3dede81b	0.11616536
5	0xbcd7697d	-0.026295418
6	0x3caf290c	0.021381877
7	0xbc3bcc00	-0.011462212
8	0xbdd2ef43	-0.10299542
9	0xbdec6cc9	-0.115441866
10	0xbabf7ce2	-0.0014609362
11	0x3defb501	0.11704446
12	0xbc03f54f	-0.008054092
13	0xbc52b809	-0.01286126
14	0x3cfd7fd4	0.030944742
15	0x3dac2dea	0.08407195
16	0x3d6fb499	0.05852184
17	0x3d260c6a	0.040539183
18	0x3d0f1c70	0.03493923
19	0x3b8c024c	0.0042727347
20	0x3d36eb50	0.044658005
21	0xbd798b16	-0.06092366
22	0x3de4f359	0.111792274
23	0x3ca10639	0.019656288
24	0x3e067b60	0.13133001
25	0x3cc5bb99	0.024137305
26	0x3d8a92eb	0.06766304
27	0x3d3a057e	0.045415394
28	0xbc8f2a0b	-0.017476102
29	0xbcbfaefc	-0.023398869
30	0xbbccfe05	-0.0062558674
31	0x3cd8045d	0.026369268
32	0xbdd6fb9e	-0.10497211
33	0x3d065d1c	0.03280364
34	0x3cd6244e	0.026140358
35	0x3cb597af	0.022167055
36	0xbd470f9b	-0.048598867
37	0x3e0560c3	0.13025193
38	0x3c471f0a	0.012153396
39	0x3d9a7447	0.075417094
40	0x3e2e5e46	0.1702815
41	0xbcc602a9	-0.02417119
42	0x3e4fea09	0.20304121
43	0xbd791fb6	-0.060821258
44	0xbdc16f56	-0.09445064
45	0xbd3b7e7c	-0.04577492
46	0xbc135552	-0.00899251
47	0x3d0b44fc	0.034001336
48	0xbc62fcef	-0.013854249
49	0xbc84c006	-0.016204845
50	0x3c9f0ffb	0.0194168
51	0xbc7a2b35	-0.01526909
52	0x3cf00599	0.029299544
53	0xbe4d469a	-0.20046464
54	0xbd14000f	-0.03613287
55	0x3c11879a	0.008882428
56	0x3cef8734	0.029239275
57	0xbbdc7f04	-0.0067290086
58	0x3d808705	0.06275753
59	0x3e3f3e73	0.18676166
60	0x3d0b8571	0.034062807
61	0xbd54c807	-0.051948573
62	0x3dc61df5	0.096736826
63	0xbcfe6703	-0.03105498

mean.4.weight f4 [32, 64]
0	0x3c8d3256	0.017235916
1	0xbc8e323b	-0.017357936
2	0x3c8c3d22	0.017118994
3	0x3cb052a5	0.021523783
4	0x3c9a2f2f	0.018821327
5	0xbe6af26e	-0.22944042
6	0xbcee3047	-0.029075755
7	0x3d8c142c	0.06839785
8	0x3e8a3e8a	0.2700084
9	0xbe0f76e7	-0.14010201
10	0xbe2ef4b7	-0.17085539
11	0xbe8648d3	-0.26227435
12	0x3df8aaae	0.121419296
13	0xbe84f71b	-0.25969777
14	0x3e4de9b8	0.20108688
15	0x3e05c8ab	0.1306483
16	0x3e5df209	0.2167436
17	0xbdfa3840	-0.1221776
18	0x3e04d00c	0.12969989
19	0xbdae9223	-0.08523967
20	0xbcf179a0	-0.02947694
21	0x3eae2459	0.34012106
22	0xbe2791e5	-0.16364248
23	0xbd85ca36	-0.06532709
24	0xbd271164	-0.04078807
25	0x3e5491be	0.20758721
26	0x3dbf20f2	0.09332456
27	0xbe85e84b	-0.26153788
28	0xbd6e83f9	-0.058231328
29	0x3d17449d	0.03693067
30	0xbe459de7	-0.19298516
31	0xbe6834e4	-0.22676426
32	0xbd9e18d3	-0.077195786
33	0x3e0f2290	0.13978028
34	0xbe0612a8	-0.13093054
35	0x3d50ed3d	0.051007498
36	0x3e20e8c2	0.1571379
37	0x3e12f22e	0.14350197
38	0x3d0dc201	0.034608845
39	0xbe6e384c	-0.23263663
40	0xbe02a98b	-0.12759988
41	0xbe47d1f6	-0.19513687
42	0xbe6a1623	-0.22860007
43	0xbe221e2e	-0.15831825
44	0xbe48f0e8	-0.19623148
45	0xbe871c7a	-0.26388913
46	0xbe6548d2	-0.2239106
47	0x3e2980da	0.16553059
48	0xbdcb0fe1	-0.09915138
49	0x3e3310d3	0.17486887
50	0xbdc79bb0	-0.09746492
51	0x3dde887d	0.10865877
52	0xbe1ad2f4	-0.15119535
53	0x3e92b9b0	0.28657293
54	0x3cf4b4d1	0.029871376
55	0x3d262722	0.040564664
56	0x3dacd86b	0.08439716
57	0x3c87a619	0.016558694
58	0x3c660bbf	0.014040886
59	0x3e43c17e	0.1911678
60	0xbdab5caa	-0.08367284
61	0x3e139823	0.14413504
62	0x3ea4813d	0.3212985
63	0x3e776076	0.2415789
64	0xbd11b599	-0.035573576
65	0xbd5679f2	-0.05236239
66	0x3e5c0f83	0.21490292
67	0xbe244598	-0.16042173
68	0x3dc4c0fb	0.096071206
69	0x3d6ab93d	0.057305563
70	0x3e7635ec	0.24044007
71	0xbdc83748	-0.09776169
72	0x3e4a9b37	0.19785772
73	0xbd23c9ea	-0.039987482
74	0x3e782ea2	0.24236539
75	0xbe8e3b1c	-0.27779472
76	0xbe15b15d	-0.1461844
77	0xbc87efcf	-0.016593842
78	0xbe885db6	-0.26633996
79	0xbd8c6099	-0.06854362
80	0xbe4910f8	-0.1963538
81	0x3e1d5000	0.15362549
82	0x3e6a208a	0.22863975
83	0x3b958649	0.004563127
84	0x3e157e49	0.14598955
85	0x3e0746ce	0.13210604
86	0x3e22d5c3	0.15901856
87	0x3d1e5d8b	0.03866343
88	0xbe2b5fc5	-0.16735752
89	0xbe4c1944	-0.19931513
90	0x3e0e4710	0.13894296
91	0xbe3522db	-0.17689078
92	0x3e4539a0	0.19260263
93	0x3dbffdf8	0.093746126
94	0xbe079691	-0.1324103
95	0xbd9fc5b7	-0.07801383
96	0x3d60bead	0.054869343
97	0xbb8f0fd6	-0.0043659015
98	0x3e8719b7	0.26386806
99	0xbdbcd2a3	-0.09219863
100	0xbe17d45e	-0.14827105
101	0xbe6fe309	-0.23426451
102	0x3d320eef	0.043471273
103	0xbe149d25	-0.14513071
104	0x3d4c8689	0.04993299
105	0x3e665840	0.22494602
106	0xbd4bb434	-0.049732402
107	0x3e86c6d3	0.26323566
108	0x3e1bd44d	0.15217705
109	0xbe399007	-0.18121348
110	0x3e011167	0.12604295
111	0xbdab2ed9	-0.08358545
112	0x3e05de9a	0.13073197
113	0xbe09bc3a	-0.13450709
114	0x3d6fc43b	0.05853675
115	0x3e0f2491	0.13978793
116	0x3e59f823	0.21286063
117	0xbdbb20c1	-0.09137107
118	0x3e036dd7	0.1283487
119	0x3e3b4cb1	0.18290974
120	0xbd1c4944	-0.03815581
121	0x3e3eb45b	0.18623488
122	0xbd8f4636	-0.069958135
123	0xbe111565	-0.14168318
124	0x3d9f81a7	0.07788401
125	0x3d9f0222	0.07764079
126	0xbe86deaf	-0.2634177
127	0xbdcf2b1a	-0.10115643
128	0x3ba7ff95	0.0051269033
129	0x3e2eb895	0.170626
130	0xbd2207c6	-0.039558195
131	0xbe730e01	-0.23735811
132	0x3dc56f39	0.09640355
133	0x3d88ff57	0.06689327
134	0x3d666111	0.056244913
135	0x3e492f90	0.1964705
136	0xbe87b916	-0.26508397
137	0x3cc56c66	0.02409954
138	0xbe0c7636	-0.13716969
139	0xbdbbf1fd	-0.09177015
140	0xbe2f0088	-0.17090046
141	0xbcf54f5b	-0.029945066
142	0xbe62240e	-0.22084066
143	0xbe678182	-0.22607997
144	0x3e28ad44	0.16472346
145	0x3e3579c6	0.17722234
146	0xbd94c78f	-0.07264625
147	0xbdc1f47d	-0.094704606
148	0xbdb71a1a	-0.08940525
149	0x3ca788c1	0.020450952
150	0xbd9e9c7c	-0.07744691
151	0x3e021ad8	0.12705553
152	0x3d011d29	0.03152195
153	0x3d25a874	0.040443853
154	0xbe2d1458	-0.16902292
155	0xbdf0aa66	-0.11751251
156	0x3dddaa98	0.10823554
157	0x3e8e8877	0.2783849
158	0xbe09a6a6	-0.13442478
159	0x3e1e5a64	0.15464169
160	0xbca41260	-0.020028293
161	0x3e776880	0.24160957
162	0xbd87145e	-0.065956816
163	0x3e69bb63	0.22825389
164	0x3d2dee97	0.042463865
165	0x3e741d00	0.23839188
166	0xbc95d7c1	-0.018291356
167	0x3e8687ac	0.26275384
168	0x3d3c1cea	0.045926012
169	0xba995659	-0.0011698707
170	0x3d82a02b	0.06378206
171	0x3dbc0faf	0.09182679
172	0x3e75dae3	0.2400928
173	0x3e5d31c5	0.21601017
174	0xbe0ae7b5	-0.13564952
175	0xbdf0928e	-0.11746703
176	0x3e0c3d06	0.13695154
177	0xbd61c51a	-0.05511961
178	0xbdb58105	-0.08862499
179	0x3d7d669c	0.061865434
180	0xbe0b4e5d	-0.13604112
181	0xbe3a0a2a	-0.1816794
182	0x3e6d074a	0.23147312
183	0xbe68d547	-0.22737609
184	0xbe0c1524	-0.1367994
185	0x3e28f045	0.16497906
186	0xbd970567	-0.07374077
187	0x3d93a85f	0.072098486
188	0xbd9e9fa9	-0.077452965
189	0xbb45efad	-0.0030202672
190	0xbd3f4b1a	-0.04670248
191	0x3d92af19	0.071623035
192	0x3d99f702	0.07517816
193	0xbd02c7be	-0.03192877
194	0x3e33ee7d	0.17571445
195	0xbe1e8302	-0.15479663
196	0xbd618e67	-0.055067446
197	0x3ca9fe86	0.020751249
198	0x3dfe5fb7	0.124206
199	0xbdb19e78	-0.08672804
200	0x3c3e28ff	0.011606454
201	0xbe5b29eb	-0.21402709
202	0x3df8179c	0.12113878
203	0x3e37b378	0.17939556
204	0xbe54821c	-0.20752758
205	0xbe52f9f9	-0.2060317
206	0x3c8ab17b	0.016930332
207	0x3e48087f	0.19534491
208	0x3dc4c917	0.09608667
209	0x3e42aa66	0.19010314
210	0xbe4ff9b4	-0.20310098
211	0x3e466038	0.19372642
212	0x3e6d81d8	0.23194063
213	0xbe514adb	-0.20438711
214	0x3d5bcdb4	0.05366297
215	0xbd6ad51f	-0.057332154
216	0x3e802c0c	0.25033605
217	0xbdf43c81	-0.11925603
218	0xbe849b75	-0.25899854
219	0xbe5060c0	-0.20349407
220	0x3e380621	0.17971088
221	0x3d95a8be	0.07307576
222	0xbe65b915	-0.22433884
223	0xbe4ce462	-0.20008996
224	0x3e0eb82e	0.13937446
225	0xbe0a02a0	-0.13477564
226	0xbe3b7346	-0.18305692
227	0xbdd28313	-0.10278907
228	0xbdc441f8	-0.09582895
229	0xbe1b7a15	-0.1518329
230	0xbdcfc190	-0.10144341
231	0x3d09493e	0.033517115
232	0x3d055c59	0.032558773
233	0x3e47ee72	0.19524553
234	0xbe6b0cd1	-0.22954108
235	0xbd64e9b4	-0.05588694
236	0xbd9b5d1e	-0.0758612
237	0xbe0289c4	-0.12747866
238	0x3db02fea	0.08602889
239	0xbe00b26c	-0.12568063
240	0xbda69835	-0.081345
241	0xbe45bd9a	-0.19310609
242	0xbdc880f4	-0.09790221
243	0x3c63da02	0.013906958
244	0xbe1048e8	-0.14090312
245	0xbd5438ba	-0.05181191
246	0xbe1bffb4	-0.15234262
247	0x3d3dbcc2	0.04632259
248	0x3dae8401	0.085212715
249	0xbe17ea78	-0.14835536
250	0xbde884dd	-0.11353467
251	0xbc9eee07	-0.01940061
252	0xbe078624	-0.13234764
253	0xbddfa983	-0.10921004
254	0x3de7b548	0.113138735
255	0xbd2c1729	-0.042014275

mean.4.bias f4 [32]
0	0x3e19966b	0.14998786
1	0x3dcce35d	0.100043036
2	0xb97a61c4	-0.00023878278
3	0x3cd2d6a2	0.02573711
4	0x3ce32de3	0.027731841
5	0x3dba13e5	0.09085826
6	0x3bf862dc	0.0075801443
7	0x3d8679b3	0.06566181
8	0x3e03a1a8	0.12854636
9	0x3b1e8950	0.0024190731
10	0x3d25f827	0.04051986
11	0xbdacbd32	-0.08434524
12	0xbc0ea6ae	-0.008706732
13	0x3dbe7b1b	0.09300824
14	0x3d12f679	0.035879586
15	0x3e21b8f9	0.15793218
16	0x3c4e0be4	0.012576077
17	0xbc04b8bd	-0.008100686
18	0x3dab3160	0.08359027
19	0x3b0e7989	0.002173992
20	0x3d41baa9	0.047297154
21	0xbc718315	-0.014740725
22	0x3db43884	0.08799842
23	0xbda94ec5	-0.08266977
24	0x3cf3da04	0.029767044
25	0x3e29280c	0.16519183
26	0xbcc71662	-0.024302665
27	0xba89f025	-0.0010523839
28	0x3bfaede5	0.007657754
29	0x3c1471a5	0.009060298
30	0x3e28825e	0.16455981
31	0xba60193f	-0.0008548684

mean.6.weight f4 [2, 32]
0	0x3f429155	0.7600301
1	0xbeac5642	-0.3365956
2	0xbefc0fad	-0.4923071
3	0xbea097e4	-0.31365883
4	0xbe4b21cc	-0.19837111
5	0xbd2b813b	-0.04187129
6	0xbe93821c	-0.28810203
7	0x3ece19a4	0.40253937
8	0xbf0460d8	-0.5171027
9	0xbdb034f4	-0.0860385
10	0xbeb3a77b	-0.35088715
11	0xbe2a57da	-0.16635075
12	0x3e77e2e5	0.24207647
13	0x3d843519	0.0645544
14	0x3e843d38	0.25827956
15	0xbf2f863c	-0.685642
16	0x3efcf143	0.49402818
17	0x3d88c420	0.06678033
18	0xbe854031	-0.26025537
19	0x3eb8d961	0.36103347
20	0xbe8d2cc7	-0.27573225
21	0xbec996a0	-0.3937273
22	0xbf13af92	-0.57689774
23	0x3df9186e	0.12162863
24	0x3eb60eaa	0.35558063
25	0xbf2e2104	-0.6801913
26	0x3e0c05d7	0.13674103
27	0xbeed6440	-0.46365547
28	0x3ecfbca1	0.405736
29	0x3d83cbc9	0.06435353
30	0xbf85128f	-1.0396289
31	0xbeb6d01f	-0.3570566
32	0xbe8883a1	-0.26662925
33	0x3e9d009c	0.30664527
34	0x3e544c56	0.20732245
35	0x3dea8ce1	0.11452652
36	0xbd894fb5	-0.06704656
37	0xbe38e710	-0.18056893
38	0x3d947ff2	0.07250966
39	0xbf0cf0dd	-0.5505503
40	0x3f286412	0.65777695
41	0xbe7ec8de	-0.24881312
42	0xbe8fa543	-0.28055772
43	0x3da1c4df	0.07898878
44	0x3ea7b367	0.3275406
45	0xbeba5a90	-0.3639722
46	0xbecf65fd	-0.40507498
47	0x3e50554a	0.20345035
48	0xbed29528	-0.41129422
49	0x3eae0c87	0.33993933
50	0x3e8e375b	0.27776608
51	0xbef81c44	-0.48459065
52	0xbe7b96ab	-0.24569194
53	0xbe78e5b5	-0.24306376
54	0x3f02a673	0.5103523
55	0xbdb90ce1	-0.090356596
56	0x3d6e9a37	0.05825254
57	0x3eed6dc2	0.463728
58	0x3eb2dfed	0.34936467
59	0x3e8656fa	0.26238233
60	0x3dca1603	0.0986748
61	0xbed05e9c	-0.4069718
62	0x3f743048	0.9538617
63	0xbeba7b6f	-0.36422297

mean.6.bias f4 [2]
0	0xbd8ff9a4	-0.07030037
1	0x3d8ffa00	0.070301056
