save/exp33/it33_model.pt (torch, 48231 bytes, 7 tensors)

sigma f4 [2]
0	0x3d091477	0.033466782
1	0xbcd40bc4	-0.025884517

mean.0.weight f4 [100, 10]
0	0xbe6dc7a8	-0.23220694
1	0x3e404791	0.187773
2	0xbe35c6a2	-0.17751554
3	0x3e82037b	0.2539328
4	0xbd9020cb	-0.07037505
5	0x3e2f79dd	0.17136331
6	0x3d890d96	0.066920444
7	0x3dc9963a	0.098431066
8	0x3cf49d7d	0.029860253
9	0x3e1920a0	0.14953852
10	0xbde6be81	-0.112668045
11	0xbe6ff4d1	-0.23433234
12	0xbe085a44	-0.13315684
13	0x3e26bee3	0.16283755
14	0xbd7a3f6e	-0.061095648
15	0x3dc95516	0.09830682
16	0xbdca1902	-0.09868051
17	0x3e307c0f	0.17234825
18	0x3dde8165	0.10864524
19	0x3e056e49	0.13030352
20	0xbddec3ee	-0.10877214
21	0xbe0f0996	-0.139685
22	0x3dc67d41	0.09691859
23	0xbdafbff2	-0.085815325
24	0x3e9ef9ea	0.31050044
25	0xbe061a5a	-0.1309599
26	0x3e36610e	0.17810461
27	0x3e8e9c7e	0.2785377
28	0x3de06466	0.109566495
29	0x3de71f0a	0.11285217
30	0xbea4f6f7	-0.3221967
31	0x3e270360	0.16309881
32	0xbe26dc48	-0.16294968
33	0xbeaa5010	-0.33264208
34	0x3e0f8619	0.14015998
35	0xbe0c6600	-0.13710785
36	0xbde16a92	-0.11006655
37	0x3e14c356	0.1452764
38	0xbe609a87	-0.21933948
39	0xbe892efa	-0.26793653
40	0x3cd26e3e	0.025687333
41	0xbd328100	-0.043580055
42	0x3d2f317e	0.04277181
43	0xbe4af3b6	-0.19819531
44	0xbc9f5f3a	-0.019454587
45	0xbde33e5f	-0.11095881
46	0xbe005cba	-0.12535372
47	0xbe596845	-0.21231182
48	0x3da600d5	0.081056274
49	0x3cdaa435	0.026689628
50	0xbe36eeac	-0.17864484
51	0x3e7a2a49	0.24430193
52	0x3d19101a	0.03736887
53	0x3d823902	0.063585296
54	0xbdf9bfa0	-0.12194753
55	0x3d874084	0.06604102
56	0x3e62e677	0.22158228
57	0x3e0f0b1b	0.1396908
58	0xbe0445c2	-0.12917235
59	0x3e6759d6	0.22592863
60	0x3dbf30fe	0.093355164
61	0x3e1a5806	0.15072641
62	0x3e836638	0.25663924
63	0x3e14c528	0.14528334
64	0xbe386dc7	-0.18010627
65	0x3e4e53cf	0.20149158
66	0xbd939b96	-0.0720741
67	0x3cf08253	0.029359018
68	0xbe09734c	-0.13422889
69	0xbdf42477	-0.119210176
70	0xbd24a83a	-0.040199496
71	0xbd3e52a3	-0.046465527
72	0xbd6c9c12	-0.057766028
73	0x3c28e687	0.010308868
74	0x3e5025dc	0.20326942
75	0x3debe6b3	0.11518612
76	0x3df00e5a	0.11721487
77	0x3cf41307	0.02979423
78	0x3df84678	0.12122816
79	0xbd2a0a54	-0.041513756
80	0x3d19032d	0.037356544
81	0x3d41e352	0.04733593
82	0xbe51f26c	-0.20502633
83	0xbe48c43f	-0.19606112
84	0x3d28ecff	0.041241642
85	0xbdc0883d	-0.094009854
86	0xbc274e37	-0.010211519
87	0xbd79509c	-0.06086789
88	0x3d3e2747	0.046424177
89	0x3e271ee9	0.16320385
90	0xbddc3144	-0.10751584
91	0x3e316be4	0.17326313
92	0x3e2a0f2b	0.16607349
93	0xbe61e7f9	-0.22061147
94	0xbe34a21b	-0.17639963
95	0xbe551e85	-0.20812424
96	0xbde5142e	-0.111854896
97	0xbe020650	-0.1269772
98	0xbd05e112	-0.032685347
99	0xbd62331a	-0.055224515
100	0xbe0d433e	-0.13795182
101	0xbd291032	-0.04127521
102	0xbd053284	-0.03251888
103	0x3e8682cb	0.26271662
104	0xbdcf814e	-0.10132085
105	0xbdf821a0	-0.121157885
106	0x3dc80492	0.09766497
107	0xbc7e890a	-0.015535602
108	0x3e4ee2cc	0.20203704
109	0x3e7cd4a6	0.24690494
110	0x3e1579fe	0.14597318
111	0xbe4b791b	-0.19870417
112	0x3e385204	0.18000036
113	0x3e3fad37	0.1871842
114	0xbe24060a	-0.16017929
115	0x3e776af6	0.24161896
116	0x3e03b28d	0.1286108
117	0x3a4cba80	0.0007809773
118	0x3e0b6138	0.13611305
119	0xbdeb458c	-0.114878744
120	0xbdbd8876	-0.092545435
121	0x3e065632	0.13118818
122	0x3e5c5b02	0.21519092
123	0xbdd6582e	-0.10466038
124	0x3e4e4344	0.20142847
125	0xbe46b395	-0.19404443
126	0x3e81729c	0.25282753
127	0x3e76997f	0.24081992
128	0x3dc2899d	0.09498904
129	0xbdc691a0	-0.096957445
130	0x3e309f60	0.17248297
131	0x3db1f256	0.086888
132	0x3e0d0c2e	0.13774177
133	0x3e0b6046	0.13610944
134	0x3e3f8f44	0.18706995
135	0xbd8f0e44	-0.06985143
136	0x3c60a17c	0.013710376
137	0x3db0994d	0.0862299
138	0x3dd1f060	0.10250926
139	0x3ea2f82c	0.31829965
140	0xbe083d78	-0.13304698
141	0xbcbb0abe	-0.02283227
142	0x3cd2c6a8	0.025729492
143	0xbd5838b6	-0.05278846
144	0x3e12f3c4	0.14350802
145	0xba91e8a0	-0.001113195
146	0xbe6069b3	-0.21915321
147	0xbd2e8b15	-0.042613108
148	0xbdf037a5	-0.11729363
149	0x3ae01ff0	0.0017099362
150	0xbd0a9f9a	-0.033843614
151	0xbe54a263	-0.2076507
152	0xbd12a3ab	-0.035800617
153	0xbd6f4d30	-0.05842322
154	0xbde7a9a4	-0.11311653
155	0x3e487c35	0.19578631
156	0xbda00e6e	-0.07815252
157	0x3defb120	0.11703706
158	0x3d5e2578	0.05423495
159	0xbe4fc8f1	-0.20291497
160	0x3dc25894	0.09489551
161	0x3e5e4a95	0.21708138
162	0xbddd598a	-0.10808094
163	0xbddca458	-0.107735336
164	0x3e85c3f5	0.26126066
165	0x3e51d0ce	0.20489809
166	0xbe36f585	-0.17867096
167	0x3e0e2c6c	0.13884133
168	0xbd7aa408	-0.06119159
169	0xbe652214	-0.22376281
170	0x3d901a36	0.07036249
171	0x3d3089ea	0.043100275
172	0xbd8c7715	-0.068586506
173	0x3dec2f1b	0.11532422
174	0xbe1e0dc7	-0.15434943
175	0x3e54e938	0.20792091
176	0x3e304831	0.17215039
177	0x3e01d3b4	0.12678415
178	0x3d016c62	0.031597503
179	0x3cea79c7	0.028622521
180	0xbe1eed54	-0.15520221
181	0xbddf57cb	-0.10905417
182	0x3d92de0e	0.0717126
183	0xbdaa61ea	-0.08319457
184	0xbe7f49c4	-0.24930483
185	0x3d03cad0	0.03217584
186	0x3e183c04	0.14866644
187	0xbeac41b8	-0.3364389
188	0x3de89184	0.1135588
189	0x3e5a26e8	0.21303904
190	0x3e583d11	0.21117045
191	0x3e1596c9	0.14608301
192	0x3e0daaa6	0.13834628
193	0xbdd98220	-0.106205225
194	0x3e0c8946	0.1372424
195	0x3e7a7c8f	0.24461578
196	0xbe77c81a	-0.24197426
197	0xbe358066	-0.17724761
198	0x3d240744	0.04004599
199	0x3d8c8712	0.068617
200	0xbdfb8570	-0.122813106
201	0x3d2022fa	0.039095856
202	0xbc6b821a	-0.01437428
203	0x3d984253	0.07434525
204	0xbde353d8	-0.11099976
205	0x3e1b16ac	0.15145367
206	0x3e2ffea9	0.17186989
207	0xbe1dd1a6	-0.15412006
208	0xbbd52608	-0.006504778
209	0xbc86e1c7	-0.01646508
210	0x3d80d136	0.06289904
211	0x3e7b65c5	0.24550541
212	0x3c36ec8c	0.011164796
213	0xbd9b1d9a	-0.075740054
214	0x3e3723b3	0.17884712
215	0xbd0c49fd	-0.03425025
216	0x3d1a2fe2	0.03764332
217	0x3cd61484	0.02613283
218	0xbe57617c	-0.21033281
219	0x3de50bef	0.11183917
220	0xbde6f0fc	-0.11276433
221	0x3cc77b76	0.024350863
222	0xbc553403	-0.013012889
223	0x3d2df7c1	0.042472605
224	0xbe5d7dd9	-0.21630038
225	0xbe670e16	-0.22563967
226	0x3dd3186f	0.10307395
227	0x3e6287fa	0.22122183
228	0xbe49432a	-0.19654527
229	0x3e12aef0	0.14324546
230	0xbe3fb441	-0.18721105
231	0xbcf593fa	-0.029977787
232	0x3e689136	0.22711644
233	0x3e1ca3f3	0.15296917
234	0xbe382d1f	-0.17985962
235	0x3e13414f	0.14380382
236	0x3e62dca1	0.22154476
237	0xbbb6b429	-0.005575676
238	0x3e539912	0.2066386
239	0xbe03e80c	-0.12881488
240	0xbce7cae7	-0.028294994
241	0xbdea58ce	-0.114427194
242	0x3cb075e0	0.021540582
243	0x3da8751a	0.0822546
244	0x3d31b9da	0.043390132
245	0xbe06177b	-0.13094895
246	0xbdba0964	-0.09083822
247	0x3db48fcd	0.0881649
248	0xbe54c7ac	-0.20779294
249	0xbd2a41d8	-0.0415667
250	0xba85f3c0	-0.0010219738
251	0xbd3d7bcf	-0.04626065
252	0x3de55023	0.111969255
253	0x3d42e764	0.047583953
254	0x3e50156a	0.20320669
255	0x3d01ac6e	0.031658582

mean.0.bias f4 [100]
0	0x3b621a20	0.0034500435
1	0xbcbb95ad	-0.02289852
2	0x3da81504	0.082071334
3	0xbdefb534	-0.11704484
4	0xbd7aefa8	-0.06126371
5	0xbc893eb4	-0.016753532
6	0x3d6fb04c	0.05851774
7	0xbdc24be0	-0.09487128
8	0x3cba103e	0.022712823
9	0xbc185bb0	-0.009299204
10	0xbaeeac20	-0.0018209256
11	0xbd119a86	-0.035547756
12	0x3dbd4155	0.09240977
13	0x3da39a70	0.07988441
14	0xbcb7e2b4	-0.022446968
15	0xbd5e16f0	-0.054221094
16	0x3caf73a0	0.021417439
17	0xbd3ead85	-0.0465522
18	0x3e3fcbca	0.18730083
19	0xbcdc811d	-0.026917035
20	0xbc86e306	-0.016465675
21	0x3cd0ce99	0.025489138
22	0x3d84f67a	0.06492324
23	0xbc586f6b	-0.013210158
24	0x3cea01cc	0.02856531
25	0x3d080e05	0.033216495
26	0xbdba20c2	-0.09088279
27	0x3dbc65e7	0.09199124
28	0x3d4fbc32	0.050716586
29	0x3ce284d3	0.027651226
30	0xba16800b	-0.0005741126
31	0xbd5e9141	-0.054337744
32	0xbdb0377b	-0.08604332
33	0xbd93103e	-0.07180832
34	0xbc423329	-0.011853018
35	0xbd9f12c7	-0.07767253
36	0xbe17e9ef	-0.14835332
37	0x3c76bea8	0.015060104
38	0x3b301e76	0.0026873625
39	0xbe12c1eb	-0.14331786
40	0x3d613704	0.054984108
41	0x3d2e7b16	0.042597853
42	0xbdd17314	-0.102270275
43	0xbd2ddca1	-0.042446736
44	0x3dca8542	0.09888698
45	0xbd68aeec	-0.056807443
46	0x3d30d042	0.04316736
47	0x3dcfc930	0.10145795
48	0x3d2782bb	0.04089616
49	0x3dc63bd0	0.09679377
50	0xbc822e74	-0.015891291
51	0xbd175f98	-0.0369564
52	0xbd1f059b	-0.038823705
53	0x3d36b99a	0.044610597
54	0x3d793e00	0.060850143
55	0xbcdcd694	-0.026957788
56	0x3d9e814c	0.07739505
57	0x3c234d84	0.009967212
58	0x3e1988d2	0.14993599
59	0xbd4a6f1c	-0.04942237
60	0xbd4624a6	-0.048374794
61	0x3d0d2c13	0.03446586
62	0x3da133f3	0.07871237
63	0xbcf377c7	-0.0297202
64	0xbd0676d2	-0.03282816
65	0xbc126820	-0.008935958
66	0xbda5ee8a	-0.08102138
67	0x3d0256c6	0.031821035
68	0xbd70c288	-0.05877927
69	0x3b89b05a	0.004201931
70	0x3d2ccd7e	0.04218816
71	0x3c9ab7a5	0.018886397
72	0x3d889a4b	0.06670054
73	0x3d513de2	0.051084407
74	0x3d83c6c9	0.064344
75	0x3c4d7c60	0.01254186
76	0xbd1e3841	-0.038627867
77	0xbe3b11ba	-0.18268481
78	0xbdbac2b8	-0.09119171
79	0xbccf565a	-0.02530973
80	0xbd899017	-0.06716936
81	0xbd8174bc	-0.063210934
82	0x3ddc54d9	0.10758371
83	0x3dd15de8	0.10222989
84	0x3d26af9c	0.040694818
85	0xbcfcaf15	-0.030845204
86	0x3d0553c8	0.032550603
87	0xbce51f2c	-0.027968965
88	0x3d89d49b	0.067300044
89	0x3b6e4a88	0.0036360342
90	0x3cab5a0e	0.020916965
91	0xbcaa32ed	-0.020776236
92	0x3e009afc	0.12559122
93	0xbad12878	-0.0015957495
94	0x3ce4c35c	0.027925186
95	0xbccd05f3	-0.02502725
96	0xbaee0f20	-0.0018162467
97	0xbd5b7650	-0.05357963
98	0x3b91668d	0.004437274
99	0xbd967039	-0.073456235

mean.2.weight f4 [100, 100]
0	0xbdb36823	-0.08760097
1	0xbdf4806a	-0.119385555
2	0xbe2e9c19	-0.17051734
3	0x3dd0dd6c	0.10198483
4	0x3d9d44ba	0.07679124
5	0xbd29dbe5	-0.041469473
6	0x3e12b486	0.14326677
7	0xbdfe8c85	-0.12429146
8	0xbce590c8	-0.028023139
9	0xbb9af4c2	-0.0047288844
10	0x3d8eebaa	0.06978543
11	0x3e148155	0.14502461
12	0xbdc9b003	-0.09848025
13	0x3e31068f	0.17287658
14	0x3e28d278	0.16486537
15	0x3d3c6941	0.045998815
16	0xbde97941	-0.114000805
17	0x3d6b1c3d	0.057399977
18	0x3d1206d1	0.035651032
19	0xbd80a95b	-0.06282302
20	0x3e2ab61d	0.16671033
21	0xbe0ea0b0	-0.13928485
22	0xbd7c016a	-0.061524786
23	0xbd8320f9	-0.064027734
24	0xbd44cbf9	-0.048046086
25	0x3e03a585	0.1285611
26	0xbc106de6	-0.008815264
27	0x3cc82af1	0.024434539
28	0xbe1e0c25	-0.1543432
29	0xbdf00a4a	-0.117207125
30	0x3dded18c	0.10879812
31	0xbd592545	-0.05301406
32	0x3d7dd83e	0.061973803
33	0xbe0859d0	-0.13315511
34	0xbdc96c8c	-0.09835157
35	0x3daafd6c	0.08349118
36	0x3dfa172c	0.12211451
37	0x3c2f4a6b	0.010698895
38	0xbe20a6eb	-0.15688674
39	0xbddf2bd0	-0.108970284
40	0xbd80f499	-0.06296653
41	0x3da670b5	0.08126966
42	0xbe103cad	-0.14085646
43	0xbde3c964	-0.111223966
44	0xbe303cf3	-0.1721075
45	0xbdfa349a	-0.12217064
46	0x3e009388	0.12556279
47	0xbd846ea4	-0.064664155
48	0xbd28bbb7	-0.041194644
49	0x3b9ffbb4	0.0048823003
50	0xbd0c4a3c	-0.034250483
51	0xbd73cf71	-0.059524003
52	0xbb47129e	-0.0030376087
53	0xbdb34178	-0.087527215
54	0x3de03fdd	0.10949681
55	0xbbe4450f	-0.0069662402
56	0x3d9f20b3	0.07769909
57	0x3ca85749	0.020549433
58	0x3e05a459	0.13050975
59	0x3dad9e65	0.08477477
60	0xbdb19759	-0.086714454
61	0xbd2b3949	-0.04180268
62	0x3d23569e	0.039877526
63	0xbd80f4a6	-0.06296663
64	0xbdf579c4	-0.119861156
65	0x3e1433e6	0.14472923
66	0x3dee1db7	0.116267614
67	0xbdb154e0	-0.08658767
68	0x3d23c6bc	0.03998445
69	0x3dff41be	0.12463711
70	0xbdd706b8	-0.104993284
71	0xbcec4fbe	-0.028846618
72	0xbe122311	-0.1427119
73	0xbe227193	-0.15863638
74	0x3e0d446f	0.13795637
75	0x3d783d21	0.060605172
76	0xbde57449	-0.1120382
77	0xbc54b997	-0.012983701
78	0xbda40998	-0.08009642
79	0xbd0561fc	-0.03256415
80	0xbd196a9c	-0.037455186
81	0x3d60fc50	0.054928124
82	0x3cf6c629	0.030123787
83	0xbdf10ee7	-0.117704205
84	0x3db187f3	0.086685084
85	0x3c5104a2	0.012757452
86	0xbdb943f4	-0.09046164
87	0xbdceb7cb	-0.100936495
88	0xbb8140ef	-0.0039445083
89	0x3d763199	0.060105894
90	0xbe23cae8	-0.15995371
91	0xbd24fa64	-0.040277854
92	0xbe005c5a	-0.1253523
93	0xbe263b45	-0.16233547
94	0x3dbe3539	0.09287495
95	0xbd73c856	-0.059517227
96	0xbe28dd7d	-0.16490741
97	0xbd4cd3d9	-0.05000672
98	0xbdc4608e	-0.09588729
99	0x3dbe9ec8	0.09307629
100	0xbca69677	-0.02033542
101	0xbdb8d860	-0.09025645
102	0xbd763bf0	-0.060115755
103	0xbd280e80	-0.041029453
104	0x3e08f6f7	0.1337546
105	0x3c77757e	0.015103696
106	0xbe08b54b	-0.13350408
107	0xbd0b97bc	-0.034080252
108	0x3e2460e8	0.16052592
109	0xbe19af3b	-0.15008251
110	0xbd65fa83	-0.05614711
111	0x3e25de40	0.16198063
112	0xbd8e9aec	-0.06963143
113	0x3e0cc321	0.13746311
114	0xbde50342	-0.11182262
115	0x3e0aec8f	0.13566802
116	0x3de5fb10	0.11229527
117	0xbcd6ff83	-0.026244884
118	0xbe28f215	-0.16498597
119	0xbd6dc760	-0.058051467
120	0x3d24df3a	0.040251948
121	0xbd812cba	-0.06307359
122	0xbe0ed2b2	-0.13947561
123	0xbe131168	-0.14362109
124	0x3da8e12a	0.08246072
125	0x3e0597f0	0.13046241
126	0xbd86b28f	-0.06577026
127	0x3be83a7a	0.007087049
128	0xbdd08365	-0.101813115
129	0x3dc3d381	0.095618255
130	0xbde918d6	-0.1138169
131	0xbdc9dfa0	-0.09857106
132	0xbd90003b	-0.07031294
133	0xbd0b0f78	-0.0339503
134	0x3ca83dc2	0.02053726
135	0xbe1d2023	-0.1534429
136	0xbd8f88f6	-0.07008545
137	0xbd91458f	-0.070933454
138	0xbd04e3d9	-0.032443855
139	0xbc12719f	-0.008938222
140	0x3c2a0e1d	0.010379341
141	0x3dca1744	0.09867719
142	0xbdc2b7b2	-0.09507693
143	0x3b651fc2	0.0034961556
144	0x3e1cfcf7	0.15330873
145	0x3cdf6e8d	0.027274394
146	0xbe069647	-0.13143264
147	0x3df485ce	0.11939584
148	0xbe13b724	-0.14425331
149	0x3d8e9e08	0.06963736
150	0x3e0e6a0b	0.1390764
151	0x3cc7cccb	0.024389645
152	0x3dc174f6	0.09446137
153	0x3e0fa2ac	0.14026898
154	0x3d9d918e	0.07693778
155	0xbd57f6c1	-0.052725557
156	0x3d446103	0.04794408
157	0x3e15a80d	0.14614888
158	0x3d39b326	0.045336865
159	0xbe0c0d9b	-0.13677065
160	0x3e17c2a6	0.14820346
161	0x3e2c82f0	0.16846824
162	0x3dd3d3c0	0.103431225
163	0x3daf7f2f	0.0856918
164	0x3ddbdd3e	0.10735558
165	0xbdcea012	-0.10089125
166	0xbd5027f1	-0.05081934
167	0x3da07c19	0.0783617
168	0x3d2afbf8	0.041744202
169	0x3d9d1669	0.0767029
170	0xba5c7088	-0.00084091024
171	0xbe272c61	-0.16325523
172	0x3d9b970e	0.07597171
173	0xbdcf4bfa	-0.10121913
174	0xbe15411a	-0.14575616
175	0x3e2e0213	0.16992979
176	0x3dc3362a	0.09531815
177	0x3dbc90cd	0.09207306
178	0xbd8c9126	-0.06863622
179	0x3d87d966	0.06633262
180	0x3c852928	0.016254976
181	0x3ded6abd	0.11592624
182	0x3cd78508	0.026308551
183	0x3e1bb2a6	0.15204868
184	0xbd028795	-0.031867582
185	0x3e241f20	0.16027498
186	0x3e2f9a50	0.1714871
187	0x3cb0a2c3	0.021561986
188	0xbdfd165b	-0.123577796
189	0x3863f3e0	5.4348144e-05
190	0x3e0c8991	0.13724352
191	0xbdf41f6c	-0.11920056
192	0xbd6d1b40	-0.057887316
193	0x3d82e8b9	0.063920446
194	0x3d3f3dc5	0.046689767
195	0x3e237f03	0.1596642
196	0x3ce5ab69	0.028035836
197	0x3b82cf5b	0.003992004
198	0x3ca6912f	0.0203329
199	0xbd27beb0	-0.04095334
200	0xbe110d45	-0.14165218
201	0xbd5d3e56	-0.054014526
202	0xbe288c96	-0.1645988
203	0x3e0704ab	0.13185374
204	0x3c2bb360	0.010479778
205	0x3cce4f41	0.025184276
206	0x3c43d997	0.011953733
207	0xbd9e077a	-0.0771627
208	0xbdfa324d	-0.12216625
209	0xbcefaae0	-0.029256284
210	0x3d4a2eba	0.04936097
211	0xbd9b63de	-0.075874075
212	0xbddb2713	-0.10700812
213	0x3e09a626	0.13442287
214	0xbd710cfd	-0.058850277
215	0x3dc5d811	0.09660352
216	0x3e31df02	0.17370227
217	0x3e34550a	0.17610565
218	0xbe028b55	-0.12748463
219	0x3d6ddc2e	0.058071308
220	0xbe08497e	-0.13309285
221	0x3cbcf140	0.023064256
222	0x3ce2ad20	0.027670443
223	0xbd8ac63b	-0.06776091
224	0x3d574d96	0.052564226
225	0xbd4732b0	-0.048632324
226	0x3dbc3d3d	0.09191368
227	0x3c32aba4	0.01090518
228	0x3df01720	0.11723161
229	0x3debeb32	0.11519469
230	0x3d1e6bf8	0.038677186
231	0x3cfabc93	0.030607497
232	0xbd9fbd7b	-0.077998124
233	0xbdcd3d0c	-0.100214094
234	0x3df05798	0.11735457
235	0x3dd75129	0.10513527
236	0x3cc7b425	0.024377892
237	0x3e1897cb	0.14901654
238	0x3db9afb8	0.09066719
239	0x3de258c8	0.1105209
240	0xbd1c5477	-0.03816649
241	0x3d4d366b	0.050100725
242	0xbe0b88c4	-0.1362639
243	0xbe221415	-0.15827973
244	0x3dd71e9d	0.10503886
245	0xbdd88fa3	-0.105742715
246	0x3e0ca4aa	0.1373469
247	0xbe01635f	-0.12635563
248	0xbe09ad1b	-0.13444941
249	0xbe133bdb	-0.14378302
250	0x3de7ecd1	0.11324466
251	0xbde6b128	-0.112642586
252	0xbe1df4c7	-0.15425406
253	0x3d8f6150	0.07000983
254	0xbd1ccc1e	-0.0382806
255	0xbe2cc065	-0.16870268

mean.2.bias f4 [100]
0	0xba1d39de	-0.00059976976
1	0x3cba08db	0.0227093
2	0x3d0dc5dc	0.03461252
3	0x3d17fd66	0.037106894
4	0xbcd237b3	-0.025661325
5	0x3d413882	0.04717303
6	0xbd9e3574	-0.07725039
7	0x3b5809c0	0.0032964796
8	0x3d950ca3	0.07277801
9	0xbbb904b6	-0.0056463135
10	0x00000000	0.0
11	0xbccaa5b5	-0.024737218
12	0x3c45cf68	0.012073375
13	0xbd8230fe	-0.06357001
14	0x3b274078	0.0025520604
15	0xbcb71187	-0.022347225
16	0xbc968f89	-0.01837899
17	0x3e01e2b9	0.12684144
18	0x3d10bd83	0.035336982
19	0xbb66bd7c	-0.0035208156
20	0x3bf46d54	0.007459322
21	0x3c96d847	0.018413676
22	0x3d3c602e	0.04599016
23	0x3cc6191f	0.0241819
24	0xbb570a8a	-0.0032812678
25	0x3dc7905c	0.09744331
26	0x3d4162a4	0.04721321
27	0x3bcfbd43	0.0063397004
28	0xbd2c85fc	-0.042119965
29	0xbd3d5108	-0.046219856
30	0xbbc2f515	-0.005949626
31	0xbd92d391	-0.07169259
32	0xbd4bc54d	-0.049748708
33	0xbdf37015	-0.11886612
34	0x3c3ae833	0.0114079
35	0xbca6d627	-0.020365788
36	0x3d69da0c	0.05709271
37	0xbcc01f82	-0.023452524
38	0xbd715ede	-0.058928363
39	0x3c3f6f52	0.011684256
40	0xbea2d14e	-0.31800312
41	0xbc9f139e	-0.019418534
42	0xbd3ed128	-0.046586186
43	0x3b617df0	0.003440734
44	0xbddbee4e	-0.107388124
45	0x3d77617d	0.060395706
46	0xbc415818	-0.011800788
47	0xbd5365e5	-0.051610846
48	0x3d41a77e	0.047278874
49	0x3d5b40f4	0.05352874
50	0xbc32b460	-0.010907263
51	0xbac4af10	-0.0015005786
52	0xbdd1e306	-0.102483794
53	0x3ae4c560	0.0017453842
54	0xbd0133f6	-0.031543694
55	0xbbf35388	-0.007425729
56	0x3c200559	0.0097669
57	0x3cbce4aa	0.023058254
58	0x3d622718	0.055213064
59	0x3a3fd3e0	0.00073176436
60	0x3d2b3662	0.04179991
61	0x3ccf43a8	0.025300816
62	0xba805074	-0.0009789602
63	0x3d28794a	0.041131295
64	0x3d7387fd	0.05945586
65	0xbcc9f199	-0.024651336
66	0xbd3d6ccf	-0.046246346
67	0x3c310fe6	0.010807013
68	0x3d862fd5	0.06552092
69	0xbcc10ec5	-0.023566613
70	0xbba3c9f4	-0.00499844
71	0xbb2c4199	-0.0026284216
72	0x3ded7d12	0.11596121
73	0x3cdb28d5	0.026752869
74	0xbc622368	-0.013802387
75	0xbca07a2a	-0.019589502
76	0xbe02d3c0	-0.12776089
77	0xbc83085f	-0.015995203
78	0xbbe75370	-0.007059507
79	0xbc275607	-0.010213382
80	0x3d52a755	0.05142911
81	0xbd8df7a2	-0.06931998
82	0x3b317039	0.0027074947
83	0xbd4d409e	-0.050110452
84	0xba9e3270	-0.0012069475
85	0xbcaa3ce1	-0.020780982
86	0x3d30a946	0.04313018
87	0x3d0eb944	0.03484465
88	0x3cff4226	0.031159472
89	0x3c8299b2	0.015942428
90	0x3b9c33b0	0.004766904
91	0x3bd8daaf	0.006617866
92	0xbc853565	-0.016260812
93	0xbb73204c	-0.0037098108
94	0xbc956278	-0.01823543
95	0x3d9810de	0.07425092
96	0x3dd1b724	0.102400094
97	0xbde3987a	-0.11113067
98	0xbaca122b	-0.0015416791
99	0x3c055fa8	0.008140482

mean.4.weight f4 [2, 100]
0	0x3debb19b	0.11508485
1	0x3d761d24	0.060086384
2	0xbdda64d0	-0.1066376
3	0x3e807f54	0.25097144
4	0xbd52cbf4	-0.051464036
5	0x3e90c11c	0.2827233
6	0x3e15ff4b	0.14648168
7	0xbe450c1d	-0.19242902
8	0xbd7963a3	-0.060886037
9	0x3e742a55	0.23844273
10	0x3e1ee0f0	0.15515494
11	0x3c6e85b8	0.014558248
12	0xbd649bde	-0.05581271
13	0x3e2476a6	0.16060886
14	0xbd1cad30	-0.038251102
15	0xbd369ed3	-0.04458506
16	0xbe172da0	-0.14763498
17	0x3b86304e	0.004095114
18	0xbd2704fc	-0.040776238
19	0xbe171f66	-0.14758071
20	0x3e4f7d91	0.20262744
21	0x3dc4faa2	0.09618117
22	0xbe0efe80	-0.13964272
23	0xbd522a37	-0.05130979
24	0xbe268da1	-0.16264965
25	0x3e1cc016	0.1530765
26	0xbe359f58	-0.17736566
27	0xbe012b92	-0.12614277
28	0x3da2f0f0	0.079561114
29	0x3c4f169d	0.012639669
30	0x3dc7765c	0.09739372
31	0xbc871f5b	-0.016494444
32	0x3e7ef744	0.24899012
33	0xbccc25b8	-0.02492033
34	0x3e586ba2	0.21134809
35	0x3d11d80f	0.03560644
36	0x3e990b97	0.29891655
37	0xbe7e50cf	-0.24835514
38	0x3dc3896e	0.09547697
39	0xbe0fd148	-0.14044678
40	0x3e6f57e8	0.23373377
41	0xbe3c0d9a	-0.18364564
42	0x3dd8d97b	0.10588356
43	0xbd9aa050	-0.075501084
44	0xbd3f52ec	-0.04670994
45	0xbdb5f3c9	-0.08884389
46	0x3e335ce3	0.17515902
47	0xbcc2cd7f	-0.023779629
48	0xbcb71457	-0.022348566
49	0x3e6b3501	0.22969438
50	0x3e713ed8	0.23559129
51	0x3b7302b8	0.0037080478
52	0xbde32590	-0.11091149
53	0x3dc77df1	0.09740818
54	0xbd9df656	-0.077130005
55	0x3eaa3841	0.33246043
56	0x3dd6c7ee	0.10487352
57	0x3e31f455	0.17378362
58	0x3e229e4d	0.158807
59	0xbd30c6ef	-0.043158468
60	0xbe462473	-0.19349842
61	0xbcfbdc2f	-0.03074464
62	0xbdc1b49d	-0.094582774
63	0x3d088632	0.033331104
64	0x3e2107dd	0.15725656
65	0x3e756f95	0.23968346
66	0x3e0530f5	0.13006957
67	0x3e3a2bc5	0.18180759
68	0x3dc96964	0.09834555
69	0xbe393eaf	-0.18090318
70	0xbcd00050	-0.025390774
71	0xbd1d3fa0	-0.038390756
72	0xbddb51ab	-0.10708936
73	0xbe4b0e5a	-0.19829693
74	0xbd65957c	-0.056050763
75	0x3d8f5dbc	0.070003
76	0xbd22d970	-0.039758146
77	0x3e685ea1	0.22692348
78	0xbe39f579	-0.18160047
79	0x3d606568	0.05478421
80	0x3e17d307	0.14826594
81	0xbd2ad698	-0.04170856
82	0x3de00b5e	0.10939668
83	0x3e67d428	0.22639525
84	0xbe4254f0	-0.18977714
85	0xbe4803bd	-0.19532676
86	0x3e6fc414	0.23414642
87	0xbc0160c4	-0.007896606
88	0x3e853ff2	0.2602535
89	0xbde50f5b	-0.111845694
90	0xbc1a57e4	-0.009420369
91	0xbc56f89a	-0.013120795
92	0x3e3eee5e	0.18645617
93	0xbe2a2280	-0.16614723
94	0xbcf83023	-0.03029639
95	0x3dedd862	0.11613537
96	0xbe411902	-0.18857196
97	0x3db6f6fc	0.08933827
98	0x3e4aa3fe	0.1978912
99	0x3cd67072	0.026176665
100	0x3e0ba9c6	0.13638982
101	0x3e24cd40	0.16093922
102	0x3d6444f9	0.05572984
103	0xbdd016cd	-0.10160599
104	0x3e1e515c	0.15460724
105	0xbe3e3067	-0.18573152
106	0xbe3cf27c	-0.18451875
107	0x3c88e64f	0.016711382
108	0x3e1c07c9	0.15237345
109	0x3e71b954	0.23605853
110	0xbd82e89a	-0.063920215
111	0x3dd30edb	0.10305568
112	0x3c95a612	0.018267665
113	0xbe350598	-0.17677915
114	0xbdf3d692	-0.119061604
115	0xbdc9b758	-0.09849423
116	0xbd8d8a2a	-0.06911118
117	0x3db80634	0.08985558
118	0x3de3e7d7	0.11128204
119	0xbe057058	-0.13031137
120	0xbd2d38d6	-0.04229053
121	0x3e3d157b	0.18465225
122	0x3e0fd05c	0.14044327
123	0x3d27d08a	0.040970363
124	0xbdc17a6f	-0.094471805
125	0xbe340c1d	-0.17582746
126	0xbe51b998	-0.20480955
127	0xbe745b20	-0.23862886
128	0xbe410800	-0.18850708
129	0xbdc549f3	-0.09633245
130	0x3cb064ba	0.021532405
131	0x3e3bac52	0.18327454
132	0xbdb19e98	-0.086728275
133	0x3e524b1d	0.20536466
134	0x3e022c5c	0.12712234
135	0x3d946111	0.072450764
136	0x3cfccb14	0.030858554
137	0x3d7d6e5d	0.06187283
138	0xbc37d19c	-0.011219408
139	0xbc5571d0	-0.013027623
140	0xbea90d9e	-0.33018202
141	0xbdb5a258	-0.08868855
142	0xbdbdbb13	-0.09264197
143	0xbe4e303a	-0.20135584
144	0xbe760edc	-0.24029106
145	0x3e577b39	0.210431
146	0x3c254082	0.010086181
147	0x3e3382d7	0.1753038
148	0x3e10f700	0.14156723
149	0x3daa0314	0.08301368
150	0xbe7d4f96	-0.24737391
151	0xbd8f24e8	-0.06989461
152	0x3e02ee71	0.1278627
153	0x3d115195	0.035478193
154	0xbe4007a9	-0.18752922
155	0x3de5f75e	0.11228822
156	0x3e35e850	0.17764401
157	0x3dad30d1	0.084565766
158	0xbe33eb21	-0.17570163
159	0x3dc65bcc	0.096854776
160	0x3e0b0ce0	0.1357913
161	0x3d809d78	0.06280035
162	0xbdfa9ec7	-0.122373156
163	0x3d5efc8e	0.054440074
164	0xbe802ff6	-0.2503659
165	0xbe1a2786	-0.1505414
166	0xbdfafac0	-0.12254858
167	0x3e74589a	0.23861924
168	0xbe62fb30	-0.22166133
169	0x3da47acb	0.080312334
170	0x3b7092c8	0.0036708582
171	0x3c0fcf44	0.008777443
172	0x3d9e7288	0.07736689
173	0xbdf3240a	-0.11872108
174	0x3df288ca	0.11842497
175	0x3e6d6efa	0.23186865
176	0xbe31c5d3	-0.1736062
177	0x3de0aca8	0.109704316
178	0xbcda64f0	-0.026659459
179	0xbb36fbb8	-0.0027921032
180	0xbd500c9a	-0.050793268
181	0x3e1d34f6	0.15352234
182	0x3e25e29a	0.16199723
183	0xbdee7121	-0.116426714
184	0xbe827fdc	-0.25488174
185	0xbd340d98	-0.043958277
186	0x3e06c9b0	0.13162875
187	0xbe85687e	-0.26056284
188	0x3e133026	0.14373836
189	0xbc822347	-0.015885962
190	0xbe091e0e	-0.13390371
191	0x3d063bdb	0.032771926
192	0x3e006f74	0.12542516
193	0xbe78b57c	-0.24287981
194	0xbe528dde	-0.2056193
195	0xbe84715b	-0.25867733
196	0x3e2f58b7	0.17123686
197	0xbeaac09e	-0.3335008
198	0x3da6f144	0.081514865
199	0x3e1c1101	0.15240861

mean.4.bias f4 [2]
0	0xbd917888	-0.07103068
1	0x3d91788c	0.071030706
