save/exp29/it29_model.pt (torch, 48231 bytes, 7 tensors)

sigma f4 [2]
000000 b2 5e bd 3e 6f 54 d1 bf
       0.3698631 -1.6353892

mean.0.weight f4 [100, 10]
000000 bb 66 8d be eb 35 a0 3e f6 5a a8 bd 60 16 10 3f
       -0.2761744 0.31291136 -0.082204744 0.5628414
000010 a3 d4 c1 bc fc 43 51 3e ea 15 1e 3e 33 d4 56 3c
       -0.023660963 0.2043609 0.15438047 0.013112116
000020 df 69 44 3d 6b fa 12 3d fc e4 a3 bd 4e 97 ae be
       0.04795253 0.03588335 -0.0800266 -0.3409981
000030 f6 a8 47 be 0d fa da 3d c3 4e e0 bd 18 4c 8f 3d
       -0.19498047 0.10692225 -0.109525226 0.069969356
000040 6c ee e1 bd 4a 64 3e 3e d4 18 aa 3d 93 f0 b3 3d
       -0.110318035 0.18592945 0.08305517 0.0878612
000050 22 7c c5 bd 13 e2 55 3e 47 f7 04 3f da b6 8e be
       -0.09642817 0.20887022 0.51939815 -0.2787388
000060 20 be 24 3f a1 3b f6 bd 6d b4 f5 3c cd 9d 0d 3e
       0.6435261 -0.12023092 0.02999326 0.13829727
000070 7e 60 f6 bd ae b6 8a 3e 29 bb 47 3e f1 bf d3 3e
       -0.12030123 0.270925 0.1950499 0.41357377
000080 c2 5f 52 be f7 ea e5 bd bd 50 e3 3e f3 e7 1f be
       -0.20544341 -0.112264566 0.44397536 -0.15615825
000090 ec 34 70 be 1c 35 ef 3e 94 13 1e 3e 44 e7 18 bf
       -0.23457688 0.46720207 0.15437156 -0.59727883
0000a0 e2 34 e6 3c 89 67 36 bd fa b8 2f 3d b3 c8 4b be
       0.028101388 -0.044532333 0.042901017 -0.1990078
0000b0 cf c3 60 bc 98 ad eb bd b6 7a fc bd ba b8 5a be
       -0.013718559 -0.1150772 -0.12328093 -0.2135953
0000c0 f4 59 9d 3d e4 bc cf 3c 36 60 52 be 60 7e 8e 3e
       0.07683173 0.025358625 -0.20544514 0.2783079
0000d0 4a 60 10 3e e5 2b 38 3e 9f ed d1 bd f7 de 08 3e
       0.14099231 0.17985494 -0.10250401 0.13366304
0000e0 2a 9d 5a 3e 4e 86 c1 3d 5d 06 61 bd a0 43 8e 3e
       0.21349016 0.09449445 -0.05493771 0.2778597
0000f0 c1 86 19 3e e1 43 f1 3c d0 a9 d3 3e 9d 39 16 bc
       0.14992811 0.029451312 0.41340494 -0.0091690095
000100 03 6d 8c be b0 a2 5a 3d 27 64 77 3d 0c 89 31 be
       -0.2742692 0.053377807 0.060398247 -0.17337435
000110 0c 30 8b be 82 3a 5e be fe 78 f7 3d 6c 36 1c be
       -0.27185094 -0.21702006 0.12083624 -0.15255135
000120 75 b6 35 bc 08 9f 0a 3e cc ea 50 3e 90 5f 5a 3e
       -0.011090864 0.13537228 0.20402068 0.21325517
000130 3d 22 04 3e 65 49 e3 3b 12 cf d3 3d 74 dc b0 bd
       0.12903686 0.0069362395 0.1034223 -0.08635798
000140 85 4d 87 3d 9d 1d 9d 3d 7e cb 6f be 7b 41 a4 be
       0.066065826 0.07671664 -0.2341747 -0.32081208
000150 3b de 1f 3c ce 01 7e be de 47 88 bd a3 2a 9d be
       0.009757574 -0.24805376 -0.066543326 -0.30696592
000160 ca 67 61 bd 43 4b 56 3d 03 e9 0b be 40 0d e0 3d
       -0.05503062 0.05231787 -0.13663106 0.10940027
000170 f2 19 e5 3d 90 b1 70 be 70 b9 37 be 0d 3d 61 be
       0.11186589 -0.23505235 -0.17941833 -0.21995945
000180 e0 2b 03 be ef 92 0e be 88 df 0f bd ec 2e 67 bd
       -0.12809706 -0.13923238 -0.035125285 -0.056441233
000190 86 64 10 be e7 2e a0 3c f9 e8 c6 bc 45 86 ae 3e
       -0.14100847 0.019553615 -0.024281012 0.34086815
0001a0 65 15 b5 bc 78 00 1b be f4 b5 ce 3d 58 92 65 bd
       -0.022104928 -0.15136898 0.100932986 -0.056047767
0001b0 30 ab 9a 3e 08 0d 5d 3e 5b 4f 57 3e 3c 3e 1a 3e
       0.3020873 0.21587002 0.21026365 0.15062803
0001c0 22 5d 84 3e 2f 62 31 3e 1f d7 af bd 7e ad d8 3e
       0.25852305 0.1732261 -0.08585953 0.42319864
0001d0 30 7a c0 3e b0 ba b1 3c a5 b7 b3 3e 50 6f 89 be
       0.37593222 0.021695465 0.35101047 -0.26842737
0001e0 10 42 fa be d5 30 5b 3e 08 97 95 3e 5e 6b ce be
       -0.48878527 0.21405347 0.2921679 -0.4031629
0001f0 3f 13 1c 3d 8e 65 bb be 0f 6e fe 3d 63 33 e3 3d
       0.038104292 -0.36600918 0.12423336 0.110937856
000200 2c f5 9f be a0 6f 1a bd 60 3b ed 3d 55 5f 25 bc
       -0.3124174 -0.03770411 0.115835905 -0.01009353
000210 5a 9a 3a 3d 31 91 de 3d 65 c9 4b 3e ce 39 db bd
       0.045557357 0.10867537 0.19901045 -0.10704385
000220 ae bb 3f bd 80 b9 9c 3d 53 c3 11 3e 04 78 99 3e
       -0.046809845 0.07652569 0.14234667 0.29974377
000230 5d df b5 be a3 3c e2 bd cc 5b 3c 3b b4 81 95 3d
       -0.35521975 -0.11046722 0.0028741239 0.073001295
000240 27 05 d8 3d fe 4b d3 bd 99 ff 9c be 4b 56 d4 bd
       0.10547858 -0.10317229 -0.30663756 -0.103680216
000250 0b 3a 31 be 0e 1a e9 bd 34 4e bd bd a6 f5 91 be
       -0.17307298 -0.11381923 -0.09243432 -0.28507727
000260 0b 9f c8 bd 2e c5 d0 bd cc aa 1d be d6 9d 1f 3e
       -0.0979596 -0.10193859 -0.15397185 0.15587553
000270 ad ae 04 be 98 37 8c 3d 18 fe 14 bd 24 c5 54 be
       -0.12957259 0.06846541 -0.036375135 -0.20778328
000280 c5 3e c9 3e bc a9 e6 3e 72 12 93 be ac 9a 95 3d
       0.39305702 0.45051372 -0.2872501 0.07304892
000290 97 c3 dd 3e 34 02 18 be 7e 2b 88 be 00 09 e8 3e
       0.43313286 -0.1484459 -0.26595682 0.45319366
0002a0 98 ea 24 3e c1 6d 37 bf b8 61 35 3c 60 89 3f bb
       0.16105115 -0.71651846 0.011070661 -0.002922617
0002b0 d6 31 33 be 74 d7 b4 bc f6 61 7b be be 8d 19 3e
       -0.1749948 -0.022075392 -0.24549088 0.14995477
0002c0 ad a7 e4 3d 00 f0 12 3c 86 06 c9 bc 70 49 28 bd
       0.11164794 0.008968353 -0.024539243 -0.04108566
0002d0 f1 30 fa be 16 0b af be 6b 3f 40 be 81 d2 c9 be
       -0.48865464 -0.34188145 -0.18774192 -0.39418414
0002e0 24 66 3d bf 0e 71 c8 bd 1a bf b3 bd 2d 00 15 bf
       -0.7398398 -0.097871885 -0.08776684 -0.58203393
0002f0 e7 71 be 3d 95 7d bd 3d ae a5 d7 bd ae 46 1b 3e
       0.09299069 0.092524685 -0.10529648 0.15163681
000300 a3 b9 58 3d 71 f4 9c be 7d e7 44 3e 26 0b 90 3e
       0.052911412 -0.30655244 0.19228931 0.28133506
000310 d0 50 d8 be 00 c0 06 be 6d c3 81 3e 26 d5 0b bd
       -0.42249155 -0.1315918 0.2534441 -0.03413882
000320 b2 cb 30 be a6 bd cc bd f4 a5 7b bd cc 59 cb bc
       -0.17265204 -0.0999711 -0.061437562 -0.024823092
000330 30 f7 71 be 9d c4 b9 3d d0 86 b2 3d 18 ad 91 be
       -0.23629451 0.09070704 0.0871712 -0.28452373
000340 a4 c3 8f bd c0 58 cc bc ec 11 05 bd 06 2d 30 3e
       -0.07019737 -0.024944663 -0.032487795 0.17204675
000350 2a 0d 6c be 4c f0 61 be 39 f1 a3 3d 08 a8 20 be
       -0.23051897 -0.22064322 0.08004994 -0.15689099
000360 b8 34 9e bc 20 9d 10 bd e6 25 e6 be 7f b8 8b 3d
       -0.019312248 -0.035306096 -0.4495079 0.06822299
000370 01 b6 bd bd 88 7f ff bd da 46 ca bd ee 3b 84 3d
       -0.0926323 -0.124754965 -0.09876795 0.06456743
000380 4a 23 33 be 58 f0 9e be d1 08 e4 3e bd 66 0d 3e
       -0.1749393 -0.31042743 0.44537976 0.13808723
000390 64 77 0f bf fd 29 be 3e 65 77 fd bd fa 70 05 3b
       -0.5604155 0.3714141 -0.12376288 0.0020361529
0003a0 6a bb 82 3e e7 07 88 3e ca 42 f2 bd 52 cc a6 3e
       0.2553361 0.2656853 -0.11829145 0.3257776
0003b0 6f c4 89 3e 5e 80 38 3e 56 06 60 3e 4a a8 7d be
       0.2690768 0.18017718 0.21877417 -0.24771228
0003c0 28 5e 21 bd b9 df 26 be d2 39 86 bd 9a c5 3c 3d
       -0.039396435 -0.16296281 -0.06553997 0.046086885
0003d0 4b d9 9d bc a7 e3 5a be f3 55 e8 3d 8d aa 31 3e
       -0.019268652 -0.21375905 0.113445185 0.17350216
0003e0 93 9b 84 be 9b 00 ce 3b 22 ca 10 be b6 2a 86 3c
       -0.25899944 0.0062866933 -0.14139608 0.016377788
0003f0 5a 8a 6e bd cf 80 cd bd 5d 9d 21 3e 0d b2 c3 ba
       -0.05823741 -0.10034334 0.15782686 -0.0014930383

mean.0.bias f4 [100]
000000 c0 66 60 be 67 41 4c bd 88 0c b0 be b3 94 8e bd
       -0.21914196 -0.04986706 -0.3438456 -0.06961956
000010 93 9b 78 bd ba dd 36 bd e2 be 70 bd 3f ef d4 bd
       -0.060695242 -0.04464505 -0.05877579 -0.10397195
000020 0d 90 e1 bd e9 5d b5 bd e0 73 3f bb 8b 5c 32 3d
       -0.11013804 -0.088558026 -0.0029213354 0.043545287
000030 af ef c7 bd da dd 16 bd a7 4b 08 3d 89 1b 0c be
       -0.09762513 -0.036832668 0.033275273 -0.13682379
000040 d4 e2 2f be 88 f1 83 be 02 7a 28 be ad 58 cc bd
       -0.17176372 -0.2577021 -0.16452792 -0.09977851
000050 d4 96 66 be 6c 91 ac be c9 d5 b0 3d 1d ba ed 3d
       -0.22518474 -0.33704698 0.08634526 0.11607764
000060 5a 87 10 ba f6 95 1a bd fa 6e da 3c 78 a8 b0 3d
       -0.0005513333 -0.03774067 0.026664246 0.08625883
000070 a7 ed 5c 3e fa 94 bd bd f7 6b 87 bb 41 99 8a bd
       0.21575032 -0.09256931 -0.0041327435 -0.06767512
000080 18 a2 db bd ed 82 0c be e5 af 0b bc 77 ce 50 3d
       -0.10724276 -0.13721819 -0.008525823 0.05097815
000090 03 19 cf 3d 08 0a 2a be 1d 3b 5c bd d1 3e 07 3c
       0.101121925 -0.16605389 -0.053767312 0.008254723
0000a0 49 a7 35 3d 05 0a bc bd 52 5b a6 bd 00 59 15 bd
       0.04434899 -0.091815986 -0.08122887 -0.03646183
0000b0 0c 2e 71 3d dd f9 45 bd e5 93 ee 3d 21 68 52 be
       0.058881804 -0.04833399 0.116493024 -0.20547535
0000c0 c3 5f c6 bc d8 69 07 3c 1d 94 96 3e f7 54 16 3e
       -0.024215585 0.008264981 0.29409876 0.14680849
0000d0 53 a3 c3 3d d4 38 86 be 7a 0b 4f 3e 41 d6 18 be
       0.09552636 -0.2621523 0.20219222 -0.14925481
0000e0 2a 5d 69 3d 56 3c 73 bc 29 6d be 3d 2a cd 98 bd
       0.056973614 -0.014845928 0.092981644 -0.07461007
0000f0 af 9c cd 3d db 05 e5 bd 6b 38 87 3d 48 23 f6 3d
       0.10039651 -0.111827575 0.06602558 0.12018448
000100 9d 97 53 be 74 72 92 bd fe cc f9 bd 24 21 aa 3e
       -0.20663305 -0.071507365 -0.12197302 0.3322841
000110 de 70 87 bc dc f3 2e 3e 72 40 ed bd 89 7e 0a be
       -0.016533311 0.17085212 -0.115845576 -0.13524832
000120 9f b4 6f bd 04 f1 60 3e 88 ec 31 3d bd ba 13 3e
       -0.058521863 0.2196694 0.043438464 0.14426704
000130 e7 dd 4e be e8 b8 4d be a2 6c 5e 3b b2 d1 1e be
       -0.20201837 -0.20090067 0.0033939262 -0.1550968
000140 e1 46 87 bd eb 21 14 bc ad 99 5a be a3 84 e9 bd
       -0.06605316 -0.00904129 -0.21347685 -0.114022516
000150 0d 7f 5f 3b 4d 47 98 bd 0c a1 5f 3d 2d b4 82 3c
       0.0034102828 -0.074354745 0.054596946 0.015955055
000160 75 1e 52 3e d3 bd 2e 3e 40 1d 3a 3c 67 0e 08 bd
       0.20519431 0.170646 0.011359513 -0.03321686
000170 6c b3 94 3e 3d c2 84 3d 93 08 09 be 43 64 14 bc
       0.29043138 0.064823605 -0.13382177 -0.009057107
000180 3d 79 e6 bd 3c 8e 9a be a5 c2 c3 bd a6 e7 a8 bd
       -0.11253593 -0.3018664 -0.0955861 -0.082473084

mean.2.weight f4 [100, 100]
000000 76 e9 af bd 02 e6 f1 bd 06 57 30 be f6 ea d3 3d
       -0.08589451 -0.11811449 -0.17220697 0.103475496
000010 6e 5e 9d 3d 61 be 0d bd 2d a1 22 3e 1a d2 dd bd
       0.07684027 -0.034605388 0.15881796 -0.10831089
000020 b4 65 03 bd 07 4d a8 bb 34 84 91 3d 83 71 33 3e
       -0.032079414 -0.0051361355 0.07105294 0.1752377
000030 ba 48 d0 bd 69 31 37 3e fa 98 2a 3e ed 3d 3c 3d
       -0.101701215 0.17889942 0.16659918 0.045957495
000040 ee cb c6 bd 5e a7 73 3d 32 9b 2e 3d a9 f7 6d bd
       -0.09706865 0.059485786 0.042628475 -0.058097515
000050 4f 80 2c 3e f6 fe 0f be 25 b0 48 bd a8 1b 1b bd
       0.16845821 -0.14062104 -0.04899611 -0.037868172
000060 2a 5a 30 bd df 3f 05 3e bf 74 39 bc d9 45 0b 3d
       -0.043054737 0.13012646 -0.011319338 0.03400216
000070 4f 2f 20 be f1 07 e6 bd fb d0 de 3d 89 da 58 bd
       -0.15643047 -0.112319835 0.108797036 -0.052942786
000080 c7 d8 7d 3d e7 44 fe bd fd 99 c7 bd f0 3f b7 3d
       0.061974313 -0.12415486 -0.09746168 0.08947742
000090 b9 cf 01 3e 41 00 30 3c 18 2e 25 be bb 2f e5 bd
       0.12676896 0.010742248 -0.16130865 -0.111907445
0000a0 e7 15 8a bd f0 c1 c6 3d 93 c6 07 be 02 a1 e8 bd
       -0.06742459 0.097049594 -0.13259344 -0.11358835
0000b0 49 b4 28 be 3a 33 fb bd 1b 42 02 3e c5 dc 85 bd
       -0.16475023 -0.1226563 0.1272053 -0.06536249
0000c0 72 64 0b bd 64 68 80 3a 56 46 07 bd 1f e0 80 bd
       -0.03403134 0.0009796736 -0.033026062 -0.06292748
0000d0 5d 22 99 3c 2e e5 b4 bd 51 d4 fa 3d 86 d3 e7 bb
       0.018693144 -0.08832775 0.122475274 -0.007074776
0000e0 dc b0 9d 3d fd 3f 19 3c ac 5e 0a 3e 34 94 bd 3d
       0.07699749 0.009353635 0.13512677 0.09256783
0000f0 9b 6b a2 bd 45 0a 28 bd c1 ab 03 3d 4d 9b 72 bd
       -0.0793068 -0.04102542 0.03214622 -0.059230138
000100 3c 19 e4 bd d9 e1 0d 3e 38 b2 e8 3d c3 68 b2 bd
       -0.111376256 0.13855685 0.113621175 -0.08711388
000110 41 41 33 3d c2 07 e1 3d 58 33 d5 bd 79 7d d1 bc
       0.043763403 0.10987808 -0.10410184 -0.025572525
000120 d8 4f 0f be cf 6c 1d be 53 ce 0c 3e 54 c3 c1 3d
       -0.13995302 -0.15373538 0.13750581 0.09461084
000130 46 74 da bd 3d b8 51 bc dd 58 a1 bd 76 ce 0c bd
       -0.10666709 -0.0128002735 -0.078782775 -0.034376584
000140 67 bc 19 bd 17 f6 5c 3d ec 7b 06 3d b2 db ee bd
       -0.03753319 0.053945627 0.032833025 -0.11662997
000150 ea 8d c5 3d c1 d9 28 3c ae 0f a7 bd 65 ad cc bd
       0.096462086 0.010305823 -0.081572875 -0.0999401
000160 46 d5 f0 3a 6f ed 6c 3d 69 e9 23 be c6 a0 29 bd
       0.0018374107 0.05784362 -0.16007008 -0.04141309
000170 fa e6 f2 bd d2 67 2e be 69 91 c2 3d 47 a8 75 bd
       -0.118604615 -0.17031792 0.09500391 -0.059974935
000180 27 1b 26 be 0e a6 4c bd 2d 9b b7 bd df 0f cf 3d
       -0.16221295 -0.04996305 -0.08965144 0.10110449
000190 ee 39 0f bd 86 d5 da bd 37 5e a6 bd f3 ec 8a bc
       -0.034967355 -0.106852576 -0.08123439 -0.01695869
0001a0 9c d2 08 3e 7b 91 47 3c b5 d5 e7 bd 44 fa 19 bd
       0.13361591 0.012180681 -0.11320058 -0.037592188
0001b0 c0 e8 1a 3e ae 16 1a be a6 95 86 bd ed d0 2b 3e
       0.1512785 -0.15047714 -0.06571512 0.16778918
0001c0 73 2e 81 bd b7 5b 08 3e 77 86 f4 bd 5a a8 0b 3e
       -0.063076876 0.13316236 -0.1193971 0.1363844
0001d0 c7 95 18 3e 91 d4 f3 bc 51 4f 34 be 40 ad 58 bd
       0.14900886 -0.029764445 -0.17608382 -0.0528996
0001e0 6f 64 28 3d cb 49 78 bd 4c 7b 05 be c7 5f 12 be
       0.041111406 -0.06061725 -0.13035315 -0.14294349
0001f0 da b6 b6 3d 0a 08 0a 3e 94 d6 97 bd f7 3e 22 3c
       0.08921595 0.13479629 -0.074139744 0.009902707
000200 44 d0 f7 bd 42 f1 c4 3d 52 1b e9 bd c5 6f c9 bd
       -0.121002704 0.09616329 -0.11382164 -0.098357715
000210 b1 8b 8f bd 06 a3 8b bc ab 42 ae 3c 9a b2 1e be
       -0.07009066 -0.01704551 0.021272024 -0.15497819
000220 a8 2e 88 bd 4a f6 92 bd 22 3f 11 bd 41 e6 80 bc
       -0.06649524 -0.07175882 -0.0354606 -0.015734794
000230 99 4a 45 bc 5e 09 c5 3d 00 08 c9 bd 63 f1 e8 ba
       -0.012041711 0.09620927 -0.09815979 -0.0017772134
000240 ce 9b 1a 3e e7 05 ce 3c 83 5c 0e be ec 29 07 3e
       0.15098497 0.025149299 -0.13902478 0.13199586
000250 e2 c1 18 be 0d 96 6f 3d 38 1d 1f 3e 5f b5 3d 3c
       -0.1491771 0.05849271 0.1553849 0.011578887
000260 ca 17 f6 3d 6f 96 08 3e 7c 7c 85 3d 5b 14 5c bd
       0.12016256 0.13338636 0.06517884 -0.05373035
000270 d5 94 00 3d b4 dc 0e 3e 45 28 18 3d 6c 22 01 be
       0.031391937 0.13951379 0.03714778 -0.12610787
000280 d8 4e 18 3e cb 43 39 3e ba 5d bc 3d da 6e ba 3d
       0.14873827 0.18092267 0.091975644 0.091031745
000290 ab cc ca 3d fb 94 01 be c8 c0 69 bd b5 58 88 3d
       0.099023186 -0.12654488 -0.057068616 0.066575445
0002a0 0e 5a 32 3d 72 ed 2d 3d 09 f3 27 bb f9 02 35 be
       0.043542914 0.042462774 -0.0025627038 -0.17676915
0002b0 d2 c9 86 3d d6 2b cd bd 18 5f 09 be ea be 35 3e
       0.06581463 -0.10018127 -0.13415182 0.17748609
0002c0 cd 7e 84 3d bd 9e b2 3d 76 78 a1 bd 97 f6 72 3d
       0.06469498 0.08721683 -0.07884304 0.059317198
0002d0 e1 b6 a6 3c 92 5d e3 3d 27 c9 77 3c 25 fa 1c 3e
       0.020350875 0.111018315 0.015123642 0.15329798
0002e0 fc 1f 20 bd 26 47 1e 3e 6d e5 34 3e 6e 62 a2 3c
       -0.039093003 0.15456828 0.17665644 0.019822326
0002f0 ee 5f ff bd 7c ba eb bb 60 22 0c 3e a0 92 ff bd
       -0.12469469 -0.0071938615 0.13684988 -0.124791384
000300 02 ac 79 bd 05 76 22 3d c2 b3 0b 3d 6e 77 21 3e
       -0.060955055 0.039663333 0.034106977 0.15768215
000310 02 1f aa 3c c4 77 00 bb 48 1b 2a 3d 07 f8 0a bd
       0.020766739 -0.0019602636 0.041529924 -0.033927944
000320 6c 99 21 be 25 2f 90 bd 59 32 3b be ac e1 33 3e
       -0.15781182 -0.07040242 -0.18280925 0.17566556
000330 9e 6b 2b 3c f4 32 dd bb f2 af 35 bd e4 bd a7 bd
       0.01046267 -0.006750459 -0.044357248 -0.08190516
000340 4d f9 fc bd a5 64 02 bd c7 75 0a 3d 6a ac cc bd
       -0.12352238 -0.031834263 0.033803727 -0.09993823
000350 97 c5 e4 bd 84 57 ca 3d ad fc 72 bd 84 08 e4 3d
       -0.111705 0.098799735 -0.059323 0.11134437
000360 5b 70 42 3e f2 d6 2c 3e 6c 5c 05 be fc 91 50 3d
       0.18988173 0.1687887 -0.13023537 0.05092047
000370 55 98 06 be 36 31 48 3c 00 e4 f3 3b d9 6c ca bd
       -0.13144048 0.012218764 0.007442951 -0.09884042
000380 e4 5c 3a 3d da d5 3f bd 42 0a be 3d b2 73 2c 3c
       0.045498744 -0.046834804 0.092793 0.010525631
000390 14 97 b5 3d 01 71 e5 3d f8 6b 1e 3d d8 00 fb 3c
       0.088667065 0.112031944 0.038677186 0.03064005
0003a0 8e ab 9f bd 48 9c 18 be 07 45 f0 3d 6a c7 e2 3d
       -0.07796393 -0.14903367 0.11731916 0.110731915
0003b0 f9 60 7f 3d fe 10 1c 3e ff 6d c5 3d 68 0f d6 3d
       0.06234834 0.15240857 0.09640121 0.10452157
0003c0 30 6e 62 bd 14 3f ca 3c 70 38 31 be 42 82 23 be
       -0.055280864 0.024688281 -0.17306685 -0.15967658
0003d0 74 82 6c 3d bd c7 d8 bd 6c e1 b3 3d df 5e 05 be
       0.057741597 -0.10584972 0.0878323 -0.13024472
0003e0 24 7f 15 be e2 12 11 be ce 89 31 3e 78 1e e6 bd
       -0.14599282 -0.1416736 0.17337725 -0.1123628
0003f0 45 07 28 be 17 44 80 3d 7c b1 13 bd 7f 75 2d be
       -0.16409023 0.06262987 -0.036057934 -0.16939352

mean.2.bias f4 [100]
000000 85 e0 0d 3d 7c bb 15 bc 88 fb ab bd 45 7c e5 3d
       0.034637947 -0.009138938 -0.08397585 0.11205343
000010 08 df bd bc de d3 3f 3e 05 97 65 3e bd 72 a3 bd
       -0.023177639 0.18733165 0.2242089 -0.07980869
000020 f7 79 71 3c 7c 3a 22 bb 40 e7 64 bc 3f 02 c0 3c
       0.014738551 -0.0024754098 -0.01397115 0.023438571
000030 6a 4a 0f bb dd 35 85 3d a3 74 cf bd 1b 4e 21 3d
       -0.0021864423 0.06504414 -0.101296686 0.039381128
000040 bd 8c 13 bc ed 61 f4 3d ba 70 26 3d 08 ab 86 3c
       -0.009005723 0.1193274 0.04063485 0.016438976
000050 0f c9 5c 3e f1 c4 4d bd e4 41 e5 bd 6a 7b 28 3c
       0.21561073 -0.050236646 -0.11194208 0.01028333
000060 85 55 c5 bd 79 09 5d 3e fc f0 09 3c ca 8b d7 3d
       -0.09635452 0.21585645 0.008419272 0.105247095
000070 70 d1 23 be 3e 48 c2 bc 93 8e 04 3e 1b 96 af bb
       -0.15997863 -0.023716088 0.12945013 -0.00535847
000080 4d 59 72 3e 4b 67 3f bd 6a af f3 bc 02 6a 05 bd
       0.23666878 -0.046729367 -0.02974673 -0.0325718
000090 b2 4e 44 3d 27 af 1c 3d 69 cf b1 bd fc 34 89 3c
       0.047926612 0.038252976 -0.086821385 0.016748898
0000a0 d6 9f b4 be 7e 59 ca 3c d1 9f 1e be 75 63 02 3e
       -0.35278195 0.024700876 -0.15490653 0.12733252
0000b0 1b 4c a9 bd 55 56 7f 3d 41 a6 84 bd 1c ae 24 bd
       -0.08266469 0.062338192 -0.06477023 -0.040205106
0000c0 ca 86 81 3d 71 b4 4a 3e b0 c7 e8 3c 53 86 c8 3c
       0.06324537 0.19795395 0.02841553 0.024478113
0000d0 33 86 21 3c 65 89 e4 bb b2 2b 45 bd 64 7d 8c bd
       0.009858656 -0.0069743865 -0.048137374 -0.06859854
0000e0 01 de 7c 3d 82 e1 8b bb 86 ec 6a 3e cb 2f ba 3c
       0.061735157 -0.004268826 0.22941789 0.022727868
0000f0 80 25 ed 3d 52 05 c8 3c 2e f4 d1 3b bc 9b b9 bc
       0.11579418 0.0244166 0.0064072823 -0.022657268
000100 33 6a 58 3e 5d a2 82 3e 20 19 cf bd 7e 50 e1 bc
       0.21134262 0.25514498 -0.10112214 -0.027504202
000110 c2 e8 25 3e 33 88 a2 bd 7b 67 46 3d 47 4a f6 3c
       0.16202071 -0.07936134 0.04843853 0.030064715
000120 53 b0 44 bd 31 99 ec bc 03 05 0b bd 84 74 ca 3c
       -0.04801972 -0.028881641 -0.033940326 0.024713762
000130 c8 99 31 bd 9b 86 fc 3d 19 7e 8b bc fc a2 6c 3d
       -0.043359548 0.123303615 -0.017027901 0.05777262
000140 fc 25 51 3e 3c f2 ab 3c bd cb fa ba eb 2a cf 3d
       0.20424646 0.02098953 -0.0019134205 0.10115608
000150 38 5d 96 3c 27 ca cb bc 6d d4 b7 3d 7a db 08 3e
       0.018354997 -0.024876667 0.08976064 0.13364974
000160 01 68 29 3e 9a 01 32 3c 7b 4a 08 bd 3d 6b 94 3d
       0.1654358 0.01086464 -0.033274155 0.072470166
000170 f8 c0 bb 3c 6a 8f 23 bd ab 0b 8a 3d 2b 55 96 3e
       0.022919163 -0.039931692 0.06740507 0.29361853
000180 8f b4 6b 3d a4 8c a3 bd 62 ab 9f 3c c8 0c 9c bd
       0.05754524 -0.079858094 0.019490901 -0.07619625

mean.4.weight f4 [2, 100]
000000 bc 92 8e 3d 0a 84 22 3c ea 59 15 be 55 65 1b 3f
       0.06961581 0.009919176 -0.1458508 0.60701495
000010 d2 ea 4e bd c7 74 28 3f 2b 4e b1 3e 02 69 6d be
       -0.05051691 0.6580319 0.3462995 -0.23184589
000020 ca 50 17 be 3d 08 b9 3e 7b 81 1f 3e f1 a6 01 be
       -0.14776912 0.36139098 0.15576737 -0.1266134
000030 f7 4a 66 bd ad d2 a2 3e 05 37 e7 3c 1a d3 2b 3e
       -0.056223836 0.31801358 0.028224478 0.16779748
000040 c5 2d a0 bd dd 83 1f 3e 04 15 d4 bd e0 ac 49 be
       -0.0782123 0.15577646 -0.10355571 -0.19694853
000050 8e b2 c2 3e 2f 97 82 3d 70 a4 91 be f0 22 93 bc
       0.3802685 0.06376492 -0.28445768 -0.017960995
000060 98 fd 85 be ef 1e f6 3e 09 b5 1f be 3d 53 e6 bc
       -0.2617004 0.48070475 -0.15596403 -0.028115863
000070 ee a0 32 3e 6d af 0e 3e 3d 73 8a 3e ba 46 03 be
       0.17444202 0.13934107 0.27041045 -0.12819949
000080 c5 d5 0a 3f 32 39 33 be 93 f6 4b 3e 91 60 ce 3d
       0.54232436 -0.17502287 0.1991828 0.10077012
000090 f9 e0 e1 3e 97 f0 05 bf 91 24 b2 3e 2b f4 97 be
       0.44116953 -0.52320236 0.34793523 -0.29678473
0000a0 e8 f1 a9 3e 4f d2 cb be 04 f2 d9 3d 11 1a 40 3e
       0.33192372 -0.3980889 0.10641864 0.18759944
0000b0 b7 fd c2 bc e6 7b f7 be 17 c6 37 3e be 17 25 bd
       -0.023802621 -0.48336715 0.17946659 -0.040305845
0000c0 c3 ed 56 be 89 87 e8 3e 80 83 97 3e a3 5d 08 3d
       -0.20989136 0.45415905 0.29592514 0.033292424
0000d0 2f f4 af be 49 21 db 3d ee 82 92 bd c0 3c dd 3e
       -0.34365985 0.10699708 -0.07153879 0.4321041
0000e0 8b 15 9b 3d 31 0e 3d 3e a8 14 a2 3e fc 86 56 be
       0.07572468 0.18462445 0.31656384 -0.2094993
0000f0 1e a6 2d bf e7 0f 92 bd 4b 83 fc bd 8b 8a b8 bd
       -0.678316 -0.071319394 -0.1232973 -0.090108
000100 a6 93 c1 3e b1 49 46 3f aa a9 a8 3d fa af 98 3d
       0.3780796 0.77456194 0.08235486 0.0745544
000110 d9 f9 11 3f b7 16 91 be 30 c2 25 be 11 d8 62 bd
       0.5702186 -0.28337643 -0.16187358 -0.05538184
000120 71 87 a3 3b 9b 82 a7 be 8b 44 77 bd e0 4d 90 3d
       0.004990511 -0.32716832 -0.060368102 0.070461035
000130 7b 8d ff bc b1 28 a2 3e d9 1f 5d be 2d 05 53 3e
       -0.031195393 0.3167167 -0.2159418 0.20607443
000140 36 3e c5 3e 43 81 5a be 9f 45 09 3d c7 fa e3 3e
       0.38524026 -0.21338372 0.03351366 0.44527265
000150 84 fb 33 3d fd 8d 87 be 27 5c 9b 3e 41 fe 55 3e
       0.043941036 -0.26475516 0.30343744 0.20897771
000160 0d 7b 0e 3f 9f 79 a4 be 2d a4 2f 3b 0e 8b 3f 3e
       0.5565651 -0.3212404 0.0026800737 0.18705389
000170 5f 8a 51 3e a1 85 ec bd 12 ad c5 3c b2 32 3a 3f
       0.2046294 -0.11548925 0.024130378 0.72733605
000180 08 b4 2e bf 1c c6 12 3f 99 33 74 3e 86 d8 df bc
       -0.68243456 0.5733354 0.23847808 -0.027324926
000190 39 39 3a 3e 2c 2c 58 3e 52 71 c2 3d 74 50 ea be
       0.18185891 0.211106 0.094942704 -0.45764506
0001a0 1b 59 1d 3e 55 a0 0f bf d7 c7 c4 be 9e e8 65 3d
       0.15366022 -0.5610402 -0.38433716 0.056130044
0001b0 d7 ff 74 3e 6b a7 e7 3d b0 29 84 bd ca 16 7a 3e
       0.2392572 0.11311229 -0.06453264 0.24422756
0001c0 83 05 99 3c 2e 1a ab be 26 fd 3d be 58 2b 9f be
       0.018679386 -0.3341841 -0.185536 -0.31087756
0001d0 ce db 0d be c7 40 7d bd 65 3d 32 3e aa c4 a5 bd
       -0.1385338 -0.061829355 0.17406233 -0.08094151
0001e0 5c 36 61 be 3a 47 5e 3e a6 0d 92 3e 28 c4 f9 3b
       -0.21993393 0.21706858 0.28526038 0.0076222606
0001f0 c7 0a 96 3b 86 e2 00 bf e5 a3 67 be e3 5d ac be
       0.0045789215 -0.5034565 -0.22621115 -0.3366538
000200 41 18 91 be 01 63 64 be 9a 1e 1b be 75 07 97 3e
       -0.28338817 -0.22303392 -0.15148392 0.29497877
000210 2e 97 c2 be b0 ff b5 3e 69 a1 0e 3e a3 c8 ee 3b
       -0.38005966 0.35546637 0.1392876 0.0072871014
000220 eb 21 e4 bd 38 66 ac 3e 9b 00 87 be d7 bf 12 3e
       -0.11139282 0.33671737 -0.2636765 0.14330994
000230 1e 53 db be d8 c5 00 3e c3 d3 be bd 7a cd ed be
       -0.4283685 0.12575471 -0.09317734 -0.4644583
000240 f2 c1 86 be 48 de 1a 3f 50 59 bd 3b 12 6f 44 3e
       -0.26319844 0.60495424 0.005778469 0.19182995
000250 c9 80 a8 3e e5 d8 10 be f2 8b 9d be 5e bb cb bd
       0.32910755 -0.14145239 -0.30770832 -0.09947847
000260 3f a2 b8 3e 0c 17 d4 3c 51 c1 45 be bd 2b 4f 3c
       0.36061284 0.025889896 -0.19312026 0.012644705
000270 df c1 53 3e 00 fd 96 3d 03 bb aa be 34 c1 86 3e
       0.20679425 0.07372475 -0.33345804 0.26319277
000280 56 e0 1e 3f 58 b6 d3 3d 01 d0 bf bd 15 26 36 3e
       0.6206106 0.10337514 -0.093658455 0.17787965
000290 75 3f f1 be 94 77 2f bf 73 42 99 bd 55 16 b1 3e
       -0.47118726 -0.68541837 -0.07483377 0.3458735
0002a0 83 8b 31 bf 33 2c 3b 3e 28 84 0f 3e dd 17 d3 3c
       -0.69353503 0.1827858 0.14015257 0.025768215
0002b0 a0 30 0e bd ee 4a 26 3c 3f 60 fb 3d ed f6 6c 3e
       -0.03471434 0.010149701 0.12274217 0.2314107
0002c0 93 8a 3a be 7b 1b a3 3c 90 b8 fb 3b cc c7 1d be
       -0.18216924 0.019910565 0.0076819137 -0.15408248
0002d0 85 56 93 be 66 80 a6 3e 04 97 73 3e 02 ad ab be
       -0.28776947 0.32519835 0.23788077 -0.33530432
0002e0 c7 29 fa be e2 a6 d0 3c 02 56 7f 3d 04 73 f4 be
       -0.4886 0.0254702 0.062337883 -0.47744
0002f0 f4 3b 1c be 72 27 46 3e 1f 82 15 be bf 6b 2b be
       -0.15257245 0.19350985 -0.14600419 -0.1674032
000300 e0 a6 db 3d 44 4a 96 be ce 24 85 be 1a b0 5e bf
       0.10725188 -0.29353535 -0.26004642 -0.8698746
000310 c6 43 2a 3f 4b 47 51 bf 41 a4 27 3d 19 da 52 3e
       0.66509664 -0.8174941 0.04092813 0.2059101

mean.4.bias f4 [2]
000000 25 27 37 3d 0e 27 37 bd
       0.044715066 -0.04471498
