save/exp22/it22_model.pt (torch, 52263 bytes, 7 tensors)

sigma f4 [2]
00000000: d853 5abc d079 7b3c
-0.013325654 0.015348867

mean.0.weight f4 [100, 20]
00000000: 2507 4c3e 0d1b 19bd 7886 6bbc 0036 f2bd
00000010: 88f1 2cbd 6eeb bc3d 0045 90b9 d488 4c3e
00000020: 59d3 863d 1a94 fc3c f79e 333e 2a84 493d
00000030: 4ec2 7bbd 7d02 ca3d b2eb 2c3e 72f7 443d
00000040: e3e7 133e c7ed 163e 2ee1 923d d59c 6c3d
00000050: 5030 973c d219 443c d1a3 403e cb2f 663e
00000060: 2220 813d 91fc a8bc 2280 453e 4539 33be
00000070: 3670 113e dd3f 983d 769f fe3d 78c3 28bb
00000080: 3bf5 4bbe a512 143e 576c e8bd 74ba 753d
00000090: e985 203e ef30 3bbe 84fd c9bc 6992 babd
000000a0: e10c 243e e82d 42be 7889 f83d 6abd 053e
000000b0: 7a1b ea3d 0594 523e c6a9 aabb fbe8 86be
000000c0: 6573 223e 4c9a 253d ad7b 62bc 1131 4ebe
000000d0: e8cc 7dbd b74e 10be 5181 833e 11b5 363e
000000e0: 7a43 423e aa27 2d3e eac6 2ebe 4e1c d5bd
000000f0: 5578 c6bd 8857 d5bd d0d7 1d3e 961a 6a3d
00000100: a997 3c3e 8c04 ecbb a0ed 40be 6bbe 86bd
00000110: 5b74 223e 0f8f 0d3e 4c30 7f3d b9ad b9bd
00000120: 5eb7 47be 47fc e9bd 8873 f63d ca4d 9dbd
00000130: b6be cd3d 4b15 6c3d 27b1 92bd ffb9 273e
00000140: 2965 ccbd ecc8 a7bb 80a6 73bd 048d 48be
00000150: 13ad b23d 38ca dc3d 44b4 91bd adc3 503e
00000160: 0bbd 53be a6c4 59be f875 09be 0a74 98bd
00000170: c7c7 cfbc 6592 e7bc f0a3 d43d 81ae 41be
00000180: db65 0d3d 6ea2 773c ce86 803d 221e 723e
00000190: 6d34 dc3d a0a2 fdbd 67c4 57be d5d7 90bd
000001a0: b293 01be 86d1 393d 1c98 6d3c 8907 393e
000001b0: 776a 8b3d ef0a c7bd c0b3 bcbb e3c9 b83c
000001c0: bd4d 73bd 5b5b 1c3e 4415 49be e9fa ee3d
000001d0: 5303 f2bd d913 53be 217d 9dbd b100 ca3d
000001e0: 7189 2f3e 6ea0 7e3d 043d f1bb 8bc0 75bc
000001f0: b720 c5bd 85a2 0abc d87a b5bc 5d00 353e
00000200: 98c6 0d3e fc95 29be f802 153c 39cf 0bbe
00000210: fd0a fabc 31e1 3abe cc2b 5b3d 19ff 2cbe
00000220: 4d5c 693e 3033 233e 7ab5 07be ef8a 47be
00000230: b0f1 0e3c 58ac 7fbd 1c70 863d ccfe 1abe
00000240: dc74 bb3d 8ec6 45be c8b0 f1bd 4fbe f0bd
00000250: b098 dd3d 60d5 bfbb c90c 5cbe 72c5 02be
00000260: 5aed d3bd c272 54be 008e ea3c 0c2f a33d
00000270: c40b 28bd ce3c b6bd 00be b1ba 8ede 35be
00000280: e855 96bd 4a4a 23bc 0c0b 813e c24a 8bbd
00000290: 610c 1f3e f6ed 2cbd aec4 1fbd baae 4cbe
000002a0: 2018 433e de3a 603e 2c98 e73b 2cfb 263e
000002b0: 5065 693e 5de7 193e a4b2 113e 04f0 3cbe
000002c0: c2c0 3cbe dfb9 debd 6648 0d3e 5ff5 d9bd
000002d0: d108 27be 0a34 d1bd 9c04 57be d358 213c
000002e0: e642 633d 0698 e5bd 6267 253e 734f 94bd
000002f0: 2255 80bc bb68 433e 2de6 7a3e caf7 c93c
00000300: f81e 32be 692c f3bd d383 a53b c4b7 dc3d
00000310: 4e8e 853d 0cfa f7bd f063 62be 0499 67be
00000320: 2baf 91bd 099c 343b e4b1 cdbd 1219 35be
00000330: e7d5 c03c 1ab7 35be f4c7 2fbe de0b 3abe
00000340: 11c5 77bd 43be 4a3e a2fc b33d 057a d4bc
00000350: cf53 3e3d d7f4 b63d 7008 c03a 4c23 38be
00000360: 5725 0dbe 8f87 1bbe f07d b8bb e775 51be
00000370: 34d0 9cbc 2327 4abd de96 893e 1d2a 613e
00000380: 7cb6 183e ef5e 9e3c 10e9 b1bc ca18 e43d
00000390: 6d2e 11be 839a 5ebd ce17 85bd 492f 57bd
000003a0: e59d 6fbe 491f a23d 30db 313e b28c efbd
000003b0: 8e8e 943d 3814 c7bc c94d a23b 3e65 38bc
000003c0: a8dd 363e 0dd1 003c 2528 1bbe 207e 93bd
000003d0: 4cc2 c33d af34 853d 911d 903b 72d9 19bd
000003e0: 677b 5fbd 4828 7bbd fc57 dfbd 453a 253d
000003f0: 3b3c cc3d 6d57 473e 1bfb 05bd 1cc0 603d
0.199246 -0.037379313 -0.014375322 -0.11826706 -0.04222253 0.09224592 -0.0002751723 0.19974071
0.0658328 0.03083234 0.17541109 0.049198307 -0.0614646 0.09863756 0.16886786 0.048087545
0.14443927 0.14739142 0.07171856 0.057766754 0.018455654 0.011969047 0.18812491 0.22479169
0.06304957 -0.020628246 0.1928716 -0.17502315 0.14202961 0.07434056 0.124327585 -0.0025751274
-0.19917767 0.14460237 -0.11348789 0.05999227 0.15676083 -0.18280385 -0.024657018 -0.09109957
0.16020538 -0.18962824 0.12135595 0.13060537 0.11431022 0.20564277 -0.005208227 -0.26349625
0.15864332 0.040430352 -0.013823432 -0.20135905 -0.061962992 -0.14092527 0.25684598 0.17842509
0.18971053 0.16909662 -0.17068067 -0.10405789 -0.0969092 -0.10417086 0.15414357 0.05715426
0.18417229 -0.0072026905 -0.18840647 -0.06579288 0.15864699 0.13824104 0.06230192 -0.09066338
-0.19503543 -0.11425071 0.120337546 -0.07680853 0.10046141 0.057637494 -0.071626954 0.16379546
-0.09980232 -0.0051203873 -0.05948496 -0.19585043 0.087244175 0.10780758 -0.07114461 0.20387144
-0.20677583 -0.21266422 -0.13423908 -0.07444008 -0.025363816 -0.028268049 0.10382831 -0.18914224
0.034520965 0.01511441 0.06275712 0.23644307 0.10752187 -0.12384534 -0.21071015 -0.07072417
-0.12653998 0.045365833 0.014501598 0.1806928 0.06807416 -0.09718882 -0.0057587326 0.022557205
-0.05940031 0.15269224 -0.19637018 0.11668951 -0.1181704 -0.2061304 -0.07689882 0.09863413
0.17142273 0.062164716 -0.00736201 -0.014999519 -0.096253805 -0.008461599 -0.022153303 0.1767592
0.13845289 -0.16561121 0.009094946 -0.13653268 -0.030522818 -0.18249966 0.053508565 -0.16894187
0.22789116 0.15937495 -0.13252822 -0.19486593 0.008724615 -0.06242022 0.06564352 -0.1513626
0.091531485 -0.19314024 -0.118012965 -0.117550485 0.108201385 -0.0058542937 -0.21489252 -0.12770632
-0.103480056 -0.20746902 0.028632164 0.07967958 -0.041026846 -0.08898316 -0.0013560653 -0.17760679
-0.07340604 -0.009966442 0.2520374 -0.06801368 0.15532066 -0.042219125 -0.039005928 -0.19988528
0.19052172 0.21897456 0.007067701 0.16306752 0.22792554 0.15029664 0.14228302 -0.18450934
-0.18432906 -0.10875296 0.13797149 -0.10642504 -0.16311957 -0.10215004 -0.20997852 0.0098478375
0.05548372 -0.11210637 0.16152719 -0.07241716 -0.015665594 0.1908292 0.24501868 0.024654288
-0.17394626 -0.11873705 0.005051115 0.10777238 0.06521283 -0.121082395 -0.22108436 -0.22616965
-0.07113489 0.0027558825 -0.100436956 -0.17685345 0.023539497 -0.17745629 -0.1716612 -0.1816859
-0.06049067 0.19799142 0.0878842 -0.02593709 0.046466645 0.08933418 0.0014650952 -0.17982215
-0.13783775 -0.1518843 -0.0056302473 -0.20455132 -0.019142248 -0.04935373 0.26872915 0.21988721
0.14913362 0.019332377 -0.021717578 0.11137541 -0.14177866 -0.054346573 -0.06498681 -0.05253533
-0.23400076 0.079161234 0.1736877 -0.116967574 0.07253753 -0.024301633 0.0049531204 -0.011254607
0.17857993 0.007862342 -0.15152033 -0.07201791 0.095585436 0.06504189 0.004398056 -0.037560888
-0.054561045 -0.061317712 -0.109054536 0.040338773 0.099724256 0.19466944 -0.032710176 0.05487071

mean.0.bias f4 [100]
00000000: a07a 953c 5e04 91bc f37b a3bc 08c6 1bbb
00000010: 1a8f 253d b0c7 03bd 255d 1d3c 0000 0000
00000020: 3e8f a03d f64c 063d fd90 f739 d2c8 c63c
00000030: 4c9a 8e3c 65c8 35bd 68dc 933b a028 ea3d
00000040: 401e 9fba cf7e 3f3d dc58 74bc 5b9f f4bc
00000050: cbee 633c 6ccf e4bb 27e1 8bbd a857 11bd
00000060: cabd f23c d302 423d 9836 713c d556 b63a
00000070: 0000 0000 b888 a03d 6817 293b e929 103d
00000080: 5f1d d23c 90d9 2b3d 8bda 3c3d b9ca b73c
00000090: 7f52 713c 8a39 9a3c ae6e 543d ea65 37bc
000000a0: f93b fabc 60cb 313a d625 93bd 6484 3bbd
000000b0: 1df4 f53b 3721 533d 1a95 c43c bb53 b43b
000000c0: 6614 09bd 504d 26bb 1ea1 8abc 48dc 0cbd
000000d0: 7dec 5d3d ba46 eb3c 4e83 babc 9cc3 ca3c
000000e0: 727d d43c d046 223d ed2d 1dbd 0234 653d
000000f0: 9020 253b 45d6 6f3d 94a7 c7bc bd88 533d
00000100: 67f0 893d 3a3f bb3b 5233 1a3d 6e9a 54bd
00000110: d12a a1bd 86ff 1bbd a2a3 1ebd 60f4 d03d
00000120: d677 a53c 28fe 47bd 4ef4 45bc 8311 7a3d
00000130: a1b6 0bbd 5c20 183d da5f c73c ea76 4ebd
00000140: 7ba5 753d 0c6c b0bd e07e 3fbc ab0c a7bc
00000150: 607a b23a b033 e53c dabd 93bc 407f 10bd
00000160: 3708 563d 201a 593d 02a1 01bd a59b b0bd
00000170: 008e e5bc 044d 29bd e83f 55bc ded2 053d
00000180: dd9e 233d de6e 18bd 9328 e8bc c23c 2e3d
0.018246949 -0.017702278 -0.019956565 -0.002376916 0.040419675 -0.03217286 0.009604727 0.0
0.07839821 0.03278824 0.00047219536 0.02426568 0.017407559 -0.044380564 0.0045123585 0.1143353
-0.0012139753 0.046751793 -0.014913764 -0.029861143 0.013911913 -0.0069827344 -0.06830054 -0.035483986
0.029631514 0.047365975 0.014722489 0.0013911376 0.0 0.07838577 0.0025801305 0.03519622
0.02564877 0.04195553 0.046106856 0.022435533 0.014729141 0.018826265 0.051863365 -0.011193732
-0.030546175 0.00067823194 -0.07184951 -0.045780554 0.007505907 0.051545348 0.023996878 0.0055031455
-0.03346672 -0.0025375672 -0.01692253 -0.034389764 0.05418061 0.028720248 -0.02276769 0.024751477
0.025938723 0.039618313 -0.038373876 0.0559578 0.002519641 0.058553953 -0.0243719 0.051644076
0.06735306 0.0057143243 0.0376466 -0.051905088 -0.07869495 -0.038085483 -0.03873027 0.10202861
0.020198744 -0.048826367 -0.012082173 0.061051857 -0.034109715 0.037140235 0.024337698 -0.050406374
0.059972268 -0.08614358 -0.011687964 -0.020391783 0.0013616793 0.027978748 -0.018034864 -0.035277605
0.052253928 0.05300343 -0.03164769 -0.08623437 -0.028021812 -0.041333213 -0.013015725 0.0326718
0.039946426 -0.037215106 -0.02833966 0.042538412

mean.2.weight f4 [100, 100]
00000000: bab4 d1bc 65db a2bd 3166 503d a1ed 263d
00000010: 74a3 3c3c 0285 24be bbde 29be 8496 1f3e
00000020: 4208 203e 854d 24be a1da f7bd cd78 13bd
00000030: 1a88 bcbd ef1e 4abe a104 523d 7d31 ddbd
00000040: d6e1 383d 10d8 06be a8bc 90bc e0fb 63bd
00000050: faaa 24bd 826f 11bd 18e9 08be 7dfa 113e
00000060: 0fdf 163b 8f4f c5bd 1ded 273e a02d aa3c
00000070: 0429 27bd c9d3 923d 1629 bf3b ce41 713d
00000080: 9010 513e 3d3f 8e3d b0cb eb3d 823d c53d
00000090: 6a94 85bd b8f8 0abd c4d5 c2bc 1efe 283e
000000a0: e3c0 3fbd c5a1 e83d 84c5 20bd b7d7 1a3e
000000b0: aae4 a33d 1f8a c33d 26f7 ebbd d87d d43b
000000c0: 79d2 353e 712d 02be e9c8 f6bc 47eb 20be
000000d0: 81cb 33be e2c1 133e a2fc eabd 6546 1b3d
000000e0: f016 1abe afa1 0dbe 98eb 263e a814 513d
000000f0: 6a40 3cbd 9a6f 4dbd 62be 2f3e 2961 193e
00000100: aac0 043e c4eb 223e 8500 ebbb e232 de3c
00000110: ed9b 3a3c 83b8 abbd 2e4d 17be 5366 273e
00000120: cfeb 123e 8c74 513d 8b55 64bd 1fd0 063e
00000130: 73ec 38bd 93bd 903c 2218 36bd 3483 e6bd
00000140: c316 f6bd dfad 223e 38a1 1c3e e950 803d
00000150: cc49 23bd 7c8a 44bd 3137 133e fc97 2c3e
00000160: 03e4 1d3e fddf 863d 7d27 8dbd c771 83bd
00000170: 2339 1c3e 2442 ecbd 0354 10be ccc4 e0bc
00000180: 383b b7ba 56d0 bf3d 5cfe 01be 84be d4bc
00000190: 5e78 eebd 5188 d73d 0c72 7b3d b2d6 c3bd
000001a0: db40 44bd 7fb9 db3d ece3 0f3e 2626 23be
000001b0: 590f c1bd a83b d13c d8a9 333d 6f46 00be
000001c0: ac86 a93d 7080 88bc 057a c4bd ec69 ebbd
000001d0: 9aae 72bc 398a 743d 69a0 9d3d 6093 243d
000001e0: f7ca e13d 4b97 1c3e 06bb e5bd acca 82bd
000001f0: 0642 f7bd 7d3f ff3d 971b 29be d6c7 abbd
00000200: e29f 20be 5e60 6abc 7aae 00bd 45a4 d53d
00000210: a15e 0ebe b32f da3d 412c a4bd 5eed 8f3c
00000220: e8c2 ddbd 24e0 3c3d 9ba4 1f3e cf9a 543d
00000230: 1992 0a3d 225c 48bd 8036 33be a27c 4d3d
00000240: 895b 023e 64e1 c73d 3456 203e 1169 5cbd
00000250: 0052 bc3d 9fee 0e3e a47f 0f3e 9643 ccbd
00000260: 656e 0a3e 3db0 27be dc29 d3bd e8c7 f53d
00000270: 746f 283e f51e e33d f080 30bd 74a5 e3bd
00000280: 6877 da3d 8fc9 aebd 56df ed3d 184a fabb
00000290: 3a85 7c3d 8ee1 043d 4a47 b0bc 4ed0 86bd
000002a0: e404 19bd c08d 48bd bc8c 12be ba42 4d3d
000002b0: 7f66 8b3d 88e2 48be 1613 a1bd 7a40 e8bd
000002c0: aa1c 4d3b 5bbd f7bd 4ca6 0e3e d92c 07be
000002d0: 5a6a 68bd cadb e43d 6044 eb3b 1bae 1b3e
000002e0: 0624 b8bd e6ae 223e 9377 07be 1fdb a9bd
000002f0: 6656 1bbe a50b 243e 71bc 843d 6275 71bd
00000300: 34ea c63c 1ca5 bebc 2353 ffbd 576d 04be
00000310: a326 7f3d 9934 d73d 3a9e 27bb 4acf 223e
00000320: ea09 44bc 601c e73d 54cc 673d e094 2a3e
00000330: 6794 8a3d 06fa d5bd 9f6a ea3d 7a52 a9bd
00000340: d9e0 08be e236 09be 01f5 2f3e 9778 423d
00000350: ff35 903d 0717 5cbd 5a69 0dbe 772f 593d
00000360: 85e9 0bbe 62fa 183d 6a9b cdbc 688d b13c
00000370: e1e2 ee3d bd0e 29be 4ff3 953d 52d3 96bd
00000380: b7ea 09bd 329b afbd 4014 49bd 1028 883d
00000390: 1016 b03d a386 14be e6cb 113d ced2 b7bb
000003a0: d0c4 dc3d 34b4 40bb 14e9 233e e638 0d3e
000003b0: 4363 20be da2a 143e 1adf be3c ccd8 50bc
000003c0: b468 d3bd 71f1 d6bd d447 593d 224c 92bd
000003d0: c741 763d 24f0 b9bc e25a 2ebd 3039 df3d
000003e0: 7b34 02be 2260 4cbd ba19 e33d 2b64 b43d
000003f0: e088 323e 7885 003e 4461 f0bd 54ba cf3d
-0.025598872 -0.079520024 0.050878707 0.040753964 0.01151358 -0.16066363 -0.16588871 0.15584761
0.1562815 -0.16045196 -0.12102247 -0.036003876 -0.09205647 -0.19738363 0.051273946 -0.10800455
0.04513725 -0.13168359 -0.017668083 -0.05566013 -0.04020212 -0.035506733 -0.13370168 0.1425571
0.0023021137 -0.09634315 0.16399045 0.020773709 -0.0408106 0.07169301 0.0058337552 0.058900647
0.20416474 0.069456555 0.1151346 0.09630872 -0.06522448 -0.033928603 -0.023783572 0.16503188
-0.04681481 0.1135898 -0.039250866 0.15121351 0.080025986 0.09547829 -0.11521749 0.0064847283
0.1775607 -0.12712647 -0.030125098 -0.15714751 -0.175581 0.14429429 -0.11473967 0.03790893
-0.15047812 -0.13831209 0.1630081 0.05104509 -0.045959868 -0.05015526 0.17162469 0.1497847
0.1296412 0.1591025 -0.007171693 0.027123872 0.011389715 -0.08384802 -0.14775535 0.16347627
0.14347766 0.05113654 -0.055745643 0.1316533 -0.04514737 0.017668521 -0.04445661 -0.11255494
-0.1201606 0.15886639 0.15295875 0.062654324 -0.0398653 -0.04798363 0.14376523 0.16854852
0.15419011 0.06585691 -0.068922974 -0.06418186 0.15256171 -0.11536053 -0.14094548 -0.02743759
-0.001397944 0.09365909 -0.12694687 -0.025969751 -0.11644052 0.10524047 0.06138806 -0.09562434
-0.047913413 0.1072874 0.14051789 -0.15932521 -0.094267555 0.025541142 0.043863147 -0.12526868
0.0827764 -0.016662806 -0.09593586 -0.11494812 -0.014812136 0.059702132 0.076966114 0.04017961
0.110250406 0.15292089 -0.112173125 -0.06386313 -0.1207314 0.12463281 -0.16514431 -0.08387725
-0.1568599 -0.014305202 -0.031416394 0.104317226 -0.13903286 0.10653629 -0.08016253 0.01756924
-0.10828191 0.046112195 0.15590136 0.05190545 0.033830736 -0.04891599 -0.17501259 0.050167687
0.1273023 0.09759787 0.15657884 -0.053811137 0.09195328 0.13958214 0.14013535 -0.099738285
0.13518675 -0.16375823 -0.103107184 0.1200102 0.16448766 0.11089889 -0.043091714 -0.11115542
0.10667306 -0.08534538 0.116148636 -0.007638227 0.061650492 0.03244167 -0.021518368 -0.065827
-0.03735818 -0.04896331 -0.14311498 0.050112464 0.06806659 -0.19617665 -0.078649685 -0.11340423
0.0031297603 -0.120966636 0.13930625 -0.13200702 -0.05674205 0.11174734 0.007179782 0.15203135
-0.08991246 0.15887031 -0.13229208 -0.08293747 -0.15169677 0.16020067 0.06481255 -0.058949836
0.024281599 -0.02327209 -0.12467029 -0.12932335 0.062292706 0.10508079 -0.0025576488 0.15899387
-0.011965254 0.11284709 0.056591347 0.16658354 0.06766587 -0.10448079 0.114461176 -0.08267684
-0.13367023 -0.13399842 0.17183305 0.047478285 0.07041549 -0.053732898 -0.1380972 0.05302378
-0.136633 0.03734816 -0.025098521 0.021673873 0.116643675 -0.16509528 0.07321798 -0.07364525
-0.033671107 -0.08574523 -0.049091578 0.06648266 0.08597958 -0.14504485 0.035594843 -0.0056098467
0.107797265 -0.0029404284 0.16006881 0.13791236 -0.15662865 0.14469472 0.023299742 -0.012747001
-0.10322705 -0.1049527 0.053047016 -0.071434274 0.060121324 -0.022697516 -0.04256714 0.108995795
-0.12715332 -0.049896367 0.11088891 0.08808168 0.17435026 0.12550914 -0.11737302 0.10142961

mean.2.bias f4 [100]
00000000: a6c7 c93d 00c2 7c38 16ce 83bb 3fe1 0f3c
00000010: 401e 57ba ff03 c6bc fcf5 2d3b 2c0c ffbc
00000020: 3899 0c3c 634d 2e3a 59b5 5fbd fc73 393d
00000030: b312 c9bc 30f8 48ba d471 d1bb cda1 21bb
00000040: 631b b03a 478f dcbd f2d3 6f3d c955 98bc
00000050: 747a 7cbc d99d 883d f2f6 163d 81f5 ea3c
00000060: 1905 8c3c 6076 7d3b 50e9 babb 2472 2f3d
00000070: 6b62 9e3c c108 d2bb ac61 e53d e110 f63a
00000080: 08ae 10bb c8f8 c43b f80a afbc cc50 143d
00000090: b825 31bc 5702 4e3b 205d 7e3c 7eba 82bd
000000a0: 5c5a 08bb 990e dbba d921 64bc 7936 17bd
000000b0: 10d3 6c3a aeb4 adbb 78ce 76bc 3231 a1bc
000000c0: c0ec 26ba e0d8 913d f7e4 db3c 2cba 05bd
000000d0: 71f9 603d 4291 873d d8ab 9f3b 461e 053c
000000e0: d643 c3bc 3e33 6f3c 20b8 323c c449 673d
000000f0: a8ac 293c 809e dbbc 95f2 41bb f5b7 27bd
00000100: abf3 2dbd 9072 6fbb ceab 40bc 3864 babb
00000110: 1eab 3a3b dedd 943d ef4f 8f3c 27e4 45bd
00000120: 8080 0138 9a08 98bd b653 ce3c 3add 7a3b
00000130: 1455 613b 95b5 293d e84c 0f3d cc3c 963c
00000140: 0d3d fdbb 56be 6fbd f7fa 4abc 2336 fbbb
00000150: 8458 203c e7f7 b4bd 2039 b5bc 9297 483b
00000160: a0b7 65ba 2f74 1b3c 14b5 733c 536e 863b
00000170: 4a6e 773d 6f11 363d fe50 b63b fb85 20ba
00000180: 14c1 9b3c 2e1e c9b9 50a6 6b3c 0b5c 903b
0.09852533 6.026216e-05 -0.00402237 0.00878173 -0.0008206107 -0.024171827 0.0026544323 -0.031133734
0.008581452 0.0006649105 -0.054616306 0.045276627 -0.02454505 -0.00076663774 -0.006391743 -0.0024663091
0.0013435896 -0.107695155 0.058551736 -0.018595593 -0.0154100545 0.06670732 0.0368566 0.028681519
0.017092275 0.0038675293 -0.0057040825 0.042833462 0.019334039 -0.006409735 0.1120027 0.0018773341
-0.0022076387 0.0060111023 -0.021367535 0.036209866 -0.0108122155 0.00314345 0.015525132 -0.06383227
-0.0020805812 -0.0016712724 -0.013924086 -0.036917184 0.00090341363 -0.0053010797 -0.015063874 -0.019676778
-0.0006367676 0.07121444 0.026842577 -0.03264825 0.054925386 0.066195026 0.0048727803 0.0081248935
-0.023836058 0.014599619 0.010908157 0.056466833 0.010356106 -0.026808977 -0.0029594053 -0.04094692
-0.042468708 -0.003653679 -0.011759711 -0.0056882165 0.0028483341 0.0726888 0.01749417 -0.048313286
3.087567e-05 -0.074235156 0.0251864 0.0038278834 0.0034382986 0.041432936 0.034985453 0.018339537
-0.007728225 -0.058531128 -0.012388936 -0.0076663657 0.009786729 -0.08836346 -0.022121966 0.003060792
-0.0008763019 0.00948815 0.014874715 0.004102507 0.060407914 0.04445022 0.0055638542 -0.000612348
0.019012965 -0.00038360193 0.014382914 0.0044055036

mean.4.weight f4 [2, 100]
00000000: 3178 693e c2e3 653e 52cf 4fbd 8ee6 4a3d
00000010: 1ea6 fabd d878 df3d a989 35bd 3a78 0abe
00000020: 52fb 2dbe 600b 4f3c 5c90 733e f1f1 84be
00000030: 5c81 0d3e c8db 623e 95c8 8fbe 299c e03d
00000040: fa27 723d 1050 193e 3990 3f3e c635 123e
00000050: 0451 10be ee1e 81be 3d42 333e 4da9 2bbd
00000060: b999 df3d 3f9e b83d 3b51 bcbc 8745 343e
00000070: cffc c0bd 6bd2 203d 44cf f43d b5d7 f3bd
00000080: fc44 d63d 4033 32bc 7b05 74be 0f52 f33d
00000090: 7f00 70be ee9b 4d3d 91bb d8bd 3d21 eabd
000000a0: e4cd 213d 6651 85bc 4a74 45be 52ee e23d
000000b0: 5175 09be 9d3d 63be a9c0 403e b418 65be
000000c0: 26a2 d3bd f690 bebd 50ae 3b3e c2bc eabc
000000d0: aa52 82be 9c5f 003e 6765 173e b2cf 513d
000000e0: 486a 403b 843c 64be 105a 4abd eac1 4f3e
000000f0: 4eeb 4ebe 90c0 a4be cebb 323b 3c2d a73d
00000100: 9519 81be 572c d1bd 3a5e 2cbe 375c 08bd
00000110: 9c1d 8b3e a8c2 643e c072 f2b9 306e 393c
00000120: fe14 5c3e 2066 0fbd af14 a6bd b4b5 1abe
00000130: 893e 503e 6650 85be 6e30 0fbe cd33 413d
00000140: 5d2c 7c3d a1f7 81bd 2156 94be b9eb d6bb
00000150: 5bf1 07be 0cfe 2cbe 8136 39be 230c 02be
00000160: cb16 5cbe f947 193e 6043 c1ba fa42 51be
00000170: df63 1b3e 5651 3d3e be88 b7bb e4fd f0bc
00000180: e93b a6bd db3f 9a3d c54c 6c3e 7282 d83b
00000190: 8617 0bbe 33f4 0cbd 921b bf3d 3349 5b3e
000001a0: 8ed9 6d3e 5449 713e 6fbf fbbd 768f 823d
000001b0: fe14 483d d659 c83d dc84 29bc 77fe 1fbd
000001c0: 9bf1 b43d 7b9f 1d3e d158 df3d 8766 a43d
000001d0: dad6 e03d 4641 0b3d 01cf 8bbd 0bba 663e
000001e0: 7dd4 b0bd 917e 8a3e 8497 26bd f2fc 473e
000001f0: 3e67 0b3c e24e 5d3c 42ab 6f3e 11f1 b8bd
00000200: ceee 2cbe 4818 9e3d 97d0 55be f179 1ebe
00000210: 6760 733e 4a4f 813d 58e9 b3bd 9bde 7f3e
00000220: d3cb 093d 3b88 773e 36b3 a13c 8c8f 483e
00000230: 34ce 903e 8c41 2abc f5af 3fbe bde3 433e
00000240: 2810 6abe 0174 7bbc 32fb 1dbd 710f 803e
00000250: 136d 68be 300c 6fbd d75d 963d e1b5 123e
00000260: cdf7 903e c1fd 07be 600a 7e3e 283e 643e
00000270: dfd7 003d 4ea4 8bbc 944a 493e bdaf 2ebe
00000280: 8860 09bc b5cc c93d 936b fd3d bb3d 0ebe
00000290: 1578 c53e e54d 90bd 62dd a43d 5f9e f83d
000002a0: 98de 073e 9934 71be f45b aa3d 64e5 c73d
000002b0: 309a 373e d6cf 533e c29f 573e bba3 2bbe
000002c0: 3424 693e 3ee6 88bd 342a a23c 1847 e2bb
000002d0: 2b01 81be fd3d 463e 2e34 29be 6800 cf3d
000002e0: 3656 19bd f400 d43d 9779 cc3d cb01 72bd
000002f0: 102d 35be 113c 853d 30a5 cf3d 9c8b 7abe
00000300: f7d1 a8bd abe4 b6bd 7aea 623d 16fb 0fbe
00000310: 3ab1 67be d3d4 aa3d b051 d83d f072 223e
0.22799756 0.22450164 -0.050734825 0.04953628 -0.122387156 0.10911721 -0.044320736 -0.13522425
-0.16990402 0.012636989 0.23785537 -0.25965837 0.13818878 0.22154152 -0.2808272 0.10967285
0.059120156 0.14971948 0.1870736 0.14278325 -0.14093405 -0.2521891 0.17505737 -0.041909505
0.10917992 0.09014558 -0.022987952 0.17604648 -0.094232194 0.03926317 0.11953595 -0.11906377
0.104623765 -0.010876477 -0.23830216 0.11880886 -0.23437689 0.050197534 -0.105826505 -0.11432121
0.039502993 -0.016274165 -0.19282642 0.11080612 -0.13423659 -0.22191472 0.18823494 -0.22372705
-0.10333662 -0.09304993 0.18328214 -0.02865446 -0.25453693 0.12536472 0.14784776 0.051223464
0.0029360224 -0.2228871 -0.049402297 0.20288816 -0.20206949 -0.32178164 0.0027272585 0.08162925
-0.2521483 -0.10213535 -0.1683282 -0.033291068 0.27171028 0.2233988 -0.00046243332 0.011317775
0.21492383 -0.035009503 -0.08109414 -0.15108377 0.20336355 -0.26037902 -0.13983318 0.04716854
0.061565746 -0.063460596 -0.2897196 -0.006558862 -0.13275664 -0.16893786 -0.18087198 -0.12699942
-0.2149307 0.14968862 -0.0014744811 -0.20435706 0.15174817 0.18488058 -0.0056010177 -0.02941794
-0.08116896 0.07531711 0.2307616 0.006607347 -0.13583192 -0.034412574 0.093314305 0.21414642
0.23227522 0.23563129 -0.122923724 0.06375019 0.048848145 0.0978276 -0.010346618 -0.039061036
0.08835145 0.15392868 0.10905612 0.08027368 0.1097848 0.033997796 -0.06826592 0.22531907
-0.08634279 0.27049688 -0.04067184 0.19530085 0.008508502 0.013507577 0.23405173 -0.09030355
-0.16887972 0.07719475 -0.20880352 -0.15476204 0.23767243 0.06313951 -0.08784741 0.24987261
0.033641648 0.24173062 0.019738775 0.19586009 0.2828232 -0.010391604 -0.18719466 0.19129844
-0.22857726 -0.015347482 -0.038569637 0.2501178 -0.22697859 -0.058361232 0.07342117 0.14327194
0.28314057 -0.13280393 0.24808645 0.22289336 0.03145587 -0.01704612 0.19657356 -0.17059226
-0.008384831 0.09853498 0.12374034 -0.13890736 0.38568178 -0.07046107 0.08050038 0.12139582
0.13268507 -0.2355522 0.0831832 0.0976055 0.17929912 0.20684752 0.21057037 -0.16761677
0.22767717 -0.0668454 0.019795515 -0.0069054477 -0.25196204 0.19359584 -0.16523811 0.10107499
-0.037435733 0.10351744 0.09984129 -0.05908374 -0.17692971 0.065055974 0.10138929 -0.24467319
-0.082431726 -0.08930334 0.055399396 -0.14060625 -0.226262 0.08341374 0.10562456 0.15864158

mean.4.bias f4 [2]
00000000: 34d2 273d 74d2 27bd
0.04097195 -0.040972188
