save/exp3/it3_model.pt (torch, 45415 bytes, 7 tensors)

sigma f4 [2]
0.18889499 -0.2622524
00000000: b06d 413e f245 86be

mean.0.weight f4 [100, 3]
-0.06753068 0.16300362 0.019226313 0.10288305 -0.15801455 -0.20314333 -0.22693619 -0.11537151
-0.12268611 0.07233289 -0.067775875 -0.10689754 0.21638653 0.10294259 0.15150099 -0.09174216
-0.13595417 0.088817134 -0.18381222 -0.12237156 -0.009996934 -0.11881359 -0.13900433 0.12157167
0.2210058 0.0057592597 -0.0050710365 -0.22378837 -0.08740724 0.06121659 0.13274127 -0.037587523
-0.06873286 0.16923034 -0.23543355 0.17024419 -0.09363499 0.0036940426 -0.04769565 0.026019141
-0.053473473 0.20735766 -0.006274551 0.18840188 0.2320585 -0.11833892 -0.16592738 0.20348567
0.2499903 -0.2566841 0.011809165 -0.20612101 -0.23220561 0.053287957 0.061877962 0.053380575
-0.066456296 0.18699442 0.075663805 -0.15152366 -0.013664052 0.05796033 0.08452088 -0.17065777
0.0904575 -0.12330404 -0.2255246 -0.10422936 0.23126298 0.24921244 0.18208554 0.15585834
0.17138655 -0.033167854 -0.15611322 0.16542846 -0.15876243 -0.15125312 -0.07707299 0.050650656
0.12424895 -0.117896736 -0.11623357 0.02271979 -0.13491632 -0.16747247 0.13683341 -0.04054399
0.22054693 0.23478633 0.07400447 0.080890626 0.07538809 0.003255763 -0.029196223 0.012392976
0.090128094 0.2244052 -0.06254944 -0.102024734 -0.058447793 -0.11660464 0.041039765 0.18015933
0.18873447 0.08544068 -0.14681974 -0.11470573 -0.05539583 -0.043167606 0.018737962 -0.22155736
0.0751206 -0.1841233 -0.21408233 -0.16502702 0.1645527 -0.22854903 0.1820705 -0.008113623
-0.028069347 0.15096262 -0.022307903 0.15136704 0.17450356 -0.20954718 0.08226144 0.05918598
0.062778994 0.035235822 0.066018164 -0.116108075 -0.030879289 0.22931656 0.1621545 -0.012757499
-0.23006596 0.0127077475 -0.16435663 0.19626817 -0.1465238 -0.031362094 -0.027730288 0.03344382
0.18566628 0.058236565 0.14264631 0.16269013 0.21389382 -0.096707314 -0.053980738 0.116318285
-0.06585808 0.10193216 -0.039635934 -0.16020967 0.08362378 0.05669894 0.09334207 0.24312727
0.17482051 0.23419744 -0.0030643549 -0.18142872 -0.1562153 -0.15587196 -0.210722 -0.10760244
-0.22247411 -0.21698241 -0.13247691 -0.30246133 -0.09752975 0.0629265 0.24072449 -0.10809214
-0.031830646 0.060071472 -0.032372966 -0.09796868 0.1719631 -0.23981303 0.047338527 0.23212075
0.027858729 0.046171866 -0.14056325 -0.003329873 0.013270795 0.03249032 0.120136105 0.20392352
-0.18422644 0.0072346926 -0.12058991 -0.19092754 -0.019327179 -0.21244991 0.19645864 -0.010766509
-0.10839618 0.09868102 -0.2032544 -0.09070036 0.0039987434 -0.24916543 -0.1614018 -0.039393693
0.18313193 0.23306584 0.17386836 -0.17357698 -0.096833885 0.12392394 0.17708722 -0.06859133
0.025042737 -0.1797426 -0.08349579 0.19922459 -0.039610595 0.018009055 -0.14369325 -0.21426225
0.0030061076 -0.15068898 -0.02822725 0.097447425 -0.23608837 0.07168546 -0.15958616 -0.117793754
0.09265867 0.19190654 -0.10862647 -0.05170998 -0.22478968 -0.13940737 -0.19715042 -0.05594568
0.05168699 -0.23431669 0.21435101 0.16974054 -0.26640657 -0.121720985 0.04763096 -0.019210376
-0.041222632 -0.10897574 0.19386137 -0.13491723 0.19516756 0.026808146 0.026003182 0.21437368
00000000: 864d 8abd 6cea 263e 8080 9d3c 59b4 d23d
00000010: 91ce 21be ce04 50be f661 68be e647 ecbd
00000020: db42 fbbd 4423 943d 14ce 8abd 19ed dabd
00000030: 6e94 5d3e 91d3 d23d 1323 1b3e 50e3 bbbd
00000040: 9237 0bbe c2e5 b53d 4539 3cbe f19d fabd
00000050: 2eca 23bc 8a54 f3bd 2757 0ebe 91fa f83d
00000060: 584f 623e 2cb8 bc3b f02a a6bb c728 65be
00000070: 9102 b3bd 3fbe 7a3d 54ed 073e 60f5 19bd
00000080: d0c3 8cbd b84a 2d3e 7e15 71be 7e54 2e3e
00000090: b4c3 bfbd c017 723b 845c 43bd 1826 d53c
000000a0: 0007 5bbd 9155 543e c09a cdbb 6cec 403e
000000b0: bea0 6d3e ad5b f2bd dee8 29be 8c5e 503e
000000c0: 75fd 7f3e 196c 83be 3a7b 413c 6311 53be
000000d0: 4fc7 6dbe 7944 5a3d bf73 7d3d 97a5 5a3d
000000e0: 3d1a 88bd 777b 3f3e a0f5 9a3d 0529 1bbe
000000f0: 30df 5fbc d067 6d3d 4819 ad3d e9c0 2ebe
00000100: c841 b93d d486 fcbd ecef 66be 3476 d5bd
00000110: 34d0 6c3e 8c31 7f3e a274 3a3e 5499 1f3e
00000120: f57f 2f3e 04db 07bd 25dc 1fbe 1466 293e
00000130: 9e92 22be 19e2 1abe 72d8 9dbd 1077 4f3d
00000140: 3c76 fe3d d873 f1bd de0b eebd da1e ba3c
00000150: 8127 0abe e77d 2bbe 0f1e 0c3e 7411 26bd
00000160: 0ed7 613e d46b 703e a88f 973d fca9 a53d
00000170: 1265 9a3d a45e 553b eb2c efbc e90b 4b3c
00000180: 1495 b83d 7aca 653e ec19 80bd 58f2 d0bd
00000190: f466 6fbd 6ace eebd 5019 283d b07b 383e
000001a0: 9c43 413e 86fb ae3d ea57 16be d6ea eabd
000001b0: bde6 62bd 84d0 30bd 5b80 993c efdf 62be
000001c0: d4d8 993d d18a 3cbe 6638 5bbe d8fc 28be
000001d0: 8180 283e c208 6abe b070 3a3e 00ef 04bc
000001e0: b0f1 e5bc f295 1a3e 10bf b6bc f6ff 1a3e
000001f0: 10b1 323e 8993 56be b078 a83d 006d 723d
00000200: 4692 803d 7053 103d 8834 873d 12ca edbd
00000210: 90f6 fcbc f6d1 6a3e d40b 263e d404 51bc
00000220: 6996 6bbe 2834 503c 1b4d 28be 86fa 483e
00000230: 560a 16be 8a75 00bd a12a e3bc 63fc 083d
00000240: 4d1f 3e3e 7789 6e3d e011 123e 3e98 263e
00000250: fb06 5b3e 7c0e c6bd e81a 5dbd 4838 ee3d
00000260: 9ae0 86bd cfc1 d03d 4a59 22bd 010e 24be
00000270: f242 ab3d 263d 683d 212a bf3d 5bf6 783e
00000280: 2604 333e 74d1 6f3e 58d3 48bb 73c8 39be
00000290: e7f6 1fbe e69c 1fbe 82c7 57be ab5e dcbd
000002a0: 41d0 63be a330 5ebe 07a8 07be 36dc 9abe
000002b0: adbd c7bd 9cdf 803d 7b80 763e 695f ddbd
000002c0: da60 02bd 810d 763d 8499 04bd cea3 c8bd
000002d0: 1817 303e 8c91 75be 0be6 413d 10b1 6d3e
000002e0: fd37 e43c b61e 3d3d d0ef 0fbe 003a 5abb
000002f0: c06d 593c 9214 053d eb09 f63d 54d1 503e
00000300: dba5 3cbe 0011 ed3b d8f7 f6bd 8282 43be
00000310: 0854 9ebc 788c 59be 742c 493e 0366 30bc
00000320: d1fe ddbd 4619 ca3d ec21 50be 1cc1 b9bd
00000330: e407 833b 3925 7fbe 8346 25be 485b 21bd
00000340: f086 3b3e d0a8 6e3e 8c0a 323e 2abe 31be
00000350: d850 c6bd d6cb fd3d 5a56 353e 9c79 8cbd
00000360: 6d26 cd3c 720e 38be d7ff aabd 8801 4c3e
00000370: b83e 22bd ba87 933c 5324 13be 9067 5bbe
00000380: 1e02 453b 364e 1abe d53c e7bc 8492 c73d
00000390: 26c1 71be d4cf 923d 8e6a 23be da3d f1bd
000003a0: d4c3 bd3d 2683 443e 8e77 debd d8cd 53bd
000003b0: 442f 66be cec0 0ebe cde1 49be 4c27 65bd
000003c0: bdb5 533d b7f0 6fbe d57e 5b3e 77d0 2d3e
000003d0: 7166 88be da48 f9bd ae18 433d 145f 9dbc
000003e0: 10d9 28bd ac2e dfbd 9883 463e be27 0abe
000003f0: 01da 473e c29c db3c a004 d53c c684 5b3e

mean.0.bias f4 [100]
0.0 0.3550805 0.0 0.008786323 -0.09699138 0.16773835 -0.08533638 -0.14593108
0.09714486 -0.0026918484 0.13137674 0.113670535 0.0 -0.090500005 0.0 -0.09011877
0.28482148 0.17605713 -0.006821555 -0.19833033 0.0 0.0 -0.16477686 0.15383358
-0.089104034 0.25029117 0.0 -0.15053794 0.16520119 0.0 0.08181586 -0.016763903
0.0 0.0 0.0 -0.12828414 -0.016192162 0.0 -0.25535572 0.0
0.0 0.0 -0.033452835 0.0 0.0 -0.041862614 0.0 -0.12776548
-0.20737877 -0.19319369 0.0 -0.06302161 -0.12051776 -0.101724066 -0.09247326 -0.07116641
-0.025809214 -0.36819795 0.20732795 -0.28948432 0.044880223 0.063259736 0.0 -0.101944566
0.0 0.0 0.1714423 -0.22706383 0.28284952 0.0 0.14026 -0.46541497
-0.12557848 -0.0918135 0.29735824 -0.009101495 0.0 0.0 -0.1744432 -0.103298135
-0.016487813 -0.0096766725 -0.16444115 0.0 -0.046268936 0.07626988 0.0 0.19014212
-0.0129201785 0.0 0.0 0.0071503073 0.0 0.0 0.0 0.2651607
0.31499755 0.05498416 -0.100653514 -0.07249994
00000000: 0000 0000 1ccd b53e 0000 0000 82f4 0f3c
00000010: 6ba3 c6bd 9ac3 2b3e d7c4 aebd f56e 15be
00000020: e2f3 c63d b969 30bb a087 063e 19cc e83d
00000030: 0000 0000 1158 b9bd 0000 0000 3190 b8bd
00000040: 1fd4 913e 5248 343e 5a87 dfbb 1b17 4bbe
00000050: 0000 0000 0000 0000 44bb 28be 8d86 1d3e
00000060: 2d7c b6bd 2a26 803e 0000 0000 9e26 1abe
00000070: 802a 293e 0000 0000 138f a73d 7454 89bc
00000080: 0000 0000 0000 0000 0000 0000 eb5c 03be
00000090: 6da5 84bc 0000 0000 fcbd 82be 0000 0000
000000a0: 0000 0000 0000 0000 d705 09bd 0000 0000
000000b0: 0000 0000 2278 2bbd 0000 0000 f4d4 02be
000000c0: 1a5b 54be 91d4 45be 0000 0000 7911 81bd
000000d0: 04d2 f6bd b554 d0bd 9f62 bdbd b2bf 91bd
000000e0: d86d d3bc 7184 bcbe c74d 543e 4a37 94be
000000f0: 53d4 373d 528e 813d 0000 0000 50c8 d0bd
00000100: 0000 0000 0000 0000 928e 2f3e 6c83 68be
00000110: a7d1 903e 0000 0000 51a0 0f3e df4a eebe
00000120: a597 00be b708 bcbd 573f 983e 701e 15bc
00000130: 0000 0000 0000 0000 3da1 32be f98d d3bd
00000140: 7311 87bc e88a 1ebc 4363 28be 0000 0000
00000150: 7f84 3dbd 6233 9c3d 0000 0000 9eb4 423e
00000160: 28af 53bc 0000 0000 0000 0000 204d ea3b
00000170: 0000 0000 0000 0000 0000 0000 25c3 873e
00000180: 5c47 a13e 1237 613d 6e23 cebd d97a 94bd

mean.2.weight f4 [100, 100]
-0.012887165 0.111238346 -0.005555421 -0.0016185537 -0.077390134 0.12992956 -0.03686074 0.025051126
-0.1441878 0.059408646 -0.08455269 -0.045726947 -0.015488327 0.0604206 0.0070702583 0.030237354
-0.12438597 -0.13478462 0.06237726 -0.07132292 -0.14933133 -0.07148189 -0.16999093 0.0304145
0.012838025 0.15364853 -0.09551099 -0.089630865 0.038133513 -0.045511767 0.13297045 0.026301717
-0.003763482 -0.066450305 0.10465205 -0.08115581 0.06963474 0.11126825 -0.1359697 -0.15346569
-0.09767792 0.08310947 -0.09583176 0.016372666 0.026151717 0.030871045 -0.088322714 0.006025736
0.11995395 0.08978355 0.033088386 -0.13775943 0.08146208 -0.06899095 0.11888597 0.07189386
-0.031819377 0.067302614 -0.077083185 0.030809728 -0.01668904 -0.0010796255 0.060987353 0.16866665
-0.07645137 0.16913834 -0.03581665 0.16462345 0.032781314 0.014124557 -0.064532146 -0.09127739
-0.1704127 -0.09712649 -0.021837054 0.14571069 0.09372938 0.0301992 -0.1676302 0.12196401
0.11316606 -0.08058632 0.07011765 -0.14431286 -0.089852445 -0.05342773 -0.15705016 -0.020837827
0.032670222 0.050415874 0.1620906 0.0919991 -0.15847522 -0.05436676 0.09703684 -0.17639075
-0.01783058 0.061216045 -0.11669361 0.14128856 -0.11418966 -0.12709948 -0.13147864 -0.031181792
0.059868757 0.05061917 -0.08585384 0.15223941 -0.092436954 0.13590965 0.057523057 -0.05368883
0.1281004 0.059688292 -0.14727247 0.08898626 0.16505125 -0.12867877 -0.036514387 -0.14013804
0.116123766 0.091895014 0.12759031 0.049817633 -0.028922508 -0.017754752 -0.1290517 0.11007158
-0.06775613 0.019008875 0.006648391 0.052431084 -0.1391373 -0.027434379 0.07990682 -0.12842046
-0.074417874 -0.09537408 -0.1454717 0.16910869 0.14964661 0.10853669 -0.14297576 -0.0015807897
0.031806678 0.07752086 0.03488578 -0.10607175 0.0065021887 -0.14019136 0.08685994 0.10840099
-0.061315894 -0.15019032 0.00024111653 0.087879166 -0.11896483 0.07242227 0.12059464 -0.14445071
0.09693151 0.07944687 -0.08913506 0.1454193 -0.08329509 0.13164571 -0.133456 0.13644177
-0.039648376 -0.15300065 0.09169327 -0.014230255 0.04871999 0.07999842 0.019343888 0.055322453
-0.14598827 -0.15287565 -0.08138132 -0.09084519 -0.16054736 0.025795784 -0.013719981 -0.0381452
-0.0073543517 0.08192485 -0.06427177 0.013432746 -0.01405204 0.08363965 -0.01842621 0.06511466
-0.0678166 0.13417202 0.029152632 0.029543702 0.085634045 -0.1696437 0.0768536 0.14222243
0.10373184 0.11261712 -0.1391287 0.15158178 0.03444994 -0.17032203 0.15728499 0.13353027
-0.028492197 0.16983643 0.012236504 0.13431467 -0.15311047 -0.16616796 0.048257858 -0.0032545505
-0.14967942 -0.09886589 0.09708431 0.11111546 -0.13136917 -0.07743618 -0.001697452 -0.0027204915
-0.12688473 0.12978478 -0.12094182 0.12289976 -0.110681005 -0.17209017 0.041556172 -0.08302096
0.116765976 -0.057424948 0.016538382 0.1296392 -0.11246477 -0.07130911 0.11570482 0.1461071
0.030189097 0.13315076 0.10352735 0.09793627 -0.006828204 0.16579439 -0.055061743 0.011594386
-0.054394446 -0.012721274 0.10408741 0.13270035 0.024464939 0.11095088 0.124202475 0.085508205
00000000: b024 53bc eed0 e33d 400a b6bb a625 d4ba
00000010: b87e 9ebd 410c 053e 4afb 16bd 0538 cd3c
00000020: f7a5 13be 7b56 733d f629 adbd 2e4c 3bbd
00000030: c0c2 7dbc 977b 773d a0ad e73b 54b4 f73c
00000040: 12be febd fb04 0abe 4c7f 7f3d c011 92bd
00000050: 50ea 18be 1965 92bd 1a12 2ebe d427 f93c
00000060: 9456 523c 0a56 1d3e 449b c3bd 6390 b7bd
00000070: e331 1c3d 8c6a 3abd 6829 083e b376 d73c
00000080: c0a4 76bb 1917 88bd d053 d63d 0435 a6bd
00000090: a99c 8e3d 9ce0 e33d a43b 0bbe 1c26 1dbe
000000a0: 5c0b c8bd 4c35 aa3d 7143 c4bd f81f 863c
000000b0: 203c d63c 46e5 fc3c 8ae2 b4bd 8a73 c53b
000000c0: 6baa f53d 70e0 b73d b087 073d cf10 0dbe
000000d0: 97d5 a63d 214b 8dbd 7d7a f33d 173d 933d
000000e0: 0955 02bd f4d5 893d cadd 9dbd af64 fc3c
000000f0: 74b7 88bc 3882 8dba e0cd 793d f3b6 2c3e
00000100: 8992 9cbd 9a32 2d3e 7bb4 12bd 0d93 283e
00000110: b345 063d b06a 673c 6e29 84bd a4ef babd
00000120: ab80 2ebe 41ea c6bd 9fe3 b2bc 2f35 153e
00000130: 30f5 bf3d 5064 f73c 40a7 2bbe 44c8 f93d
00000140: 9bc3 e73d 710a a5bd d899 8f3d c0c6 13be
00000150: 8f04 b8bd 09d7 5abd c2d1 20be 17b4 aabc
00000160: 36d1 053d e080 4e3d 14fb 253e 066a bc3d
00000170: 5447 22be aeaf 5ebd 40bb c63d c79f 34be
00000180: 7011 92bc adbd 7a3d 0ffd eebd f3ad 103e
00000190: 45dc e9bd 5e26 02be 56a2 06be f570 ffbc
000001a0: f138 753d 0c56 4f3d 23d4 afbd a6e4 1b3e
000001b0: 964f bdbd e62b 0b3e 4c9d 6b3d d2e8 5bbd
000001c0: c02c 033e b67b 743d 98ce 16be 6e3e b63d
000001d0: 3203 293e 5ec4 03be 1c90 15bd 5980 0fbe
000001e0: 4cd2 ed3d 7433 bc3d 09a7 023e 930d 4c3d
000001f0: e5ee ecbc 6a72 91bc 2126 04be 356d e13d
00000200: bac3 8abd 80b8 9b3c bfda d93b fac1 563d
00000210: 027a 0ebe 10be e0bc 30a6 a33d a780 03be
00000220: 6668 98bd 7c53 c3bd 89f6 14be d42a 2d3e
00000230: f63c 193e 7c48 de3d 3d68 12be 8032 cfba
00000240: b847 023d 42c3 9e3d 64e4 0e3d 253c d9bd
00000250: 5010 d53b 538e 0fbe a0e3 b13d 5701 de3d
00000260: 6026 7bbd 7ecb 19be 3ad4 7c39 fef9 b33d
00000270: d5a3 f3bd 2152 943d 53fa f63d e3ea 13be
00000280: 0784 c63d 0ab5 a23d 718c b6bd cce8 143e
00000290: 9e96 aabd 22ce 063e b1a8 08be 64b7 0b3e
000002a0: 5666 22bd 34ac 1cbe aec9 bb3d 0426 69bc
000002b0: 9d8e 473d 36d6 a33d 1377 9e3c cc99 623d
000002c0: f37d 15be 6f8b 1cbe 40ab a6bd 0b0d babd
000002d0: 8766 24be ae51 d33c c5c9 60bc 243e 1cbd
000002e0: c6fc f0bb 37c8 a73d eba0 83bd 0515 5c3c
000002f0: 873a 66bc 444b ab3d 90f2 96bc d65a 853d
00000300: 6ee3 8abd 6464 093e 80d1 ee3c a205 f23c
00000310: e760 af3d 14b7 2dbe 6c65 9d3d c2a2 113e
00000320: 5c71 d43d cea3 e63d c177 0ebe 4138 1b3e
00000330: 611b 0d3d e668 2ebe 510f 213e 29bc 083e
00000340: 7868 e9bc 9ae9 2d3e 9e7b 483c c989 093e
00000350: fec8 1cbe ef27 2abe 08aa 453d 4c4a 55bb
00000360: 9045 19be 337a cabd 24d4 c63d 8190 e33d
00000370: a485 06be dc96 9ebd 0a7d deba 464a 32bb
00000380: 12ee 01be 4de6 043e 58b0 f7bd dfb2 fb3d
00000390: b9ac e2bd 6838 30be ce36 2a3d e506 aabd
000003a0: 0023 ef3d 6c36 6bbd 807b 873c 23c0 043e
000003b0: ee53 e6bd 830a 92bd a6f6 ec3d 1a9d 153e
000003c0: 204f f73c ac58 083e 2606 d43d d092 c83d
000003d0: 20bf dfbb 01c6 293e 6c88 61bd 61f6 3d3c
000003e0: b6cc 5ebd e46c 50bc c82b d53d 9ae2 073e
000003f0: b26a c83c 373a e33d de5d fe3d ed1e af3d

mean.2.bias f4 [100]
-0.024601717 0.0051557887 -0.012625874 -0.021892367 0.055452634 0.0 -0.005056183 -0.24046242
-0.0022447803 0.112789586 -0.07352327 -0.010381834 -0.021317158 0.16295356 0.0 0.56816435
-0.018149558 0.24928433 -0.021930207 0.040172115 -0.013500139 -0.0013351308 0.0034635072 0.0037098457
0.0053085014 -0.03895976 -0.015428688 0.0 -0.00033929016 0.007588423 0.0065012164 0.035206366
0.01626198 0.0071683666 -0.0065285517 0.0 -0.18690641 0.0 0.035339676 0.72080433
0.021021903 0.00821546 -0.3240418 0.054923717 -0.029286593 0.0 -0.030552072 0.0042845244
0.0 0.09091757 0.0 0.047430165 -0.42816564 0.04437899 0.0 0.28172177
0.011436379 -0.004476345 -0.020703554 0.028160296 -0.03459979 -0.02747699 0.009531058 0.31339428
0.0029097958 0.0036660805 0.0 0.035936654 0.014663746 0.1265868 0.04178954 0.043527514
-0.092105426 0.002185433 -0.03877055 0.0 0.053651813 0.012287089 0.0 0.035051864
0.04699514 0.0014284328 0.1783955 -5.129414e-05 0.016987145 -0.007344287 0.0 -0.030457687
0.0 0.0 0.04590321 0.9273128 0.0 0.1196441 0.038565513 -0.036231026
0.0 0.017095646 0.0 -0.06647376
00000000: 8a89 c9bc e4f1 a83b c1dc 4ebc 9f57 b3bc
00000010: 4d22 633d 0000 0000 56ae a5bb c83b 76be
00000020: 2a1d 13bb 3afe e63d 5e93 96bd 9118 2abc
00000030: 52a1 aebc 4cdd 263e 0000 0000 3873 113f
00000040: 62ae 94bc 6444 7f3e faa6 b3bc 848b 243d
00000050: b02f 5dbc 8eff aeba 02fc 623b e220 733b
00000060: f0f2 ad3b 4594 1fbd 9cc8 7cbc 0000 0000
00000070: c1e2 b1b9 4ea8 f83b 2808 d53b 8d34 103d
00000080: d837 853c 9ee4 ea3b 76ed d5bb 0000 0000
00000090: 6564 3fbe 0000 0000 56c0 103d a286 383f
000000a0: 2036 ac3c 239a 063c cfe8 a5be b1f7 603d
000000b0: 70ea efbc 0000 0000 5748 fabc 3265 8c3b
000000c0: 0000 0000 fe32 ba3d 0000 0000 2246 423d
000000d0: 8738 dbbe bec6 353d 0000 0000 d63d 903e
000000e0: a65f 3b3c 4eae 92bb 809a a9bc 6cb0 e63c
000000f0: 82b8 0dbd 6d17 e1bc 2828 1c3c 3775 a03e
00000100: 46b2 3e3b a042 703b 0000 0000 5032 133d
00000110: 3540 703c f89f 013e 822b 2b3d e849 323d
00000120: c5a1 bcbd 7b39 0f3b decd 1ebd 0000 0000
00000130: 01c2 5b3d c94f 493c 0000 0000 8b92 0f3d
00000140: fa7d 403d 403a bb3a 4fad 363e aa24 57b8
00000150: a028 8b3c 58a8 f0bb 0000 0000 6682 f9bc
00000160: 0000 0000 0000 0000 0105 3c3d 5f64 6d3f
00000170: 0000 0000 f707 f53d dff6 1d3d fc66 14bd
00000180: 0000 0000 2b0c 8c3c 0000 0000 6523 88bd

mean.4.weight f4 [2, 100]
0.12316254 0.19095232 -0.14861181 -0.16893917 -0.032000646 0.19606414 0.17091183 -0.12598231
0.0040281285 -0.15947963 0.21247727 0.103854716 -0.09669559 0.12576438 0.017488569 -0.09847682
-0.25259036 0.15754332 -0.17237335 0.18764251 -0.07098735 0.10478339 0.09772718 0.16232917
-0.11013862 0.119449854 0.057754446 0.0041809827 -0.0039201835 -0.013039008 0.14786857 0.13102356
-0.05896871 -0.0018038059 -0.053086303 -0.087319106 0.10879047 0.22415084 0.15319607 -0.07405034
0.14910533 0.27035144 0.054886505 0.21662031 0.07521171 -0.048552066 0.08107492 0.05917751
0.071246445 -0.047126144 -0.17764205 -0.21510135 -0.16556913 0.16906163 -0.057880864 -0.14899439
0.17529055 -0.2672032 0.043427944 0.26081657 -0.12040574 -0.0028501097 0.27424914 0.22909707
0.17385203 -0.047282938 0.14326859 0.100017786 0.017741641 0.250758 0.07445801 0.16557585
-0.18851493 0.06550779 -0.20882224 0.040527165 0.018560452 0.14702035 0.12899986 -0.10542271
0.21912056 -0.23373134 0.20749457 0.11664994 -0.029375378 0.0764737 0.13365439 -0.16182892
0.15740988 0.072395 0.19753724 0.09910136 0.024218678 0.0684593 0.21224438 -0.17375402
0.1341016 0.13985333 -0.019555077 -0.15866274 0.18291101 0.13989083 -0.04538859 0.039768234
-0.08569662 -0.10929312 0.24116433 0.09683982 0.022859026 0.12842101 0.17660268 0.13186848
0.10665328 -0.19662298 -0.09714337 0.15579894 0.09197664 0.05798082 -0.16787967 -0.1432566
-0.09249176 0.14940335 -0.09515932 0.17393516 -0.16973512 -0.041591402 0.20555246 -0.101785645
0.0064203003 -0.054269418 0.07907423 -0.10909331 -0.21393359 -0.094672374 0.09651223 -0.06289078
-0.18817888 -0.050611243 -0.13649061 0.21475028 -0.039242487 0.07223278 0.24203096 -0.17245243
0.09624878 0.032995492 0.20562106 0.006676799 0.071138084 -0.24971834 0.2326357 -0.19350006
0.18901911 -0.1808799 0.052019805 -0.04483595 0.19040176 -0.18140532 0.20304498 0.18363424
0.07017417 0.22264369 0.16249238 -0.009837946 0.13681014 0.020395314 0.059362113 -0.17089385
-0.07019322 -0.1589838 -0.14833713 -0.16842128 -0.09851845 0.04983812 -0.021847956 0.10915828
0.15280591 -0.07126468 0.17107332 -0.17139117 -0.21229863 0.2265023 0.111104816 0.11724917
-0.23612258 0.17049912 -0.19860327 0.0040068557 -0.122143224 0.091682374 -0.09661853 -0.2962483
-0.218503 -0.19867602 -0.10681608 -0.02032034 -0.0856355 -0.08094781 0.042334735 0.19833021
00000000: a43c fc3d 0189 433e b22d 18be 64fe 2cbe
00000010: 1c13 03bd 0ac5 483e 8303 2f3e 8201 01be
00000020: 64fe 833b a14e 23be a493 593e c8b1 d43d
00000030: 5608 c6bd 61c8 003e 3044 8f3c 37ae c9bd
00000040: 8653 81be 0953 213e a482 30be 5c25 403e
00000050: d161 91bd ad98 d63d 3025 c83d 9e39 263e
00000060: 5b90 e1bd 20a2 f43d ed8f 6c3d a000 893b
00000070: e274 80bb 90a1 55bc dc6a 173e 0a2b 063e
00000080: 2d89 71bd af6d ecba 0671 59bd 5cd4 b2bd
00000090: 8acd de3d cc87 653e 6edf 1c3e b4a7 97bd
000000a0: 11af 183e 816b 8a3e acd0 603d b7d1 5d3e
000000b0: 9908 9a3d 88de 46bd 9c0a a63d 1e64 723d
000000c0: a8e9 913d 5807 41bd cce7 35be 8743 5cbe
000000d0: f48a 29be 7e1e 2d3e 7c14 6dbd fc91 18be
000000e0: 5e7f 333e dcce 88be 80e1 313d c089 853e
000000f0: 4997 f6bd e8c8 3abb 626a 8c3e 6c98 6a3e
00000100: 4406 323e c1ab 41bd 00b5 123e 20d6 cc3d
00000110: eb56 913c 5a63 803e 717d 983d b78c 293e
00000120: 0f0a 41be f328 863d 7fd5 55be d0ff 253d
00000130: 170c 983c 818c 163e 8a18 043e dde7 d7bd
00000140: 2461 603e 4557 6fbe 7579 543e 2ae6 ee3d
00000150: a2a4 f0bc 3e9e 9c3d b2dc 083e 7bb6 25be
00000160: 0e30 213e d443 943d 3447 4a3e a7f5 ca3d
00000170: 4066 c63c 6434 8c3d 9756 593e 93ec 31be
00000180: ee51 093e b635 0f3e f831 a0bc 7c78 22be
00000190: 064d 3b3e 8b3f 0f3e 63e9 39bd 04e4 223d
000001a0: b681 afbd 12d5 dfbd c8f3 763e f553 c63d
000001b0: da42 bb3c cc80 033e 55d7 343e 8808 073e
000001c0: 096d da3d 8957 49be 1af3 c6bd c289 1f3e
000001d0: 405e bc3d 4c7d 6d3d a6e8 2bbe dcb1 12be
000001e0: 526c bdbd 31fd 183e e4e2 c2bd 0f1c 323e
000001f0: 0bcf 2dbe bf5b 2abd 587c 523e fe74 d0bd
00000200: 6261 d23b 9c49 5ebd abf1 a13d 506c dfbd
00000210: 6811 5bbe 97e3 c1bd 34a8 c53d e2cc 80bd
00000220: f7b1 40be bc4d 4fbd 32c4 0bbe 7fe7 5b3e
00000230: bbbc 20bd c8ee 933d f7d6 773e 5f97 30be
00000240: 151e c53d 4826 073d 548e 523e 0dc9 da3b
00000250: d8b0 913d 2ab6 7fbe 0e38 6e3e e124 46be
00000260: 3a8e 413e 9538 39be b812 553d e7a5 37bd
00000270: aef8 423e 51c2 39be 06eb 4f3e 9d0a 3c3e
00000280: 7ab7 8f3d b5fc 633e 6764 263e 562f 21bc
00000290: f517 0c3e 1314 a73c b025 733d ccfe 2ebe
000002a0: 77c1 8fbd a6cc 22be b0e5 17be a176 2cbe
000002b0: 0bc4 c9bd 0e23 4c3d 7cfa b2bc 608e df3d
000002c0: 2779 1c3e 37f3 91bd d82d 2f3e 2b81 2fbe
000002d0: d064 59be 38f0 673e ec8a e33d 5520 f03d
000002e0: 1eca 71be 5297 2e3e a85e 4bbe f14b 833b
000002f0: 3a26 fabd f8c3 bb3d f0df c5bd dbad 97be
00000300: 40bf 5fbe ba71 4bbe 64c2 dabd d776 a6bc
00000310: aa61 afbd f7c7 a5bd 3067 2d3d 1317 4b3e

mean.4.bias f4 [2]
0.1439 -0.14390041
00000000: 865a 133e a15a 13be
