save/exp3/it3_model.pt (torch, 48231 bytes, 7 tensors)

sigma f4 [2]
0	0xbfbb2223	-1.4619793
1	0xbe249384	-0.16071898

mean.0.weight f4 [100, 10]
0	0xbf0ad9f0	-0.54238796
1	0xbd77feb3	-0.060545634
2	0xbe6948e2	-0.22781709
3	0x3e9e2345	0.30886284
4	0xbe4e85b1	-0.20168187
5	0x3dd2bb38	0.102896154
6	0x3dfe4d26	0.12417059
7	0x3dfa7a59	0.12230367
8	0xbe23d376	-0.15998635
9	0xbd90b461	-0.070656545
10	0x3cb4f9b0	0.022091717
11	0xbea1fdee	-0.31639045
12	0xbea9ebb8	-0.33187652
13	0x3f06288c	0.5240562
14	0xbd344bd2	-0.04401762
15	0x3e01379b	0.12618868
16	0xbe09103f	-0.13385104
17	0x3e1e023f	0.15430544
18	0x3e501c79	0.20323361
19	0x3d919d7d	0.07110117
20	0xbdddac49	-0.108238764
21	0xbe61e2ea	-0.22059217
22	0xbd56cb77	-0.052440133
23	0xbeba2795	-0.36358324
24	0x3e800640	0.25004768
25	0xbebf7c07	-0.37399313
26	0x3be27ab9	0.0069116023
27	0xbd8dd7fc	-0.069259614
28	0x3ddd3016	0.10800187
29	0x3d0222db	0.031771522
30	0xbe66bea4	-0.22533661
31	0x3e355ee6	0.17711982
32	0xbdc36770	-0.095412135
33	0xbeb84a5d	-0.35994235
34	0x3e84f169	0.2596543
35	0x3d0350e2	0.032059558
36	0xbd1878aa	-0.03722445
37	0x3e94ee50	0.29088068
38	0xbe726b8a	-0.23673835
39	0xbc63c98f	-0.013903036
40	0x3e2c30c7	0.16815482
41	0xbc25b0e9	-0.010112979
42	0x3d2b6e89	0.04185346
43	0xbddfb8ac	-0.10923895
44	0xbba78bbd	-0.0051130936
45	0xbe51fc2c	-0.20506352
46	0xbd3ffc0f	-0.04687124
47	0xbe82c2ea	-0.25539333
48	0x3e29015b	0.16504423
49	0x3db6bcc2	0.089227214
50	0xbe25fd85	-0.16209991
51	0xbcb39330	-0.02192077
52	0x3d0ba85e	0.034096114
53	0x3cb4368a	0.021998663
54	0xbe0730fb	-0.13202278
55	0x3e3798a7	0.17929326
56	0x3e8a96bd	0.2706813
57	0x3e84c663	0.25932607
58	0xbe343e1d	-0.1760182
59	0x3e8e592a	0.27802402
60	0xbd843e1c	-0.06457159
61	0x3e37e214	0.17957336
62	0x3e284cd4	0.16435558
63	0x3f0b602e	0.54443634
64	0xbdd60902	-0.10450937
65	0x3defe372	0.117133036
66	0xbef3b31c	-0.47597587
67	0xbe70879f	-0.23489235
68	0xbea3e791	-0.3201261
69	0xbd006e64	-0.031355277
70	0xbcacc4cf	-0.02108994
71	0x3e671829	0.2256781
72	0xbe04461d	-0.12917371
73	0x3d66e8e9	0.056374464
74	0x3e8393d6	0.25698727
75	0x3e32e0ec	0.17468613
76	0x3b45fff7	0.0030212381
77	0x3e8ab927	0.27094385
78	0x3e8eaa72	0.27864414
79	0xbe222e62	-0.15838006
80	0x3bde371a	0.006781471
81	0x3da0e4ff	0.078561775
82	0xbe76f14f	-0.2411549
83	0xbe1edd28	-0.15514052
84	0xbd337ee6	-0.04382219
85	0xbdeca8dc	-0.11555645
86	0x3d8eb89f	0.069688074
87	0xbd0e5879	-0.034752343
88	0x3beeda11	0.007289179
89	0x3e2206ba	0.15822878
90	0x3b5ac276	0.0033380068
91	0x3e09a1a5	0.13440569
92	0x3e6c78a1	0.23092891
93	0xbe1e9110	-0.15485024
94	0xbe8cb4dc	-0.27481735
95	0xbe4c21c5	-0.19934757
96	0xbe4056fb	-0.1878318
97	0xbd8d56c6	-0.06901316
98	0xbc51fa35	-0.012816002
99	0xbd17e205	-0.037080783
100	0xbe90fa0c	-0.2831577
101	0x3d928543	0.07154324
102	0xbe8a4884	-0.2700845
103	0x3e45cb08	0.19315732
104	0xbeb570b6	-0.35437554
105	0xbebf1dfe	-0.3732757
106	0x3daf3308	0.08554655
107	0xbe4bf88f	-0.19919036
108	0x3ece11e4	0.40248024
109	0xba97815c	-0.0011558938
110	0x3e379e85	0.17931564
111	0xbe73396f	-0.23752378
112	0x3e1ff025	0.15618952
113	0x3e30188f	0.17196868
114	0xbe08fe1b	-0.13378184
115	0x3e6c4008	0.23071301
116	0x3e6a5671	0.22884537
117	0xbb8694d6	-0.004107098
118	0x3dd472b8	0.10373443
119	0x3c273ec2	0.010207834
120	0xbea0e963	-0.3142806
121	0x3e3ff0e3	0.18744235
122	0xbd738cde	-0.059460513
123	0xbe98a428	-0.2981274
124	0x3eda1a1d	0.42598048
125	0xbe3e8ba6	-0.18607959
126	0x3e94d4df	0.29068658
127	0x3e84e806	0.2595827
128	0x3c1ac633	0.009446668
129	0xbf0ea158	-0.5571494
130	0x3d3cc6bf	0.046087977
131	0x3e07037b	0.13184921
132	0x3e1be680	0.15224648
133	0x3d91fb1a	0.07127972
134	0x3e5549ba	0.20828906
135	0xbe37e64b	-0.17958944
136	0xbda56f31	-0.08077849
137	0x3dae21bc	0.08502528
138	0x3da623b4	0.081122786
139	0x3d4dd92b	0.050255936
140	0xbe0d9e8c	-0.13830012
141	0xbd73ff30	-0.059569538
142	0x3e24f5dc	0.16109413
143	0x3ce5a915	0.028034726
144	0x3e9d0473	0.30667457
145	0xbd52b6a4	-0.05144371
146	0xbe66a230	-0.22522807
147	0xbce4cea2	-0.027930561
148	0x3c8cdd27	0.017195297
149	0x3db606c6	0.08888011
150	0x3ee19dcb	0.440657
151	0xbee01651	-0.43767026
152	0xbecd09df	-0.40046594
153	0x3d92bfd3	0.07165494
154	0x3e31d8d9	0.17367877
155	0x3f5270f4	0.822036
156	0xbd75a931	-0.059975807
157	0x3e73f280	0.23822975
158	0xbe410443	-0.18849282
159	0xbd628d15	-0.055310328
160	0x3c08c3fb	0.008347507
161	0x3f28dfa9	0.6596628
162	0xbedfdd70	-0.4372363
163	0xbe7da034	-0.24768144
164	0x3eed724a	0.46376258
165	0xbebd27f7	-0.36944553
166	0xbe3f0c9b	-0.18657152
167	0x3cbfac1a	0.023397494
168	0x3f01c47c	0.50690436
169	0xbecc03cb	-0.39846644
170	0x3d5d2539	0.053990576
171	0xbc1d45d1	-0.009599165
172	0xbd711977	-0.058862176
173	0xbd5db6bf	-0.05412936
174	0xbee5bbbb	-0.4486979
175	0x3e3a47df	0.18191479
176	0x3ecf2196	0.40455312
177	0x3dc6f8b9	0.09715409
178	0x3aae7109	0.0013308834
179	0x3ea120b2	0.31470257
180	0xbe28e555	-0.16493733
181	0xbd5930e6	-0.05302515
182	0xbe0c87cd	-0.13723679
183	0xbe0b5fb0	-0.1361072
184	0xbe215705	-0.15755852
185	0x3de8e4f8	0.11371797
186	0x3dd3b73f	0.10337686
187	0xbe1c8f3d	-0.15289016
188	0x3dfb0341	0.1225648
189	0x3cd34445	0.02578939
190	0x3e1d8feb	0.15386932
191	0xbe0afdd7	-0.13573395
192	0x3ec108e1	0.37702087
193	0xbe050121	-0.12988712
194	0x3dc7e30d	0.097601034
195	0x3e82ba55	0.25532785
196	0xbe9ee2ae	-0.31032318
197	0xbe998694	-0.29985487
198	0x3d3f7837	0.046745505
199	0x3e1030de	0.14081141
200	0xbebc5728	-0.36785245
201	0xbe5acc6b	-0.21367042
202	0xbea00c2d	-0.3125929
203	0x3e634a76	0.22196373
204	0xbe659d5f	-0.22423314
205	0x3e5b43c5	0.21412571
206	0x3e95d0df	0.29260918
207	0xbe0a288b	-0.13492028
208	0x3da5b72b	0.08091577
209	0xbdb6099b	-0.08888551
210	0xbe878697	-0.2646987
211	0xbef75adb	-0.48311505
212	0x3ed4903b	0.4151629
213	0x3df28b8e	0.11843024
214	0x3f5f6288	0.8725972
215	0x3e5d1199	0.21588744
216	0xbece315e	-0.4027204
217	0x3d9b74e7	0.07590657
218	0xbe9affa3	-0.3027316
219	0xbd6e3da7	-0.058164265
220	0xbec146f6	-0.3774945
221	0xbdd26ff3	-0.10275259
222	0x3f1fd12e	0.6242856
223	0x3d18eebc	0.03733705
224	0xbedf330c	-0.43593633
225	0xbec29897	-0.38007042
226	0x3e53fcc4	0.20701891
227	0x3d85049a	0.06495018
228	0xbefe25ea	-0.496383
229	0x3ea9a8ff	0.33136746
230	0xbdef7d8a	-0.116938666
231	0x3e0995f4	0.13436109
232	0x3e88df19	0.2673271
233	0x3e666749	0.22500338
234	0xbdc71a5f	-0.09721827
235	0x3e39294b	0.18082158
236	0xbc9530ed	-0.018211806
237	0xbda5f5fd	-0.08103559
238	0x3e80ff82	0.25194937
239	0xbe385437	-0.18000875
240	0xbe50007f	-0.20312689
241	0xbe4c74c3	-0.19966416
242	0x3d287199	0.04112396
243	0xbac6272c	-0.0015117875
244	0x3cbcc4a9	0.023042994
245	0xbe5b6055	-0.21423467
246	0xbec3cd09	-0.38242367
247	0x3e48cc8f	0.19609283
248	0xbe8261f2	-0.2546535
249	0x3de20342	0.11035778
250	0x3dae9386	0.085242316
251	0xbe08cccb	-0.13359372
252	0x3e41878d	0.18899365
253	0x3d5899ac	0.052880928
254	0x3e4c96ea	0.19979444
255	0xbd864b53	-0.06557336

mean.0.bias f4 [100]
0	0x3e1dd3e9	0.15412869
1	0x3caebefd	0.021331305
2	0xbe2eec0d	-0.17082234
3	0xbc1fb5cb	-0.009747933
4	0x3db93763	0.09043767
5	0x3dde11e4	0.10843256
6	0xbd3ac815	-0.04560097
7	0xbdef48eb	-0.1168383
8	0x3d0b87ac	0.034064934
9	0x3d7d7d91	0.061887328
10	0xbe9019b8	-0.28144622
11	0xbce34c75	-0.027746418
12	0xbdfbab39	-0.122885175
13	0xbd3fd336	-0.046832286
14	0x3d137f57	0.036010113
15	0xbe4143c6	-0.1887351
16	0xbe430b63	-0.19047312
17	0x3b218430	0.002464544
18	0xbd9aaf6c	-0.0755299
19	0xbe7f9eda	-0.24962941
20	0x3e901078	0.28137565
21	0x3e266a69	0.1625153
22	0x3e1f4d70	0.15556884
23	0xbd063122	-0.0327617
24	0x3d360edf	0.044447776
25	0x3d19705d	0.037460674
26	0x3d1c7184	0.038194194
27	0xbe06d103	-0.13165669
28	0xbecb38cb	-0.39691767
29	0x3d92bbb0	0.07164705
30	0x3b29f64f	0.0025934165
31	0x3d117b16	0.035517775
32	0x3e57b4bb	0.21065037
33	0x3ce3a2fe	0.027787682
34	0x3d4e3073	0.050339174
35	0x3d48e99d	0.049050916
36	0x3e83eaf1	0.25765184
37	0x3d6fee51	0.058576886
38	0x3d0ca290	0.03433472
39	0x3d506e15	0.050886232
40	0xbd0d44d7	-0.03448948
41	0xbe1dbe9f	-0.15404747
42	0xbd36a9ef	-0.044595655
43	0x3c59a85e	0.013284771
44	0x3d5d5120	0.054032445
45	0x3e8ff20a	0.2811435
46	0x3e203ec7	0.15648948
47	0xbd7cd8ea	-0.061730303
48	0x3dc297ae	0.09501587
49	0xbce7a5d7	-0.02827732
50	0x3d71ea05	0.05906107
51	0x3d98cd88	0.07461077
52	0x3e218e73	0.15776996
53	0x3dd3c8ab	0.10341009
54	0xbe5db429	-0.21650757
55	0xbdebfa7f	-0.11522388
56	0xbe63ac33	-0.22233658
57	0xbd9964ab	-0.07489904
58	0x3d4eab41	0.05045629
59	0xbdace49d	-0.08442042
60	0x3e349663	0.17635493
61	0xbe00ee6e	-0.12590954
62	0xbd8cc58c	-0.068736166
63	0x3ddc2dfc	0.10750958
64	0xbdf0d6de	-0.11759733
65	0xbe413a6c	-0.18869942
66	0xbdd1616a	-0.102236584
67	0x3d786aa1	0.060648564
68	0x3e73fc5f	0.2382674
69	0x3d7c494f	0.06159335
70	0x3c36b6df	0.011151998
71	0xbc2d1fc1	-0.010566653
72	0x3d81f353	0.063452385
73	0xbddccfce	-0.10781823
74	0xbe6ca2bc	-0.23108953
75	0x3d54cd94	0.051953867
76	0x3dde9475	0.1086816
77	0x3c857157	0.016289396
78	0x3d25949a	0.04042492
79	0x3d641292	0.055681773
80	0xbe36703b	-0.1781625
81	0xbddb1cca	-0.106988505
82	0x3e9405fe	0.28910822
83	0x3e17d4fc	0.14827341
84	0x3da99fe1	0.082824476
85	0x3e0939a9	0.13400902
86	0x3d4c9c2d	0.04995363
87	0xbde71e06	-0.112850234
88	0x3ccfeb16	0.025380652
89	0x3dbfceea	0.093656376
90	0xbd9422f2	-0.07233228
91	0xbc8c0149	-0.017090457
92	0xbd3f826e	-0.046755247
93	0x3da3ea67	0.08003693
94	0xbb82464f	-0.0039756666
95	0x3e6b745b	0.22993605
96	0x3c099ecf	0.008399679
97	0x3cfe8896	0.031070989
98	0x3c4f47d7	0.012651405
99	0x3dd4cd92	0.10390772

mean.2.weight f4 [100, 100]
0	0xbdb6371d	-0.08897231
1	0xbdf6fbea	-0.120597675
2	0xbe2edce5	-0.17076452
3	0x3dd0e905	0.10200695
4	0x3d9de470	0.077095866
5	0xbd2b1bcb	-0.041774552
6	0x3e119215	0.14215882
7	0xbe00a0f2	-0.12561396
8	0xbce55d16	-0.027998488
9	0xbb931936	-0.0044890894
10	0x3d8d8d11	0.06911672
11	0x3e11c968	0.14236987
12	0xbdc8c6ab	-0.09803518
13	0x3e3024f3	0.17201595
14	0x3e292d53	0.16521196
15	0x3d3e84d7	0.046513405
16	0xbde934d2	-0.11387028
17	0x3d65d58a	0.05611185
18	0x3d13bdd2	0.0360697
19	0xbd85b223	-0.065281175
20	0x3e29dabb	0.16587345
21	0xbe0e35dd	-0.13887735
22	0xbd7904f5	-0.060795743
23	0xbd88cea6	-0.0668004
24	0xbd44ba59	-0.048029277
25	0x3e0359ef	0.12827276
26	0xbc0a6901	-0.008447886
27	0x3cbfc7f2	0.023410771
28	0xbe1e4b92	-0.15458515
29	0xbdeec500	-0.116586685
30	0x3dded1a7	0.10879832
31	0xbd58b313	-0.052905153
32	0x3d7fd1f3	0.062456083
33	0xbe0a71e0	-0.13520002
34	0xbdc97516	-0.098367855
35	0x3da98553	0.08277383
36	0x3dfa38d2	0.12217869
37	0x3c254c72	0.010089027
38	0xbe208487	-0.15675555
39	0xbddf6db6	-0.109095976
40	0xbd811a3a	-0.063038304
41	0x3da17b62	0.078848615
42	0xbe113fab	-0.14184444
43	0xbde27e51	-0.11059249
44	0xbe30e464	-0.17274624
45	0xbdfab31f	-0.12241196
46	0x3e0057e7	0.12533532
47	0xbd8456ce	-0.06461869
48	0xbd27636b	-0.040866297
49	0x3baee200	0.005337
50	0xbd0e5fea	-0.03475944
51	0xbd6f0235	-0.058351714
52	0xbba31e14	-0.004977951
53	0xbdb10c3d	-0.086449124
54	0x3de0857f	0.10962962
55	0xbbdd9e8d	-0.0067632855
56	0x3d9d9b2a	0.07695611
57	0x3ca665ec	0.020312272
58	0x3e04fb8e	0.12986585
59	0x3daa50b5	0.08316175
60	0xbdb5cfbb	-0.08877512
61	0xbd24f69a	-0.04027424
62	0x3d23deaa	0.04000727
63	0xbd805ea4	-0.06268051
64	0xbdf71438	-0.12064403
65	0x3e139f84	0.14416319
66	0x3dee2edf	0.11630034
67	0xbdb11298	-0.086461246
68	0x3d25a4c8	0.04044035
69	0x3e00bb60	0.12571478
70	0xbdd6138f	-0.10452949
71	0xbcf5b884	-0.02999521
72	0xbe12f628	-0.14351714
73	0xbe2225df	-0.15834759
74	0x3e0ce204	0.13758093
75	0x3d73d4f7	0.05952927
76	0xbdeb1d9f	-0.11480259
77	0xbc5956d6	-0.013265332
78	0xbda6604d	-0.08123837
79	0xbcfc0eab	-0.030768713
80	0xbd199aa1	-0.03750098
81	0x3d5fa71c	0.054602727
82	0x3cecaebe	0.028891917
83	0xbdf0939e	-0.11746906
84	0x3db1aa41	0.086750515
85	0x3c51aa5b	0.012796964
86	0xbdb99805	-0.090621985
87	0xbdcc772f	-0.0998367
88	0xbb6c5ef8	-0.0036067348
89	0x3d777601	0.06041527
90	0xbe23c82d	-0.1599433
91	0xbd250111	-0.04028422
92	0xbe003e1d	-0.12523694
93	0xbe2597de	-0.16171214
94	0x3dbed885	0.093186416
95	0xbd6ed578	-0.05830905
96	0xbe294517	-0.16530262
97	0xbd4e1c8c	-0.050320193
98	0xbdc401bc	-0.09570643
99	0x3dc0d138	0.09414905
100	0xbcc27a5c	-0.023739986
101	0xbdd6a348	-0.10480362
102	0xbda426d8	-0.08015221
103	0xbd02ebcf	-0.031963166
104	0x3e0497db	0.12948553
105	0x3c580f31	0.013187216
106	0xbe296602	-0.16542819
107	0xbd516b08	-0.051127464
108	0x3e22518c	0.1585142
109	0xbe19329f	-0.14960717
110	0xbda20687	-0.07911401
111	0x3e056832	0.13028029
112	0xbd7366ae	-0.059424095
113	0x3e02c9fb	0.12772362
114	0xbdeb0db6	-0.114772245
115	0x3ddb6bad	0.10713897
116	0x3e139ffe	0.14416501
117	0xbd0cd229	-0.03438011
118	0xbe1dd568	-0.1541344
119	0xbd8944ca	-0.067025736
120	0x3d480990	0.048837245
121	0xbd917943	-0.07103207
122	0xbdf74199	-0.12073059
123	0xbe2fa0bb	-0.17151158
124	0x3da3bd03	0.079950355
125	0x3df30719	0.11866588
126	0xbd445f94	-0.047942713
127	0x3cf9136c	0.030404769
128	0xbe00ed36	-0.12590489
129	0x3dcf1fe8	0.101135075
130	0xbdf2d8df	-0.11857771
131	0xbdc9af3b	-0.09847876
132	0xbd9877fa	-0.07444759
133	0xbd4e1998	-0.050317377
134	0x3cf0864e	0.029360916
135	0xbe47060f	-0.19435905
136	0xbd828f56	-0.063749954
137	0xbdbe8fc2	-0.093047634
138	0xbd205188	-0.039140254
139	0xbc8b350d	-0.01699307
140	0xbad03e53	-0.0015887715
141	0x3d96bc5e	0.07360147
142	0xbded4d4a	-0.11587007
143	0x3b4209e6	0.002960795
144	0x3e04b0d7	0.12958084
145	0xbc1880a9	-0.009308019
146	0xbe07c705	-0.13259514
147	0x3df53383	0.11972716
148	0xbe18e69d	-0.14931722
149	0x3d8077f1	0.06272877
150	0x3e08e67b	0.13369171
151	0x3d07c018	0.03314218
152	0x3dc7605b	0.09735175
153	0x3dfa21ef	0.122135036
154	0x3d8a2989	0.067462035
155	0xbd8619a6	-0.06547861
156	0x3d34fa45	0.044183988
157	0x3e0f491d	0.13992734
158	0x3ce1f76a	0.027583797
159	0xbe071fc6	-0.13195714
160	0x3e21a9af	0.15787385
161	0x3e257a1c	0.16159862
162	0x3dd5d361	0.10440708
163	0x3ddbd604	0.107341796
164	0x3db5553f	0.0885415
165	0xbdbb2a6d	-0.091389515
166	0xbd92911b	-0.07156583
167	0x3da4e446	0.08051352
168	0x3d1d0a7b	0.038340073
169	0x3db02fe6	0.08602886
170	0xbc170172	-0.009216653
171	0xbe1a72b5	-0.1508282
172	0x3db2c3e4	0.087287694
173	0xbde40da6	-0.11135416
174	0xbe0de8da	-0.13858357
175	0x3e25eb6e	0.1620309
176	0x3d9b931d	0.07596419
177	0x3d9270b3	0.07150402
178	0xbda68b4f	-0.0813204
179	0x3d7f399f	0.06231081
180	0x3beed7f1	0.007288926
181	0x3e0477e6	0.12936363
182	0x3d09f1ed	0.033677984
183	0x3e0d1418	0.13777196
184	0xbd67a4e6	-0.056553744
185	0x3e22e581	0.15907861
186	0x3e1e07df	0.1543269
187	0x3d058dda	0.032605983
188	0xbe130942	-0.14359
189	0xbb726d00	-0.0036991239
190	0x3e0ec303	0.13941579
191	0xbdecea57	-0.11568134
192	0xbd8159bb	-0.06315943
193	0x3d684ba8	0.056712776
194	0x3d0cabba	0.03434346
195	0x3e24368b	0.16036431
196	0x3d00227f	0.031282898
197	0xbb8862ac	-0.004162153
198	0x3cb6c141	0.022308948
199	0xbd46eb63	-0.048564326
200	0xbe1f7dce	-0.15575334
201	0xbd4a80e9	-0.049439345
202	0xbe109902	-0.14120868
203	0x3e0beab2	0.13663748
204	0x3c488ee1	0.012241096
205	0xbafcce87	-0.0019287624
206	0xbc8dd68d	-0.01731422
207	0xbdf277fb	-0.11839291
208	0xbdf9dc34	-0.122002035
209	0xbc7cd5af	-0.0154318055
210	0x3d8b8c74	0.06813899
211	0xbddcca59	-0.10780782
212	0xbdf76e2f	-0.12081563
213	0x3df2c8d6	0.11854713
214	0xbd650c22	-0.055919774
215	0x3d8d4bac	0.06899199
216	0x3e18cb04	0.14921194
217	0x3e0bb103	0.13641743
218	0xbe09490e	-0.13406774
219	0x3b995ec5	0.004680487
220	0xbe0ff0de	-0.14056727
221	0x3c64a846	0.013956135
222	0x3cc241da	0.023713041
223	0xbdb1baea	-0.08678229
224	0x3da06c06	0.07833104
225	0xbd5d2500	-0.053990364
226	0x3de4bb77	0.111685686
227	0x3bae3865	0.0053167813
228	0x3e06d2c6	0.13166341
229	0x3deaa639	0.11457486
230	0x3d43a5e6	0.047765635
231	0x3d331f4f	0.04373103
232	0xbd9169e6	-0.07100277
233	0xbe0416e2	-0.12899354
234	0x3df1097a	0.11769386
235	0x3df69943	0.12040951
236	0x3c95460b	0.018221876
237	0x3e0a9596	0.13533625
238	0x3da8e2c7	0.08246379
239	0x3e0b522f	0.1360557
240	0xbca8ceea	-0.020606477
241	0xbbdd1048	-0.0067463256
242	0xbe25b458	-0.16182077
243	0xbe2a0549	-0.16603579
244	0x3d62922d	0.055315185
245	0xbdc90b86	-0.09816651
246	0x3e050857	0.12991463
247	0xbe0f63bf	-0.14002894
248	0xbe259cb6	-0.16173062
249	0xbe1149ee	-0.14188358
250	0x3ddf08e2	0.10890366
251	0xbe04a2fb	-0.12952797
252	0xbe152de6	-0.1456829
253	0x3de6f524	0.112772256
254	0xbcfa456f	-0.030550687
255	0xbe2a4927	-0.16629468

mean.2.bias f4 [100]
0	0xbb378b35	-0.0028006558
1	0xbb77187e	-0.0037703807
2	0x3aafbe54	0.0013408163
3	0x3e3e4b85	0.18583496
4	0xbadddd1e	-0.001692686
5	0x3e61ec0b	0.220627
6	0xbdd06a51	-0.10176528
7	0xbd647bfe	-0.05578231
8	0x3d537224	0.051622525
9	0xbbf30aaa	-0.0074170427
10	0xbbd75f89	-0.006572668
11	0x3ced6be9	0.02898212
12	0xbc94737e	-0.018121477
13	0xbc297bbb	-0.010344441
14	0xbd311d6f	-0.04324096
15	0xbd24daff	-0.040247913
16	0x3d43e969	0.04783002
17	0x3d0021f7	0.03128239
18	0x3d4aa221	0.049471024
19	0x3b375d95	0.0027979363
20	0xbd697330	-0.056994617
21	0x3e173e3e	0.14769837
22	0xbdb99aff	-0.09062766
23	0xbd03f490	-0.032215655
24	0x3d6552aa	0.055987038
25	0xbdcdd732	-0.10050811
26	0xbcd2dd4a	-0.025740284
27	0x3d0ab314	0.03386219
28	0x3e0496e4	0.12948185
29	0xbd287615	-0.041128237
30	0x3d21b183	0.03947593
31	0xbd53279b	-0.051551443
32	0xbd80b65b	-0.062847815
33	0x3de521e4	0.11188105
34	0xbb90bf48	-0.0044173338
35	0xbc5f08f3	-0.0136129735
36	0xbd62fe78	-0.05541846
37	0x3d210990	0.03931576
38	0x3e4627e7	0.19351159
39	0xbb8e76b9	-0.004347649
40	0xbc83cb36	-0.01608811
41	0x3dd5936d	0.1042851
42	0x3e23f547	0.16011535
43	0x3dc57eca	0.09643324
44	0x3d89bd58	0.067255676
45	0xbe563c93	-0.20921545
46	0x3e600242	0.21875861
47	0x3e274883	0.16336255
48	0xbbc735a3	-0.006079392
49	0xbd9813c1	-0.07425643
50	0xbb94acd5	-0.0045372047
51	0x3e1d79dd	0.15378518
52	0x3d2e6957	0.04258093
53	0xbd0dfbbe	-0.03466391
54	0x3e064b53	0.13114671
55	0xbdd4191a	-0.1035635
56	0xbca1d26b	-0.019753655
57	0x3d2957b7	0.041343417
58	0x3e4476c1	0.19185926
59	0x3c5d9f60	0.0135267675
60	0x3b92c0e3	0.0044785603
61	0xbd09d605	-0.03365137
62	0xbbb8ce96	-0.0056398613
63	0xbbdd1e29	-0.00674798
64	0xbd738a5e	-0.05945813
65	0xbdf781f3	-0.12085333
66	0x3c146c70	0.009059057
67	0xbd96fb7b	-0.07372185
68	0xbdf7238e	-0.120673284
69	0xbd834321	-0.06409288
70	0x3b31a5fa	0.0027106986
71	0x3ba3e893	0.0050020902
72	0xbd3000fe	-0.042969696
73	0x3d50feb8	0.05102417
74	0xbd22c3e9	-0.039737616
75	0xbb60595e	-0.0034232954
76	0x3ca135d8	0.019678995
77	0xbb1fae09	-0.0024365208
78	0x3deaeb69	0.11470682
79	0xbd97b5ae	-0.074076995
80	0x3caf3a08	0.021389976
81	0x3e246fae	0.16058227
82	0x3df03ec3	0.11730721
83	0x3e2d4ba4	0.16923386
84	0x3ccd9f34	0.025100328
85	0x3ce2bf86	0.027679216
86	0xbc4aa30a	-0.012367973
87	0x3c53a859	0.012918555
88	0xbd2f1b4d	-0.042750645
89	0xbcb58228	-0.02215679
90	0x3b751e9c	0.0037402278
91	0x3d072dcf	0.03300267
92	0x3bd07a4f	0.0063622366
93	0xbd9c39ba	-0.07628198
94	0x3e4211fb	0.18952172
95	0xbe1d45f9	-0.15358724
96	0x3c219ad0	0.00986357
97	0x3e0becae	0.13664505
98	0xbcd693f4	-0.026193596
99	0xbbc38913	-0.0059672683

mean.4.weight f4 [2, 100]
0	0x3e0b105a	0.13580456
1	0x3e2a20b7	0.16614042
2	0xbe31fd93	-0.17381887
3	0x3e97d826	0.29657096
4	0xbda5b0df	-0.08090376
5	0x3ef69030	0.4815688
6	0x3e18824c	0.14893454
7	0xbf3eae8b	-0.7448508
8	0xbe3dc8dc	-0.18533653
9	0x3e520c2d	0.20512457
10	0x3e1ce91e	0.15323302
11	0xbe53c937	-0.20682226
12	0xbd4e19e4	-0.05031766
13	0x3d66303e	0.05619835
14	0xbda06d66	-0.07833366
15	0xbe1ebc82	-0.15501598
16	0xbe7de730	-0.24795222
17	0xba9387b3	-0.0011255651
18	0xbf1928e9	-0.5982805
19	0xbee0278b	-0.4378017
20	0x3e51f1dd	0.2050242
21	0x3ee0e36c	0.4392351
22	0xbf070852	-0.5274707
23	0xbd6dceb0	-0.05805844
24	0xbd128a42	-0.035776384
25	0x3dea3d80	0.114375114
26	0xbe3fd008	-0.18731701
27	0xbe120be5	-0.1426235
28	0x3f35fbe4	0.7108748
29	0x3e07714c	0.13226813
30	0xbd93a19f	-0.07208561
31	0xbeeef591	-0.46671727
32	0x3e6df8ee	0.2323949
33	0xbed7c77a	-0.42144376
34	0x3e5f74cd	0.218219
35	0x3c4475fd	0.011991021
36	0x3e6bcf51	0.23028304
37	0xbd1f0f0d	-0.038832713
38	0x3ed1063d	0.40825072
39	0x3994647c	0.00028303626
40	0x3dcfa6a7	0.10139208
41	0xbeeb3315	-0.4593741
42	0x3ecdb7b6	0.40179223
43	0x3eb6bedb	0.35692486
44	0x3e257e58	0.16161478
45	0xbf0df40b	-0.55450505
46	0x3f105885	0.5638507
47	0xbda80b73	-0.08205309
48	0xbe7cc756	-0.24685416
49	0x3e401467	0.18757783
50	0x3eeb5dbd	0.45969954
51	0x3e52649f	0.20546196
52	0xbe89a359	-0.26882437
53	0x3e4263bf	0.18983363
54	0x3c77347a	0.015088195
55	0x3e282629	0.16420807
56	0x3e437fa0	0.19091654
57	0x3e5921bc	0.21204275
58	0x3f05b732	0.5223266
59	0x3d9e4b80	0.07729244
60	0xbed0e7af	-0.4080176
61	0xbe67d46c	-0.22639626
62	0xbe1ab51b	-0.15108149
63	0x3dc49b97	0.09599989
64	0x3d1f6ee9	0.03892413
65	0x3f37563b	0.7161595
66	0x3ee83249	0.45350865
67	0x3ed1f61a	0.41008073
68	0x3e196159	0.14978541
69	0xbe7690b3	-0.24078636
70	0xbddfaf70	-0.10922134
71	0xbca5fdd0	-0.020262629
72	0xbdb226d1	-0.0869881
73	0xbdcf7a19	-0.1013071
74	0xbc8c4472	-0.017122481
75	0x3da0eb63	0.078573965
76	0x3e0b780b	0.13620012
77	0x3df0e0d2	0.11761631
78	0xbeeb7440	-0.4598713
79	0xbaa3c656	-0.0012495022
80	0x3e9ae3f3	0.30252036
81	0x3eccff5b	0.4003857
82	0x3ee0ffbf	0.4394512
83	0x3f012b6f	0.504569
84	0xbe0f8c9e	-0.14018485
85	0xbeb47b48	-0.35250306
86	0x3dfcc713	0.12342658
87	0x3c6dc29c	0.0145117305
88	0xbe510556	-0.20412192
89	0xbebb7460	-0.36612225
90	0xbceaceae	-0.028663006
91	0xbe073a50	-0.13205838
92	0x3e509a49	0.20371355
93	0xbdfc34d1	-0.123147614
94	0x3e7173e3	0.23579364
95	0x3d9752ac	0.07388815
96	0xbea6499d	-0.32478037
97	0x3de1e938	0.11030811
98	0x3caafa97	0.020871444
99	0xbd27a867	-0.040932085
100	0x3dece48f	0.115670316
101	0x3d60d25b	0.05488811
102	0x3dfbb8fc	0.12291142
103	0xbe16bb6b	-0.14719932
104	0x3e3c7707	0.1840478
105	0xbec4e681	-0.3845711
106	0xbe3f7585	-0.18697174
107	0x3f11b30d	0.56913835
108	0x3e8dbc44	0.27682698
109	0x3e89ec59	0.2693813
110	0xbd7df1ec	-0.061998293
111	0x3ea61d01	0.32444003
112	0x3c514975	0.012773861
113	0xbd9435cb	-0.07236823
114	0xbda1be35	-0.07897607
115	0x3c43903e	0.0119362455
116	0x3cffa419	0.031206178
117	0x3dc2b7b5	0.095076956
118	0x3f2b35e4	0.66879106
119	0x3e23c02f	0.15991281
120	0xbd370918	-0.044686407
121	0xbe22334f	-0.15839885
122	0x3f073d18	0.52827597
123	0x3d4375e3	0.047719847
124	0xbe62a7df	-0.2213435
125	0xbe0c6a87	-0.13712512
126	0xbe4788e1	-0.19485809
127	0xbe6379c7	-0.22214423
128	0xbf51df89	-0.8198171
129	0xbe5d24da	-0.21596089
130	0x3e4398f2	0.19101313
131	0x3f222d14	0.63350034
132	0xbd8fa084	-0.07013038
133	0x3f1a155e	0.60188854
134	0x3df64661	0.120251425
135	0x3dc4be54	0.09606615
136	0x3dcbc421	0.09949518
137	0xbe1730f3	-0.14764766
138	0xbea5e177	-0.3239858
139	0xbe1d71e7	-0.15375482
140	0xbe4a95ef	-0.19783758
141	0x3e3f8798	0.18704069
142	0xbec6efcc	-0.38854825
143	0xbf223f63	-0.6337797
144	0xbee5b0d5	-0.44861475
145	0x3f2d1481	0.6760941
146	0xbec1d881	-0.37860492
147	0x3e6f2f40	0.23357868
148	0x3ebb6e05	0.36607376
149	0x3e002225	0.12513025
150	0xbef16621	-0.4714823
151	0xbe8b1554	-0.2716471
152	0x3e9251a3	0.2857791
153	0xbd693fd9	-0.056945655
154	0xbe8f3ac9	-0.27974537
155	0x3e8fa35b	0.28054318
156	0x3dbb9a41	0.09160281
157	0x3d3dabfb	0.04630659
158	0xbf0a0a1d	-0.5392168
159	0xbcc1455c	-0.023592643
160	0x3eb35c5e	0.35031408
161	0x3e8453dd	0.25845233
162	0xbd86e92d	-0.065874435
163	0xbc06cfe3	-0.008228275
164	0xbe0732e0	-0.13203001
165	0xbf20842a	-0.62701666
166	0xbee45876	-0.4459874
167	0x3c298916	0.010347625
168	0xbe8bd3ba	-0.27309972
169	0x3e0f8f5d	0.14019533
170	0x3db3345e	0.087502226
171	0xbc1935a1	-0.009351165
172	0x3d6a8f7e	0.05726575
173	0xbe5ce2f1	-0.21570946
174	0x3da2cf65	0.079497136
175	0x3e64a83e	0.22329804
176	0xbeb2f9f4	-0.34956324
177	0x3e604514	0.21901351
178	0x3e80d381	0.25161365
179	0x3d5a138a	0.05324129
180	0xbe51f76d	-0.20504542
181	0xbe93bf4f	-0.28856894
182	0xbe2c1696	-0.16805491
183	0xbeca08a8	-0.3945973
184	0xbe9be406	-0.30447406
185	0x3de7dfdd	0.113219954
186	0x3e782a71	0.2423494
187	0xbe90e173	-0.28297004
188	0x3f1bad91	0.60811716
189	0x3e741d5c	0.23839325
190	0xbdead312	-0.1146604
191	0x3e1b59c2	0.15170959
192	0x3ddd8705	0.108167686
193	0xbe925e8f	-0.28587767
194	0xbef18379	-0.47170618
195	0xbe5d9eb2	-0.21642569
196	0x3e9d69a4	0.3074466
197	0xbeb57c27	-0.35446283
198	0x3e845efb	0.25853714
199	0x3e60c994	0.21951896

mean.4.bias f4 [2]
0	0x3e9a1f97	0.30102226
1	0xbe9a1f7e	-0.30102152
